results/offense_run_1/OffensiveRL/checkpoint.pt (torch, 482549 bytes, 41 tensors)

network_body.observation_encoder.processors.0.normalizer.running_mean f4 [16]
0	0xbec5cf75	-0.3863484
1	0x3c083fe5	0.008316015
2	0x3ddb22e0	0.10700011
3	0x3f75b3d4	0.9597752
4	0x3f5c7ff5	0.86132747
5	0x3f78f783	0.9725267
6	0x4010275c	2.2524023
7	0xbeb1c8ea	-0.34723598
8	0x3c083fe5	0.008316015
9	0x3dc88783	0.09791472
10	0x3f5c6df0	0.8610525
11	0x3e4ceca0	0.2001214
12	0x3ef77069	0.4832795
13	0x3da01f4f	0.07818472
14	0x00000000	0.0
15	0xb9fff7ae	-0.00048821926

network_body.observation_encoder.processors.0.normalizer.running_variance f4 [16]
0	0x4907b3e3	555838.2
1	0x3f895007	1.0727547
2	0x483544d4	185619.31
3	0x4613a1d4	9448.457
4	0x48ea6997	480076.72
5	0x48dcb4ba	452005.8
6	0x49f23701	1.9842241e+06
7	0x48e7254c	473386.38
8	0x3f895007	1.0727547
9	0x48052c34	136368.81
10	0x46c69c1e	25422.059
11	0x479c5327	80038.305
12	0x4810d59d	148310.45
13	0x48859114	273544.62
14	0x3f800000	1.0
15	0x485937e0	222431.5

network_body.processors.0.normalizer.running_mean f4 [16]
0	0xbec5cf75	-0.3863484
1	0x3c083fe5	0.008316015
2	0x3ddb22e0	0.10700011
3	0x3f75b3d4	0.9597752
4	0x3f5c7ff5	0.86132747
5	0x3f78f783	0.9725267
6	0x4010275c	2.2524023
7	0xbeb1c8ea	-0.34723598
8	0x3c083fe5	0.008316015
9	0x3dc88783	0.09791472
10	0x3f5c6df0	0.8610525
11	0x3e4ceca0	0.2001214
12	0x3ef77069	0.4832795
13	0x3da01f4f	0.07818472
14	0x00000000	0.0
15	0xb9fff7ae	-0.00048821926

network_body.processors.0.normalizer.running_variance f4 [16]
0	0x4907b3e3	555838.2
1	0x3f895007	1.0727547
2	0x483544d4	185619.31
3	0x4613a1d4	9448.457
4	0x48ea6997	480076.72
5	0x48dcb4ba	452005.8
6	0x49f23701	1.9842241e+06
7	0x48e7254c	473386.38
8	0x3f895007	1.0727547
9	0x48052c34	136368.81
10	0x46c69c1e	25422.059
11	0x479c5327	80038.305
12	0x4810d59d	148310.45
13	0x48859114	273544.62
14	0x3f800000	1.0
15	0x485937e0	222431.5

network_body._body_endoder.seq_layers.0.weight f4 [128, 16]
0	0xbee67d25	-0.45017353
1	0xbe6a4816	-0.22879061
2	0x3cb3cf33	0.021949386
3	0x3eb9a353	0.3625742
4	0xbe897b03	-0.26851663
5	0xbebd019e	-0.36915296
6	0x3e7b9ba9	0.24571098
7	0xbe12a19a	-0.14319459
8	0x3e88ea7d	0.267414
9	0xbec880e8	-0.39160848
10	0xbd28e290	-0.04123169
11	0xbea80a14	-0.3282019
12	0xbdeb6a95	-0.11494938
13	0xbf4e55d3	-0.8059971
14	0xbe022831	-0.12710644
15	0xbe4eca3c	-0.20194334
16	0xbe9ad088	-0.30237222
17	0x3d7abd54	0.061215714
18	0x3e3744cc	0.17897338
19	0x3c255d42	0.010093035
20	0x3e8477a3	0.25872526
21	0x3ec270ca	0.37976676
22	0x3e6029d4	0.21890956
23	0xbe9195b8	-0.2843454
24	0x3eb24668	0.3481934
25	0x3f226922	0.6344167
26	0xbe1c8c95	-0.15288003
27	0x3c7b9df4	0.015357483
28	0x3e702984	0.23453337
29	0x3e687ec9	0.22704615
30	0x3eced025	0.40393177
31	0xbe89a2df	-0.26882073
32	0x3e097c62	0.13426355
33	0x3ed13223	0.40858564
34	0xbe91dff6	-0.2849118
35	0xbd524a1f	-0.05134022
36	0x3d083855	0.033256847
37	0x3eb2870a	0.34868652
38	0x3e08e5f0	0.13368964
39	0xbc0021c0	-0.007820547
40	0x3ce84000	0.02835083
41	0xbed49744	-0.41521657
42	0x3d90f603	0.07078173
43	0xbd085120	-0.03328049
44	0xbea6677f	-0.32500836
45	0xbe110c1f	-0.1416478
46	0xbe107a1f	-0.14109086
47	0x3d251224	0.040300503
48	0xbeae9de2	-0.3410483
49	0x3d7f51c4	0.062333837
50	0xbe840b9f	-0.25790116
51	0x3e4cf1f2	0.2001417
52	0xbd812a32	-0.06306876
53	0xbe16203b	-0.14660732
54	0xbe8fafa1	-0.28063682
55	0xbe15fac1	-0.14646436
56	0xbde488af	-0.11158883
57	0xbf38d470	-0.72199154
58	0xbd836b14	-0.06416908
59	0xbdaff193	-0.085909985
60	0x3eb1502a	0.34631473
61	0xbea1c3b5	-0.31594625
62	0xbe750112	-0.2392619
63	0x3f4b3430	0.79376507
64	0x3e5fb645	0.21846874
65	0xbeb3f11c	-0.3514489
66	0xbe086229	-0.13318695
67	0xbda72152	-0.08160652
68	0xbe471f4b	-0.19445531
69	0x3e29f89b	0.16598742
70	0x3e5c3941	0.21506216
71	0x3dfba7a3	0.122878335
72	0xbe7a6214	-0.24451476
73	0x3ea711cf	0.32630774
74	0xbdac87b0	-0.08424318
75	0x3e354a7f	0.17704199
76	0xbe6ea485	-0.23304947
77	0xbe60b028	-0.21942198
78	0x3e8fc3b5	0.28079
79	0x3e193328	0.14960921
80	0x3e3bc0c8	0.18335259
81	0x3eae2c4d	0.34018174
82	0xbede75c5	-0.43449226
83	0xbdf59d59	-0.11992902
84	0xbce568a4	-0.028003998
85	0x3dfbe41d	0.122993685
86	0x3d7313f8	0.059345216
87	0xbe4636f2	-0.19356897
88	0x3e1ce3bd	0.1532125
89	0xbe206a84	-0.15665632
90	0x3d88b870	0.06675804
91	0xbd821850	-0.063522935
92	0xbe676e39	-0.2260064
93	0x3e2831ec	0.16425294
94	0xbf06ca5a	-0.52652514
95	0xbeaf2120	-0.3420496
96	0x3de40240	0.11133242
97	0xbe9c15de	-0.30485433
98	0x3e64151a	0.22273675
99	0x3ea8a862	0.32940966
100	0x3edd9769	0.4327958
101	0xbedff93e	-0.43744844
102	0x3d833fe6	0.06408672
103	0xbdbc165d	-0.09183953
104	0xbef48409	-0.47756985
105	0x3e81dbfc	0.25363147
106	0xbe4ec69d	-0.20192952
107	0xbde1230f	-0.10993015
108	0xbd734218	-0.059389204
109	0xbde08e07	-0.109645896
110	0xbeb1005c	-0.34570587
111	0x3e46f4b7	0.19429289
112	0xbee288cc	-0.44244993
113	0xbdcb18e6	-0.099168584
114	0x3cc7b287	0.02437712
115	0xbe4b9305	-0.19880302
116	0xbdf558c1	-0.11979819
117	0x3e11a1c8	0.14221871
118	0x3de53ee6	0.111936375
119	0xbdbca5e0	-0.09211326
120	0xbe99bf80	-0.30028915
121	0x3e48e71d	0.19619413
122	0x3d8da87b	0.06916901
123	0x3e2b31c0	0.16718197
124	0x3be7b38e	0.007070965
125	0x3de04ae8	0.10951787
126	0xbd6f2fea	-0.058395304
127	0xbeba6995	-0.36408678
128	0x3e14ea75	0.14542563
129	0xbd228ffb	-0.03968809
130	0xbe262047	-0.1622325
131	0xbeb073dd	-0.34463397
132	0x3d76d19f	0.060258504
133	0xbe8ef0b1	-0.27918008
134	0xbc962ffc	-0.018333428
135	0xbe9c67bb	-0.3054789
136	0x3f4982c7	0.78715175
137	0x3bfe2aaf	0.007756553
138	0x3e12957b	0.14314835
139	0x3e85375a	0.26018792
140	0xbe6f48dd	-0.23367639
141	0x3e676eb9	0.22600831
142	0x3ecc9a36	0.39961404
143	0x3f27a0fa	0.65480006
144	0x3eb77010	0.35827684
145	0xbe000417	-0.1250156
146	0xbe7e5b85	-0.248396
147	0x3de39565	0.11112479
148	0x3edb3828	0.4281628
149	0x3e089d02	0.13341144
150	0xbf10a658	-0.5650382
151	0xbe9a3030	-0.3011489
152	0x3e3c71f4	0.18402845
153	0x3db1a6db	0.08674403
154	0xbd614c50	-0.055004418
155	0x3ec19f4d	0.3781685
156	0xbc9cbebd	-0.01913392
157	0x3cc2d145	0.023781428
158	0x3ce63697	0.028102202
159	0x3e17c52c	0.14821309
160	0xbeb05233	-0.34437713
161	0x3edf5f28	0.43627286
162	0xbeb0cca7	-0.34531137
163	0x3e4eceaa	0.20196024
164	0xbedd44e9	-0.43216637
165	0xbee3997b	-0.44453034
166	0xbe478f00	-0.19488144
167	0xbe484d70	-0.1956079
168	0xbe15087a	-0.14554015
169	0xbd494c5d	-0.04914509
170	0xbed430d8	-0.41443515
171	0x3e812afa	0.252281
172	0x3ec05d4f	0.3757119
173	0xbd166cf4	-0.036725
174	0x3db92e2f	0.09042012
175	0x3d997118	0.07492274
176	0xbef0b0f9	-0.4701002
177	0xbcc5dab2	-0.024152134
178	0x3d4447e8	0.047920138
179	0xbe005c33	-0.12535171
180	0xbee43210	-0.44569445
181	0xbe9c3ee0	-0.3051672
182	0x3e811afc	0.252159
183	0x3d84b9eb	0.064807735
184	0x3e5ab68d	0.213587
185	0xbe41b4b0	-0.18916583
186	0xbd1595c1	-0.03651977
187	0xbdacedb3	-0.08443775
188	0x3e1b9fa8	0.15197623
189	0xbebc1199	-0.36732176
190	0xbe4834aa	-0.1955134
191	0xbd1b2662	-0.0378784
192	0xbeb70e14	-0.35752928
193	0x3e11e65f	0.14248036
194	0x3dde13d6	0.10843627
195	0x3e247014	0.1605838
196	0xbe7cfb1a	-0.24705163
197	0xbd89ee9a	-0.06734963
198	0x3dd6291b	0.10457059
199	0x3d958ccb	0.07302245
200	0x3e6b3a62	0.2297149
201	0xbde541bb	-0.11194178
202	0x3eab721d	0.334855
203	0xbdb46ee4	-0.08810213
204	0xbde7f9e0	-0.11326957
205	0x3d37d21b	0.044878107
206	0xbe2a1a08	-0.16611493
207	0xbd580e8e	-0.052748255
208	0x3f1de886	0.6168293
209	0xbd17d5dd	-0.03706919
210	0x3e0f6704	0.14004141
211	0x3d9aaba6	0.075522706
212	0xbd60459c	-0.054753885
213	0xbe4cabcf	-0.19987415
214	0xbea31097	-0.31848595
215	0x3e5b3c75	0.21409781
216	0x3e29b111	0.16571452
217	0x3ea3209e	0.31860822
218	0x3ccd0eb4	0.025031425
219	0xbd47e67d	-0.048803795
220	0xbf139909	-0.5765539
221	0x3e9289ca	0.2862075
222	0xbda5d7a6	-0.08097772
223	0xbe5df600	-0.21675873
224	0xbe968eb1	-0.2940574
225	0x3e257f26	0.16161785
226	0xbd72a135	-0.05923577
227	0x3e52e6df	0.20595883
228	0x3de347e1	0.11097694
229	0xbe9a02d6	-0.3008029
230	0x3c2a30d1	0.010387615
231	0xbdd86121	-0.10565401
232	0x3e445ba0	0.19175577
233	0x3eb23f98	0.34814143
234	0x3e9801ed	0.2968897
235	0x3e743ac3	0.23850541
236	0xbe667fff	-0.22509764
237	0xbef12823	-0.47100934
238	0x3e184abf	0.14872263
239	0x3d0ba74c	0.034095094
240	0x3e3d4298	0.18482435
241	0x3dd91ef0	0.10601604
242	0x3c8dbff1	0.017303439
243	0x3e57fdd2	0.21092919
244	0xbe1745a3	-0.14772658
245	0x3d22b4b8	0.039723128
246	0x3dd50eb7	0.10403197
247	0x3da2a9be	0.07942532
248	0xbe75281e	-0.23941085
249	0xbea2c0fb	-0.31787857
250	0x3e9486af	0.29009005
251	0xbe850b08	-0.2598498
252	0xbeb6b2a6	-0.35683173
253	0xbe647941	-0.2231188
254	0xbc1766d5	-0.009240826
255	0xbde9f6e1	-0.114240415

network_body._body_endoder.seq_layers.0.bias f4 [128]
0	0x3d0c03ff	0.0341835
1	0x3d9fcdec	0.07802948
2	0xbb859650	-0.0040767565
3	0x3db57799	0.08860702
4	0xbc7d9fc0	-0.015479982
5	0xbd527cb0	-0.051388443
6	0x3d44317b	0.04789875
7	0x3d38f446	0.045154832
8	0x3da010b2	0.078156844
9	0x3d3a8b49	0.04554299
10	0x3ddcb191	0.107760556
11	0x3d8a972a	0.067671135
12	0x3d5a5903	0.053307544
13	0x3d0c8c98	0.03431377
14	0x3d50af95	0.050948698
15	0x3c624721	0.013810904
16	0x3e068837	0.131379
17	0x3da4641f	0.08026909
18	0xbc8d1974	-0.017224051
19	0x3db276ef	0.08714091
20	0x3dcba897	0.09944265
21	0x3d55b16d	0.05217116
22	0xb79dfee5	-1.8834553e-05
23	0x3d9619c8	0.07329136
24	0x3c4abd2e	0.0123742055
25	0x3a33d04b	0.0006859346
26	0x3d47023f	0.048586126
27	0x3d84cea0	0.06484723
28	0x3d0d10a6	0.034439705
29	0x3d3cdf6e	0.046111517
30	0xbb28fd6e	-0.0025785821
31	0x3c4605a3	0.012086305
32	0x3cd14d6e	0.025549617
33	0x3d4f694c	0.05063753
34	0x3d9eecc7	0.077600054
35	0x3dd8fd31	0.105951674
36	0x3c89b542	0.016810063
37	0x3dafcffe	0.08584593
38	0x3d23eb75	0.04001947
39	0x3d75c915	0.06000622
40	0x3d9a8568	0.075449765
41	0x3dbf60b6	0.09344618
42	0x3d89c074	0.06726161
43	0x3d08e858	0.033424705
44	0x3da7aa06	0.08186726
45	0x3d4a00b2	0.04931707
46	0x3dbdee80	0.09274006
47	0xb7dfd043	-2.6680651e-05
48	0x3c72aaf5	0.014811267
49	0x3d745d28	0.059659153
50	0x3d1a4f83	0.037673485
51	0x3bd4d9df	0.006495699
52	0x3d82aaed	0.06380258
53	0x3db4c6f0	0.08827007
54	0x3ccf3869	0.025295453
55	0x3ddc3ffc	0.107543916
56	0x3dac07c0	0.08399916
57	0x3d4132f1	0.047167722
58	0x3d04c7f8	0.032417268
59	0x3d8f3508	0.06992537
60	0x3da22485	0.07917122
61	0x3ce94d85	0.028479347
62	0xbb8b5803	-0.004252435
63	0x3d325ec9	0.043547425
64	0x3d4ffce3	0.05077828
65	0xbc8a69bf	-0.016896127
66	0x3d94b791	0.07261575
67	0x3c5bb4f1	0.013409839
68	0x3dc92836	0.09822123
69	0x3d575b46	0.05257728
70	0x3d2e0944	0.042489305
71	0x3d9ca66e	0.076489314
72	0x3db58132	0.08862533
73	0x3d85b531	0.065287
74	0xbbb17e65	-0.0054166787
75	0x3b333992	0.0027347547
76	0x3d8990e2	0.06717087
77	0x3dc9e242	0.098576084
78	0x3c3322e9	0.010933616
79	0x3ce90858	0.028446361
80	0x3c835a62	0.016034309
81	0x3d305369	0.043048296
82	0x3d48843c	0.048954234
83	0x3d7a5309	0.061114345
84	0x3cc0773c	0.023494355
85	0x3d1cdf2c	0.03829877
86	0x3d88292b	0.06648477
87	0x3da73fb5	0.08166448
88	0xbc7fb67f	-0.015607475
89	0x3d1710af	0.036881145
90	0x3d8e9855	0.06962649
91	0x3cba4674	0.022738673
92	0x3d334da6	0.043775223
93	0x3db0bc72	0.08629693
94	0x3b8e63d0	0.0043453947
95	0xbd0d5b0a	-0.03451065
96	0x3d9be583	0.07612135
97	0x3d612a61	0.054972056
98	0x3dce3a0f	0.100696675
99	0x3d0deea3	0.03465141
100	0x3d07069a	0.03296528
101	0x3dd25087	0.102692656
102	0x3d1f52e6	0.038897417
103	0x3db5bd3b	0.088739835
104	0x3de32cf7	0.11092561
105	0x3d07a695	0.03311785
106	0x3da5ec68	0.081017315
107	0x3dd4a799	0.10383529
108	0x3d4dde74	0.050260976
109	0x3d80b259	0.06284017
110	0x3da442f4	0.08020583
111	0x3c8e72bc	0.017388694
112	0x3cddea75	0.027089337
113	0x3da866e7	0.08222752
114	0x3d65e1f3	0.056123685
115	0x3dc4449c	0.09583399
116	0x3d971abe	0.073781475
117	0x3d045a0b	0.032312434
118	0xbc9edc57	-0.019392176
119	0x3ddb8098	0.10717887
120	0x3c14f5d2	0.009091811
121	0x3dc1a0d5	0.094545044
122	0x3b3e1aac	0.0029007597
123	0x3d52ac3d	0.05143379
124	0x3bc909d5	0.0061352053
125	0x3d64210c	0.05569558
126	0xbccd1466	-0.02503414
127	0x3da93c4e	0.08263455

network_body._body_endoder.seq_layers.2.weight f4 [128, 128]
0	0x3d9528bf	0.07283162
1	0xbd008c9c	-0.031384096
2	0x3c99fe9c	0.018798165
3	0x3b7516e1	0.003739767
4	0xbd12ffda	-0.03588853
5	0x3a9da6b1	0.0012027827
6	0xb6d2f888	-6.2874205e-06
7	0x3e27a2f5	0.16370757
8	0x3d2f75af	0.04283684
9	0xbd93597b	-0.071948014
10	0x3c3e3143	0.011608425
11	0x3dab0652	0.08350815
12	0x3d801374	0.062537104
13	0xbbe851f7	-0.007089849
14	0x3b9f9691	0.004870244
15	0x3e0db456	0.13838324
16	0x3dc70819	0.097183414
17	0x3ddf87aa	0.10914548
18	0x3cc2624d	0.023728514
19	0xbe185df7	-0.14879595
20	0xbd274004	-0.040832534
21	0xbe00f878	-0.12594783
22	0x3e243cc2	0.16038802
23	0x3dffc5af	0.12488877
24	0xbd5362d8	-0.051607937
25	0x3e1a152f	0.15047143
26	0x3dc2148c	0.09476575
27	0x3e471f34	0.19445497
28	0xbe0243c1	-0.12721159
29	0x3e1fbb45	0.15598781
30	0x3db93ee4	0.090451986
31	0xbd4293d5	-0.047504265
32	0xbd09bbcd	-0.033626366
33	0x3dc526ef	0.096265666
34	0xbe6c0ce3	-0.23051791
35	0x3c02058e	0.007935895
36	0x3a8fdf86	0.0010976649
37	0xbda913e7	-0.08255749
38	0x3d3497ae	0.044089966
39	0x3da3c73c	0.07996985
40	0x3c50f117	0.012752793
41	0x3c888a6d	0.016667569
42	0x3cea6fd0	0.02861777
43	0x3e58b6e9	0.21163525
44	0xbc2d4928	-0.010576524
45	0x3e6f711a	0.23382989
46	0xbe736425	-0.23768671
47	0xbdf705b6	-0.12061636
48	0x3baa6c10	0.0052008703
49	0x3d0228b3	0.031777095
50	0x3cff975d	0.031200105
51	0xbe41933c	-0.18903822
52	0x3d8c93ea	0.0686415
53	0x3d21f8f8	0.039544076
54	0x3daeae04	0.085292846
55	0x3d7c3885	0.06157734
56	0xbdf3e651	-0.11909164
57	0xbd20e66b	-0.039282244
58	0xbd28056f	-0.041020807
59	0xbd295fba	-0.041351058
60	0x3dc4212d	0.0957664
61	0xbd8e6188	-0.06952196
62	0x3e240aa6	0.16019687
63	0xbda91edc	-0.08257839
64	0xbd1fde94	-0.039030626
65	0xbe054a5c	-0.13016647
66	0xbca6a421	-0.020341935
67	0xbce726dc	-0.028216772
68	0xbcf3e98d	-0.029774452
69	0x3d7e3eaf	0.0620715
70	0x3dfe2d9f	0.12411045
71	0xbe06e775	-0.13174231
72	0x3ba9d9e4	0.0051834453
73	0x3e1748d7	0.1477388
74	0xba755133	-0.0009358108
75	0xbd641021	-0.055679444
76	0x3ba0fc68	0.0049129017
77	0x3df0a3f1	0.11750019
78	0x3e034dbd	0.12822624
79	0xbd387ebf	-0.04504275
80	0x3df8315f	0.12118792
81	0x3d5777be	0.05260443
82	0x3d0b5221	0.03401387
83	0x3d611453	0.054951023
84	0x3c5c9b13	0.013464707
85	0x3e24820d	0.16065235
86	0xbd060f63	-0.032729518
87	0x3d2b7919	0.041863535
88	0xbd52a2d6	-0.051424824
89	0x3d2ee962	0.04270304
90	0xbcd27aa0	-0.025693238
91	0x3c590138	0.0132449195
92	0x3d3750a8	0.044754654
93	0x3e3fba3a	0.18723384
94	0x3d5f812e	0.054566555
95	0x3cd0aad6	0.025472086
96	0xbd4c4687	-0.049871948
97	0x3da48e99	0.08035011
98	0xbe138477	-0.14406
99	0x3b2206e4	0.0024723345
100	0xbc9ee1ec	-0.019394837
101	0xbd7c9a6a	-0.0616707
102	0xbdb762f4	-0.08954421
103	0xbe26c82c	-0.16287297
104	0xbdf999f8	-0.1218757
105	0x3d97cffc	0.07412717
106	0x3c6b92c2	0.0143782515
107	0xbb90a2b1	-0.0044139256
108	0xbda4be4e	-0.0804411
109	0x3de0d3d5	0.10977904
110	0xbdcbe5ea	-0.09955962
111	0x3e18f67f	0.14937781
112	0x3da3528b	0.07974728
113	0x3ca45eb8	0.020064697
114	0xbc928e6d	-0.01789018
115	0x3d715f7d	0.058928955
116	0x3d698a14	0.057016447
117	0xbda41055	-0.080109276
118	0x3da7f007	0.082000785
119	0xbd46a31c	-0.048495397
120	0x3e07280b	0.13198869
121	0x3dd928e7	0.10603505
122	0xbc99103d	-0.0186845
123	0xbcff3cf8	-0.031157002
124	0x3e17e00b	0.1483156
125	0xbdd506ee	-0.10401712
126	0x3daf90ce	0.08572541
127	0x3dc8f01b	0.098114215
128	0xbc3d7e17	-0.011565707
129	0xbe34d401	-0.17658998
130	0x3dbd97f8	0.09257501
131	0x3d5a159e	0.053243272
132	0x3c9d2db5	0.019186834
133	0xbdd558c1	-0.10417319
134	0xbc895f10	-0.016768962
135	0xbe1fa722	-0.155911
136	0x3d8b3ff7	0.0679931
137	0x3d8b1615	0.06791321
138	0x3dad81a6	0.08471994
139	0x3e4908dd	0.19632287
140	0x3d9a328f	0.075291745
141	0x3d035f04	0.032073036
142	0x3d46c7e0	0.04853046
143	0x3de72a43	0.11287358
144	0xbdf68dfd	-0.12038801
145	0x3d06b846	0.03289058
146	0xbda28ecf	-0.07937395
147	0xbd17a42c	-0.0370218
148	0xbc9e9bd2	-0.01936141
149	0xbd98688e	-0.07441817
150	0x3e13e2bd	0.14441963
151	0x3cb9a963	0.022663778
152	0xbd50fba6	-0.05102124
153	0x3dbdd8ba	0.09269853
154	0xbdb23730	-0.087019324
155	0xbe112c66	-0.14177093
156	0x3da13716	0.07871835
157	0xbd1914e7	-0.03737345
158	0xbced6450	-0.028978497
159	0x3da1c25e	0.07898401
160	0x3d9e0a65	0.07716826
161	0xbe06423a	-0.13111201
162	0xbe2568b6	-0.16153225
163	0x3d2c61ec	0.042085573
164	0xba9aecb2	-0.0011819808
165	0xbd84d8ec	-0.06486687
166	0x3dfca9d1	0.123370774
167	0xbe130011	-0.14355494
168	0xbd5c6831	-0.053810302
169	0xbd3c787e	-0.046013348
170	0xbdf79936	-0.120897695
171	0x3b447672	0.0029977825
172	0xbb1b9c17	-0.002374416
173	0xbd78737f	-0.06065702
174	0xbdbf97a2	-0.093550935
175	0x3d54fff2	0.0520019
176	0x3d9504ff	0.072763436
177	0xbcdb793d	-0.02679121
178	0x3e07bd6e	0.13255855
179	0xbd51cfd1	-0.05122358
180	0xbd82a99d	-0.063800074
181	0x3d27c934	0.040963367
182	0x3c7ff450	0.0156222135
183	0xbe2bf70d	-0.16793461
184	0x3cc3b0e4	0.023888059
185	0xbdbf24ed	-0.09333215
186	0xbcf54bcf	-0.029943375
187	0xbdf07f1b	-0.117429934
188	0xbd5f89f4	-0.05457492
189	0x3e5b04e2	0.21388581
190	0x3de95968	0.11394006
191	0xbe0abc6b	-0.13548438
192	0xbdda2dbc	-0.106532544
193	0x3beeadc4	0.007283898
194	0xbd855603	-0.06510546
195	0x3d534269	0.051577006
196	0xbd4eaa82	-0.050455578
197	0x3e35095d	0.17679353
198	0x3cb6c5f6	0.022311192
199	0xbd53012a	-0.051514782
200	0x3979d7b3	0.00023826845
201	0xbd28965a	-0.04115901
202	0x3d966ed4	0.073453575
203	0x3adefa66	0.001701188
204	0x3c4ec4eb	0.012620191
205	0x3d9e2c0b	0.07723244
206	0xbb1bd192	-0.0023776037
207	0x3db21601	0.08695603
208	0x3d9317ff	0.07182311
209	0x3cd7ed10	0.026358157
210	0xbe8c1cd7	-0.27365753
211	0xbd1814c3	-0.037129175
212	0xbd9bf7e1	-0.076156385
213	0x3db93088	0.0904246
214	0x3d20fd6b	0.03930418
215	0x3df03ad4	0.117299706
216	0xbc61c160	-0.013779014
217	0xbe0d711e	-0.13812682
218	0x3d7c0de2	0.061536677
219	0x3d9754eb	0.07389244
220	0xbd07eb49	-0.03318337
221	0xbe0b5c2a	-0.13609377
222	0x3d33aa0f	0.043863352
223	0x3c3f13fe	0.011662481
224	0x3c852b8b	0.016256114
225	0x3c003f26	0.007827556
226	0xbd50237b	-0.050815087
227	0x3ca0f97c	0.019650213
228	0x3b65e2be	0.0035077776
229	0xbe13995f	-0.14413975
230	0xbd2d4c55	-0.042309124
231	0xbd902424	-0.07038143
232	0x3c8b7e56	0.017028015
233	0x3c92a6cb	0.017901799
234	0xbdef3668	-0.11680299
235	0x3d2fe718	0.042944998
236	0xbd9b5f9b	-0.07586595
237	0x3d648180	0.055787563
238	0x3d8cc061	0.06872631
239	0xbce0a0c4	-0.027420409
240	0xbdb69341	-0.08914805
241	0xbce4dcff	-0.02793741
242	0x3d4f18d2	0.05056078
243	0xbe0a437f	-0.1350231
244	0xbb25e39d	-0.002531267
245	0x3d4fdc6f	0.05074733
246	0x3cd39ff0	0.0258331
247	0xbd4df8b9	-0.05028603
248	0x3df1080f	0.11769115
249	0xbc6d2a62	-0.014475437
250	0x3dd073a7	0.10178309
251	0x3d9a6e2a	0.075405434
252	0x3e498c8c	0.1968252
253	0xbdc36950	-0.09541571
254	0xbe4607f8	-0.19338977
255	0xbe27f324	-0.16401345

network_body._body_endoder.seq_layers.2.bias f4 [128]
0	0x3c95e48e	0.01829746
1	0x3c3c8689	0.011506685
2	0x3dbc263a	0.09186979
3	0x3d037951	0.03209812
4	0x3d7d875b	0.061896663
5	0x3d87aa21	0.066242464
6	0x3db48457	0.08814304
7	0x3c85328f	0.01625946
8	0x3d0cc3b2	0.034366317
9	0x3d990f82	0.07473661
10	0x3d8749c3	0.06605866
11	0xbd323636	-0.04350873
12	0x3d31f894	0.043449953
13	0x3d3d1008	0.046157867
14	0x3d814c47	0.06313377
15	0x3da65df2	0.081233874
16	0x3d42d7ab	0.04756896
17	0x3d984955	0.07435862
18	0x3d2584a0	0.040409684
19	0xba9f08fb	-0.0012133414
20	0x3d547ff1	0.051879827
21	0x3c8a5e53	0.01689068
22	0x3be659c3	0.0070297434
23	0x3bc74cd6	0.0060821576
24	0x3d19ddd1	0.037565056
25	0x3db4067f	0.087903015
26	0x3d126373	0.035739373
27	0x3c30951e	0.01077774
28	0x3d3e9339	0.04652712
29	0x3cee2fc7	0.029075516
30	0x3db114b0	0.08646524
31	0x3c9eecc7	0.019400014
32	0x3d175fad	0.036956478
33	0x3d3f6ce2	0.046734698
34	0x3d06b990	0.03289181
35	0x3d86a784	0.0657492
36	0x3cf54d3b	0.029944053
37	0x3c6ba4f1	0.014382587
38	0x3d848182	0.06470014
39	0x3c9c7b92	0.019101892
40	0x3cd525b3	0.026018953
41	0x3dd1b9e2	0.102405325
42	0x3d6fd70c	0.058554694
43	0x3cb89c27	0.022535397
44	0xbc695567	-0.014241553
45	0x3d388f25	0.04505839
46	0x3c9cb0ba	0.019127239
47	0x3d9862a2	0.07440688
48	0x3cc1ccf8	0.023657307
49	0x3d79717b	0.06089924
50	0x3c7e8c37	0.0155363595
51	0x3d93c68f	0.072156064
52	0x3d627a56	0.05529245
53	0x3d25119a	0.04029999
54	0x3bf20d20	0.0073868185
55	0x3cbe1086	0.023201238
56	0x3d925de2	0.07146813
57	0x3d7fb395	0.062427122
58	0x3d6de488	0.058079273
59	0x3d6ea9cd	0.058267403
60	0x3cb1e8dc	0.021717481
61	0x3ced0e28	0.028937414
62	0x3d505558	0.05086264
63	0x3c0640b4	0.008194137
64	0x3bef023f	0.007293969
65	0x3ccd6cb8	0.025076255
66	0x3d413dbe	0.047178023
67	0x3d964cff	0.073389046
68	0x3d97d03e	0.07412766
69	0x3ce01e07	0.027358068
70	0xbbf3eda6	-0.0074441014
71	0x3da134ca	0.07871397
72	0x3c8d8bbe	0.017278548
73	0x3d92e5d1	0.0717274
74	0x3d894370	0.06702316
75	0x3dac03f3	0.08399191
76	0x3d7571fc	0.059923157
77	0xbbd53ec7	-0.006507728
78	0x3d166777	0.036719766
79	0x3cf54293	0.029938972
80	0x3d2d6e09	0.042341266
81	0x3d6771a3	0.056504857
82	0x3dbf4d2f	0.093408935
83	0x3d00f575	0.031484086
84	0x3c2ca81d	0.010538128
85	0x3c9edebe	0.019393321
86	0x3d477e4f	0.04870444
87	0x3d65d527	0.05611148
88	0x3ce3e1a0	0.027817547
89	0x3d578e2e	0.052625827
90	0x3d6c199a	0.057641603
91	0xbac12897	-0.0014736828
92	0x3daf0bf5	0.085472025
93	0x3d87ab1a	0.06624432
94	0x3c89069b	0.016726783
95	0xbc8862bc	-0.016648643
96	0x3cedd93e	0.029034253
97	0x3d5e68b0	0.054299057
98	0x3d877ecc	0.066159815
99	0x3cdd25ba	0.026995528
100	0x3d8e97ee	0.06962572
101	0x3d12c17b	0.03582905
102	0x3cb84e53	0.022498285
103	0xbc2cea13	-0.0105538545
104	0x3d860c60	0.06545329
105	0x3d79eb02	0.061015137
106	0x3d120a1b	0.03565417
107	0x3d5ea632	0.054357715
108	0x3d89e1ca	0.06732519
109	0x3d6159e6	0.055017374
110	0xbd119379	-0.03554103
111	0x3d05d732	0.03267593
112	0x3ddd3f48	0.108030856
113	0x3d022cf9	0.03178117
114	0x3d9f03c5	0.07764391
115	0xbbb61ed5	-0.0055578747
116	0x3d84a7df	0.06477331
117	0x3d3a196a	0.045434393
118	0x3d15cc69	0.036571894
119	0xbcd6dd20	-0.026228487
120	0x3cf9dfab	0.030502161
121	0x39b85aa4	0.00035162747
122	0x3cfc3ff8	0.030792221
123	0x3d866bfc	0.06563565
124	0x3d3f4f10	0.04670626
125	0x3db842a4	0.08997086
126	0x3c5d27f6	0.013498297
127	0x3d81da38	0.0634045

action_model._discrete_distribution.branches.0.weight f4 [7, 128]
0	0x3bfa8695	0.007645438
1	0x3cad1394	0.0211275
2	0x3c2ebe82	0.010665538
3	0x3b857457	0.0040727067
4	0x3d557c7c	0.05212067
5	0x3d53027e	0.05151605
6	0x3d523e6c	0.05132906
7	0x3cf91b09	0.0304084
8	0x3d5b5721	0.05354989
9	0x39ddf42b	0.00042334324
10	0x3d4df7c8	0.05028513
11	0xbd0c2851	-0.034218136
12	0xbd097333	-0.03355713
13	0x3c0b6d67	0.00850997
14	0x3d027165	0.031846423
15	0xbc74727e	-0.014919875
16	0x3bfc0980	0.007691562
17	0x3d8012ea	0.062536076
18	0xbc09d9f0	-0.008413777
19	0xbcc988e0	-0.0246014
20	0x3bd1fcc0	0.006408304
21	0x3c41fd2d	0.011840147
22	0x3b868627	0.0041053477
23	0xbd0f1137	-0.034928527
24	0x3c0cc631	0.008592174
25	0x3d01fb70	0.03173393
26	0x3c76cbf3	0.015063274
27	0xbd320050	-0.04345733
28	0x3b09edbd	0.0021046244
29	0xbd1510d6	-0.03639301
30	0x3b4f77d9	0.0031657128
31	0x3b81705f	0.0039501633
32	0xbd4bdf8e	-0.049773745
33	0x3d742d10	0.059613287
34	0xbcb5f8b9	-0.022213327
35	0x3cd57512	0.0260568
36	0xbc9b58a6	-0.01896317
37	0xbcc72d41	-0.024313571
38	0x3d33c193	0.04388578
39	0x3d018c3f	0.03162789
40	0x3be8a52d	0.0070997686
41	0x3cc4cd35	0.024023632
42	0xbc5f0ec3	-0.013614359
43	0xbad760ec	-0.0016432083
44	0x3c125b47	0.008932895
45	0x3cabd2a4	0.020974465
46	0xbd21a5c9	-0.039464746
47	0x3d2890eb	0.04115383
48	0x396e0fa3	0.00022703274
49	0x3d89e6ac	0.0673345
50	0xbd2a788f	-0.04161888
51	0x3c49eb85	0.012324219
52	0x3c892f8e	0.016746309
53	0xbd2a7eeb	-0.041624945
54	0xbc57fa56	-0.013182243
55	0xbc9540e0	-0.018219411
56	0x3d09c283	0.033632766
57	0x3d16d018	0.036819547
58	0x3d1a5940	0.03768277
59	0x3d28f40c	0.041248366
60	0x3c0ff5d0	0.008786634
61	0x3c9114c8	0.017710105
62	0xbc0a0032	-0.008422898
63	0x3d324d75	0.0435309
64	0xbbb04368	-0.005379129
65	0x3c318e3b	0.010837133
66	0x3d513ea2	0.051085122
67	0x3d8355f1	0.064128764
68	0x3cf5105f	0.029915033
69	0x3d3eae75	0.046553094
70	0xbc524c3c	-0.0128355585
71	0x3c28a198	0.010292433
72	0xbbae0664	-0.0053108204
73	0x3d36a107	0.04458716
74	0x3d2b3ab8	0.041804045
75	0x3cdbca55	0.026829878
76	0x3c3d863e	0.01156765
77	0xbc6b1792	-0.014348881
78	0x39c544e4	0.00037626096
79	0xbcad7bb6	-0.021177154
80	0x3d7507ce	0.059821896
81	0x3c0c1f5f	0.008552401
82	0x3ce00454	0.027345814
83	0x3bffcc9d	0.007806374
84	0xbcfa9ff1	-0.030593844
85	0xba0c2a90	-0.00053469185
86	0xbc67f9aa	-0.014158646
87	0x3b7a5e67	0.003820324
88	0x3d6952d5	0.05696376
89	0xbbd41236	-0.0064718975
90	0x3d36ee3c	0.04466079
91	0x3c3e9834	0.011632968
92	0x3cd26fc7	0.025688065
93	0x3d0a7876	0.033806287
94	0x3b8cb0b8	0.0042935275
95	0xbbe0f7e8	-0.00686549
96	0x3b6063ce	0.0034239176
97	0x3ca6c35a	0.020356823
98	0x3d2630b1	0.04057378
99	0xbd3b8f7f	-0.045791145
100	0x3c810703	0.015750414
101	0xbce49f38	-0.027907953
102	0x3b978f1c	0.0046252143
103	0x3c36ef53	0.011165458
104	0x3d00200d	0.031280566
105	0x3d8f4905	0.06996349
106	0xbd244365	-0.040103335
107	0x3c4b61ac	0.0124134235
108	0x3d07b2f2	0.03312964
109	0x3d30d520	0.043172
110	0xbb05335b	-0.00203248
111	0xb8946f3d	-7.07791e-05
112	0xbb258506	-0.002525629
113	0x3af04ec3	0.001833402
114	0x3cca4398	0.024690434
115	0x3bcef9e9	0.0063164127
116	0xbc4a31b4	-0.012340952
117	0xbc35af7f	-0.011089205
118	0xbd14675b	-0.03623138
119	0x3b6ef27a	0.0036460445
120	0xbc832619	-0.016009377
121	0x3c399025	0.011325871
122	0xbc605869	-0.013692954
123	0x3d63f554	0.055653885
124	0x3d2709e0	0.040780902
125	0x3d6efa0a	0.058343925
126	0x3cd7d863	0.026348298
127	0x3d31ea4d	0.043436337
128	0x3c44f8b3	0.012022185
129	0xbd0dad21	-0.034588937
130	0x3d70dcc2	0.05880428
131	0x3be5c6aa	0.007012208
132	0xbca38aa1	-0.019963564
133	0xbc5921ef	-0.013252719
134	0x3d6de5e3	0.058080565
135	0xbc945b4a	-0.018109936
136	0xbceb3af0	-0.028714627
137	0x3d86b508	0.06577498
138	0xbca984e1	-0.020693244
139	0xbc743e53	-0.014907437
140	0x3c578d3c	0.0131562315
141	0x3c66cf0a	0.014087448
142	0x3cc329a1	0.023823561
143	0x3c6ca6fd	0.01444411
144	0x3aac2a2b	0.0013135126
145	0xbce42068	-0.027847484
146	0xba27b111	-0.00063969294
147	0x3c65f067	0.014034367
148	0xbb1d29dd	-0.0023981251
149	0xbc0b3805	-0.008497243
150	0xbc908a71	-0.017644139
151	0x3ca5af71	0.020225259
152	0x3d0663a4	0.03280987
153	0x3cc8d412	0.024515186
154	0x3cbc9135	0.023018459
155	0x3d0aaebd	0.03385805
156	0x3d0d39dc	0.034479007
157	0x3d1bdc89	0.038052116
158	0x3d11c21a	0.0355855
159	0x3bf586b6	0.0074928654
160	0x3d61c213	0.055116724
161	0xbd02eb3f	-0.03196263
162	0x3d8807e5	0.06642131
163	0x3c921630	0.017832845
164	0x3ca9542a	0.020670015
165	0x3b94fea0	0.004546955
166	0x3cd19d9b	0.025587847
167	0xbd4c440f	-0.049869593
168	0xbcf902b1	-0.030396791
169	0x3d2d7742	0.04235006
170	0x3d0f32ae	0.03496044
171	0xbc71e2cf	-0.014763548
172	0xbc28d77d	-0.010305283
173	0xbc8998ab	-0.01679643
174	0x3cdd50e0	0.027016103
175	0xbb4a52c4	-0.0030872086
176	0xbb9470b3	-0.0045300364
177	0xbcc96e6a	-0.024588782
178	0x3d56bf88	0.052428752
179	0x3d320807	0.043464687
180	0x3d6f1cc5	0.058377046
181	0x3d35a4bf	0.044346567
182	0x3c2b46f4	0.010453928
183	0x3d16a7b6	0.036781035
184	0xbcf9c30c	-0.030488513
185	0x3b0c07a9	0.002136687
186	0xbd3b1f30	-0.04568404
187	0xbcd83f60	-0.026397407
188	0x3c38f21b	0.011288191
189	0xbc87b94b	-0.016567847
190	0x3d58baf4	0.052912667
191	0xbd0471b1	-0.032334987
192	0x3d0c7756	0.034293495
193	0xbc127f69	-0.00894151
194	0xbc5a9924	-0.013342176
195	0x3b981191	0.004640766
196	0xbc7aaab9	-0.0152994925
197	0xbcdf05ca	-0.02722444
198	0xbc6c5c12	-0.014426248
199	0x3c3d6377	0.011559359
200	0x3c95a1dd	0.018265659
201	0x3b5735f2	0.003283855
202	0x3c8fa08f	0.017532615
203	0x3d0c1e9b	0.034208875
204	0x3d6539c3	0.05596329
205	0x3c548a6a	0.012972454
206	0xbb6f5b69	-0.003652299
207	0x3d2cc351	0.042178456
208	0xbd42fbaa	-0.047603287
209	0x3d6cddef	0.05782884
210	0x3d3ff183	0.046861183
211	0x3cb68961	0.022282304
212	0x3c9a0abf	0.018803952
213	0x3c3f0a3b	0.011660154
214	0x3cb24de6	0.02176566
215	0x3d1db465	0.038502116
216	0xbcf63759	-0.030055689
217	0x3d19e347	0.037570264
218	0xbc151a94	-0.009100575
219	0x3c306272	0.010765659
220	0x3b8649bd	0.0040981458
221	0x3cbd4f7c	0.02310919
222	0x3bdcae95	0.006734679
223	0xbc31c900	-0.010851145
224	0x3c5d66bf	0.013513266
225	0x3d03c245	0.03216769
226	0x3a974ad6	0.0011542689
227	0xbb933551	-0.00449244
228	0x3d8132ed	0.063085414
229	0x3ca227fa	0.019794453
230	0xbc556951	-0.013025598
231	0xbc92a896	-0.017902654
232	0x3c970637	0.01843558
233	0xbd162900	-0.036660194
234	0x3d18be0a	0.03729061
235	0x3d2358b0	0.0398795
236	0xbc35e6b3	-0.011102366
237	0x3c7ea0ee	0.015541298
238	0xbc10f7fc	-0.008848187
239	0x39b95307	0.0003534781
240	0x3d58367e	0.052786343
241	0x3af5eaa0	0.001876194
242	0xbc530baf	-0.012881204
243	0x39b6149f	0.0003472911
244	0x3cef06d8	0.029178068
245	0x3c8cf23c	0.01720535
246	0x3bf6cfab	0.00753208
247	0xbd0f750e	-0.03502374
248	0x3ce04200	0.027375221
249	0xbc3ff246	-0.011715477
250	0x38ba0833	8.8706984e-05
251	0xbd3e64f0	-0.04648298
252	0xbc61cc77	-0.013781658
253	0xbc4faed9	-0.012675964
254	0xbd1c2427	-0.038120415
255	0x3cd18d6e	0.025580134

action_model._discrete_distribution.branches.0.bias f4 [7]
0	0x3c9830aa	0.018577892
1	0x3ca9eecd	0.020743752
2	0x3bbd4f5c	0.0057772826
3	0x3d09a06f	0.033600267
4	0xbc4de7f5	-0.01256751
5	0xbd06bc2c	-0.0328943
6	0xbd1e9e11	-0.038724963

exp_avg f4 [128, 16]
0	0x35f5fda0	1.8327737e-06
1	0xb844827e	-4.6851572e-05
2	0xb95dab45	-0.00021140005
3	0xb8f86ff9	-0.00011846418
4	0x39082b88	0.00012986187
5	0xba7b7ea7	-0.0009593763
6	0x398ca5fb	0.00026826546
7	0x3937171d	0.0001746085
8	0xb844827e	-4.6851572e-05
9	0xb939bb21	-0.00017712686
10	0xb9602d0e	-0.00021379089
11	0xb96441e8	-0.00021768326
12	0x399343fc	0.00028088677
13	0x3a2cc70f	0.00065909413
14	0x00000000	0.0
15	0xb76fb003	-1.4286491e-05
16	0x39ab9523	0.00032726777
17	0xb6e44db0	-6.8039735e-06
18	0x387ed9d1	6.0761176e-05
19	0xb8ff4b90	-0.00012173422
20	0x38be1223	9.063284e-05
21	0xb8f33c6c	-0.000115983974
22	0xb949e74e	-0.00019255021
23	0x39acc5d2	0.00032953784
24	0xb6e44db0	-6.8039735e-06
25	0xb78a6c51	-1.650132e-05
26	0xb92b3a2d	-0.00016329503
27	0x395ad83e	0.00020870657
28	0x3915528d	0.000142405
29	0xb95b3a9d	-0.00020907303
30	0x00000000	0.0
31	0xb9580796	-0.00020602191
32	0xb96d1b38	-0.00022612221
33	0xb5ddedf6	-1.6535039e-06
34	0xb8dd6ce3	-0.00010558383
35	0x378dcd16	1.690401e-05
36	0xb8501638	-4.9611757e-05
37	0x3911fb3e	0.00013921873
38	0x39ae1c6c	0.00033209042
39	0xb9855580	-0.0002543144
40	0xb5ddedf6	-1.6535039e-06
41	0xb9511a1f	-0.00019941524
42	0x38107b12	3.4446894e-05
43	0xb748eded	-1.1976325e-05
44	0x378ef856	1.704336e-05
45	0x379611ad	1.7889624e-05
46	0x00000000	0.0
47	0xb99c6754	-0.00029831624
48	0x391f24d2	0.00015177138
49	0x391130cb	0.00013846454
50	0xba2a3186	-0.0006492365
51	0x37811223	1.5386444e-05
52	0xb98b6f81	-0.00026595223
53	0x395633e1	0.00020427957
54	0xba8ede9c	-0.0010900083
55	0x3983f84b	0.0002517126
56	0x391130cb	0.00013846454
57	0xba448f68	-0.0007498176
58	0x3825e683	3.9553746e-05
59	0xb923254e	-0.00015558788
60	0xba1e42d8	-0.0006037182
61	0x39bfe1db	0.00036598634
62	0x00000000	0.0
63	0x3ab8768a	0.0014073413
64	0xb9982279	-0.00029017383
65	0x3886ac9c	6.421769e-05
66	0xb8633029	-5.416587e-05
67	0xb5a3f3f3	-1.2215445e-06
68	0x385bd692	5.2413503e-05
69	0x39b4dd33	0.00034497082
70	0x38eeb7ce	0.00011382961
71	0xb9a3f323	-0.00031270934
72	0x3886ac9c	6.421769e-05
73	0xb8af76e8	-8.366798e-05
74	0xb850c61d	-4.9775572e-05
75	0xb85600c3	-5.1022285e-05
76	0x38a664a9	7.934246e-05
77	0xb8f66f02	-0.00011750871
78	0x00000000	0.0
79	0xb947b3ae	-0.00019045055
80	0xb92d4ebb	-0.00016527895
81	0x3714b226	8.862966e-06
82	0x362688b3	2.4815497e-06
83	0xb857768a	-5.1370393e-05
84	0x388360bb	6.264584e-05
85	0xb8f17f04	-0.00011515434
86	0x39ea34a4	0.00044671178
87	0xb970e68c	-0.00022974069
88	0x3714b226	8.862966e-06
89	0xb8385d0a	-4.3955668e-05
90	0xb8900088	-6.866554e-05
91	0x38e077a5	0.00010703438
92	0x39ad296d	0.00033027996
93	0xb97aa1e0	-0.00023902161
94	0x00000000	0.0
95	0xb9e646c8	-0.00043921755
96	0x3a0a20ec	0.0005269188
97	0x3922ac9b	0.00015513824
98	0xb8bfbf01	-9.143167e-05
99	0x38318194	4.2320768e-05
100	0xb9e66f6c	-0.00043952034
101	0xb9b46c56	-0.00034412992
102	0xba3db281	-0.0007236377
103	0x3a2f3e19	0.00066849735
104	0x3922ac9b	0.00015513824
105	0xb9047f55	-0.00012635936
106	0xb8e5a1a1	-0.00010949677
107	0xb997d99c	-0.00028963096
108	0xba038eaf	-0.0005018515
109	0x3998823e	0.00029088737
110	0x00000000	0.0
111	0xb92c75af	-0.00016447039
112	0x390c5823	0.00013384274
113	0xb8ce2aa7	-9.83079e-05
114	0x38d0dbd3	9.959158e-05
115	0xb81f4992	-3.797707e-05
116	0xb8562ce7	-5.1063394e-05
117	0xb8f73167	-0.0001178708
118	0x38fc966f	0.00012044317
119	0x388d0805	6.724898e-05
120	0xb8ce2aa7	-9.83079e-05
121	0x38e46c51	0.00010892063
122	0xb8987bb0	-7.2709634e-05
123	0x38550e6a	5.079658e-05
124	0x3927782a	0.00015971126
125	0xb9f710fe	-0.0004712417
126	0x00000000	0.0
127	0x3933dcf4	0.00017153082
128	0x3906c90d	0.00012854133
129	0xb658a23b	-3.2280939e-06
130	0xba230835	-0.00062191795
131	0x38c54370	9.406253e-05
132	0xba2c2c1e	-0.0006567853
133	0x399a104c	0.0002938531
134	0xba31f731	-0.00067888486
135	0x394b0e3a	0.00019364888
136	0xb658a23b	-3.2280939e-06
137	0xba676bbf	-0.0008828006
138	0x3954725b	0.00020260496
139	0xb9cb7b5f	-0.00038811096
140	0xba13d312	-0.0005639057
141	0x39279ecb	0.00015985516
142	0x00000000	0.0
143	0x39f80b6c	0.00047310756
144	0xb8b488fb	-8.6085834e-05
145	0x38590d25	5.1749073e-05
146	0xb9c44c4b	-0.00037440876
147	0x3920c7ea	0.00015333263
148	0xba04921b	-0.0005057172
149	0x386389f8	5.424951e-05
150	0xb9b025a5	-0.00033597383
151	0xb86b7bf5	-5.614381e-05
152	0x38590d25	5.1749073e-05
153	0xb9e42332	-0.0004351377
154	0x39851c4c	0.0002538882
155	0xb9cf8b96	-0.00039586116
156	0xba1cd665	-0.0005982875
157	0x38634e19	5.419375e-05
158	0x00000000	0.0
159	0x3a563c70	0.0008172458
160	0x396250a6	0.00021583083
161	0x363a7018	2.7781407e-06
162	0x37d8b29d	2.583238e-05
163	0xb864d541	-5.4558044e-05
164	0xb8a36ab9	-7.792324e-05
165	0xb93fca1e	-0.00018290474
166	0xba2a794c	-0.000650306
167	0x39445be9	0.00018726256
168	0x363a7018	2.7781407e-06
169	0x380acca7	3.309236e-05
170	0xb8bac728	-8.906267e-05
171	0xb82755c0	-3.9895764e-05
172	0xb94ccd39	-0.00019531407
173	0xb97f8c84	-0.00024371041
174	0x00000000	0.0
175	0x3a2e90d4	0.00066591543
176	0x383d772f	4.517211e-05
177	0xb7250dd4	-9.837986e-06
178	0xb92232ff	-0.00015468521
179	0xb7ce7a68	-2.4614113e-05
180	0xb8ffbc5a	-0.00012194431
181	0xb9c36998	-0.00037271972
182	0x39050e9c	0.00012689311
183	0x3916d17b	0.00014383152
184	0xb7250dd4	-9.837986e-06
185	0xb94db482	-0.00019617568
186	0xb8418bc6	-4.614496e-05
187	0xb927045c	-0.00015927985
188	0x3708ef23	8.16191e-06
189	0x39818b40	0.00024708547
190	0x00000000	0.0
191	0xb874ed3b	-5.839507e-05
192	0xb9a0d024	-0.00030672655
193	0x35d18e36	1.5613102e-06
194	0xb926406d	-0.00015854994
195	0x366fbcf9	3.5723772e-06
196	0xb983fba2	-0.00025173748
197	0x3a0b65c8	0.0005317596
198	0x39e619da	0.0004388828
199	0xb9e09273	-0.00042833723
200	0x35d18e36	1.5613102e-06
201	0xb9b29590	-0.00034062238
202	0xb70fbc34	-8.567284e-06
203	0x383cbfee	4.500144e-05
204	0x39397a14	0.00017688452
205	0xba1aec90	-0.00059098843
206	0x00000000	0.0
207	0xb920f74a	-0.00015350911
208	0xb9107c4f	-0.00013779219
209	0xb5d76adf	-1.6049852e-06
210	0x38a496ca	7.848216e-05
211	0xb8865737	-6.405863e-05
212	0xb8872031	-6.443298e-05
213	0x387f4bba	6.0867264e-05
214	0xb99ddab3	-0.00030108317
215	0xb94ad95b	-0.00019345192
216	0xb5d76adf	-1.6049852e-06
217	0x377a5a30	1.492216e-05
218	0xb7c07889	-2.2944312e-05
219	0x3927478e	0.00015953017
220	0x3916f7f4	0.00014397484
221	0xb9ad6f24	-0.00033079938
222	0x00000000	0.0
223	0xb8ef470e	-0.00011409643
224	0x390be92d	0.00013342938
225	0xb543dcc6	-7.296443e-07
226	0xb96b5b5c	-0.0002244538
227	0xb86a4852	-5.58573e-05
228	0xb7320657	-1.0611103e-05
229	0xb97d50f2	-0.00024158115
230	0xb9b41064	-0.00034344487
231	0x39904f77	0.00027525026
232	0xb543dcc6	-7.296443e-07
233	0xb97198dd	-0.00023040497
234	0xb8e11776	-0.00010733206
235	0xb9434b1b	-0.00018624628
236	0xb8a63198	-7.9247344e-05
237	0x39ff4e82	0.00048695883
238	0x00000000	0.0
239	0x38e125c4	0.000107358705
240	0xba4a8ee8	-0.0007726983
241	0xb8ab1265	-8.157342e-05
242	0xb980b122	-0.00024546037
243	0xb8bf761e	-9.129591e-05
244	0x39aa2853	0.0003245497
245	0x38ae6391	8.315512e-05
246	0x3a6c7b2d	0.000902104
247	0xba5ddaba	-0.0008463074
248	0xb8ab1265	-8.157342e-05
249	0xb9bcc0d1	-0.00036001814
250	0xb93a4057	-0.00017762311
251	0x39319e0f	0.00016938917
252	0x3a23a18e	0.000624203
253	0x3895e88f	7.148191e-05
254	0x00000000	0.0
255	0xba4e5e11	-0.00078722934

exp_avg_sq f4 [128, 16]
0	0x353f1bd2	7.119353e-07
1	0x34a0dafb	2.9961652e-07
2	0x357831f0	9.245987e-07
3	0x35012d1f	4.8121905e-07
4	0x355c1263	8.198314e-07
5	0x35934f30	1.09754e-06
6	0x35a9e60b	1.2658433e-06
7	0x35542439	7.9028865e-07
8	0x34a0dafb	2.9961652e-07
9	0x35908784	1.0768276e-06
10	0x35a1fe47	1.2069439e-06
11	0x34b1272e	3.2997326e-07
12	0x3514bdde	5.541059e-07
13	0x35bfd42e	1.4292361e-06
14	0x00000000	0.0
15	0x35abbe5d	1.2795896e-06
16	0x348ce076	2.624035e-07
17	0x3008eba8	4.98114e-10
18	0x34cc83c0	3.8093822e-07
19	0x35324def	6.6423576e-07
20	0x34c58a78	3.679486e-07
21	0x351a753c	5.754007e-07
22	0x35018ba9	4.8259477e-07
23	0x34a560e3	3.080414e-07
24	0x3008eba8	4.98114e-10
25	0x3505e279	4.987592e-07
26	0x3506bf75	5.0197497e-07
27	0x34292286	1.5751911e-07
28	0x347f7792	2.3792225e-07
29	0x35105461	5.376697e-07
30	0x00000000	0.0
31	0x34f4b408	4.5579532e-07
32	0x33e454af	1.0632481e-07
33	0x2eb9de7b	8.4523465e-11
34	0x33f77bc4	1.15243466e-07
35	0x3449bf68	1.8789217e-07
36	0x33e7a4d5	1.07867585e-07
37	0x341a2775	1.4356722e-07
38	0x3410afa8	1.3474948e-07
39	0x340427a6	1.2307882e-07
40	0x2eb9de7b	8.4523465e-11
41	0x3433fa7a	1.6761797e-07
42	0x340509ec	1.23902e-07
43	0x33311fe5	4.1240032e-08
44	0x33a057fc	7.466585e-08
45	0x3437c585	1.711506e-07
46	0x00000000	0.0
47	0x3435a2fe	1.6916235e-07
48	0x35713389	8.985449e-07
49	0x336a0cb4	5.4493924e-08
50	0x35add11f	1.2950367e-06
51	0x35b963e6	1.3812648e-06
52	0x35975b40	1.1276934e-06
53	0x35c26f61	1.4486542e-06
54	0x35c2eae9	1.4522494e-06
55	0x35894f19	1.0230316e-06
56	0x336a0cb4	5.4493924e-08
57	0x35c89527	1.494457e-06
58	0x35d20dd4	1.5650244e-06
59	0x34e7f95a	4.320853e-07
60	0x3542998b	7.2494066e-07
61	0x35d25e71	1.5673705e-06
62	0x00000000	0.0
63	0x35fea68c	1.8972946e-06
64	0x34e12ce7	4.1942187e-07
65	0x339336e6	6.855207e-08
66	0x349c74f8	2.914237e-07
67	0x3515c837	5.5798176e-07
68	0x34b78769	3.418493e-07
69	0x34ec2af7	4.3989687e-07
70	0x34cee326	3.8535762e-07
71	0x34f2f6aa	4.5255484e-07
72	0x339336e6	6.855207e-08
73	0x34d5e707	3.9842436e-07
74	0x34e4528f	4.252838e-07
75	0x34098af9	1.2809677e-07
76	0x3472b65a	2.2604345e-07
77	0x35149cf8	5.5362716e-07
78	0x00000000	0.0
79	0x34d91daf	4.0440997e-07
80	0x34bc4814	3.5070173e-07
81	0x30a23f1d	1.1804989e-09
82	0x34ef89c9	4.461747e-07
83	0x350de802	5.286421e-07
84	0x34d16561	3.9003046e-07
85	0x350bbcee	5.2056464e-07
86	0x35046b6f	4.933017e-07
87	0x34d7881e	4.014591e-07
88	0x30a23f1d	1.1804989e-09
89	0x3519305b	5.706731e-07
90	0x34f8a932	4.6316705e-07
91	0x3421fda6	1.508657e-07
92	0x3489c2e3	2.5660037e-07
93	0x3522a908	6.0595676e-07
94	0x00000000	0.0
95	0x35141845	5.5169613e-07
96	0x35c97380	1.5009282e-06
97	0x3495334d	2.779074e-07
98	0x359ef4bf	1.1843148e-06
99	0x34a655b0	3.0982255e-07
100	0x35c3b72c	1.4581942e-06
101	0x35e9cd12	1.7419536e-06
102	0x35dbd9c5	1.6380151e-06
103	0x35e33804	1.6929121e-06
104	0x3495334d	2.779074e-07
105	0x35e79099	1.7252925e-06
106	0x36033386	1.9550512e-06
107	0x350b3076	5.1852055e-07
108	0x357b2018	9.355149e-07
109	0x361e0dba	2.3551825e-06
110	0x00000000	0.0
111	0x35ed7ad2	1.7693621e-06
112	0x338ddac0	6.6056145e-08
113	0x33c581cb	9.1971366e-08
114	0x33c3e593	9.1221544e-08
115	0x3483d44f	2.4555126e-07
116	0x33d228a4	9.7862795e-08
117	0x340a6348	1.288837e-07
118	0x340c002d	1.303858e-07
119	0x33a597b8	7.711009e-08
120	0x33c581cb	9.1971366e-08
121	0x33f0ef52	1.1219403e-07
122	0x33aeda0b	8.142168e-08
123	0x334e07b9	4.7970136e-08
124	0x33762a7d	5.731498e-08
125	0x340ddd7b	1.3212222e-07
126	0x00000000	0.0
127	0x34141288	1.3790316e-07
128	0x35566bd7	7.987814e-07
129	0x305d545c	8.0519214e-10
130	0x3567143c	8.608365e-07
131	0x362c7165	2.5696002e-06
132	0x35832814	9.771925e-07
133	0x3597dda6	1.1314885e-06
134	0x358ddba1	1.0569239e-06
135	0x357ed26c	9.492858e-07
136	0x305d545c	8.0519214e-10
137	0x35980a17	1.1327819e-06
138	0x3577c4ba	9.2300945e-07
139	0x34ea6c8a	4.366487e-07
140	0x351b4c98	5.785346e-07
141	0x3575ed42	9.161487e-07
142	0x00000000	0.0
143	0x35f03525	1.789686e-06
144	0x3525fad0	6.183227e-07
145	0x321b3f29	9.036548e-09
146	0x35166d5e	5.6038505e-07
147	0x34d7b091	4.017534e-07
148	0x352c8573	6.426919e-07
149	0x35682c64	8.649133e-07
150	0x356e4471	8.8761504e-07
151	0x353944c4	6.901794e-07
152	0x321b3f29	9.036548e-09
153	0x354af2fc	7.560445e-07
154	0x3574ec13	9.1240616e-07
155	0x3495ac55	2.78788e-07
156	0x34e31985	4.2300613e-07
157	0x3587899f	1.0098337e-06
158	0x00000000	0.0
159	0x357a3eab	9.322345e-07
160	0x34d1a0b5	3.9046213e-07
161	0x303d3a19	6.884036e-10
162	0x3511573f	5.414367e-07
163	0x350aae36	5.1662516e-07
164	0x3505863c	4.97417e-07
165	0x352a37e9	6.3411295e-07
166	0x3522e846	6.0687705e-07
167	0x34ed5a70	4.4210492e-07
168	0x303d3a19	6.884036e-10
169	0x3532006a	6.631077e-07
170	0x358ce252	1.0496681e-06
171	0x34606d28	2.0901336e-07
172	0x34a3ef72	3.0535335e-07
173	0x353f9ee6	7.138427e-07
174	0x00000000	0.0
175	0x353411f4	6.708135e-07
176	0x348b8e58	2.5994336e-07
177	0x325d437c	1.2879237e-08
178	0x34adbc9a	3.2360987e-07
179	0x351f33c2	5.9307433e-07
180	0x34960f4c	2.7950807e-07
181	0x34c7778b	3.7153617e-07
182	0x34e7442f	4.3076713e-07
183	0x34980156	2.8313178e-07
184	0x325d437c	1.2879237e-08
185	0x34c93761	3.747946e-07
186	0x34e4c789	4.261349e-07
187	0x33f8c104	1.1583509e-07
188	0x3448a6b8	1.8687103e-07
189	0x34f7694d	4.6083952e-07
190	0x00000000	0.0
191	0x34e08220	4.181793e-07
192	0x3501c50c	4.8342986e-07
193	0x2f8c4b36	2.5519292e-10
194	0x351b2ff7	5.78118e-07
195	0x34f8a245	4.6311666e-07
196	0x352874ab	6.275465e-07
197	0x354df015	7.6717816e-07
198	0x3547ff4d	7.450479e-07
199	0x351c7c07	5.829501e-07
200	0x2f8c4b36	2.5519292e-10
201	0x35492e83	7.494602e-07
202	0x3505799b	4.972332e-07
203	0x34821c0a	2.4234788e-07
204	0x34de644f	4.1423706e-07
205	0x3583f49a	9.831449e-07
206	0x00000000	0.0
207	0x355740c9	8.0188016e-07
208	0x350d4c96	5.263804e-07
209	0x33ce9f84	9.621638e-08
210	0x349e144a	2.9444556e-07
211	0x3468ac7b	2.1669432e-07
212	0x34c335aa	3.6360626e-07
213	0x34f1cd15	4.5038965e-07
214	0x34c31e35	3.634356e-07
215	0x351f69c3	5.938602e-07
216	0x33ce9f84	9.621638e-08
217	0x34c68b4c	3.6981726e-07
218	0x34d4b761	3.9621503e-07
219	0x34287a9f	1.5690829e-07
220	0x347cff43	2.3562193e-07
221	0x3508bcb9	5.0938576e-07
222	0x00000000	0.0
223	0x34d54033	3.9721053e-07
224	0x3488297d	2.536216e-07
225	0x31668d1e	3.354962e-09
226	0x349ad14e	2.8837025e-07
227	0x3453e045	1.9732495e-07
228	0x34a38e94	3.0464855e-07
229	0x34c806c5	3.7257828e-07
230	0x34ceeb30	3.8541612e-07
231	0x349ef298	2.9606304e-07
232	0x31668d1e	3.354962e-09
233	0x34cfb672	3.86895e-07
234	0x348839ae	2.5373942e-07
235	0x341463aa	1.3819832e-07
236	0x345be3f4	2.0478893e-07
237	0x3529e752	6.329402e-07
238	0x00000000	0.0
239	0x34c69ced	3.6994552e-07
240	0x360729d1	2.0140908e-06
241	0x3371a6f4	5.6264028e-08
242	0x35ec8552	1.7622172e-06
243	0x3550bead	7.776351e-07
244	0x35f4ba79	1.8233687e-06
245	0x362475fe	2.4506585e-06
246	0x36107d1e	2.15305e-06
247	0x361937cd	2.2831257e-06
248	0x3371a6f4	5.6264028e-08
249	0x36253018	2.461491e-06
250	0x35ee9f08	1.7778666e-06
251	0x352934af	6.303407e-07
252	0x35a3da9f	1.2208073e-06
253	0x365be278	3.2765365e-06
254	0x00000000	0.0
255	0x362b4d78	2.5526078e-06

exp_avg f4 [128]
0	0xb9d2ac50	-0.00040182704
1	0xb9d87e80	-0.0004129298
2	0x387094a8	5.7358906e-05
3	0x385ca914	5.2609554e-05
4	0xb68764a1	-4.0350283e-06
5	0xb936ee1f	-0.0001744558
6	0x391666a7	0.00014343356
7	0xb9072c2e	-0.00012891061
8	0x39a78f5c	0.00031959533
9	0x3a087ae9	0.00052063033
10	0xb941d46d	-0.00018485049
11	0xb8aef390	-8.3423336e-05
12	0x374daf0d	1.2259709e-05
13	0xb963a4d0	-0.00021709804
14	0xb946b859	-0.00018951426
15	0xb9a2694d	-0.00030977503
16	0xba27515a	-0.0006382667
17	0xb92a3021	-0.00016230393
18	0xb88717f5	-6.441764e-05
19	0xba27c05a	-0.0006399207
20	0xba32260f	-0.00067958323
21	0xb9d52aec	-0.00040658505
22	0xb8902053	-6.872476e-05
23	0xb9a5614a	-0.00031543738
24	0x387d1f37	6.034897e-05
25	0x3853310a	5.035199e-05
26	0xb8ec8876	-0.00011278775
27	0xb9a95477	-0.00032297123
28	0x372b4f22	1.0210819e-05
29	0xb90345bb	-0.0001251911
30	0x397af796	0.00023934091
31	0xb92c931f	-0.00016458005
32	0xb92235f2	-0.0001546962
33	0xb8bfb3af	-9.1410584e-05
34	0xb79ad05b	-1.8455254e-05
35	0xb99dd70e	-0.00030105602
36	0xb949afd1	-0.0001923435
37	0x39c9306b	0.00038373782
38	0xb8b4b0e9	-8.616021e-05
39	0xb7c7c462	-2.3814096e-05
40	0xb824cf80	-3.9293896e-05
41	0xba2d7f49	-0.0006618393
42	0xb96b9adc	-0.00022469036
43	0xb8c9e771	-9.627536e-05
44	0xb9c27474	-0.00037089328
45	0xb96cecec	-0.00022594974
46	0xb9f686c5	-0.00047021187
47	0x3841ba08	4.618804e-05
48	0xb6d69b94	-6.3958087e-06
49	0xb931808a	-0.0001692792
50	0xb916560d	-0.00014337171
51	0x39af488f	0.0003343266
52	0xb91d3826	-0.00014993604
53	0xb99d927f	-0.00030054522
54	0x39645389	0.00021774894
55	0xb88f3e8b	-6.830421e-05
56	0xb9281656	-0.0001603005
57	0xba6234f7	-0.0008629108
58	0x38ce5510	9.8386896e-05
59	0xb941fcd0	-0.00018500094
60	0x3960e0c8	0.00021446042
61	0xb9af78cf	-0.0003346861
62	0xb98f639f	-0.0002734931
63	0xb9543c54	-0.0002024037
64	0xb968b6bb	-0.00022193317
65	0x39cb3905	0.0003876166
66	0x3822279b	3.8660695e-05
67	0xb9014b5e	-0.00012330475
68	0xb88e122f	-6.7744746e-05
69	0x39742948	0.00023285032
70	0xb99a0523	-0.00029376996
71	0xba2b35f7	-0.0006531174
72	0xb9111a15	-0.00013837994
73	0xb9b6f1a9	-0.00034893796
74	0x38b6e58b	8.721192e-05
75	0xb8f041f5	-0.00011456377
76	0x38c77223	9.510319e-05
77	0xb93ca7ba	-0.0001799156
78	0xb7527dc2	-1.2546256e-05
79	0xb97e0589	-0.0002422539
80	0xb91dbc92	-0.00015042935
81	0xb9d6c945	-0.00040967218
82	0xb8eb3a0a	-0.00011216484
83	0xb9b794d8	-0.00035015377
84	0xb95192e5	-0.00019986516
85	0xb7113a45	-8.65624e-06
86	0xb9c457d4	-0.0003744947
87	0xb8ed8809	-0.00011326379
88	0x39a449bd	0.00031335457
89	0xb948aef7	-0.00019138666
90	0xba559e8a	-0.00081489293
91	0xb929ddb0	-0.00016199681
92	0xb9aac6f6	-0.00032573164
93	0xb8ed92fb	-0.00011328418
94	0x3906d163	0.00012857238
95	0x38bef83f	9.1061454e-05
96	0x3900a4f4	0.00012268481
97	0xba0e1086	-0.00054193323
98	0xb9dfda4d	-0.0004269652
99	0xb821933b	-3.852251e-05
100	0xb7c9eb17	-2.407054e-05
101	0xb9ae09c0	-0.0003319513
102	0x391d5ecb	0.00015008
103	0xb9f0d586	-0.00045935455
104	0xb9cf70c1	-0.00039566125
105	0xb919676d	-0.00014629746
106	0x381e9464	3.7808335e-05
107	0x39d3695f	0.00040323564
108	0xb9a78a2d	-0.0003195567
109	0xb9718d55	-0.00023036201
110	0xb9e8eecb	-0.00044428403
111	0xb9c7cb70	-0.0003810781
112	0x395cda8e	0.00021062253
113	0xba1b26b0	-0.00059185456
114	0xb966d91c	-0.00022015389
115	0xb99395fb	-0.0002814977
116	0x390276e7	0.0001244206
117	0x394d3434	0.0001956977
118	0xb7c8f23c	-2.3954657e-05
119	0x38f8903c	0.00011852427
120	0x38846a1e	6.314016e-05
121	0xb91535af	-0.00014229746
122	0xb94bc81c	-0.00019434135
123	0xb9ab594d	-0.00032682196
124	0xb955e9c8	-0.00020400353
125	0xb92d61b5	-0.00016534964
126	0xb86b3ce6	-5.6085082e-05
127	0xb904dd1c	-0.0001267087
