results/offense_run_4/OffensiveRL.onnx (onnx, 83841 bytes, 7 tensors)

network_body.observation_encoder.processors.0.normalizer.running_mean f4 [16]
000000 88 3e 02 3f eb 0d 06 3c 72 9f 96 3d 82 40 76 3f
       0.50876665 0.008182029 0.073546305 0.9619218
000010 f4 44 5a 3f 56 a0 92 3f 04 24 1e 40 8d ab b7 3e
       0.85261464 1.1455181 2.4709482 0.3587307
000020 eb 0d 06 3c 4c 7e 4c bc a6 41 64 3f 76 64 4f 3e
       0.008182029 -0.012481283 0.8916267 0.20253167
000030 37 3b 35 3f 03 67 e4 bd 00 00 00 00 bc f7 87 bc
       0.7079348 -0.111524604 0.0 -0.016597621

network_body._body_endoder.seq_layers.0.weight f4 [128, 16]
000000 37 41 0b 3e bc d7 5b 3e 41 6a 1c 3d 20 b6 ca 3e
       0.13599096 0.21469015 0.03818727 0.39592075
000010 ac 70 45 3e 1a a6 7b 3c 9d 82 15 3c 5f c3 00 bf
       0.19281262 0.015359426 0.009125379 -0.5029811
000020 34 74 d8 bd 28 e9 54 3e db 0b c9 be f0 f8 82 3e
       -0.10569039 0.20792067 -0.39266858 0.2558055
000030 6a 31 cc bc 8b bb 4a 3e 12 7c ac 3e 45 bf a2 be
       -0.024925906 0.19798104 0.33688408 -0.31786552
000040 e7 ac aa 3e a3 ac 76 be 2f 98 dd bd 5a 66 a9 bd
       0.3333504 -0.24089293 -0.10820042 -0.08271475
000050 f9 ba 4a 3e 66 aa c8 3e 70 92 69 be ba 05 8e be
       0.19797887 0.39192504 -0.22809768 -0.27738744
000060 5c 34 da bd 2f 24 cd be d7 05 1c be ef 1e 46 3c
       -0.10654518 -0.40066668 -0.15236603 0.012092336
000070 88 0a 75 bd ff c4 5e 3e 96 84 84 3e aa a9 1c bd
       -0.059824497 0.21754836 0.25882405 -0.03824774
000080 49 eb 01 3d 32 9d 30 3e 6d bb 58 3e 87 ab e4 3d
       0.031718526 0.17247465 0.21165247 0.11165529
000090 9b c7 02 bf 35 35 95 3d 15 42 aa 3d a3 31 39 be
       -0.51085824 0.07285539 0.083133854 -0.18085341
0000a0 9b 9a 6f 3e 5f 3d e6 be 70 63 a7 bd 2d 26 cd bd
       0.23398821 -0.44968697 -0.08173263 -0.10017047
0000b0 10 40 22 3e 01 db 87 be 37 f7 a0 3d b0 26 07 3e
       0.1584475 -0.26534274 0.078596525 0.13198352
0000c0 da f2 e5 bd 68 ad 9f 3e 33 8a 71 3e 6b 72 3d be
       -0.11227961 0.31186986 0.23587875 -0.18500678
0000d0 aa d8 b6 bc 6a 6f 0e 3e f9 04 06 bd 00 4f 15 be
       -0.02232011 0.13909689 -0.032719586 -0.14580917
0000e0 e3 68 e6 be 40 66 f8 be 68 85 78 3e 4d e7 56 be
       -0.45001897 -0.4851551 0.2426964 -0.20986672
0000f0 2a 7b 90 be 95 c7 fa 3e 72 14 92 bc a7 8c 83 be
       -0.28218967 0.48980394 -0.017832015 -0.25693247
000100 09 90 3b be b9 1d 7e 3e db 28 21 3e 45 21 bf bd
       -0.18316664 0.24816026 0.15738241 -0.093325175
000110 bc 87 e9 bb a5 db e7 bd 82 7a c5 3d 43 58 42 be
       -0.0071267765 -0.11321191 0.09642507 -0.18978982
000120 36 4c f5 be 3c 9e e7 be af ba 8b be 42 b0 70 3e
       -0.47909707 -0.4523791 -0.27290866 0.23504737
000130 f7 40 27 3d 9e 7a 80 3d e5 91 8e 3e 78 6e 17 3d
       0.04083344 0.06273387 0.27845684 0.036970586
000140 8b a0 d0 3e 6a 1f 23 be 40 80 ec bc 04 ee 5c 3e
       0.40747485 -0.15929952 -0.028869748 0.21575171
000150 d6 45 8a bd 97 6b 8f 3e 6d a2 ab bc 20 b6 85 bc
       -0.067516014 0.28011772 -0.020951474 -0.016322196
000160 4f d7 a5 bc 52 89 ed be 48 13 66 3e 97 7c 74 be
       -0.020244269 -0.4639383 0.22468293 -0.23875652
000170 84 09 5b bd 23 48 71 3d ac d4 da 3e d6 9b f1 3c
       -0.05347587 0.058906686 0.4274038 0.029493254
000180 12 ba 1f 3d 2c a8 2a bd 57 69 e3 3e 17 e9 21 be
       0.03899581 -0.041664287 0.44416305 -0.15811573
000190 a9 17 f9 3e 7d cd 91 be 1f 86 03 bd 4e 10 3d 3d
       0.48650864 -0.28477088 -0.03211033 0.046158127
0001a0 1b 90 2b be ea 18 89 bd ec aa 39 be 7d 4f 2e 3e
       -0.1675419 -0.06694205 -0.18131608 0.1702251
0001b0 5a 94 1d bc 08 bd cb 3b 25 e7 98 3e 49 c8 ef bd
       -0.009617889 0.0062176026 0.2986385 -0.11708123
0001c0 a3 17 f1 bd be 13 46 be 6b 21 a3 be 4b 9b 51 bd
       -0.117720865 -0.19343469 -0.31861433 -0.05117349
0001d0 69 08 45 bd b0 c6 06 be 3d 72 8a bd a5 92 8d 3a
       -0.048103724 -0.13161731 -0.067600705 0.001080115
0001e0 3d 96 5d 3e 8e 5d 61 be 45 4d 06 be 8f c8 7f bd
       0.21639343 -0.22008345 -0.13115413 -0.062447127
0001f0 e7 fb cf be 0d 03 07 3e db e6 95 3b 22 52 ae be
       -0.40621874 0.13184758 0.0045746393 -0.34047037
000200 16 da d4 3c 04 40 c1 3d 15 24 6c 3c 7d 49 54 3e
       0.025982898 0.09436038 0.0144128995 0.20731159
000210 6c df 3d 3e 5f b1 c9 bd f9 27 4d 3c 26 c5 84 be
       0.1854226 -0.09848284 0.012521737 -0.25931662
000220 71 47 4f 3e 50 6a 6c be 73 f5 4e 3d ca 8d 3b be
       0.20242096 -0.2308743 0.050527047 -0.18315807
000230 e6 5a 8b 3e 81 3f 31 3e 25 97 8e bd 90 9c 84 bd
       0.27217788 0.17309381 -0.06962422 -0.064751744
000240 51 0d a4 be ab 1c a0 be 40 75 86 3e 72 ec 49 be
       -0.3204141 -0.31271872 0.2626133 -0.19719103
000250 ad bc d6 3d 9e 50 1d 3e 06 19 a6 bb 79 74 c1 3d
       0.10485206 0.15362784 -0.005068901 0.094460435
000260 2f b4 d8 3d e9 ab 9e 3d 61 1e 95 3e 26 1d 83 be
       0.10581242 0.07747633 0.2912474 -0.25608176
000270 43 97 8f 3e 22 a6 60 be 7b 27 4a 3e 57 2b 7f be
       0.2804509 -0.21938375 0.19741623 -0.24918877
000280 ed 16 91 3e f6 1c 9a 3e 6b 01 c4 3e 5f 4d 01 be
       0.28337803 0.3010022 0.38282332 -0.12627171
000290 db 01 68 3e 96 78 2e 3c cf 9a 9b be 8b 1c 1f 3d
       0.22656958 0.010648867 -0.30391547 0.03884558
0002a0 18 66 c7 3e 13 ce e7 be 3b a2 9c 3e 0c 9c 24 be
       0.3894508 -0.4527441 0.30592522 -0.16075152
0002b0 77 fb 23 3f 10 6e 9b 3e 52 d4 a8 be dc 5c 45 3e
       0.6405558 0.3035741 -0.32974488 0.19273704
0002c0 87 43 59 3e c2 73 a1 3d 98 98 bf 3c e2 51 2b 3f
       0.21217166 0.07883407 0.023388192 0.6692182
0002d0 7d fd 98 3e ab bf ab 3e 42 ad ac 3d ab 80 a9 3d
       0.29880896 0.3354467 0.08431484 0.082764946
0002e0 7c 42 cc 3d 0b a5 95 3e 77 c7 07 3d 78 9e e9 3d
       0.099736184 0.2922748 0.03314921 0.11407179
0002f0 54 1a ea 3d ff 8b 2e 3c 41 c5 97 3e 4f de 2e 3e
       0.11430803 0.010653495 0.2964268 0.17076991
000300 35 65 ec bb 4c bd 4c be 6d 6b a0 3e 8f 92 a6 3e
       -0.0072142133 -0.19994086 0.3133196 0.3253369
000310 aa 6e 18 3d fc 27 f0 3d 82 c6 dd be 20 1c 10 3e
       0.037214912 0.117263764 -0.43315512 0.14073229
000320 a8 89 24 be 96 b5 55 be db f6 42 be 81 11 b5 3e
       -0.16068137 -0.20870051 -0.1903948 0.35364917
000330 33 d5 19 bf eb 3f 40 be 89 52 b3 3d 00 76 43 bd
       -0.6009094 -0.18774383 0.08755977 -0.047719955
000340 17 c9 ca 3c 8b cd 0f bf 36 45 51 be 39 e2 71 be
       0.02475409 -0.5617301 -0.20436558 -0.23621453
000350 ff 29 83 3e bb d6 04 be 2b e9 99 bc 24 2c 9e bd
       0.25617978 -0.12972538 -0.018787941 -0.07723263
000360 e4 c7 5d be a0 13 2a 3e 0f 8f 3c be 80 89 f9 bc
       -0.21658283 0.16609049 -0.18413948 -0.030461073
000370 e3 ba 0c be 82 d6 54 be 35 e1 b1 be d9 f8 f1 be
       -0.13743167 -0.20784953 -0.34742132 -0.47260168
000380 24 c7 0c 3e e2 67 d4 3d 58 bc 63 be cd 1b 0c 3f
       0.13747841 0.103713766 -0.22239816 0.5472992
000390 f4 0f c7 3d b0 58 2f 3e ec 64 0b 3f 36 1b 55 bd
       0.0971984 0.17123675 0.5445087 -0.052027903
0003a0 2e 12 51 3e cf ff 3b be 79 24 cc be 8b e2 50 3e
       0.20417091 -0.18359302 -0.39871576 0.2039892
0003b0 8e d1 64 3c c1 c4 79 bd 5a 0f d3 3d 71 70 11 be
       0.013965977 -0.060978655 0.103056625 -0.14203049
0003c0 06 5c 8a 3e 04 06 41 bc 2e 82 81 bd ba 01 03 3e
       0.27023333 -0.011781219 -0.06323658 0.12793627
0003d0 46 38 cb bd cd 74 9e be e4 6c 80 be 85 62 29 3e
       -0.09922843 -0.30948487 -0.25083077 0.16541488
0003e0 0c aa 50 3c cf 51 70 bd aa 6a 0a be 94 0e bf 3e
       0.012735855 -0.05867177 -0.13517252 0.3731581
0003f0 c2 b5 eb bd fc 18 42 3e d1 e1 16 bd 34 46 b9 3b
       -0.11509277 0.18954843 -0.03683645 0.005654121

network_body._body_endoder.seq_layers.0.bias f4 [128]
000000 00 00 00 00 00 00 00 00 00 00 00 00 00 00 00 00
       0.0 0.0 0.0 0.0
000010 00 00 00 00 00 00 00 00 00 00 00 00 00 00 00 00
       0.0 0.0 0.0 0.0
000020 00 00 00 00 00 00 00 00 00 00 00 00 00 00 00 00
       0.0 0.0 0.0 0.0
000030 00 00 00 00 00 00 00 00 00 00 00 00 00 00 00 00
       0.0 0.0 0.0 0.0
000040 00 00 00 00 00 00 00 00 00 00 00 00 00 00 00 00
       0.0 0.0 0.0 0.0
000050 00 00 00 00 00 00 00 00 00 00 00 00 00 00 00 00
       0.0 0.0 0.0 0.0
000060 00 00 00 00 00 00 00 00 00 00 00 00 00 00 00 00
       0.0 0.0 0.0 0.0
000070 00 00 00 00 00 00 00 00 00 00 00 00 00 00 00 00
       0.0 0.0 0.0 0.0
000080 00 00 00 00 00 00 00 00 00 00 00 00 00 00 00 00
       0.0 0.0 0.0 0.0
000090 00 00 00 00 00 00 00 00 00 00 00 00 00 00 00 00
       0.0 0.0 0.0 0.0
0000a0 00 00 00 00 00 00 00 00 00 00 00 00 00 00 00 00
       0.0 0.0 0.0 0.0
0000b0 00 00 00 00 00 00 00 00 00 00 00 00 00 00 00 00
       0.0 0.0 0.0 0.0
0000c0 00 00 00 00 00 00 00 00 00 00 00 00 00 00 00 00
       0.0 0.0 0.0 0.0
0000d0 00 00 00 00 00 00 00 00 00 00 00 00 00 00 00 00
       0.0 0.0 0.0 0.0
0000e0 00 00 00 00 00 00 00 00 00 00 00 00 00 00 00 00
       0.0 0.0 0.0 0.0
0000f0 00 00 00 00 00 00 00 00 00 00 00 00 00 00 00 00
       0.0 0.0 0.0 0.0
000100 00 00 00 00 00 00 00 00 00 00 00 00 00 00 00 00
       0.0 0.0 0.0 0.0
000110 00 00 00 00 00 00 00 00 00 00 00 00 00 00 00 00
       0.0 0.0 0.0 0.0
000120 00 00 00 00 00 00 00 00 00 00 00 00 00 00 00 00
       0.0 0.0 0.0 0.0
000130 00 00 00 00 00 00 00 00 00 00 00 00 00 00 00 00
       0.0 0.0 0.0 0.0
000140 00 00 00 00 00 00 00 00 00 00 00 00 00 00 00 00
       0.0 0.0 0.0 0.0
000150 00 00 00 00 00 00 00 00 00 00 00 00 00 00 00 00
       0.0 0.0 0.0 0.0
000160 00 00 00 00 00 00 00 00 00 00 00 00 00 00 00 00
       0.0 0.0 0.0 0.0
000170 00 00 00 00 00 00 00 00 00 00 00 00 00 00 00 00
       0.0 0.0 0.0 0.0
000180 00 00 00 00 00 00 00 00 00 00 00 00 00 00 00 00
       0.0 0.0 0.0 0.0
000190 00 00 00 00 00 00 00 00 00 00 00 00 00 00 00 00
       0.0 0.0 0.0 0.0
0001a0 00 00 00 00 00 00 00 00 00 00 00 00 00 00 00 00
       0.0 0.0 0.0 0.0
0001b0 00 00 00 00 00 00 00 00 00 00 00 00 00 00 00 00
       0.0 0.0 0.0 0.0
0001c0 00 00 00 00 00 00 00 00 00 00 00 00 00 00 00 00
       0.0 0.0 0.0 0.0
0001d0 00 00 00 00 00 00 00 00 00 00 00 00 00 00 00 00
       0.0 0.0 0.0 0.0
0001e0 00 00 00 00 00 00 00 00 00 00 00 00 00 00 00 00
       0.0 0.0 0.0 0.0
0001f0 00 00 00 00 00 00 00 00 00 00 00 00 00 00 00 00
       0.0 0.0 0.0 0.0

network_body._body_endoder.seq_layers.2.weight f4 [128, 128]
000000 20 ee 41 3e a4 ad 0f bd c7 e2 f1 3d 3b b8 8e bb
       0.18938494 -0.035077706 0.118108325 -0.004355458
000010 05 f0 be 3d 36 fa 1e be 61 7f b8 bd 3b fa 6e bd
       0.09323124 -0.15525135 -0.090086706 -0.058344107
000020 3e a9 84 3d 86 e1 3f 3d 07 0b a5 bb e3 ac 58 3d
       0.06477593 0.046845935 -0.005036715 0.052899253
000030 34 03 9d bd 2b b7 15 be 87 a1 c5 bd c3 8e 26 3e
       -0.076666266 -0.14620654 -0.096499495 0.16265397
000040 77 87 ec bd 2a a1 44 bd c9 07 14 3e ba 51 ad bd
       -0.11549275 -0.04800526 0.14456095 -0.08462854
000050 fd 3d 86 bd fd 36 4d 3c ca 1f 87 3d c8 a2 31 3d
       -0.06554792 0.012525317 0.0659786 0.04336813
000060 cb 27 68 bd 8f a4 65 bd a0 80 a4 bd 08 60 04 be
       -0.056678575 -0.05606514 -0.08032346 -0.12927258
000070 05 c1 7f 3d ca dd b9 3d 5d a3 57 3d b5 3e cc 3d
       0.062439937 0.09075506 0.05264603 0.09972898
000080 02 c0 a5 3d d7 8e a2 bc cb a3 e7 bc 51 df d5 bd
       0.08093263 -0.019843502 -0.028276345 -0.10442985
000090 36 fe a0 bd 19 0a f1 3d 2b 5a 11 bd 60 ca 9c bd
       -0.07860987 0.11769504 -0.03548638 -0.076557875
0000a0 27 5b 7a bd d8 24 7e 3d f2 4c 1e 3d 27 71 ff bd
       -0.061122086 0.062046856 0.0386476 -0.12472754
0000b0 04 ef 6e bd 40 99 0a 3e f7 c3 09 3c 64 90 24 bd
       -0.05833341 0.13535023 0.008408538 -0.040176764
0000c0 7e 68 50 bc 92 24 27 3e 53 07 00 be 48 6d 49 bc
       -0.012720225 0.16322544 -0.12502794 -0.012294121
0000d0 18 92 d7 bd 6a 23 df 3d 2f 1f d8 bb a8 e0 31 3d
       -0.10525912 0.108954266 -0.0065955142 0.04342714
0000e0 a2 b5 6f bd 2a e8 98 bd 0f ca 34 3d 48 5a ee 3c
       -0.058522828 -0.07466157 0.04413801 0.029095784
0000f0 42 b8 25 3d d4 1c d1 3d dd a5 2e bd 27 2c 4d 3d
       0.040458925 0.10210577 -0.04263865 0.050090935
000100 bb 0b 0e 3d fa 45 be 3d 06 25 08 be d5 ee ab bd
       0.034679156 0.09290691 -0.13295373 -0.08395163
000110 f2 bc c3 bd eb ce bb 3d 13 54 b2 3d 5a 34 5f bd
       -0.09557523 0.09170326 0.08707442 -0.054493286
000120 17 e8 f3 bd 48 a7 33 3d ef 56 06 bd 8d d4 08 be
       -0.11909502 0.043860704 -0.03279775 -0.13362332
000130 48 44 17 3e 25 c8 a7 3d a7 9b 53 bc b4 0d 31 be
       0.14772141 0.081924714 -0.012915528 -0.17290384
000140 dd 71 f0 bd 12 00 d4 bd a5 5a 43 3d c4 9c a0 3c
       -0.11740468 -0.10351576 0.047693867 0.019606002
000150 b2 5d a2 bc 32 e7 a4 bc b8 ab 09 3e f4 dd 49 bd
       -0.019820068 -0.020129774 0.13444412 -0.049283937
000160 8c b2 cf 3d ea 67 83 bd aa 7a c5 bd e5 3e 69 3d
       0.10141477 -0.064163044 -0.09642537 0.056944747
000170 50 1a e7 bd 3c e6 3a 3d 93 6c a0 3b ed 1b 68 be
       -0.112843156 0.045629725 0.0048957556 -0.22666903
000180 19 e9 34 3d 1f f8 59 3d d8 d9 49 bc fe 23 a5 bc
       0.04416761 0.053215142 -0.012320004 -0.020158764
000190 ab c6 c5 3d 11 1b 0e 3d 2a e1 3a bd f7 26 34 3d
       0.096570335 0.03469378 -0.04562489 0.043982472
0001a0 ee 97 84 bd 64 d3 39 3d c1 c6 d6 3d 73 db af bd
       -0.06474291 0.045367613 0.10487128 -0.085867785
0001b0 f2 3a 4a be 93 9b 4e 3d 8c 11 1e 3e 6c f7 85 bd
       -0.19749048 0.050441336 0.15436381 -0.065413326
0001c0 14 3f 02 bc a1 e4 e6 bd 8d 76 32 bd 20 d3 38 be
       -0.007949609 -0.11274076 -0.04357009 -0.18049288
0001d0 21 e1 b3 ba 01 1a d2 3c 98 b7 cc bc 35 fc 19 bd
       -0.001372371 0.025647165 -0.024989888 -0.03759404
0001e0 f7 3d 35 3d c1 a8 02 3e 1e 8a a0 bd 19 42 35 3d
       0.044248547 0.12759687 -0.07838844 0.04425249
0001f0 44 69 01 3e 0f c5 4f bd fc f4 ae bc 02 b1 ae 3d
       0.12637812 -0.05072504 -0.021357052 0.08529855
000200 4e be 5b 3d 1b 38 83 be 15 1e 07 3d f1 b8 cf 3b
       0.053648286 -0.25628743 0.032987673 0.0063391854
000210 39 f5 a5 bb 73 eb cc 3d 10 42 b4 3c 60 50 88 bc
       -0.005064633 0.10005846 0.022004157 -0.016639888
000220 19 1f be 3d a3 57 e1 bc e2 11 e7 bb 38 91 56 3d
       0.09283275 -0.027507609 -0.0070516923 0.052384585
000230 d7 ea f1 3c 50 6b 55 3d ba 73 14 bd 4c 0c f0 bc
       0.029530926 0.052104294 -0.036243178 -0.029302739
000240 4c 59 f7 bc e3 ed 87 bd 03 24 f7 3d f9 92 3a 3d
       -0.030193947 -0.0663717 0.120674156 0.04555032
000250 92 3e 1d 3e c0 5b 2d 3e 3b e0 b3 3d ec 96 ee 3d
       0.153559 0.16929531 0.08783003 0.1164988
000260 52 41 c0 bd 0a a7 c1 bd ec 1a 1c 3c 2c f6 27 bd
       -0.09387459 -0.09455688 0.009527903 -0.041006252
000270 81 15 fe 3d 7c 98 07 3e cb 09 06 3d 9a f1 a4 3d
       0.12406445 0.13241762 0.032724183 0.08053894
000280 25 e8 30 be c1 d2 80 bd b0 a3 9f 3c 72 bf 3a be
       -0.17276056 -0.06290198 0.019487232 -0.18237093
000290 e2 73 bc 3d 84 cd 39 3c 83 8a 6b bc ea 5b b3 bc
       0.092017904 0.011340503 -0.0143762855 -0.021894414
0002a0 04 c9 b8 3d 9c 80 b8 bc 9d 0d 42 3d 98 89 8a bb
       0.09022716 -0.022522263 0.047376264 -0.0042278282
0002b0 7d cd 87 bd 00 0f 4b 3d 39 2e 82 3c ce 5d 34 b9
       -0.06630991 0.049574852 0.015891181 -0.00017201083
0002c0 a5 d7 72 3d 40 d7 b0 bc 5f e1 34 be 91 be 60 3d
       0.059287686 -0.021587014 -0.17664097 0.05486924
0002d0 fd fe af bc d4 7c 1e be 27 84 36 bd ad b2 90 bc
       -0.021483893 -0.15477306 -0.044559624 -0.017663324
0002e0 52 06 97 3d fb 81 1b be cf 98 3f bd 42 ac 0b be
       0.073742524 -0.15186302 -0.04677659 -0.1363993
0002f0 06 cf 33 3e 4f fc 82 bd 61 58 8e bd fe 3d b8 bc
       0.17559442 -0.0639578 -0.06950451 -0.022490498
000300 5a e3 2a 3e 93 f8 74 3c 8d 25 28 3d d6 78 8a bd
       0.1668829 0.014951843 0.041051436 -0.06761329
000310 7e 36 07 3d 28 6a d3 3c d5 2c 80 3d 55 6e 3f 3e
       0.033010952 0.025807455 0.06258551 0.18694432
000320 6a 03 30 3d cd 55 12 bd 01 16 33 bb b7 c9 06 be
       0.042972006 -0.035726357 -0.0027326348 -0.13162886
000330 29 84 02 3d 48 dc 49 3e e7 d7 8e 3d 40 90 cb 3d
       0.03186432 0.19712937 0.06974774 0.09939623
000340 cf 1a 87 3d 1b 07 55 3d 03 9f 76 3d 99 35 92 3c
       0.0659691 0.05200873 0.06021024 0.017847823
000350 c6 76 7b 3c 9a d4 d2 bd de b6 1d bd 15 f7 a9 3d
       0.015348142 -0.10294457 -0.038504474 0.0829908
000360 9f e1 12 3d 89 f2 70 bd 17 1d 58 bd e3 18 bd 3d
       0.0358597 -0.05882505 -0.052762117 0.092332624
000370 ab d7 95 3d 78 dd b6 bc f6 c6 8d bd ea f3 ae bd
       0.07316526 -0.022322401 -0.069227144 -0.08542617
000380 66 52 73 3d 60 ab a0 bb 96 19 d3 bd ac c8 9d bc
       0.059404753 -0.004903242 -0.103076145 -0.019260727
000390 d4 82 f7 3c a9 c1 bb 3d 02 5b 0d 3d a6 c9 f5 3d
       0.03021375 0.09167797 0.03451062 0.12001352
0003a0 50 b0 2b 3c 59 88 e7 bd d6 14 42 bd da 99 01 bd
       0.010479048 -0.11305303 -0.047383152 -0.031640865
0003b0 ab 6b 0a be a7 39 ab 3d b4 27 95 3d 19 f4 42 3e
       -0.13517635 0.08360606 0.072829634 0.19038428
0003c0 5b a4 16 bd e4 65 bb bd fb 83 33 bd 5a ae 1d 3c
       -0.036777835 -0.091502935 -0.04382704 0.009624088
0003d0 3d e8 44 3d 6f 79 df bc bc a6 8b 3d 2c 29 9e 3c
       0.048073042 -0.027279584 0.068189114 0.019306742
0003e0 9e c2 84 3c d4 bc 1d 3c ff a6 44 3c 46 06 c8 3d
       0.016206082 0.00962754 0.012002706 0.097668216
0003f0 76 d4 3c bc 68 68 43 3e 26 b3 24 3d 9c 8c db 3d
       -0.011525264 0.19082797 0.04020991 0.107201785

action_model._discrete_distribution.branches.0.weight f4 [7, 128]
000000 ba 86 95 ba 53 c2 06 3a 8a 96 45 bc 48 24 7f ba
       -0.001140795 0.0005140651 -0.012059817 -0.00097328844
000010 5f 90 f1 bb c3 84 40 38 10 e9 2e bb d7 b2 21 bc
       -0.0073719467 4.590001e-05 -0.002668921 -0.009869299
000020 9f 5f 6c bc 82 2c 58 bb 50 97 6c b9 93 47 42 bb
       -0.014427095 -0.0032985513 -0.00022563082 -0.0029644712
000030 7f 55 cc bb ad 7f 72 bb 56 cd 2b bb e0 02 9d bb
       -0.006235778 -0.003700237 -0.002621492 -0.0047916025
000040 2b bf 63 3b 77 bc 6e bb 54 c0 95 3b 00 de d2 3b
       0.0034751396 -0.0036428252 0.0045700464 0.006435156
000050 f3 ee 54 3c 33 03 f1 3a 63 a7 2b 3c 00 cd 6c bb
       0.012996423 0.0018387794 0.01047692 -0.0036132932
000060 e5 8f 5e bb 93 0b f9 3a d3 52 92 3b ab ee 9f 3b
       -0.003396028 0.0019000642 0.00446544 0.0048807464
000070 8e 22 8f ba 7c dd b7 39 61 13 04 3c b8 5b 18 bb
       -0.0010920332 0.000350695 0.008061261 -0.0023248028
000080 9b 86 0f bc 57 35 68 3b 20 de 62 3b 37 80 90 bb
       -0.00876012 0.0035432184 0.003461726 -0.0044098157
000090 0b 6b 31 3c 12 01 0f bc 39 e6 13 bc 1b cd a0 3a
       0.010828744 -0.0087282825 -0.009027057 0.0012268157
0000a0 a8 57 6f bb b2 70 fd ba 45 7c 63 bb 98 84 18 bc
       -0.0036520753 -0.0019335954 -0.0034711522 -0.009308957
0000b0 70 fd e3 bb 45 03 4c 3b 7b 5f b0 bb 2b cf 93 3c
       -0.0069577023 0.0031129878 -0.005382476 0.018043121
0000c0 c8 f4 bb ba 8b 3a 8d 3b 4f d9 92 bb 53 1a 0b bc
       -0.0014339918 0.0043099574 -0.0044814716 -0.008490163
0000d0 bc 59 21 3b 27 ae e8 bb ef 18 8a ba db 39 2d 3c
       0.0024620136 -0.0071008387 -0.0010535995 0.010572876
0000e0 c5 78 53 3c 77 1b cd bb 2c 72 04 bc 51 39 85 3b
       0.012907212 -0.0062593776 -0.008083861 0.0040656705
0000f0 a7 cc 61 3c 4e 2c 08 bc a0 46 42 3c ed 0a 51 3b
       0.013781703 -0.008311344 0.011857659 0.0031897381
000100 b5 5a d4 bb 0d ac ae bc 54 32 81 3b b3 d9 d7 bb
       -0.0064805397 -0.021322275 0.003942767 -0.006587231
000110 c4 53 23 bc a8 99 43 3c 14 b0 95 bb 67 16 c6 bc
       -0.009968702 0.01193849 -0.0045681093 -0.024180604
000120 eb cb ee 3b 1d aa a9 3a 67 67 6c 3c 6f cd fe bb
       0.0072874925 0.0012944374 0.01442895 -0.0077759544
000130 7b 9e 92 3c 35 ca fe 3a 1a 50 32 3c 0e 1e 9c 3b
       0.017897835 0.0019438925 0.0108833555 0.004764325
000140 ed 50 6a bb da 46 f2 3b 0b c1 53 3c af cd f9 ba
       -0.0035753802 0.0073937 0.012924443 -0.0019058491
000150 b0 17 5c bb 3e c2 1b b9 73 c5 7d 3b 6a 13 fa 39
       -0.0033583455 -0.00014854313 0.0038722425 0.0004769818
000160 29 0d b7 3a e5 26 63 3b ec 31 83 3b 03 4e 71 bc
       0.0013965714 0.0034660634 0.004003754 -0.014728072
000170 1d bc 4e 3c 48 7e e2 bb df 8f 91 b9 4b 37 b2 3b
       0.012618092 -0.0069120266 -0.00027763747 0.0054387203
000180 88 44 4e bc bf 1e c3 bb bf 24 63 bb 8f d9 9e 3b
       -0.012589581 -0.005954593 -0.0034659354 0.0048477123
000190 1b d8 b7 ba 93 40 f6 ba 0b e4 8d 3b 13 91 cb 3b
       -0.0014026196 -0.0018787555 0.0043301634 0.0062123626
0001a0 ff 34 e6 3b b3 c8 21 3c 40 f8 12 3c 86 77 1f bc
       0.0070253606 0.009874511 0.00897032 -0.009733086
0001b0 bb b6 28 bb c7 65 ff ba 9b 65 46 3c 7e 94 1d 3c
       -0.0025743681 -0.0019485288 0.012109186 0.009617923
0001c0 25 b7 c0 bb 5f 5a 62 bb 90 c7 d4 3a f2 d0 23 3a
       -0.0058812075 -0.0034538729 0.0016233791 0.0006249092
0001d0 d5 13 9d 3b 5c 5b 05 3b 00 d0 0b 3c 25 10 05 bc
       0.004793624 0.0020348644 0.008533478 -0.008121525
0001e0 85 cf aa 3b cb d1 30 3c b8 eb 15 3c f7 4b 99 3c
       0.0052127265 0.010792206 0.009150438 0.01871298
0001f0 b0 18 57 bc 79 63 29 3b e1 5c 30 bc 10 07 3b 3c
       -0.013128445 0.0025846644 -0.010764332 0.011415258
000200 33 e1 3a bc 57 0a 86 3c 8c 4d c0 bb 71 63 24 bc
       -0.011406231 0.016362352 -0.0058686193 -0.010033474
000210 00 d6 25 3c 63 c3 4b bb e5 81 e9 3b 59 3f 9b bb
       0.010121822 -0.0031091801 0.0071260803 -0.0047377762
000220 e3 57 44 bc 4d d0 6f bc 00 6f e4 ba cd 37 ca 3a
       -0.011983844 -0.014637065 -0.00174281 0.0015428007
000230 a5 ec 74 3b 95 57 91 bb 68 10 b8 3a 02 ca 7e 3c
       0.0037372496 -0.0044354894 0.0014042975 0.015551092
000240 53 34 cd bc 60 aa 96 bb aa 73 63 3c 7c 7c b0 3b
       -0.025049364 -0.004597947 0.013882557 0.0053859334
000250 8b 92 19 bc 8e 84 8e 3c 09 d7 8f bb 18 8b 2d bc
       -0.0093733175 0.017397191 -0.004389648 -0.010592245
000260 6b 72 56 bb 03 d1 59 bc 43 9d 2c b9 60 92 84 bb
       -0.0032722007 -0.013294461 -0.00016461783 -0.0040457696
000270 5b 18 87 3b 85 d1 8c 3a c2 20 d7 3b df 1c ae bb
       0.0041227764 0.0010743594 0.0065651843 -0.0053135003
000280 b8 17 07 3c 93 06 16 3c 01 b2 93 3b cb 6d ce 39
       0.008245401 0.009156841 0.0045073037 0.00039373184
000290 dc 08 40 3b 62 00 84 ba ea 82 eb 3a 8f 53 e8 bb
       0.0029302156 -0.0010070915 0.0017968093 -0.007090039
0002a0 27 c3 84 bc e2 3c 78 3c 70 b0 4f bc 99 a2 16 bc
       -0.016206337 0.015151234 -0.012676343 -0.00919404
0002b0 5b 83 36 bc 6b 41 1c bb 59 ab b2 bb 9b c6 09 3c
       -0.011139716 -0.0023842703 -0.005452555 0.008409168
0002c0 0a 68 d9 3b 47 ae 03 3c ed 91 56 3c f2 ec 1d bc
       0.006634717 0.008037156 0.013096315 -0.009639012
0002d0 c7 88 26 3b aa ff d8 38 00 2d 7d 38 5f dd 34 bc
       0.0025411115 0.00010347304 6.036181e-05 -0.011039107
0002e0 65 ea 51 bc a3 66 12 3c 96 87 cc 3a 70 aa 50 3c
       -0.012812232 0.008935603 0.0015604373 0.012735948
0002f0 1f 29 f4 39 87 3f 9f 3b 25 a1 71 3c dd 57 c3 3c
       0.00046569944 0.004859868 0.0147478925 0.023845607
000300 e7 e6 8d bb 6d 4c 78 bb b3 ff d1 3b e5 04 3e bb
       -0.004330504 -0.003788735 0.0064086556 -0.0028994617
000310 30 92 b7 3b 8d d9 f0 ba 5a de 6b bb a9 f1 a3 bc
       0.0056021437 -0.0018375382 -0.0035990686 -0.020012693
000320 7b 5c 08 bb 4d 8d 40 bc f2 c4 6d bc 26 3f 0b bc
       -0.0020807076 -0.011752439 -0.014512287 -0.0084989425
000330 91 99 81 39 df 73 b0 bb 53 1b b5 ba 5d ed d7 3b
       0.00024719213 -0.0053849067 -0.0013817347 0.006589575
000340 e5 3c 27 bc 06 fc 1a 3b 4d 62 67 bb fd 71 f4 3b
       -0.0102073895 0.0023648753 -0.0035306395 0.0074598775
000350 c7 20 07 ba 49 5a 4a 3b b6 4f 83 bb cb 77 b8 3a
       -0.00051547255 0.0030876568 -0.004007305 0.0014073787
000360 86 33 06 3c 65 5d db 3b 14 11 8a bc 5c 69 0f bb
       0.008190995 0.006694483 -0.016853847 -0.0021882867
000370 e6 84 8d 3b a9 c7 09 bc 57 b2 df ba 4c 8f 92 3c
       0.0043188212 -0.008409419 -0.0017066699 0.017890595
000380 92 04 02 bb c7 88 1a bc d0 c2 77 bb 27 20 4b bb
       -0.001983915 -0.009432024 -0.0037805326 -0.0030994506
000390 c3 93 e8 bb 93 0c a7 3b df 28 03 3b 3f f1 86 3c
       -0.0070976927 0.0050979345 0.0020013375 0.016472457
0003a0 fb f0 e4 3b fd 3c 95 3b 5a 60 a0 b9 bb 8e 70 ba
       0.006986735 0.0045543895 -0.00030589366 -0.0009176542
0003b0 b0 e3 02 3b cb 0e d1 3a 7b 72 9b ba 18 69 bf bb
       0.0019972138 0.0015949843 -0.0011859679 -0.0058413856
0003c0 9b f4 ae 3a 64 28 8e 3c fe e5 09 ba 08 47 40 3c
       0.0013348045 0.017353244 -0.0005260407 0.011735685
0003d0 f2 1e 5b 3c 72 0f 8e 3c c8 ad cf 3c c2 21 3e 3c
       0.013374077 0.01734135 0.02535142 0.011604728
0003e0 b3 d5 4c bc 8b 5b ed 3b 1d 1a e8 38 90 71 57 bc
       -0.012502122 0.007243579 0.00011067486 -0.013149634
0003f0 41 9b 15 3c f8 19 4d bc 64 7f 2a 3a 99 ce 9b 3a
       0.009131254 -0.012518398 0.0006503968 0.0011887132

action_model._discrete_distribution.branches.0.bias f4 [7]
000000 00 00 00 00 00 00 00 00 00 00 00 00 00 00 00 00
       0.0 0.0 0.0 0.0
000010 00 00 00 00 00 00 00 00 00 00 00 00
       0.0 0.0 0.0

onnx::Div_52 f4 [16]
000000 9b 36 9f 3f 9b e1 27 3c 78 2a 32 3f 92 8f 0b 3e
       1.2438539 0.01024666 0.6959605 0.13628986
000010 65 92 79 3f 5b 1d 7b 3f 2a ee 05 40 3b 1f 88 3f
       0.97489005 0.9809167 2.0926614 1.0634531
000020 9b e1 27 3c 1e 9a 00 3f b6 d1 63 3e f5 d4 cd 3e
       0.01024666 0.50235164 0.22247967 0.40201536
000030 65 68 45 3f 4a 01 3c 3f 76 e3 26 3c c5 5b 2b 3f
       0.7711242 0.73439467 0.010186067 0.66936904
