Assets/ML-Agents/results/RL_BASIC/RL_Basic/RL_Basic-1000003.pt (torch, 491824 bytes, 50 tensors)

network_body.observation_encoder.processors.0.normalizer.running_mean f4 [18]
000000 9f c7 4a 3d 31 b4 21 be c9 70 28 bc 02 ae 9c bd
       0.04950678 -0.15791394 -0.010280796 -0.07650377
000010 42 8c b7 42 2e 49 2f 3f 5b a4 31 3f e4 3b 7e 3f
       91.77394 0.6847104 0.6939141 0.99310136
000020 23 38 10 40 5f 08 81 3d 31 3e f2 bd 84 58 25 bb
       2.2534263 0.06300425 -0.11828268 -0.0025229761
000030 39 4d 92 ba b6 56 b6 42 b1 66 97 3e 86 5e 07 3f
       -0.001116193 91.16936 0.29570535 0.52878606
000040 60 dc 9c 3f ff 60 f8 3f
       1.2254753 1.9404601

network_body.observation_encoder.processors.0.normalizer.running_variance f4 [18]
000000 3e 1c 5a 4b 03 31 60 4b 38 5c eb 48 8e 03 fa 48
       1.4294078e+07 1.4692611e+07 482017.75 512028.44
000010 c7 bb ef 4c 23 98 27 49 45 a6 22 49 74 1c 14 4a
       1.256894e+08 686466.2 666212.3 2.426653e+06
000020 55 9f a3 49 04 dc c0 4b 4b 2e c7 4b bf 53 ef 48
       1.3403946e+06 2.5278472e+07 2.610703e+07 490141.97
000030 01 f4 f8 48 37 cc e8 4c 23 0b cb 48 05 00 0e 49
       509856.03 1.2205305e+08 415833.1 581632.3
000040 e5 51 26 4a 40 f3 c0 49
       2.7249852e+06 1.580648e+06

network_body.processors.0.normalizer.running_mean f4 [18]
000000 9f c7 4a 3d 31 b4 21 be c9 70 28 bc 02 ae 9c bd
       0.04950678 -0.15791394 -0.010280796 -0.07650377
000010 42 8c b7 42 2e 49 2f 3f 5b a4 31 3f e4 3b 7e 3f
       91.77394 0.6847104 0.6939141 0.99310136
000020 23 38 10 40 5f 08 81 3d 31 3e f2 bd 84 58 25 bb
       2.2534263 0.06300425 -0.11828268 -0.0025229761
000030 39 4d 92 ba b6 56 b6 42 b1 66 97 3e 86 5e 07 3f
       -0.001116193 91.16936 0.29570535 0.52878606
000040 60 dc 9c 3f ff 60 f8 3f
       1.2254753 1.9404601

network_body.processors.0.normalizer.running_variance f4 [18]
000000 3e 1c 5a 4b 03 31 60 4b 38 5c eb 48 8e 03 fa 48
       1.4294078e+07 1.4692611e+07 482017.75 512028.44
000010 c7 bb ef 4c 23 98 27 49 45 a6 22 49 74 1c 14 4a
       1.256894e+08 686466.2 666212.3 2.426653e+06
000020 55 9f a3 49 04 dc c0 4b 4b 2e c7 4b bf 53 ef 48
       1.3403946e+06 2.5278472e+07 2.610703e+07 490141.97
000030 01 f4 f8 48 37 cc e8 4c 23 0b cb 48 05 00 0e 49
       509856.03 1.2205305e+08 415833.1 581632.3
000040 e5 51 26 4a 40 f3 c0 49
       2.7249852e+06 1.580648e+06

network_body._body_endoder.seq_layers.0.weight f4 [128, 18]
000000 89 90 13 3e 56 c3 eb 3d 02 fa f9 3d 7c b5 31 be
       0.14410605 0.11511867 0.12205888 -0.17354387
000010 ea a6 b5 bc 28 b8 d1 3d 36 f2 99 3e f0 9d 14 3e
       -0.022174317 0.10240203 0.30067605 0.14513373
000020 f3 5f 41 3e 3e c1 35 3e 9c e0 1b 3f 31 ff 07 3e
       0.18884258 0.17749497 0.608896 0.13280942
000030 cf 3e bb be cc fe 4b 3c 59 a4 1d 3c c3 6d 9d be
       -0.36571357 0.012450885 0.009621703 -0.30747804
000040 86 7d 37 3d 20 9a 67 3d f8 72 6d 3e be cb 09 bd
       0.044797443 0.05654347 0.23188388 -0.03364157
000050 b4 c6 c8 3e 53 15 be 3d 1e 02 66 be a6 ee 76 3e
       0.39214098 0.09281411 -0.22461745 0.24114475
000060 4d 41 b6 be 93 80 8f bd 3c 48 e1 3d 41 d0 27 3e
       -0.35596696 -0.070069455 0.11000106 0.16388036
000070 4a c0 a9 be 36 19 99 3e 6f a6 1e 3d d3 5e 18 3e
       -0.33154517 0.29902047 0.038732942 0.14879923
000080 cd a0 84 be 36 74 a8 bd c2 e9 b8 bd a7 c4 7d 3e
       -0.2590393 -0.082252905 -0.09028961 0.24782048
000090 91 0e db be 0e cf c8 3d 99 f6 2e be 0e 41 a0 be
       -0.4278455 0.098051175 -0.17086257 -0.31299633
0000a0 47 3c 9d 3e d1 b8 86 be a6 06 e7 bd 44 35 12 bf
       0.3071005 -0.2631288 -0.11280565 -0.57112527
0000b0 11 1a e3 3d 4e 76 10 bf ac 6f 82 3e 58 a2 62 be
       0.11088956 -0.5643052 0.25475824 -0.22132242
0000c0 0c 37 d6 bd 38 a7 c7 3d 25 ce 93 be 8a 67 d1 3b
       -0.10459718 0.09748691 -0.28868213 0.0063905166
0000d0 14 70 eb bc 00 61 f0 3e 02 5d 2c be 49 97 6c be
       -0.028739966 0.46949005 -0.16832355 -0.23104586
0000e0 5c 16 26 be 99 90 d8 bd 34 f8 01 3f de a7 f0 be
       -0.16219467 -0.10574455 0.5076935 -0.47003073
0000f0 6e 2e 02 bd 4a a0 30 bd 11 02 87 3e dc e9 19 3c
       -0.03178256 -0.043121614 0.26368764 0.009394135
000100 8b 68 9c be b0 db 28 3e 26 05 1e be 5b 6a 1d be
       -0.3054851 0.16490054 -0.15431651 -0.15372603
000110 59 ec 5b be de 19 cb 3d 4c 23 2a 3e 55 0e 12 be
       -0.21476878 0.09917043 0.16615027 -0.1426328
000120 db 18 cc 3d 59 e5 8f be 30 fd 76 3d 7e 76 3a be
       0.09965678 -0.28104666 0.060300052 -0.18209264
000130 86 7e 21 3e 07 31 12 3e 28 fe 17 3e 9a 82 f7 be
       0.15770921 0.14276515 0.14843047 -0.4834183
000140 97 68 65 be 77 e6 91 3e 5a 15 4e be df df ba be
       -0.22403179 0.28496143 -0.20125332 -0.36498925
000150 5b 9f 5b be 15 aa b5 3d 5b a8 a9 be 84 3e 03 bf
       -0.21447508 0.08870331 -0.33136258 -0.51267266
000160 5e 62 7b bd 17 b2 05 be c2 b4 14 be 71 f2 2d 3d
       -0.061373107 -0.13056217 -0.14522079 0.04246754
000170 8d d2 12 3e 2d 29 21 3e c9 9e 8a bc ef f7 49 be
       0.14338131 0.15738364 -0.016921418 -0.19723485
000180 71 4a 2c be a6 41 43 be 6e 48 cf 3d bc 7e d2 bd
       -0.16825272 -0.19068012 0.10121237 -0.10278079
000190 32 0a 80 3d 29 60 cd be 48 6b 1c be 84 60 b8 3e
       0.062519446 -0.40112427 -0.152753 0.36011136
0001a0 63 56 e6 3e c0 65 87 be 1c df 93 bd 11 2b ce be
       0.44987783 -0.26444817 -0.07220289 -0.40267232
0001b0 fc 13 ab 3e 55 a7 c9 bd 1b 7d ff 3e f4 53 1e 3e
       0.33413684 -0.09846369 0.49900135 0.15461713
0001c0 e7 9f 08 bf 4b f5 0e 3f e6 a6 5a 3e e5 84 9b be
       -0.5336899 0.5584304 0.21352729 -0.30374828
0001d0 8a 3e 50 bb 8c c7 a9 3d a2 dc a0 bd 47 33 28 bf
       -0.0031775557 0.08290014 -0.07854582 -0.65703243
0001e0 be f6 f5 3e 68 18 bf 3e f1 09 75 be 08 d3 15 bd
       0.48039812 0.37323308 -0.23929574 -0.03657821
0001f0 e9 d4 8c 3e 01 42 0f bf 5b 0e 34 bd e6 46 e7 bd
       0.27506188 -0.5596009 -0.043959003 -0.1129282
000200 d8 3d a9 3d 90 fb 91 3e 09 be d6 3d b0 6f f2 be
       0.08263749 0.2851224 0.10485465 -0.47350836
000210 69 9c bf bd c7 9c cd 3d c1 51 c5 bd 95 a8 74 bd
       -0.09356005 0.100396685 -0.09634734 -0.059731085
000220 5b bc c0 3d 06 b7 a6 3e fe 23 3d be 3b 74 ac 3e
       0.09410926 0.3256151 -0.18470761 0.33682427
000230 62 4e 88 be 78 23 59 3d 75 8b 49 be d5 e2 b3 be
       -0.266223 0.05301234 -0.19682105 -0.35133997
000240 48 14 0f 3f 26 c5 c8 3d 40 91 eb 3d b1 ad 88 3d
       0.5589032 0.09803228 0.115023136 0.06673754
000250 6d ba a3 be 08 56 5f 3d 70 5c c2 be ac c9 a9 be
       -0.3197817 0.054525405 -0.3796115 -0.33161676
000260 14 70 70 3d 4e f0 fc 3e 30 b6 ea 3e 62 eb 87 3d
       0.058700636 0.49402088 0.45842123 0.066366926
000270 3e 33 18 3e 0f 7a 0a 3e c9 c9 3b 3e 3a cf 0c bf
       0.14863297 0.13523124 0.18338694 -0.550037
000280 e5 b2 50 be 2e 75 03 3f bb fe 81 3c cf 47 50 be
       -0.20380743 0.51350677 0.015868535 -0.20339893
000290 4d 36 97 bc 93 be 08 3e 77 ce 0b be be 1e 8c 3e
       -0.01845851 0.13353948 -0.13652979 0.27367204
0002a0 8c 92 0a 3f 58 90 3b be c3 f4 93 bd 4c 5a 80 bd
       0.5412986 -0.18316782 -0.07224419 -0.06267223
0002b0 bc e9 da be 57 d3 39 3f b9 c1 02 be 36 5e a0 3e
       -0.4275645 0.72588104 -0.12769212 0.31321877
0002c0 05 ac 4f be 84 fa 61 be 3b 8d 4c bc 29 f9 6d be
       -0.20280464 -0.2206822 -0.012484844 -0.23239578
0002d0 e6 67 41 be 1f 28 03 be 95 b2 31 3b 8a 67 13 bd
       -0.1888729 -0.12808274 0.00271145 -0.035987414
0002e0 25 7a 70 be 27 28 2d 3e 8e ff e2 be 59 7e cf be
       -0.23484094 0.16909848 -0.44335598 -0.40526083
0002f0 1c f3 11 be 64 41 8d be 80 28 4b 3c 5a 65 93 be
       -0.14252895 -0.27588952 0.012399793 -0.28788263
000300 3a f3 e5 bd 17 9b 6b be 07 03 a4 3e 09 bf 5f be
       -0.112280324 -0.23008381 0.3203356 -0.21850218
000310 41 fb a1 bc d1 f0 4c be 4b a0 c9 3e 15 ba 89 bd
       -0.019773128 -0.20013739 0.39380106 -0.067249455
000320 b8 33 0b 3e 2e a4 11 3f 48 75 96 be 10 c7 5b 3c
       0.13593948 0.56891143 -0.29386353 0.013414159
000330 d3 a7 09 3f ab 37 9f 3d 04 b8 b5 3e 7c 7a 61 be
       0.53771704 0.0777429 0.35491955 -0.2201938
000340 56 12 61 be 82 08 9b bd 2c c6 d7 3d 5b 8e b8 3e
       -0.21979651 -0.07569982 0.10535845 0.3604611
000350 f5 04 6d 3d 73 30 a2 bd 29 4c 94 be e1 66 5e be
       0.057866056 -0.07919397 -0.28964356 -0.21718933
000360 9e a8 0c bf c1 0d 0a be f1 ad 0c be df 35 ad be
       -0.5494479 -0.13481809 -0.13738228 -0.33830163
000370 d3 98 d2 3d 75 93 96 3e e3 08 05 3e cb b9 a9 3e
       0.10283055 0.29409376 0.12991671 0.3314956
000380 c1 cb 31 3e b2 f0 b8 3d 6b 9f b0 be b7 b0 a6 bc
       0.17362882 0.09030284 -0.34496626 -0.020347936
000390 fc 76 9d be 76 6b d7 bc 86 7e 53 be 0c 34 36 be
       -0.3075484 -0.026296359 -0.20653734 -0.17793292
0003a0 d1 5d 99 bd a7 72 af 3e 8a a3 f8 be db dd f7 be
       -0.07488597 0.3426716 -0.4856227 -0.4841145
0003b0 b4 52 38 bd 7d 69 59 3e 70 85 2c 3e eb 77 82 3c
       -0.045000747 0.21231647 0.16847777 0.015926322
0003c0 17 e3 b4 3e 9e 11 85 be 63 c1 b5 be c1 6b be 3e
       0.35329506 -0.25990003 -0.35499105 0.37191585
0003d0 18 37 03 3e ad b0 7f be d3 5d ee bc db 85 f2 bd
       0.12813985 -0.2496974 -0.029097473 -0.11841937
0003e0 f0 59 d6 3e 42 3f 0a be 30 3c 10 3d 75 1c a3 bd
       0.41865492 -0.13500693 0.03521365 -0.07964412
0003f0 50 51 26 be 52 b6 29 bd 0a ac c0 3d c3 f9 f3 3e
       -0.16241956 -0.04143364 0.09407814 0.4765149

network_body._body_endoder.seq_layers.0.bias f4 [128]
000000 b1 40 87 3c 64 b0 ef 3c e8 d8 cf 3c 72 87 0e bc
       0.01651034 0.029258914 0.025371984 -0.008699285
000010 3c b4 95 3d d8 bc d7 bc 07 53 6b 3c 1a 09 8b 3c
       0.073097676 -0.026335165 0.014363057 0.016972113
000020 bf cd 09 3d a0 18 19 3d 18 47 4d 3c 4d 0f 81 3c
       0.03364348 0.037377 0.012529157 0.015754366
000030 49 f3 05 3c cb 03 08 3c ee 73 4c 3c cb 00 07 3d
       0.0081756795 0.008301686 0.012478812 0.03295974
000040 2b a8 c0 bc 97 52 03 3d 49 c2 e0 3d 51 1f a7 3c
       -0.023517689 0.032061186 0.10974557 0.020400675
000050 24 02 ef 3c 36 9b a8 bb 39 59 70 3b a6 ad 83 3b
       0.029175825 -0.0051454557 0.0036674275 0.0040185032
000060 2f 49 26 bc 97 0b 5b 3c 6b 00 a9 bc 54 9b 18 3c
       -0.010149284 0.013369462 -0.020630082 0.009314377
000070 1d 23 5d 3d 38 32 a3 b8 45 9e 45 3b 16 53 6e 3d
       0.053988565 -7.7818e-05 0.003015415 0.058184706
000080 43 be 19 3c b4 3a c6 bc 25 53 96 3c 95 30 85 3d
       0.009383741 -0.024197914 0.018350193 0.06503407
000090 9e 0e b7 3c 89 dd 7e 3d fa 34 5e 3d 51 c7 04 bb
       0.022345837 0.06222299 0.05424974 -0.0020260403
0000a0 9c b2 14 bc 20 f2 2e bc e5 d3 ef 3c ed 25 03 3d
       -0.009075787 -0.010677844 0.029275844 0.03201859
0000b0 fc e4 84 3b ef 3d 3e 3d 16 1d 2c 3d 00 f1 44 bc
       0.0040556174 0.046445783 0.042019926 -0.0120203495
0000c0 d8 50 d7 3c 73 c3 6a bc b0 78 b1 bc 9b d9 39 bb
       0.026283666 -0.014328825 -0.021663994 -0.0028358463
0000d0 d6 59 e3 3b 17 56 0f 3d f5 90 f6 3b d4 63 13 3c
       0.0069381995 0.03499421 0.0075246044 0.008995969
0000e0 8b 1f 0e 3d 0d 0e 06 3d a1 06 9d bc f1 0b 55 3a
       0.03469805 0.032728244 -0.0191682 0.00081270846
0000f0 2b 66 0c 3d 00 cc 57 bc 14 c3 e8 bb 93 05 41 bc
       0.034277122 -0.013171196 -0.0071033332 -0.011781114
000100 5b 66 25 3d 6c 93 29 3d de 15 55 3d f5 d6 c2 3c
       0.040380817 0.041400358 0.052022807 0.02378414
000110 60 32 5a 3c 06 df d6 3c a2 8d bb 3c 3a 9a e8 b8
       0.013317674 0.026229393 0.022894684 -0.00011091349
000120 e0 0f c0 3c c6 0f b2 bc d9 ca ca 3c 18 e5 99 3c
       0.02344507 -0.021736037 0.024754928 0.018785998
000130 2d ad 04 3d ba 4d bb 3c d9 8d a8 3c f6 10 11 bc
       0.032391716 0.022864211 0.02057545 -0.008854141
000140 e7 b8 8a 3d 27 c8 35 3d 7b 04 a1 3b c0 9b 82 3c
       0.067735486 0.044380333 0.004913864 0.015943408
000150 70 a3 ea 3c d6 dc 84 bc 2c 84 fb bb 97 d8 3c 3c
       0.028642386 -0.016218584 -0.007675668 0.011526248
000160 62 36 2e 3c fc fb 35 3d a8 b4 3e 3d 2b fc ab 3b
       0.010633083 0.044429764 0.046559006 0.0052485666
000170 9f 1b a6 3a 5b 52 57 3c 9c 92 80 3c cc 69 e8 bc
       0.0012673027 0.013142194 0.015694909 -0.02837076
000180 cf 19 00 3d e5 95 cf 3c 52 9d 0b bc 2c 1c ab 3c
       0.031274613 0.02534003 -0.008521395 0.020887457
000190 17 d9 06 bc ab 8e 58 3d c0 00 31 3c e2 c6 78 3c
       -0.008230469 0.052870434 0.0108034015 0.015184136
0001a0 da e6 3f 3d 7b a9 cb 3c cf 4f 97 bc c3 28 10 3c
       0.046851017 0.024861088 -0.018470673 0.008798781
0001b0 02 bd 45 3d ee 93 5f bc c4 5d 94 3c c1 29 24 bd
       0.048275955 -0.013646109 0.018111117 -0.040078882
0001c0 c2 cc 28 3d 6f df 09 3d 4b 2a 72 bb 8d e1 db 3b
       0.041210897 0.03366035 -0.0036951478 0.0067102374
0001d0 78 8c b1 3c b3 67 3b 3c 22 a4 00 3d eb 1f 93 bb
       0.021673426 0.011438298 0.03140653 -0.004489889
0001e0 d9 8c eb 3c 07 cd b9 3c 9b 87 f8 3b 4b 45 c1 3a
       0.028753685 0.022680772 0.007584525 0.0014745382
0001f0 2e 05 0b bc 5e 0b 04 3d 46 9d 12 3d 09 9a e1 3c
       -0.008485122 0.032237403 0.03579452 0.02753927

network_body._body_endoder.seq_layers.2.weight f4 [128, 128]
000000 6a 72 bf 3c d1 85 00 3e 26 e4 a2 3c bd 5e 28 3b
       0.023369987 0.12551047 0.01988418 0.0025691234
000010 90 3c ff bb ca 34 e7 bd 3e d5 88 bd 1c e0 6d 3e
       -0.007789202 -0.112893656 -0.06681298 0.23230022
000020 77 17 d1 3d ab 6b 52 bd c9 94 d6 bd a8 a7 c9 3d
       0.10209554 -0.05137221 -0.10477597 0.09846431
000030 c7 b4 f2 bc 86 4e 08 3d a7 d9 85 3d 30 08 b4 3d
       -0.029627217 0.03327801 0.065356545 0.08790624
000040 31 21 fb bc ec 74 d9 3c 0f be 17 3e 73 94 24 be
       -0.030655475 0.02654501 0.14818595 -0.16072254
000050 b5 6c bf 3d 91 2f 7f bd 43 26 cb bc 60 6e 02 3e
       0.09346906 -0.062301222 -0.024798518 0.12737417
000060 7c 87 8e 3d 30 72 a9 bd 29 87 74 3a c3 2a 98 3d
       0.06959435 -0.08273733 0.0009328002 0.07430031
000070 58 6b 2d 3e 8e 08 f1 3d 1a 79 9f 3d 1c 4e 87 bd
       0.1693548 0.1176921 0.0778677 -0.06606695
000080 c1 e8 23 3e 03 db 2b be b1 53 aa bd 5e 98 97 3c
       0.16006757 -0.16782765 -0.08316744 0.018505272
000090 44 03 f0 bd 30 d5 21 bd 26 33 4d bd ae 21 53 3d
       -0.11719373 -0.039509952 -0.050097607 0.05154579
0000a0 49 8d 3c bd c4 b4 7d 3d f4 bf 8c 3d f6 3e 1c be
       -0.046033178 0.06193997 0.0687255 -0.15258393
0000b0 99 05 e5 3c d9 b6 17 bd 5e 55 58 bd b4 71 82 3c
       0.02795677 -0.03703961 -0.052815787 0.015923359
0000c0 53 21 b6 3d c2 ce 33 be b9 d5 77 3d 1f 1c 27 bd
       0.08893075 -0.1755934 0.060506556 -0.040798303
0000d0 ca 98 32 3c 89 6f ae 3d f7 dd 26 bc d8 24 23 bd
       0.010900686 0.085173674 -0.0101847565 -0.03983006
0000e0 2f b2 f9 3d 62 b3 1f 3d 7d e3 6b bc 4e c5 3e be
       0.12192189 0.038989432 -0.014397499 -0.18629953
0000f0 66 01 be 3d b1 37 7d be cb 18 70 bd 4b b3 1c 3d
       0.092776105 -0.24728276 -0.058617394 0.038256925
000100 4d b6 0d bc 94 3b 90 3d 77 12 2d 3e a1 2f c6 bd
       -0.008649421 0.070426136 0.16901575 -0.09677053
000110 3c c4 51 3c ca 84 17 3d cc 97 8f bc fa 26 d3 3c
       0.012803134 0.036991872 -0.017528437 0.025775421
000120 1c 15 3e be 2a 06 77 3d e3 9a 08 3e 18 e7 30 3c
       -0.1856274 0.060308613 0.13340335 0.010797285
000130 f6 9c ba bd 1f 93 e4 3d b9 ab b2 bd e2 de ec 3d
       -0.09111969 0.111608736 -0.0872416 0.11565949
000140 cf 7f 13 3d 7a 1e 10 3e 22 aa 41 3e 57 ff 14 3e
       0.03601056 0.14074126 0.18912557 0.1455053
000150 bf 05 91 bc 0f cc 35 3c fd db f4 bd dc 11 2a 3d
       -0.017702935 0.011096015 -0.11956022 0.04152094
000160 7d d9 cc 3d 8c fd a4 3c 55 a9 93 3d 50 d7 33 3c
       0.1000242 0.020140432 0.07210032 0.0109766275
000170 09 20 bc 3d 67 38 2f be 83 b5 3a be d5 ce 48 3d
       0.09185798 -0.1711136 -0.18233304 0.049025375
000180 8c 37 28 3e 9b 50 63 3c e9 9b 65 3d 67 3c e2 bd
       0.1642744 0.013874198 0.05605689 -0.11046677
000190 a9 df 82 3d 52 08 e2 bd 25 76 86 3d 4c d2 5f 3e
       0.06390316 -0.11036743 0.06565503 0.21857566
0001a0 dc 45 2a 3e b3 7d a6 3d e8 2e a6 bd cb 85 18 be
       0.16628212 0.08129444 -0.081144154 -0.14894788
0001b0 87 c0 a5 3c 43 f9 d4 3b 6f 77 11 bd 98 cd 87 3c
       0.020233406 0.006499441 -0.03551429 0.016577527
0001c0 c6 98 59 3d f1 75 5a 3d 96 be bb 3c 9a 85 1b 3e
       0.05312421 0.053335134 0.022918027 0.15187684
0001d0 18 cb 1a be 8a 38 5f be 77 88 8d 3d 95 33 28 be
       -0.15116537 -0.21798912 0.06910794 -0.16425927
0001e0 40 5c 14 3b d2 83 26 3b 0a 90 fe 3c 5a 43 cf 3c
       0.0022637993 0.002540816 0.031074543 0.02530067
0001f0 78 b9 8d bd 02 b2 68 bc 9b c4 40 be 1d 55 00 bd
       -0.06920141 -0.014202597 -0.18824999 -0.03133117
000200 19 f2 35 3e 1c 35 2f bd ca f2 3b bb 4f 75 9f 3d
       0.17768134 -0.04277526 -0.002867865 0.07786047
000210 ee 73 3e bd 04 0e 4b be b5 6f 87 bd 6b 86 db 3c
       -0.046497278 -0.19829565 -0.06613103 0.026797494
000220 26 56 14 be bc fa f5 bc d8 62 8b 3c 21 e7 ce bc
       -0.14485988 -0.030026786 0.017014906 -0.025256695
000230 e6 4b 52 bc 1b 25 19 bd b4 6c 3c 3d b9 61 a9 bd
       -0.012835478 -0.037388902 0.046002105 -0.08270592
000240 81 d7 f9 3d d7 0e 02 bd bb 9e 8e bd d7 b7 a7 3d
       0.12199307 -0.031752434 -0.06963869 0.081893615
000250 4d d6 86 3c 8b 69 02 be 84 92 08 bd 73 eb 4e 3e
       0.016459608 -0.12735574 -0.033342853 0.20207004
000260 dc d8 8e 3e b1 08 ab bd 2c 82 14 3e c2 16 6b bd
       0.27899826 -0.08351267 0.14502782 -0.05739475
000270 d0 b1 9c bc 47 cf 04 3e 4c 16 c4 3d 13 da 9f bc
       -0.019127756 0.12969695 0.09574565 -0.019513166
000280 e1 db 09 be 74 e7 c4 bc 64 52 89 3e e6 3d c8 bd
       -0.13462783 -0.024036147 0.26820672 -0.09777431
000290 3e b9 d8 bd aa 17 d6 bd 6a ee 99 3c 97 55 0e bd
       -0.10582207 -0.10453732 0.018790442 -0.034749594
0002a0 50 6a 2e bd ff 1a 28 3d 9d 66 26 be af 57 7e bd
       -0.042581856 0.04104137 -0.16250081 -0.06209534
0002b0 40 9d 48 bd 69 aa 8f 3d 2c 04 1b be aa 6c c8 bb
       -0.04897809 0.07014925 -0.1513831 -0.0061164694
0002c0 83 b4 b0 bc a5 c4 d0 3b e4 8d 24 bd 36 e7 9a 3d
       -0.02157045 0.006371098 -0.04017438 0.07563631
0002d0 76 24 10 bd 4f 6f d1 3c e9 db cf bd 41 ff 16 3d
       -0.03519102 0.025565771 -0.101493664 0.036864523
0002e0 42 24 66 3d 04 4f 51 bd 91 23 8e bd bf eb 06 be
       0.056186922 -0.051100746 -0.069403775 -0.13175867
0002f0 bc 67 1b be 8d 21 cd bd 4c 99 be bb 34 d5 91 3d
       -0.1517629 -0.10016165 -0.0058166143 0.071207434
000300 74 6f 00 be 83 4b d9 bd 77 4c 17 bd 1b 71 f1 3b
       -0.12542516 -0.10610106 -0.036938157 0.0073682196
000310 64 ea 9a bc 9e b5 d2 bd 95 f9 55 3d 86 4a 6c 3d
       -0.018910594 -0.10288547 0.052239973 0.05768826
000320 a5 cb cc 3c 15 bb 9a bc 65 a0 5a bb 1e d1 38 3d
       0.024999449 -0.018888036 -0.0033359763 0.045121305
000330 3e a3 77 3d ae 2c 5f bd ec 46 ba 3d dc f9 8b bb
       0.060458414 -0.05448597 0.090955585 -0.004271729
000340 57 43 74 3d ae c0 51 bd 81 1c 05 bd 6d 60 1b be
       0.059634533 -0.051209144 -0.032497887 -0.15173502
000350 b9 89 b7 3d d0 62 d4 bd ba 57 35 bc b1 ca c5 3c
       0.089618154 -0.103704095 -0.011068279 0.024144502
000360 a1 33 85 bc aa a5 68 3d a9 07 36 be 13 77 5f be
       -0.01625997 0.056798615 -0.1777636 -0.21822767
000370 7e 67 0e bd fe e5 5a bd df 01 20 bb f9 68 c1 3c
       -0.034766667 -0.053441994 -0.0024415178 0.023609625
000380 68 ef 8a 3d 7e 74 41 3e 87 2d d1 bd ab 40 1f 3d
       0.06783944 0.18892094 -0.10213762 0.03888003
000390 3f 0c 82 bd 2e da 0c 3d d9 e5 f1 3d 2a df 3a be
       -0.06349992 0.03438776 0.11811418 -0.18249193
0003a0 1b 79 fd bc d6 c1 4f bb 6b 79 1f bd e4 69 af bd
       -0.030941537 -0.0031701229 -0.038934153 -0.08565119
0003b0 7f 8b ef 3c 43 ce c7 bd 2e 62 49 3c 4b 03 77 3d
       0.029241322 -0.09756138 0.012291474 0.060305875
0003c0 66 49 0a be cb cc 0f 3e 10 8d 4e 3c 94 27 32 bc
       -0.13504562 0.14042966 0.012606874 -0.010873694
0003d0 2d 62 1e be 46 b9 3e 3d a2 05 ad 3d 6f 08 62 bc
       -0.15467139 0.04656341 0.0844834 -0.013795956
0003e0 6c 1e c5 bd ba b9 b9 bd 0b 0a 1b 3d 33 c6 55 bd
       -0.09624943 -0.09068628 0.037851375 -0.05219097
0003f0 10 de 28 bd 2f 8d 5a 3c f2 0f 8f bd c0 2b 16 3e
       -0.0412274 0.013339325 -0.06985463 0.14665127

network_body._body_endoder.seq_layers.2.bias f4 [128]
000000 95 ff e2 3c 9e 51 d6 3b b2 d5 cc 3c 94 06 79 3c
       0.027709762 0.0065404912 0.025004242 0.015199322
000010 8b 12 52 3c 6e 51 45 3a 1d 43 04 3d 4e 6f 50 bc
       0.012821804 0.00075270876 0.032290567 -0.01272185
000020 24 a4 37 3d ea 4a 34 3d e6 60 bb 3a f5 75 e5 3c
       0.04483427 0.044016756 0.0014295846 0.028010348
000030 2f d6 93 3b 91 51 d1 3c 9f 0a 82 3c b5 bb ca bc
       0.0045116167 0.02555159 0.015874205 -0.024747709
000040 59 57 cd 3c 7f 1a 2a 3d fc 7b 96 3c 18 80 e5 3c
       0.025066065 0.041529175 0.018369667 0.028015181
000050 45 2a 8c 3c c3 91 2c 3c f3 3a 03 3c 32 bb 2b 3d
       0.01711 0.010532799 0.00800966 0.04192657
000060 29 98 da 3b 30 0e 85 3c ab 13 34 3c ce d5 8e 3c
       0.006670971 0.016242117 0.010991017 0.017435934
000070 c1 b3 95 3c d2 80 86 3c e4 bb 07 3d c5 b8 2c bb
       0.01827419 0.016418848 0.03313817 -0.0026355248
000080 65 c7 d1 3c 3e 6b b0 bc 14 33 e5 3c 76 40 0a 3c
       0.025607774 -0.021535512 0.027978458 0.00843822
000090 67 f6 7b 3c 1e d2 b5 3b ff a8 7b 3c cc c7 b2 3c
       0.015378571 0.0055487296 0.015360116 0.021823786
0000a0 b6 60 92 3c e8 bd 13 3c 82 5c a2 3c 31 82 5a 3c
       0.017868381 0.009017445 0.019819502 0.013336704
0000b0 a2 c7 47 3d 89 82 4a 3a 2e ec 48 3b d3 12 f5 bb
       0.04877437 0.000772514 0.0030658352 -0.0074790507
0000c0 23 01 94 3b 70 4f 5f 3c 70 91 ff 3c 99 97 e2 3c
       0.004516737 0.013629779 0.03119728 0.027660178
0000d0 0d 70 58 3d 04 eb 58 bc fb 43 eb 3c 95 4d 55 bc
       0.052841235 -0.013239626 0.028718939 -0.013018985
0000e0 a9 23 48 bc fe 68 93 3c a8 f0 81 3a e3 5a 84 3c
       -0.012215533 0.0179944 0.000991364 0.01615662
0000f0 04 10 1d 3c 49 f3 83 bb da 9c fe bb a1 fe 8d 3c
       0.009586338 -0.0040268046 -0.007770163 0.01733333
000100 24 06 64 3b 16 9a 38 3d b6 9c 2b 3c f2 6d 5f 3c
       0.00347937 0.045068823 0.0104743745 0.013637053
000110 ba 0c cf 3c e6 8a c9 3c 85 1f ef bb 05 e7 f0 3c
       0.025274623 0.024602365 -0.0072974586 0.029407034
000120 ba 94 b1 3b 90 67 f1 bb ec af b7 3b 10 59 10 3d
       0.005419341 -0.007367082 0.0056056883 0.035241187
000130 98 e6 17 3c 97 93 82 bc df c3 5a 3c c1 89 62 3c
       0.009271286 -0.015939517 0.013352363 0.013826788
000140 48 2b 9d 3c 33 6e 06 3d a0 3a 4e bc 53 5e 86 3c
       0.019185677 0.032819938 -0.0125872195 0.0164024
000150 84 4b 91 3b 52 1c 93 3b 90 e0 67 3b 69 c8 37 3b
       0.004434051 0.00448946 0.0035381652 0.0028043038
000160 93 81 6c bc d2 1c a7 3c 58 66 8c bb 50 ed 1b bc
       -0.01443519 0.020399485 -0.0042846613 -0.009517029
000170 ac 70 93 3b cd be a7 3b 1f 6b c0 3b a3 5e 23 3d
       0.0044995155 0.005119181 0.005872145 0.039885174
000180 94 4c d7 ba d5 65 87 3c 31 2f b6 bc 60 c8 07 bc
       -0.001642602 0.01652805 -0.0222393 -0.008287519
000190 a5 52 7a bc 82 96 1c 3c 25 a8 03 3d c3 fd 95 3c
       -0.015278493 0.009557368 0.032142777 0.01830948
0001a0 66 db 81 bc d6 29 fb bb 0f 33 cf 3c 1e fd cb bc
       -0.015851688 -0.0076648993 0.025292901 -0.02490097
0001b0 6c c6 c0 3c cc c4 64 3c 28 62 04 3b 5a 9c c9 3c
       0.023532115 0.013962936 0.0020200107 0.024610687
0001c0 48 cb 85 3c 0d 80 4f 3c 7b 5a c7 3b d0 34 c7 bb
       0.016332284 0.012664807 0.006083784 -0.006079294
0001d0 22 2c 4d 3d 0c 1b b7 3c ab 64 22 3d 0a 37 a8 bb
       0.050090916 0.022351764 0.039646786 -0.0051335143
0001e0 5c 48 43 3c 3b 0e 1f 3c 76 aa 9b 3c f3 fa 30 b7
       0.011919107 0.009707983 0.01900218 -1.0548846e-05
0001f0 3f b1 e5 ba 9e b9 0c 3d bd 3b 8e 3c 07 f6 67 3c
       -0.0017524137 0.034356706 0.01736247 0.014157779

action_model._continuous_distribution.log_sigma f4 [1, 2]
000000 52 51 87 3a 02 35 87 3d
       0.0010323918 0.06601907

action_model._continuous_distribution.mu.weight f4 [2, 128]
000000 09 d4 92 bb cc 3c 16 bd 4a 19 06 bd 11 f2 54 bd
       -0.004480843 -0.036679074 -0.03273896 -0.051988665
000010 16 fc e9 bc 82 b8 59 3d c3 e0 7b bd d9 c7 b4 3b
       -0.028562587 0.053154476 -0.061493646 0.0055169878
000020 32 3c 41 3c a0 05 01 3d 5c 33 82 3a dd ca 5a bd
       0.011794137 0.031499505 0.0009933519 -0.05341612
000030 d2 ab 8f 3c f9 d2 84 3d 36 31 cb bc 03 15 73 3c
       0.017537985 0.06485552 -0.024803739 0.014836553
000040 65 96 fe bb 85 9b 81 bd 50 aa a4 bc 54 b1 fc bc
       -0.0077693933 -0.06328491 -0.020100743 -0.030846275
000050 0a a9 75 bd 11 ca bb bb 3e 4a e7 bc cd 22 22 bb
       -0.05997566 -0.0057308753 -0.028233644 -0.002473998
000060 89 90 28 3d f7 29 05 3d c4 7c 1c bc 81 53 87 bc
       0.041153464 0.032510724 -0.009551231 -0.01651931
000070 17 a7 df 3d 6e 97 30 bd d0 e6 a3 bb 31 ad 69 3c
       0.10920542 -0.043113165 -0.00500188 0.014262483
000080 10 94 f3 3b 17 08 c2 3b dc 8c ee 3c 96 f3 9c 3a
       0.007433422 0.0059213745 0.029119901 0.001197445
000090 11 ef 28 3d c2 bf 48 bd 28 f9 0e bd 2a e3 2c bd
       0.041243616 -0.049011 -0.034905583 -0.042208828
0000a0 b3 b2 e4 3c 83 16 9c 3c af 50 80 3d 34 05 d2 bc
       0.027917242 0.019053703 0.06265389 -0.025637247
0000b0 69 79 38 3c c7 0f 8a 3d e5 a7 3b 3d 2a 39 81 3c
       0.011259415 0.067412905 0.045814414 0.015774328
0000c0 05 51 71 3c b0 f4 af bb cd f9 d6 bc 40 48 1a 3d
       0.014728789 -0.005369745 -0.026242161 0.03766656
0000d0 1e 4c 8b bd 1e 3c a6 3c 6c 93 44 bd 3b 67 7b 3d
       -0.068016276 0.020292338 -0.047992155 0.061377745
0000e0 2a 8a 80 3c 05 d3 cc bb 0d d9 8f 3c b0 ce af bc
       0.015690882 -0.0062507414 0.017559553 -0.021460861
0000f0 7e 50 42 bd a9 51 4b bc 93 ed 83 3c ed 89 12 3a
       -0.047440045 -0.012409606 0.016104495 0.00055900106
000100 7b ab 71 3b e2 5d 23 bd b0 43 3d bd f3 b2 c2 bb
       0.0036875892 -0.039884456 -0.04620713 -0.0059417426
000110 08 37 74 3d 8e af 03 3b 99 93 04 bd cb e8 bb bc
       0.059622794 0.0020093652 -0.032367323 -0.022938153
000120 6b 82 2a b9 45 c4 a1 3c 08 cd 41 3c c6 ca 27 3d
       -0.00016261048 0.019746909 0.011828668 0.040964864
000130 ef 50 7f bd 26 d6 15 bc 0f 6e d3 3c 8b 25 0a 3c
       -0.062333044 -0.009145295 0.025809316 0.0084318025
000140 62 bd 4d bd a6 c8 c6 3c a7 aa ba 3c 71 52 72 bc
       -0.050229438 0.024265599 0.022786452 -0.014790163
000150 82 4e 62 3d 7f 12 9e 39 28 0b f6 bc d3 01 28 3d
       0.055250652 0.0003014989 -0.030034617 0.041017365
000160 15 4e fb bc 5f 2b 74 bc cd 82 19 bc ac a3 2a 3d
       -0.03067688 -0.014902919 -0.009369564 0.041659996
000170 8f 54 bc bb dc 39 4b 3d 9c 3a eb bc 34 ec c9 3b
       -0.005747385 0.049615726 -0.02871447 0.006162191
000180 ca 99 63 3b 60 06 12 bd 2a ff 27 bb 26 4b 5f 3c
       0.0034729117 -0.03565061 -0.0025634267 0.013628757
000190 bc ae 13 bc 58 ec 61 3c b2 69 b4 bd 0e 83 2f bd
       -0.009013828 0.013789259 -0.08809222 -0.042849593
0001a0 f5 31 22 bc 73 dc bb bc 3b fd d0 ba 74 af c5 bb
       -0.009899606 -0.022932267 -0.0015944609 -0.0060328785
0001b0 9f ee 93 bd 45 d3 01 bd c7 b2 45 3d b8 ab 21 bc
       -0.07223248 -0.031695623 0.0482662 -0.009867601
0001c0 0d 2c 0f bd f6 f7 73 3d af 57 68 3c 1e 15 81 bc
       -0.03495412 0.059562646 0.014181062 -0.01575714
0001d0 17 78 15 bd 95 f6 00 3c 1e aa 2e 3c 80 e0 50 bd
       -0.03649148 0.00787129 0.010660676 -0.05099535
0001e0 8b b5 4c 3c 5a 7b 64 3d 1b 96 43 3d 7a f8 c5 bc
       0.012494455 0.0557817 0.047750574 -0.024166334
0001f0 15 f5 ca 3c f3 49 c0 bc 14 d7 6b 3c 27 b6 19 bd
       0.024775067 -0.023472762 0.01439454 -0.03752723
000200 9b 6a 06 bd 8e 05 21 3c cf a3 ca bd 19 51 d9 bc
       -0.03281651 0.0098279845 -0.09894525 -0.026527928
000210 91 07 72 bd 9a 3b e1 bc 9c 88 aa 3c 49 1b f5 3c
       -0.059089247 -0.02749424 0.020817094 0.029920237
000220 e8 7e 3f bd c0 8b b2 3d 2c 42 f5 bc a4 63 01 3d
       -0.046751887 0.087180614 -0.02993878 0.031589165
000230 4e 42 32 3d 12 52 be bc 7c 55 8a bd aa 3b bf 3c
       0.043520264 -0.023232494 -0.06754586 0.02334388
000240 6b e1 8c bd ba 3b e9 3c ec 32 97 bc d2 9c ad 3a
       -0.068789326 0.028470863 -0.018456899 0.0013245589
000250 aa ab a1 bc 37 70 01 bd 8e 61 8a bc 5f 90 7f bd
       -0.019735176 -0.031601157 -0.01689222 -0.062393542
000260 59 79 c1 bc e4 77 5c bd 19 9d cf ba ea 50 d1 bd
       -0.023617433 -0.053825274 -0.0015839665 -0.10220511
000270 bb d3 6d bb fe 65 25 bd e0 07 81 3d 48 d7 62 3d
       -0.0036289531 -0.04038047 0.0630033 0.05538109
000280 eb c0 19 bc ba f5 39 bd 59 29 3b bc af c6 30 3d
       -0.009384374 -0.04540036 -0.011423432 0.04315823
000290 7e d7 91 bc c6 bf 9d bc 18 1d 4e 3c 67 c2 4a bd
       -0.01780295 -0.019256484 0.012580179 -0.049501803
0002a0 e5 d9 16 3d 15 ec 18 3c 0f 0d 0b bb bf 9e ad 3c
       0.036828894 0.00933363 -0.00212175 0.02119386
0002b0 b8 92 3e 3c f8 90 92 b8 d0 75 8d bc 8e 05 ff bc
       0.01163166 -6.988825e-05 -0.017268091 -0.031130578
0002c0 e2 72 ae bd 62 ff 38 3d 33 33 f7 bc 36 ac 96 3d
       -0.08518006 0.045165427 -0.03017578 0.073570654
0002d0 de ef 09 bd bf 1f 4e bd 80 a6 0b 3d 1f de 7c 3c
       -0.03367602 -0.050323244 0.034094334 0.015433817
0002e0 bf b2 92 bc 5e 58 85 3d 13 c4 28 bd 72 0a 76 3d
       -0.017907498 0.06510995 -0.041202616 0.060068555
0002f0 7d 8d a2 bc c4 9e 99 3b b1 b2 bb bc bb 66 1a 3d
       -0.019842857 0.004688116 -0.022912355 0.037695628
000300 e2 7a c2 bc bc f5 7e 3d ef cb 77 bc 95 af 29 bd
       -0.023740236 0.06224607 -0.015124305 -0.041427214
000310 ef f0 4d bc e9 02 57 3c f6 e3 eb 3c 7f bc 5d 3d
       -0.01256965 0.013123252 0.028795224 0.054134842
000320 87 1f a1 bb 3e 6a 18 3d 56 5a 69 bd 9c 35 0f ba
       -0.0049170884 0.037210695 -0.056970917 -0.00054630055
000330 54 b1 12 bd 04 58 48 3c 32 dc e0 3c c6 67 cb ba
       -0.035813645 0.012228016 0.027448747 -0.0015518598
000340 0b d5 a1 bc 66 0f 46 bd 91 b4 f4 bc c2 5d b6 bd
       -0.019754907 -0.04835453 -0.029871257 -0.08904602
000350 d4 0d 08 bd f6 d5 3a 3d 10 e8 d3 bc cb 22 26 3d
       -0.033216313 0.045614205 -0.025867492 0.040560525
000360 c4 37 d0 bc 2a c2 48 3d d2 f7 c8 bc 6d da 66 bc
       -0.025417216 0.049013294 -0.024532232 -0.014090163
000370 03 9e 93 bc ed 41 e0 bc b4 67 39 bd 1f 13 1d bd
       -0.018019682 -0.027375186 -0.045264915 -0.038348313
000380 cd 6e 4f 3b 6f 94 ac 3b 28 a1 9e 3c a2 8f 54 bd
       0.0031651736 0.005266718 0.019363955 -0.05189479
000390 3d 78 e9 bc 16 29 24 3d 74 0c a1 bc 4d 7d 81 bc
       -0.028499717 0.040078245 -0.019659258 -0.015806818
0003a0 a6 1d 86 bc 77 e6 07 bd 89 07 61 bc 2d f1 93 3c
       -0.01637156 -0.033178773 -0.013734707 0.018059338
0003b0 78 ae 12 bd 3f fa 14 bc 84 58 29 3d ab 50 e5 3c
       -0.035810918 -0.009092866 0.04134418 0.027992567
0003c0 da 70 3c 3d 35 d6 c4 bc 71 da 10 3d 51 a2 7f 3c
       0.04600606 -0.024027923 0.035364572 0.015602664
0003d0 84 33 d1 3c 50 ba 99 3d f0 25 47 bd 51 34 97 3c
       0.02553726 0.075062394 -0.048620164 0.018457564
0003e0 b9 a3 5e bd 99 2c 3d 39 a1 53 52 3d 42 5b f0 3c
       -0.054355357 0.00018041059 0.051349286 0.02934039
0003f0 e1 c0 23 3c 3d b3 02 3d 77 56 6e bc 12 6a dc 3c
       0.009994716 0.031909216 -0.014546982 0.026906047

action_model._continuous_distribution.mu.bias f4 [2]
000000 4f 0a 4b bc e1 d7 8b 3b
       -0.0123925945 0.004267678

action_model._discrete_distribution.branches.0.weight f4 [4, 128]
000000 85 cc 04 bd 92 30 2f bd 5d e5 10 3d d1 4c 74 3d
       -0.032421608 -0.04277093 0.035374988 0.05964357
000010 7e ba ad bc 50 df 65 bc 79 64 4e 3d 38 d3 9d bc
       -0.02120709 -0.014030293 0.050388787 -0.019265756
000020 22 1d 7c 3d c0 71 b7 3d 72 7a 2a bd 0c 7f 11 3a
       0.06155122 0.08957243 -0.04162068 0.00055502425
000030 86 0e 25 3d 1f df 96 3c 21 7f a0 bb 80 36 d0 bc
       0.040297054 0.01841694 -0.0048979674 -0.025416613
000040 c1 41 73 ba 0d 4a 4c 3d dc 79 cc 3a 7c de 44 3d
       -0.00092795125 0.049875308 0.0015600282 0.04806374
000050 92 56 7a 3c e8 ff 39 3c 8c c6 67 3d 8b f1 8f bc
       0.015279429 0.011352517 0.056585833 -0.017571231
000060 0d 21 07 bd ae 52 46 3d 5c d2 35 3c 67 fe 21 bc
       -0.032990504 0.048418693 0.011097517 -0.009887314
000070 62 a5 81 bc bb 0d 9b bd 76 2f be 3c 3b d5 d3 bc
       -0.015825931 -0.07570978 0.02321599 -0.025858512
000080 9d 5e 80 bc dc c4 41 bc 0a cc fb 3c d7 97 e9 3a
       -0.015670115 -0.01182672 0.030736942 0.0017821741
000090 48 b9 40 3c 04 c8 9e bc 08 3c a1 3c 42 1b b1 bc
       0.0117629245 -0.019382484 0.019681945 -0.021619443
0000a0 09 84 c4 3c 35 3b 14 3d cb c2 6b 3d 0d 7c 83 bc
       0.02398874 0.036189277 0.057558816 -0.016050363
0000b0 4a cc cc 3d e0 3f 96 3c 84 00 bd 3c a9 1c 50 bb
       0.099999025 0.018341005 0.023071535 -0.0031755364
0000c0 ee 37 4b bd 51 16 dd 3c f3 a0 7e 3d 04 26 8b bc
       -0.049613886 0.02698818 0.062165212 -0.0169859
0000d0 a5 53 a2 3d 7d b0 07 bc 88 68 58 3d c5 cd 48 bd
       0.0792611 -0.008281824 0.052834064 -0.049024362
0000e0 92 a9 5a bd ae 8b 7f 3b c7 12 8d 3a a3 24 af 3b
       -0.05338437 0.0038993168 0.0010763042 0.0053449436
0000f0 4e ce b3 3b bd a5 b3 3c d0 28 f2 ba 4d 2b 6e 3d
       0.00548724 0.021929616 -0.0018475298 0.058146764
000100 ed d6 bc 3b 6b dd 95 3d 4d be d1 3b c5 01 37 bd
       0.005762926 0.07317623 0.0064008594 -0.044679422
000110 a6 cb 3e 3d ed f1 4a bc 38 ee 16 3c 56 47 4e 3d
       0.046580933 -0.012386781 0.009212069 0.050361
000120 f5 52 33 bd 62 99 01 3d 6f ac 5c bb 1f fe d4 3c
       -0.043780286 0.031640418 -0.0033672114 0.02600008
000130 0a 24 71 bc 00 9c b7 bb 0c 5d d2 bb 90 f0 df 3c
       -0.014718065 -0.0056033134 -0.0064197835 0.027336389
000140 f8 be 3a 3d 59 57 a3 3d 40 29 6a bd 16 6e b7 3c
       0.04559228 0.079756446 -0.057168245 0.02239136
000150 77 44 71 3c fc 6d e3 bc 2b c6 34 3c 7c 09 cb bc
       0.014725796 -0.027762406 0.011033575 -0.024784796
000160 94 70 bb bc 25 0f c3 3c 16 36 de 3c be 3f 3b 3d
       -0.02288083 0.023810932 0.0271254 0.045715086
000170 3c dd 9e bd 7a da 5e 3c e3 be 9a bc 1e c5 93 3d
       -0.07757041 0.013601894 -0.01888985 0.072153315
000180 e0 c6 12 3d fc 67 2c 3d 81 43 16 bd d4 5a b6 bc
       0.035834193 0.042091355 -0.03668547 -0.022260107
000190 81 32 31 bd 6a 64 9c bb d6 2b 35 3b 2c 5f 1b bd
       -0.043261055 -0.0047727125 0.0027644536 -0.03793256
0001a0 cb e2 08 bc af 04 80 bd 14 05 87 3b 55 45 eb bc
       -0.008354853 -0.06250893 0.0041204784 -0.028719584
0001b0 75 0f c5 bc 48 96 2e 3c 38 23 39 bd 1f 19 63 3d
       -0.024055222 0.010655947 -0.045199603 0.05544388
0001c0 fb 76 ef 3c a9 6f ea bc 51 b4 9c 3c 88 67 31 bd
       0.029231539 -0.028617697 0.01912895 -0.043311626
0001d0 9f 58 a0 3d a9 60 18 3d b3 ef 9d 3c a5 13 07 3c
       0.07829403 0.037201557 0.019279337 0.00824443
0001e0 54 08 84 3c c9 62 45 3d b7 05 a2 3b ca e1 73 bc
       0.016117252 0.048189912 0.004944529 -0.014885375
0001f0 6e 5f 15 bc da 86 6c 3d 28 4c fb 3c 6b 45 4b 3d
       -0.0091169905 0.057745792 0.030675963 0.04962675
000200 f8 5e c1 3d e9 2a 15 bd 03 5c f3 3c d6 15 84 3b
       0.09441942 -0.036417875 0.02970696 0.0040309234
000210 03 23 9b 3c 59 33 30 3d 98 50 90 3b f1 f0 0f bd
       0.018937593 0.04301772 0.004404139 -0.03514189
000220 cf 8b 42 3c 17 99 04 bd 7c c3 24 bd 53 89 1b 3c
       0.011874153 -0.03237256 -0.04022549 0.00949319
000230 3c 8e 01 bc cb a8 2b 3d e1 26 c4 3c 0e ac ee ba
       -0.0079074465 0.04190902 0.02394432 -0.0018209235
000240 59 2d f5 bc 97 87 ff bb 75 2a de bc 2b da 53 bd
       -0.02992885 -0.007798146 -0.027119854 -0.051721733
000250 df 60 50 bb 36 60 42 bd 8a 05 a8 3b f9 f5 81 3c
       -0.003179602 -0.047455035 0.0051276134 0.01586436
000260 51 5e f6 ba 46 84 5e 3c b3 af d1 bc 2f 6a e7 3b
       -0.0018796419 0.013581341 -0.025596475 0.0070622186
000270 a9 f9 52 3d 20 10 d7 bb 0e 07 0c 3d 48 c7 b2 3b
       0.051507626 -0.0065632015 0.034186415 0.005455885
000280 c7 53 2e bd 21 3f 39 bb ae 07 04 3d 25 87 ec b9
       -0.042560365 -0.0028266388 0.032233886 -0.00045114118
000290 3b 2f e1 3b 37 cb 6f ba b5 2e 7a bc 46 38 bc bb
       0.0068720854 -0.0009147408 -0.015269925 -0.005744013
0002a0 d0 30 cc 3a 1e 3d 2d 3c d6 36 20 3c 7c 93 87 3d
       0.0015578512 0.0105736535 0.009778699 0.06619927
0002b0 76 45 8f bb 15 bd 14 3d 69 69 0b 3d 9e 95 b3 bc
       -0.004372294 0.036313135 0.034036074 -0.021921929
0002c0 82 85 5f 3c 71 1a 71 bd 69 1d 7a bc 1e d0 d2 3c
       0.013642671 -0.058863107 -0.015265801 0.025734004
0002d0 68 00 02 3d c8 88 15 bc 12 8b 2f bc 7e f0 7c 3c
       0.03173867 -0.0091268495 -0.010714309 0.015438197
0002e0 14 e0 47 3c 5c bb 42 3d 74 23 76 bb 1e c9 19 3d
       0.0121994205 0.04754196 -0.0037557753 0.037545316
0002f0 35 b6 5c 3c 6f c7 9c bc 34 37 f2 bb ac 27 01 bd
       0.013471176 -0.019138066 -0.0073918346 -0.031531975
000300 7d 09 4d bd 62 24 87 bc e0 59 82 bc ed 68 35 3d
       -0.050057877 -0.01649684 -0.015911996 0.04428952
000310 4b 84 e2 bb 17 79 04 3d 27 ef da bc da 71 a7 3c
       -0.006912743 0.032342043 -0.026725365 0.02044003
000320 0d cd 4a 3d f1 a4 2c bd 8a 3f 3e 3d 45 5d ec 3c
       0.049511958 -0.042149488 0.046447314 0.028853068
000330 26 2a 96 3b b4 a4 54 3c 24 74 0b bd b6 d2 cf 3c
       0.004582661 0.012978721 -0.034046307 0.02536903
000340 05 47 a0 3c 50 59 16 3d 03 38 ff 3c c7 2d 07 3c
       0.019565115 0.03670627 0.031154638 0.00825066
000350 a4 91 ff bb 73 78 fd 3b 80 9b aa bb 27 a1 49 bc
       -0.007799344 0.007735306 -0.0052065253 -0.012306488
000360 67 e2 87 3c bb 79 b4 bb 35 e4 f0 3c cd 28 6f bc
       0.01658745 -0.0055076755 0.029405693 -0.01459713
000370 f6 90 cc 3c 4b a9 3e 3c 9e 1f b6 3c 70 51 03 3d
       0.024971467 0.011637042 0.022231873 0.032060087
000380 55 11 d6 bc d0 c0 3e 3b 5e cc 49 bc 10 4d 8f bc
       -0.026131311 0.0029106624 -0.012316791 -0.017492801
000390 0f 1f b1 bc 7d 03 da 3c c9 51 74 3c 2f a2 a2 bc
       -0.021621255 0.026612991 0.014912077 -0.019852726
0003a0 88 88 0f 3d 6a 0e b3 3b 91 94 31 3d db 37 0b bd
       0.035042316 0.005464365 0.043354575 -0.033988815
0003b0 a2 09 59 3c 1d 3b b6 3c b5 56 53 3b 50 60 94 bb
       0.013246926 0.022244984 0.0032247726 -0.004528083
0003c0 9e af bf bc 89 05 a7 3c 64 fc 40 3d 51 a8 25 bb
       -0.02339917 0.020388382 0.0471157 -0.0025277326
0003d0 5d 89 c3 bb a8 ee 3c 3d c3 21 53 3d e1 d7 ad bc
       -0.0059673027 0.046126038 0.05154587 -0.021221103
0003e0 ab 24 66 bc 5b 18 5d 3d 11 fc 73 3c cf c3 7a bc
       -0.014046828 0.053978305 0.01489164 -0.0153054735
0003f0 44 84 63 bc fd f9 7b 3b 40 68 b4 3c 1b 11 9d 3a
       -0.013886515 0.0038448565 0.022022367 0.0011983247

action_model._discrete_distribution.branches.0.bias f4 [4]
000000 d9 12 a5 3c 43 af 57 3c da ea 27 3c c0 18 3b bd
       0.020150589 0.013164344 0.010248864 -0.0456779

exp_avg f4 [128, 18]
000000 1d 1b 78 b8 7e 16 31 b8 63 0d 02 ba 3c d3 10 39
       -5.915306e-05 -4.2221036e-05 -0.0004961101 0.00013811601
000010 4c 7a 2c 36 50 af 92 39 47 c9 49 38 1d 08 c5 39
       2.5701183e-06 0.00027977908 4.810959e-05 0.00037580813
000020 51 32 00 ba 89 c7 08 b8 4c 7a 0e b9 fa 27 11 ba
       -0.000489031 -3.261076e-05 -0.00013587734 -0.0005537268
000030 1d f9 8d b9 65 27 75 39 84 21 4a b9 b6 41 3b 33
       -0.0002707922 0.00023379696 -0.00019276707 4.3599094e-08
000040 de 6d 52 b9 b7 26 94 39 06 26 99 39 3f e6 98 38
       -0.0002006809 0.00028257605 0.00029210764 7.2908115e-05
000050 7c 76 a4 b8 32 6d c6 39 92 02 fb 37 d3 27 b5 39
       -7.842199e-05 0.0003784686 2.9922729e-05 0.00034552682
000060 a3 70 36 39 08 df 68 b8 2a 59 f8 b9 76 f1 7f 39
       0.00017398833 -5.5520824e-05 -0.00047368678 0.00024408646
000070 7c a9 ef 38 51 02 ab b8 d1 5e 9c b9 bb 7f 67 38
       0.00011427977 -8.154347e-05 -0.00029825282 5.519365e-05
000080 00 5c bc b7 c9 2d ea b8 1c 2f c7 b9 3a a5 9d 38
       -2.2454187e-05 -0.00011166518 -0.00037991337 7.517119e-05
000090 c3 d1 3c b8 9a 2e 04 b9 4d 96 49 b9 fc 5a d2 37
       -4.501805e-05 -0.00012605861 -0.00019224845 2.5076319e-05
0000a0 c1 0f 0a 39 a4 b9 72 b9 6a c9 98 39 69 08 fd b8
       0.00013166574 -0.00023148075 0.00029141764 -0.000120655466
0000b0 14 4d 25 38 82 b9 3f b9 95 52 f3 b8 56 f9 aa b8
       3.941085e-05 -0.00018284286 -0.00011602525 -8.152674e-05
0000c0 78 d1 08 b8 b8 25 99 b9 75 99 19 b9 d2 52 3c b9
       -3.262001e-05 -0.00029210537 -0.00014648384 -0.0001795993
0000d0 fc 19 8e 39 74 87 b4 b8 5e 23 7c 38 42 7c 8a b9
       0.0002710371 -8.608299e-05 6.011442e-05 -0.0002641399
0000e0 e5 76 80 b9 e8 7f 6f b8 e3 37 20 39 e4 5a 67 b9
       -0.00024502646 -5.7101162e-05 0.00015279608 -0.00022063736
0000f0 b4 36 62 37 7f a3 9d b8 79 6d 5e 38 c5 b8 5b b9
       1.3483386e-05 -7.516797e-05 5.303088e-05 -0.000209543
000100 f8 33 51 b9 9f 72 37 38 c1 90 25 b7 ef 2a 4a b8
       -0.00019951153 4.373735e-05 -9.8684695e-06 -4.8200538e-05
000110 66 1c 36 b9 19 3b 10 b9 23 66 98 39 54 ec 34 b9
       -0.00017367452 -0.00013754926 0.00029067797 -0.00017254177
000120 8d a6 a2 39 06 01 3e 39 35 fe e5 38 d2 95 b2 38
       0.00031023138 0.00018120193 0.00010966921 8.5156076e-05
000130 9b a2 2f 39 af 3e 4c b9 70 44 85 b8 bd 62 4e 39
       0.00016749876 -0.00019478308 -6.354682e-05 0.00019682474
000140 74 ca 06 b9 f4 19 d5 33 ae a3 99 39 59 60 ca 38
       -0.00012854656 9.923306e-08 0.00029304385 9.650057e-05
000150 4f f8 a6 b8 42 b4 38 39 bb 21 e5 b8 e9 a5 11 39
       -7.961748e-05 0.00017614759 -0.00010925854 0.00013890084
000160 8d 6d 1a 38 09 fd 95 38 2d 69 46 b9 7f 8a 31 b9
       3.681849e-05 7.152005e-05 -0.00018921932 -0.00016931629
000170 46 cd 0e b9 79 c0 95 37 02 63 29 b8 3c 57 74 38
       -0.00013618646 1.7851811e-05 -4.0384948e-05 5.8255377e-05
000180 b2 ed 1f 39 36 8c dd b8 38 5e 8c 38 49 be 04 b9
       0.0001525197 -0.000105642175 6.69327e-05 -0.00012659388
000190 3f f8 4e b9 cf 7c a0 b9 bd 0a 79 37 ff 2d 23 b9
       -0.0001973817 -0.00030610568 1.4844057e-05 -0.00015562026
0001a0 9e 58 e2 38 77 99 09 36 e1 bb 2d 39 6f 0e 40 b9
       0.00010793026 2.050392e-06 0.00016568556 -0.00018315924
0001b0 0f ea 12 39 61 68 ec 39 95 7d f0 38 80 d4 b7 39
       0.00014010839 0.00045091196 0.00011467483 0.00035062805
0001c0 9a 56 2d 39 02 36 19 39 73 89 c1 b9 8d 8f 65 39
       0.00016530827 0.00014611337 -0.00036914236 0.00021892619
0001d0 67 5a f7 35 6d e9 9e 38 43 7d 7e 39 a1 0d f1 39
       1.8429245e-06 7.577506e-05 0.00024269991 0.00045977256
0001e0 5f 25 b5 39 26 77 a5 39 d0 13 fc 37 ff 54 5f 38
       0.00034550854 0.00031560025 3.0049967e-05 5.3246502e-05
0001f0 65 59 18 ba d1 cd 8c 39 a8 0a 67 37 5d ba 1d b9
       -0.00058116607 0.00026856226 1.3771154e-05 -0.00015042112
000200 a4 56 c5 b7 b3 16 e9 b6 a6 fa c1 38 ce 4a a9 b9
       -2.3524575e-05 -6.9465837e-06 9.249644e-05 -0.00032289926
000210 0f 41 71 39 af 55 c2 b9 43 1d 69 39 c4 80 41 b9
       0.00023007787 -0.00037066403 0.00022231512 -0.00018453883
000220 c5 9c 02 b9 8a 5e d3 b8 67 91 23 b8 b5 f9 c2 b8
       -0.00012456167 -0.00010078873 -3.8997645e-05 -9.2971524e-05
000230 66 2a 83 b8 cd 2b 5f 38 d3 19 9b 39 a3 46 00 b9
       -6.254464e-05 5.3208136e-05 0.00029583144 -0.00012233345
000240 41 8e 8b 39 03 b8 67 b8 73 7e af b9 45 cc ce 38
       0.00026618133 -5.5246066e-05 -0.00033472813 9.8608936e-05
000250 f6 7f cf 38 cc 35 c3 38 f5 6b f3 b8 22 83 96 38
       9.894364e-05 9.308345e-05 -0.000116072515 7.176983e-05
000260 ed 72 4c b9 71 77 51 39 bd 8b b4 b8 2e e9 76 b9
       -0.00019497769 0.00019976289 -8.609097e-05 -0.00023547254
000270 6d a0 10 b9 93 05 2b 39 7b 24 30 b9 c9 e3 05 b9
       -0.00013792673 0.00016309907 -0.00016798258 -0.00012768725
000280 b6 ff 6a b8 d0 c4 54 39 e5 d5 11 39 96 9c 1c b8
       -5.6028097e-05 0.00020291214 0.0001390796 -3.733913e-05
000290 b4 bd 75 39 bd 52 2f b8 08 8c 9d 38 51 3b 1b b9
       0.0002343569 -4.1800307e-05 7.512426e-05 -0.00014804049
0002a0 b3 a7 28 39 37 99 64 b8 53 80 52 39 94 05 99 38
       0.00016084201 -5.450213e-05 0.00020074965 7.2966475e-05
0002b0 f1 87 4e 39 47 bd 4b 39 b1 95 4e 38 5e b6 ff b8
       0.00019696333 0.000194301 4.925364e-05 -0.00012193316
0002c0 48 ad 05 b8 06 bb 4e 38 de 1c d3 b8 43 cf 1e 36
       -3.187105e-05 4.9288406e-05 -0.00010066641 2.3664477e-06
0002d0 6f 69 e5 b7 fc bf 5f 38 b1 1d 19 37 9c 2f fa 34
       -2.7348024e-05 5.3346143e-05 9.126424e-06 4.660077e-07
0002e0 45 1c 26 39 f2 3a b4 b9 cb ae e8 b8 cb b8 7f 39
       0.00015841525 -0.00034376193 -0.0001109518 0.00024387536
0002f0 e2 28 09 3a 07 0c 83 b8 b6 93 30 39 78 f0 a9 b5
       0.0005232227 -6.248807e-05 0.00016839695 -1.2661467e-06
000300 e9 6d 4f 39 ce e4 69 b9 2a 5d 7c 38 9c 4b 4b b9
       0.00019782003 -0.00022305848 6.0168248e-05 -0.00019387755
000310 d3 b2 f3 38 fc 39 fe b7 99 8e 2d b8 09 f3 0c b9
       0.000116204516 -3.030616e-05 -4.137922e-05 -0.00013441978
000320 f7 b9 7b 39 d8 55 cb 38 00 dd 2a b9 14 9f 34 39
       0.00024006503 9.695784e-05 -0.00016294792 0.00017225399
000330 98 ce 5d 39 de b8 6d b8 7b 5a 3c b9 c5 6b 52 38
       0.00021153165 -5.6677374e-05 -0.00017962784 5.016827e-05
000340 51 4f 5f b9 15 10 44 39 08 fa 08 b9 28 7f f9 b8
       -0.00021296485 0.00018698008 -0.00013063115 -0.0001189693
000350 b9 3b 88 38 fc ad ff 38 ac 16 91 b9 e3 da e8 b8
       6.4961096e-05 0.00012191755 -0.00027673447 -0.00011103393
000360 2b de 8b 39 bd 9c ba 39 0b a4 c5 39 db 1c 67 39
       0.00026677674 0.00035593464 0.0003769699 0.00022040626
000370 58 45 ad b8 99 56 15 b8 f1 0d ac 37 2d f1 b4 b9
       -8.262199e-05 -3.560502e-05 2.051049e-05 -0.00034511965
000380 78 76 0a b9 40 82 99 39 dc 4c f8 39 14 76 7c b8
       -0.00013204839 0.00029279478 0.0004735951 -6.019145e-05
000390 e0 b7 85 38 4c 46 b8 39 04 cf e2 b8 97 0d ff 39
       6.3761836e-05 0.0003514759 -0.000108150794 0.00048647515
0003a0 80 94 75 39 b3 e8 04 b9 e0 d1 83 b8 8f ed 9f 39
       0.00023420341 -0.00012675188 -6.285659e-05 0.00030503838
0003b0 a8 7d d6 38 16 e6 bd 38 43 75 39 b8 01 c5 86 b9
       0.000102277205 9.055079e-05 -4.4216646e-05 -0.0002570525
0003c0 90 cd 08 b8 5c 7e 8c b8 68 ac dc 39 14 cf ff 36
       -3.261637e-05 -6.6992565e-05 0.00042090123 7.6236993e-06
0003d0 bf 01 9e 39 20 12 8a 39 78 34 0f 3a f0 0e 7c 38
       0.0003013741 0.00026334915 0.00054628355 6.0095394e-05
0003e0 e3 85 e2 37 99 9d 06 39 2e 8c b5 b7 6c 87 b6 37
       2.7003645e-05 0.00012837946 -2.1642158e-05 2.1759151e-05
0003f0 e7 77 1a b9 1d 67 cb 38 5f 46 8b 38 d3 39 42 b9
       -0.00014731252 9.699001e-05 6.641144e-05 -0.00018522823
