Assets/ML-Agents/results/RL_BASIC/RL_Basic/RL_Basic-499991.pt (torch, 491747 bytes, 50 tensors)

network_body.observation_encoder.processors.0.normalizer.running_mean f4 [18]
-0.14143963 -0.18085924 -0.0330391 -0.10322551 92.45136 0.6684098 0.68556637 1.1739126
2.3129814 -0.081537575 -0.091422744 -0.005597837 -0.0014018086 91.62829 0.29604322 0.5336897
1.2120388 1.9415406
00000000: 8dd5 10be 2a33 39be 0254 07bd e567 d3bd
00000010: 19e7 b842 e81c 2b3f 4781 2f3f c542 963f
00000020: e307 1440 2cfd a6bd d93b bbbd 0f6e b7bb
00000030: e4bc b7ba af41 b742 fa92 973e e39f 083f
00000040: 1624 9b3f 6784 f83f

network_body.observation_encoder.processors.0.normalizer.running_variance f4 [18]
9.053123e+06 9.338681e+06 241638.23 252481.67 5.6409784e+07 339644.53 331381.94 1.3260461e+06
721428.1 1.3782091e+07 1.3988465e+07 248079.2 251896.86 5.2252532e+07 207235.97 291567.62
1.3575185e+06 790113.75
00000000: c323 0a4b 397f 0e4b 8ff9 6b48 6b90 7648
00000010: ae2f 574c 91d7 a548 bece a148 f1de a149
00000020: 4221 3049 4b4c 524b 7172 554b cd43 7248
00000030: 37fe 7548 dd53 474c fe60 4a48 f45d 8e48
00000040: 74b6 a549 1ce6 4049

network_body.processors.0.normalizer.running_mean f4 [18]
-0.14143963 -0.18085924 -0.0330391 -0.10322551 92.45136 0.6684098 0.68556637 1.1739126
2.3129814 -0.081537575 -0.091422744 -0.005597837 -0.0014018086 91.62829 0.29604322 0.5336897
1.2120388 1.9415406
00000000: 8dd5 10be 2a33 39be 0254 07bd e567 d3bd
00000010: 19e7 b842 e81c 2b3f 4781 2f3f c542 963f
00000020: e307 1440 2cfd a6bd d93b bbbd 0f6e b7bb
00000030: e4bc b7ba af41 b742 fa92 973e e39f 083f
00000040: 1624 9b3f 6784 f83f

network_body.processors.0.normalizer.running_variance f4 [18]
9.053123e+06 9.338681e+06 241638.23 252481.67 5.6409784e+07 339644.53 331381.94 1.3260461e+06
721428.1 1.3782091e+07 1.3988465e+07 248079.2 251896.86 5.2252532e+07 207235.97 291567.62
1.3575185e+06 790113.75
00000000: c323 0a4b 397f 0e4b 8ff9 6b48 6b90 7648
00000010: ae2f 574c 91d7 a548 bece a148 f1de a149
00000020: 4221 3049 4b4c 524b 7172 554b cd43 7248
00000030: 37fe 7548 dd53 474c fe60 4a48 f45d 8e48
00000040: 74b6 a549 1ce6 4049

network_body._body_endoder.seq_layers.0.weight f4 [128, 18]
0.13179119 0.115256995 0.1366475 -0.15792522 -0.015096221 0.10603235 0.30046016 0.14019154
0.18952782 0.15782891 0.59619385 0.117963485 -0.3626632 0.022140058 0.0033836141 -0.29210538
0.050270054 0.055417072 0.22634946 -0.02879885 0.39117765 0.091560826 -0.21172917 0.24103352
-0.35521343 -0.07037113 0.10863146 0.1754291 -0.31873107 0.31489703 0.03842645 0.15258594
-0.27105233 -0.0750746 -0.090048485 0.24466111 -0.42602462 0.09401997 -0.16360635 -0.30742753
0.3183791 -0.25581613 -0.12385793 -0.5574914 0.12103898 -0.5594633 0.25864744 -0.22800933
-0.10917535 0.111017846 -0.28124416 -0.0025585429 -0.02743458 0.46078265 -0.1644104 -0.22665809
-0.16107252 -0.10453357 0.5038531 -0.47523862 -0.034332477 -0.03014849 0.2716039 0.0056240647
-0.30674955 0.15664591 -0.17251223 -0.14903478 -0.2113697 0.100290224 0.15269257 -0.13111573
0.09381127 -0.29507825 0.068924464 -0.18935595 0.14655997 0.11893189 0.12556483 -0.46682036
-0.20030767 0.29342806 -0.19286495 -0.34626046 -0.21706794 0.08393572 -0.3369254 -0.51887053
-0.07806523 -0.13929658 -0.13508157 0.053705268 0.15555845 0.16937079 -0.011682135 -0.18543157
-0.14311586 -0.19347653 0.08277056 -0.0986757 0.05766511 -0.4159034 -0.15608355 0.37506068
0.44935262 -0.27384582 -0.063326575 -0.40026796 0.32306018 -0.102062 0.48971063 0.14931342
-0.52708966 0.5464522 0.20150745 -0.2938056 -0.004458425 0.09173793 -0.075854965 -0.6345802
0.47816506 0.37098923 -0.22922277 -0.035639368 0.27159157 -0.57117975 -0.04537541 -0.104805976
0.08851156 0.28481176 0.102140725 -0.48877308 -0.09001779 0.11537173 -0.092740044 -0.066509575
0.09333558 0.30393437 -0.19061135 0.3452271 -0.27375567 0.038305696 -0.18759339 -0.35029742
0.5568033 0.10242562 0.13079233 0.053998396 -0.30519202 0.03876012 -0.38300547 -0.32967168
0.07079476 0.4852513 0.45903385 0.05733704 0.15596634 0.14559904 0.18101539 -0.538892
-0.20924492 0.5190551 0.02521979 -0.20474057 -0.015832154 0.1312386 -0.12157815 0.26067382
0.55331516 -0.16624452 -0.074113704 -0.048217475 -0.42559978 0.72638774 -0.12249242 0.32196358
-0.20992538 -0.24397296 -0.0071397214 -0.24034503 -0.18352176 -0.13958918 0.0047981534 -0.034663834
-0.23565586 0.16224259 -0.44824335 -0.40136135 -0.13461374 -0.27096683 0.003382641 -0.29568985
-0.11966039 -0.22760737 0.32275978 -0.22659366 -0.024847168 -0.1992527 0.3963755 -0.06898445
0.13118687 0.56097245 -0.2977862 0.016433954 0.54944986 0.0667402 0.3506188 -0.21067758
-0.2204483 -0.08212502 0.10460522 0.35316738 0.04479928 -0.08936983 -0.2760935 -0.2043169
-0.5428671 -0.13109945 -0.12642519 -0.32478523 0.08801949 0.28240886 0.14413019 0.32118773
0.1709478 0.10293425 -0.33920825 -0.0006406482 -0.30523774 -0.044067007 -0.21255726 -0.18669388
-0.077621505 0.3453647 -0.4795545 -0.49115765 -0.049530275 0.20882179 0.17278025 0.0113427285
0.35488686 -0.2553022 -0.34476313 0.37744662 0.12089034 -0.24951969 -0.019956911 -0.115354136
0.4170296 -0.14676155 0.03842096 -0.09224944 -0.15390737 -0.04454552 0.09381584 0.4785234
00000000: 45f4 063e dc0b ec3d 52ed 0b3e 26b7 21be
00000010: 2456 77bc 7d27 d93d ead5 993e 5f8e 0f3e
00000020: 9513 423e e79d 213e 29a0 183f d796 f13d
00000030: feae b9be 115f b53c a0bf 5d3b d68e 95be
00000040: f9e7 4d3d 03fd 623d 27c8 673e 91eb ebbc
00000050: 7048 c83e 3e84 bb3d 88cf 58be 7ed1 763e
00000060: 89de b5be bd1e 90bd 2c7a de3d b0a3 333e
00000070: b830 a3be 2f3a a13e 0e65 1d3d 7d3f 1c3e
00000080: 5fc7 8abe b6c0 99bd 576b b8bd 7188 7a3e
00000090: e61f dabe 8b8d c03d 6c88 27be 2467 9dbe
000000a0: 9602 a33e 55fa 82be 3aa9 fdbd c2b7 0ebf
000000b0: 49e3 f73d fd38 0fbf 706d 843e 477b 69be
000000c0: 5397 dfbd 535d e33d 3cff 8fbe 3aad 27bb
000000d0: 7cbe e0bc b4eb eb3e 335b 28be 0f19 68be
000000e0: 32f0 24be b215 d6bd 84fc 003f 7a52 f3be
000000f0: 36a0 0cbd f7f9 f6bc ab0f 8b3e 134a b83b
00000100: 470e 9dbe c967 203e 0ca7 30be 939c 18be
00000110: 4c71 58be f664 cd3d 715b 1c3e 3443 06be
00000120: 2020 c03d 7f14 97be 4528 8d3d 87e6 41be
00000130: d113 163e 9092 f33d 1194 003e 1403 efbe
00000140: 741d 4dbe 343c 963e 647e 45be 0d49 b1be
00000150: 0f47 5ebe 7ee6 ab3d 7c81 acbe b3d4 04bf
00000160: aae0 9fbd c3a3 0ebe d352 0abe 0efa 5b3d
00000170: b74a 1f3e 896f 2d3e 6d66 3fbc c6e1 3dbe
00000180: f78c 12be b61e 46be 9d83 a93d 7c16 cabd
00000190: 4032 6c3d 4af1 d4be 5ed4 1fbe f407 c03e
000001a0: 8c11 e63e 8535 8cbe 5db1 81bd ecef ccbe
000001b0: 2568 a53e e205 d1bd 5abb fa3e 9ee5 183e
000001c0: 59ef 06bf 4be4 0b3f f857 4e3e b06d 96be
000001d0: fb17 92bb 19e1 bb3d d959 9bbd d973 22bf
000001e0: 0dd2 f43e 4df2 bd3e 60b9 6abe 96fa 11bd
000001f0: 0d0e 8b3e d638 12bf 91db 39bd 84a4 d6bd
00000200: 8c45 b53d d9d2 913e 282f d13d 7740 fabe
00000210: 3f5b b8bd 0348 ec3d 7eee bdbd 2c36 88bd
00000220: b926 bf3d 499d 9b3e 9f2f 43be 9bc1 b03e
00000230: b429 8cbe 6fe6 1c3d 7b18 40be 2f5a b3be
00000240: a98a 0e3f 86c4 d13d 6dee 053e 6c2d 5d3d
00000250: 2142 9cbe eec2 1e3d 4b19 c4be baca a8be
00000260: d8fc 903d dc72 f83e 7c06 eb3e 3eda 6a3d
00000270: a4b5 1f3e ea17 153e 195c 393e d3f4 09bf
00000280: 4d44 56be cce0 043f bc99 ce3c 83a7 51be
00000290: 6fb2 81bc 6963 063e f7fd f8bd 0a77 853e
000002a0: 10a6 0d3f 013c 2abe edc8 97bd b07f 45bd
000002b0: 37e8 d9be 8cf4 393f 4edd fabd 69d8 a43e
000002c0: aef6 56be 0cd4 79be 53f4 e9bb 021d 76be
000002d0: 21ed 3bbe 77f0 0ebe d439 9d3b aafb 0dbd
000002e0: c54f 71be ec22 263e 2780 e5be 3c7f cdbe
000002f0: 2fd8 09be 2abc 8abe 4caf 5d3b a964 97be
00000300: 8210 f5bd e811 69be c540 a53e 2b08 68be
00000310: 4a8c cbbc e608 4cbe bbf1 ca3e b847 8dbd
00000320: da55 063e e49b 0f3f 6f77 98be 80a0 863c
00000330: bfa8 0c3f 16af 883d 4f84 b33e ddbb 57be
00000340: 33bd 61be 2a31 a8bd 433b d63d 5bd2 b43e
00000350: 737f 373d 8807 b7bd 215c 8dbe 7338 51be
00000360: 57f9 0abf ef3e 06be 9b75 01be 404a a6be
00000370: 9043 b43d e597 903e dd96 133e b872 a43e
00000380: f10c 2f3e 31cf d23d b4ac adbe 2cf1 27ba
00000390: 1f48 9cbe 9b7f 34bd 9ca8 59be ae2c 3fbe
000003a0: 06f8 9ebd a4d3 b03e 2b88 f5be 0479 fbbe
000003b0: 42e0 4abd 61d5 553e 4eed 303e dad6 393c
000003c0: bbb3 b53e f8b6 82be cb84 b0be af40 c13e
000003d0: 5b95 f73d 1782 7fbe ad7c a3bc ca3e ecbd
000003e0: e784 d53e a948 16be 4c5f 1d3d 46ed bcbd
000003f0: e599 1dbe 5d75 36bd 8522 c03d 0501 f53e

network_body._body_endoder.seq_layers.0.bias f4 [128]
0.010120206 0.026877422 0.021185804 -0.011174178 0.06083969 -0.011939202 -0.00049674674 0.01736562
0.033766594 0.029280085 0.007800685 0.016639518 0.009232813 0.011233975 0.010560749 0.025084231
-0.010427899 0.025412591 0.089383446 0.0045356317 0.025460856 0.00041259197 0.004795491 -0.0074265394
-0.0034584324 0.011826026 -0.01684678 0.00079215923 0.036071155 0.0016413054 0.0018988139 0.04000455
-0.0044273464 -0.01927298 0.016209831 0.055284683 0.016438913 0.05586377 0.03961103 0.0016278636
-0.0037821052 -0.0074359383 0.020218017 0.021002563 0.0019709354 0.038754962 0.019634545 -0.009935497
0.020787714 -0.018983705 -0.01737244 -0.0018038601 0.014421999 0.045153137 0.0038854675 0.00828455
0.02357085 0.030930193 -0.02143205 0.0077452026 0.02453713 -0.010320447 -0.013427966 -0.0047191135
0.03505214 0.037039492 0.048646066 0.016634054 0.009357919 0.015431679 0.017525911 -0.0024050816
0.01421708 -0.019783495 0.021851854 0.0047153 0.02429141 0.016267972 0.014190316 0.0016832585
0.04499186 0.036240302 0.0062789647 0.0079342965 0.023045834 -0.018313076 -0.0045408043 0.007917893
0.00050166453 0.036837686 0.037471335 0.009889815 -0.006681519 0.028937938 0.0076929154 -0.016852401
0.025366973 0.02451833 -0.0030871404 0.021511516 -0.02206499 0.049554948 0.00687945 0.0027400698
0.041637935 0.017320858 -0.01666657 0.0077818953 0.031505514 -0.014261575 0.019139607 -0.027594095
0.02409171 0.034348458 -0.002860527 0.016422026 0.016940255 0.008391496 0.021201197 -0.0076939487
0.023590231 0.022513587 -0.009391699 -0.0007496365 -0.008021295 0.033164255 0.031848498 0.020981254
00000000: 38cf 253c 0a2e dc3c da8d ad3c e613 37bc
00000010: 0a33 793d a59c 43bc 1c38 02ba 5842 8e3c
00000020: d74e 0a3d cadc ef3c e39c ff3b 994f 883c
00000030: 3945 173c b50e 383c fe06 2d3c 727d cd3c
00000040: c7d9 2abc 112e d03c ab0e b73d a39f 943b
00000050: 4993 d03c 2851 d839 7f23 9d3b 545a f3bb
00000060: dea6 62bb f3c1 413c 4202 8abc e8a8 4f3a
00000070: 59bf 133d 1221 d73a 9fe1 f83a d0db 233d
00000080: 4613 91bb 5ee2 9dbc 7bca 843c 3172 623d
00000090: e6aa 863c 69d1 643d 2d3f 223d 0a5e d53a
000000a0: 32dd 77bb 2ca9 f3bb 41a0 a53c 910d ac3c
000000b0: cf2a 013b 86bd 1e3d a0d8 a03c 7fc8 22bc
000000c0: ff4a aa3c b783 9bbc a650 8ebc 806f ecba
000000d0: 404a 6c3c 7ff2 383d 54a3 7e3b ecbb 073c
000000e0: a817 c13c 5161 fd3c 4492 afbc 78cb fd3b
000000f0: 1702 c93c 1817 29bc f900 5cbc cba2 9abb
00000100: d592 0f3d b9b6 173d 1941 473d 2444 883c
00000110: f551 193c 27d5 7c3c 8092 8f3c 939e 1dbb
00000120: c1ee 683c ff10 a2bc a902 b33c ce82 9a3b
00000130: c7fe c63c 6944 853c 807e 683c c8a0 dc3a
00000140: 6249 383d b670 143d c6bf cd3b dafe 013c
00000150: 9eca bc3c 4e05 96bc 07cb 94bb 0dba 013c
00000160: 2382 033a 1de3 163d 8b7b 193d e408 223c
00000170: a5f0 dabb 410f ed3c da14 fc3b 0c0e 8abc
00000180: 66ce cf3c aada c83c 9f51 4abb eb38 b03c
00000190: a3c1 b4bc 21fa 4a3d 026d e13b be92 333b
000001a0: 8a8c 2a3d 79e4 8d3c 5588 88bc 45ff fe3b
000001b0: ed0b 013d 62a9 69bc aaca 9c3c 030d e2bc
000001c0: fa5b c53c f8b0 0c3d ae77 3bbb 7c87 863c
000001d0: 4ac6 8a3c 7c7c 093c 22ae ad3c 851d fcbb
000001e0: 4d40 c13c 6a6e b83c a4df 19bc 4183 44ba
000001f0: c06b 03bc 3ed7 073d 9273 023d e1e0 ab3c

network_body._body_endoder.seq_layers.2.weight f4 [128, 128]
0.0280535 0.116829105 0.006414955 0.0022826681 -0.008098999 -0.10455657 -0.056959897 0.23090813
0.09275595 -0.070205875 -0.10096753 0.09252493 -0.018052934 0.04004452 0.066792086 0.09141341
-0.03997615 0.02778561 0.15500353 -0.14873907 0.095551975 -0.049708474 -0.040410865 0.13245413
0.0603475 -0.08829463 -0.0005203049 0.07475472 0.15644456 0.102421746 0.06092914 -0.07093495
0.1524304 -0.17740652 -0.07907992 0.021968614 -0.10827483 -0.031252507 -0.04379986 0.049269166
-0.055247404 0.05988891 0.047177263 -0.14232253 0.03656286 -0.029004943 -0.045321822 0.016716933
0.10277387 -0.16982438 0.05568519 -0.030638402 0.0034793408 0.08881033 -0.021277241 -0.04121072
0.11925007 0.03762774 -0.020085035 -0.18195485 0.08725949 -0.2438391 -0.03137383 0.03477782
-0.011873732 0.071040705 0.16644074 -0.10174807 0.0045524775 0.0449731 -0.026637292 0.027586482
-0.17765388 0.06616827 0.119735226 0.019113243 -0.09269374 0.1067251 -0.08015909 0.10642333
0.04680179 0.15302518 0.19088447 0.13993701 -0.034672234 0.039896924 -0.12693986 0.025006391
0.120244615 0.014763819 0.06321535 0.016691454 0.08634872 -0.18427952 -0.17188741 0.053762797
0.15828347 0.020272642 0.05222653 -0.10532034 0.07759677 -0.10368486 0.058989685 0.21554464
0.15893775 0.07793147 -0.075109325 -0.14179109 0.042330123 0.017191136 -0.03387104 0.007711371
0.036922917 0.053481422 0.023649363 0.1535648 -0.14311907 -0.20905569 0.087197356 -0.16247414
-0.008010028 -0.003336297 0.024318209 0.019542165 -0.053080566 0.0016937029 -0.19497283 -0.013060827
0.15814187 -0.039308917 0.0003864989 0.08146338 -0.047224704 -0.19143927 -0.056075267 0.0046320674
-0.14589803 -0.023624199 0.010555483 -0.025899885 -0.021235762 -0.026788585 0.04143452 -0.09480653
0.11818501 -0.020335848 -0.067748524 0.06949347 0.009749949 -0.14767206 -0.039346136 0.19473244
0.27011317 -0.08982718 0.13321358 -0.046907563 -0.020871364 0.13555789 0.08454373 0.001673926
-0.13455975 -0.017730499 0.26245266 -0.109917425 -0.09646985 -0.098838255 0.029821722 -0.041401733
-0.04693222 0.03223765 -0.1608614 -0.05104316 -0.050764892 0.05041203 -0.14390877 -0.009173122
-0.019547062 0.003958096 -0.040369473 0.09494749 -0.054846276 0.051748566 -0.092449054 0.042657647
0.040165875 -0.05267588 -0.05727572 -0.14174026 -0.14797077 -0.10363028 -0.02733606 0.074749716
-0.13212688 -0.11242487 -0.02078741 0.00205888 -0.0063188532 -0.09267174 0.053204484 0.044900693
0.035742242 -0.027109567 -0.01016561 0.06460931 0.056943495 -0.04468019 0.09374831 0.0017589766
0.06265503 -0.046954054 -0.016495492 -0.14253293 0.09788214 -0.115293756 -0.018532954 0.023859657
0.0052461494 0.050869443 -0.17641674 -0.21614644 -0.011617164 -0.07332936 -0.0016425578 0.026771646
0.0638481 0.18469924 -0.0915783 0.037903298 -0.05918656 0.023686992 0.11508917 -0.15760289
-0.033848226 0.001238326 -0.03155006 -0.098334424 0.022793315 -0.10539416 0.00015933797 0.05535239
-0.112106636 0.14771497 -0.0012392381 -0.006751626 -0.15802854 0.03711674 0.078454494 0.007593313
-0.082674384 -0.09170291 0.047183968 -0.044181384 -0.057325028 0.006349626 -0.058714904 0.14996321
00000000: 74d0 e53c 1944 ef3d 8b34 d23b d198 153b
00000010: aab1 04bc c121 d6bd c84e 69bd 2e73 6c3e
00000020: d5f6 bd3d 19c8 8fbd 10c8 cebd b67d bd3d
00000030: bfe3 93bc b905 243d 4aca 883d f436 bb3d
00000040: 08be 23bd a69e e33c 3fb9 1e3e 0e4f 18be
00000050: c1b0 c33d 1d9b 4bbd dd85 25bd 0ea2 073e
00000060: f12e 773d d1d3 b4bd 1265 08ba 0119 993d
00000070: 0133 203e 7ec2 d13d d590 793d 5846 91bd
00000080: b716 1c3e 0eaa 35be a7f4 a1bd 86f7 b33c
00000090: 32bf ddbd a102 00bd 7b67 33bd 77ce 493d
000000a0: 1a4b 62bd 134e 753d f23c 413d ffbc 11be
000000b0: f0c2 153d c69b edbc 60a3 39bd f3f1 883c
000000c0: 1b7b d23d 71e6 2dbe 2716 643d 63fd fabc
000000d0: a705 643b 31e2 b53d 9c4d aebc 92cc 28bd
000000e0: 6139 f43d 8c1f 1a3d 5f89 a4bc 5f52 3abe
000000f0: 1ab5 b23d f5b0 79be d881 00bd 3073 0e3d
00000100: 0b8a 42bc ca7d 913d 716f 2a3e 4b61 d0bd
00000110: f32c 953b b735 383d 7336 dabc 0cfd e13c
00000120: e6ea 35be 3b83 873d be37 f53d 6093 9c3c
00000130: 37d6 bdbd b092 da3d 732a a4bd 7af4 d93d
00000140: 3cb3 3f3d a2b2 1c3e 3877 433e a64b 0f3e
00000150: 7904 0ebd f56a 233d 86fc 01be 34da cc3c
00000160: cf42 f63d f2e3 713c 0d77 813d 84bc 883c
00000170: 99d7 b03d c5b3 3cbe 4103 30be 6136 5c3d
00000180: 1015 223e d012 a63c 7ceb 553d 31b2 d7bd
00000190: 0eeb 9e3d ba58 d4bd 2b9f 713d bcb7 5c3e
000001a0: 94c0 223e 899a 9f3d ebd2 99bd af31 11be
000001b0: 5a62 2d3d 6dd4 8c3c 5cbc 0abd abaf fc3b
000001c0: 7c3c 173d 560f 5b3d 4fbc c13c 1740 1d3e
000001d0: ce8d 12be b212 56be 8794 b23d 9f5f 26be
000001e0: 7e3c 03bc c7a5 5abb fb36 c73c e416 a03c
000001f0: 026b 59bd 3dff dd3a f5a6 47be 14fd 55bc
00000200: f1ef 213e 6302 21bd 01a3 ca39 46d6 a63d
00000210: b16e 41bd a808 44be 2eaf 65bd 99c8 973b
00000220: 4b66 15be 8987 c1bc e8f0 2c3c ff2b d4bc
00000230: 9ff6 adbc bc73 dbbc 3eb7 293d ed29 c2bd
00000240: fc0a f23d 5d97 a6bc bdbf 8abd 9852 8e3d
00000250: 40be 1f3c 5837 17be 6a29 21bd f167 473e
00000260: 464c 8a3e 50f7 b7bd 2469 083e 2522 40bd
00000270: 6cfa aabc b0cf 0a3e 4325 ad3d a367 db3a
00000280: 08ca 09be 8d3f 91bc 3260 863e 631c e1bd
00000290: fc91 c5bd b66b cabd af4c f43c dd94 29bd
000002a0: 003c 40bd a00b 043d dab8 24be a212 51bd
000002b0: d9ee 4fbd d87c 4e3d d25c 13be dd4a 16bc
000002c0: 2921 a0bc eab2 813b 765a 25bd d473 c23d
000002d0: 7da6 60bd 4ef6 533d ee55 bdbd c9b9 2e3d
000002e0: f984 243d aac2 57bd f299 6abd 5c24 11be
000002f0: a685 17be 1d3c d4bd dfef dfbc 6116 993d
00000300: 454c 07be 033f e6bd 5c4a aabc 46ee 063b
00000310: 620e cfbb aeca bdbd f2ec 593d cae9 373d
00000320: 7566 123d e214 debc a98d 26bc e351 843d
00000330: 953d 693d 9302 37bd 1dff bf3d 768d e63a
00000340: 4851 803d e552 40bd 8e21 87bc 27f4 11be
00000350: 6e76 c83d 221f ecbd 6cd2 97bc 5475 c33c
00000360: e4e7 ab3b 7a5c 503d 97a6 34be 7e55 5dbe
00000370: eb55 3ebc b42d 96bd 184b d7ba 3650 db3c
00000380: cbc2 823d cc21 3d3e 678d bbbd 7d40 1b3d
00000390: 9b6d 72bd 390b c23c dfb3 eb3d a762 21be
000003a0: 70a4 0abd 534f a23a a33a 01bd 8f63 c9bd
000003b0: 0cb9 ba3c e5d8 d7bd f613 2739 30b9 623d
000003c0: 2a98 e5bd 9842 173e ee6d a2ba be3c ddbb
000003d0: 3cd2 21be b907 183d c0ac a03d 54d1 f83b
000003e0: 3051 a9bd bcce bbbd fa43 413d 8af7 34bd
000003f0: a6cd 6abd 8610 d03b 0a7f 70bd f58f 193e

network_body._body_endoder.seq_layers.2.bias f4 [128]
0.024142992 0.0040490227 0.018327191 0.005031123 0.0073345043 0.004575701 0.026824174 -0.011513709
0.03624482 0.034600645 -0.003846379 0.024021408 -0.00211326 0.01753261 0.008620726 -0.019973604
0.014814035 0.037068002 0.008317164 0.021222651 0.01661827 1.4877442e-05 0.0027277349 0.036328092
0.0060253013 0.011277139 0.010467887 0.01825186 0.017028833 0.01580583 0.031507935 0.0024440389
0.028343664 -0.016405486 0.02148026 0.010279739 0.0048182667 0.0038986073 0.013537201 0.017609641
0.0112008015 0.0038428765 0.008714281 0.011437214 0.03001416 0.0022362368 0.0016015028 -0.0050083674
0.0033438336 0.0024790354 0.021206405 0.0271915 0.041751456 -0.011591 0.028744604 -0.005618121
-0.00987069 0.01832634 -0.0025171246 0.020350525 0.0063207657 -0.0025619338 -0.009144946 0.010883736
0.0001778796 0.035098188 0.0069018197 0.012514179 0.012249868 0.020542867 -0.008629341 0.023942433
0.010570141 -0.011459375 0.0016750763 0.019409165 0.007121592 -0.013554807 0.009270161 0.0058387406
0.012219231 0.019831227 -0.011738206 0.00602506 -0.0024676514 0.008760424 0.0011921647 0.0037545925
-0.012737975 0.013476904 -0.01037333 -0.015829766 0.007933735 -0.00049722905 0.0036996412 0.02928122
-0.012935856 0.009012125 -0.021830881 -0.0030306287 -0.017494218 0.010068057 0.026627794 0.010118946
-0.010319815 -0.013087971 0.021636888 -0.032452717 0.019164423 0.006746643 0.00975545 0.015997244
0.013719881 0.012651284 0.0012802462 -0.0056243525 0.040232547 0.01881465 0.029511314 -0.0047420287
0.0072270995 0.005773748 0.015442913 0.0023537125 -0.0030898454 0.024605505 0.012471985 0.013014837
00000000: 86c7 c53c aaad 843b e822 963c 1edc a43b
00000010: 4856 f03b c3ef 953b 5fbe db3c ffa3 3cbc
00000020: 7375 143d 68b9 0d3d 8813 7cbb 8bc8 c43c
00000030: 9f7e 0abb 8ca0 8f3c f23d 0d3c af9f a3bc
00000040: 91b6 723c 9ed4 173d b744 083c 20db ad3c
00000050: 0a23 883c 209a 7937 ccc3 323b c4cc 143d
00000060: e46f c53b c0c3 383c 8081 2b3c ed84 953c
00000070: 0d80 8b3c 3a7b 813c 770e 013d 2b2c 203b
00000080: f930 e83c cc64 86bc 5ff7 af3c 5a6c 283c
00000090: 8de2 9d3b c77f 7f3b 23cb 5d3c 1842 903c
000000a0: 9183 373c c5d8 7b3b 58c6 0e3c 2763 3b3c
000000b0: 41e0 f53c d48d 123b 84e9 d13a 3b1d a4bb
000000c0: 3824 5b3b 5077 223b 0eb9 ad3c b5c0 de3c
000000d0: 9303 2b3d 2de8 3dbc ce79 eb3c 3718 b8bb
000000e0: adb8 21bc 1f21 963c 58f6 24bb 25b6 a63c
000000f0: 6d1e cf3b 1ee6 27bb afd4 15bc b351 323c
00000100: 3185 3a39 1ec3 0f3d a928 e23b 4508 4d3c
00000110: acb3 483c 8449 a83c 1462 0dbc ec22 c43c
00000120: 622e 2d3c 1ac0 3bbc 3c8e db3a f8ff 9e3c
00000130: 3e5c e93b fb14 5ebc e0e1 173c e852 bf3b
00000140: 2b33 483c 1975 a23c 9b51 40bc de6d c53b
00000150: 52b8 21bb e287 0f3c 6942 9c3a 9c0f 763b
00000160: f1b2 50bc 3bce 5c3c e6f4 29bc 6dad 81bc
00000170: 7ffc 013c 7a58 02ba ae75 723b 2bdf ef3c
00000180: eaf0 53bc 98a7 133c add6 b2bc 839d 46bb
00000190: 0950 8fbc 7ef4 243c 8822 da3c f0c9 253c
000001a0: 7114 29bc ee6e 56bc d83f b13c 24ed 04bd
000001b0: b5fe 9c3c f212 dd3b 53d5 1f3c a70c 833c
000001c0: 5ac9 603c 5547 4f3c efcd a73a 7d4c b8bb
000001d0: e2ca 243d 2e21 9a3c b6c1 f13c 0563 9bbb
000001e0: 4ed1 ec3b b531 bd3b 4604 7d3c be40 1a3b
000001f0: 017f 4abb 7c91 c93c 4c57 4c3c 2f3c 553c

action_model._continuous_distribution.log_sigma f4 [1, 2]
-0.0004589098 0.059479427
00000000: d599 f0b9 b3a0 733d

action_model._continuous_distribution.mu.weight f4 [2, 128]
-0.0014427868 -0.018162083 -0.029909808 -0.05245534 -0.02056404 0.05367669 -0.060722318 0.0029027334
0.010392418 0.02360772 -0.0028455507 -0.04272799 0.010598671 0.0642315 -0.020834088 0.0100809205
-0.008850801 -0.06458744 -0.011567799 -0.024034416 -0.0591662 -0.0068185367 -0.026722712 -0.0058539277
0.034054786 0.037180826 -0.006323408 -0.02101121 0.094144665 -0.041600518 -0.007158249 0.008256055
-0.00063093705 0.011467361 0.023314452 -0.0037614107 0.023005273 -0.040650442 -0.032886863 -0.031242587
0.030167224 -0.0012805925 0.05124121 -0.025727635 0.0064064134 0.06633871 0.05013406 0.007199731
0.013973852 -0.0045404183 -0.028703244 0.035278402 -0.06563696 0.031454965 -0.05165048 0.05563209
0.015029338 -0.008558317 0.014243078 -0.012421914 -0.0405751 -0.01085571 0.014776765 -0.0006561013
0.0023051528 -0.040270146 -0.037045825 0.00046299113 0.053445496 0.0018677139 -0.02700558 -0.029641159
0.0049297865 0.013040631 0.013340413 0.035001587 -0.05423663 -0.003393843 0.027372468 0.0074879886
-0.047547195 0.027577782 0.029608276 -0.018383283 0.04479215 -0.0065667173 -0.02518563 0.03763782
-0.025259294 -0.008001818 -0.0029295518 0.04451046 0.0072662532 0.042604856 -0.025804792 0.009241378
-0.0033818544 -0.029983785 0.002790689 0.012436665 -0.0053748908 0.009470789 -0.07999549 -0.027439825
-0.004004778 -0.015208236 -0.00222571 -0.010949166 -0.06665504 -0.026234945 0.04741299 -0.013005098
-0.036322016 0.055993028 0.014808275 -0.005816671 -0.03671087 0.008818161 0.011898063 -0.055592395
0.016588405 0.04668497 0.03506515 -0.01741208 0.016208787 -0.025009748 0.01512526 -0.04348681
-0.022856453 -0.00531202 -0.08362292 -0.01934283 -0.050660465 -0.029218009 0.024252946 0.026140664
-0.036964223 0.07615625 -0.036604676 0.029828575 0.03536835 -0.01727611 -0.05441785 0.020492125
-0.055750273 0.02907909 -0.005252987 0.00083144254 -0.024424754 -0.028280992 -0.022390718 -0.04830646
-0.016765144 -0.042501394 -0.0010584597 -0.097539425 -0.0060763527 -0.0475181 0.062595956 0.052871346
-0.013230191 -0.04284915 -0.0051569464 0.041139998 -0.012774264 -0.011726766 0.016638946 -0.051223293
0.030164067 0.020802915 0.0046777152 0.020375239 0.005183229 -0.002485448 -0.015323584 -0.034839436
-0.07360439 0.028732222 -0.022680016 0.06552009 -0.022699693 -0.04240652 0.038711272 0.017467253
-0.01904863 0.06592535 -0.039959032 0.06288903 -0.014364885 -0.0090703685 -0.024982437 0.02461385
-0.026355956 0.053414844 -0.024711553 -0.0316794 -0.0048521804 0.016874574 0.027323687 0.036682688
-0.003216355 0.025002183 -0.054276116 0.0069869347 -0.032596607 0.0147524355 0.022400962 -0.0021002684
-0.018860945 -0.04068922 -0.017439784 -0.068295486 -0.028931245 0.041397292 -0.019927852 0.04305481
-0.02236413 0.04637559 -0.019782398 -0.014235469 -0.01698454 -0.01632046 -0.039975725 -0.033838548
-0.0060789096 0.0025576127 0.015315734 -0.047445457 -0.01770634 0.034714356 -0.011020963 -0.024047775
-0.018934982 -0.03421953 -0.011464305 0.017319271 -0.028501563 -0.002525846 0.031656027 0.02396843
0.04147362 -0.01854638 0.024340441 0.019784797 0.028909706 0.07356233 -0.038870282 0.01380786
-0.046808988 -0.0022048997 0.04736296 0.028147303 0.022393517 0.022968268 -0.011180969 0.021346014
00000000: e41b bdba a6c8 94bc 6a05 f5bc 69db 56bd
00000010: eb75 a8bc 17dc 5b3d f7b7 78bd c93b 3e3b
00000020: f644 2a3c fa64 c13c 6b7c 3abb 8b03 2fbd
00000030: 0ca6 2d3c ce8b 833d 40ac aabc 722a 253c
00000040: f302 11bc 6b46 84bd de86 3dbc d3e3 c4bc
00000050: 4258 72bd 086e dfbb 97e9 dabc 4ed2 bfbb
00000060: 087d 0b3d ec4a 183d 9734 cfbb b31f acbc
00000070: ebce c03d 4e65 2abd bf8f eabb 6844 073c
00000080: 7865 25ba 99e1 3b3c f3fd be3c 0082 76bb
00000090: 8e75 bc3c 1481 26bd 60b4 06bd 74f0 ffbc
000000a0: 4121 f73c 8ed9 a7ba 4ee2 513d c3c2 d2bc
000000b0: e4ec d13b 97dc 873d 5f59 4d3d b9eb eb3b
000000c0: 95f2 643c cac7 94bb 1123 ebbc 1680 103d
000000d0: ac6c 86bd ecd6 003d 748f 53bd 79de 633d
000000e0: 9d3d 763c 2f38 0cbc cd5b 693c 4985 4bbc
000000f0: 1332 26bd 26dc 31bc 3f1a 723c 37fe 2bba
00000100: 0c12 173b 4ff2 24bd 5dbd 17bd 9ebd f239
00000110: aae9 5a3d 14ce f43a ce3a ddbc 04d2 f2bc
00000120: 0c8a a13b 5fa8 553c bf91 5a3c d35d 0f3d
00000130: 3b27 5ebd 3d6b 5ebb 3a3c e03c cd5d f53b
00000140: d9c0 42bd cdea e13c 0e8d f23c 8a98 96bc
00000150: f977 373d 9e2d d7bb 1852 cebc 1d2a 1a3d
00000160: 94ec cebc 0f1a 03bc b9fd 3fbb 9a50 363d
00000170: c019 ee3b 6e82 2e3d 9264 d3bc 2669 173c
00000180: 1aa2 5dbb 8ea0 f5bc fee3 363b 27c3 4b3c
00000190: da1f b0bb 5e2b 1b3c add4 a3bd 7cc9 e0bc
000001a0: 833a 83bb f72b 79bc 38dd 11bb 2164 33bc
000001b0: 7082 88bd abea d6bc 2034 423d 5613 55bc
000001c0: 65c6 14bd f258 653d 689e 723c c699 bebb
000001d0: 235e 16bd 0c7a 103c 18f0 423c dab4 63bd
000001e0: 68e4 873c bd38 3f3d 7aa0 0f3d c7a3 8ebc
000001f0: 4ac8 843c 3ee1 ccbc f0cf 773c 3a1f 32bd
00000200: 753d bbbc 7410 aebb 7e42 abbd db74 9ebc
00000210: 5981 4fbd 9b5a efbc 1dae c63c f224 d63c
00000220: cc67 17bd cff7 9b3d c9ee 15bd 0e5b f43c
00000230: 67de 103d a186 8dbc 40e5 5ebd 1adf a73c
00000240: 665a 64bd 4637 ee3c 4021 acbb 2af5 593a
00000250: 6c16 c8bc 8aad e7bc bd6c b7bc ffdc 45bd
00000260: 0e57 89bc f115 2ebd 04bc 8aba c0c2 c7bd
00000270: 241c c7bb 57a2 42bd 4f32 803d a08f 583d
00000280: 71c3 58bc 9782 2fbd 9afb a8bb 6a82 283d
00000290: 264b 51bc 9f21 40bc 664e 883c 84cf 51bd
000002a0: a21a f73c e06a aa3c 8547 993b f9e9 a63c
000002b0: 14d8 a93b e6e2 22bb c50f 7bbc ccb3 0ebd
000002c0: e6bd 96bd d65f eb3c 71cb b9bc 662f 863d
000002d0: b5f4 b9bc 76b2 2dbd b68f 1e3d 7c17 8f3c
000002e0: df0b 9cbc df03 873d 15ac 23bd f7cb 803d
000002f0: b25a 6bbc e29b 14bc f8a7 ccbc fca2 c93c
00000300: 72e8 d7bc 86c9 5a3d e26f cabc 42c2 01bd
00000310: 0aff 9ebb 8c3c 8a3c edd5 df3c 9640 163d
00000320: 7cc9 52bb 61d1 cc3c a250 5ebd a8f2 e43b
00000330: 0584 05bd 33b4 713c 3982 b73c a8a4 09bb
00000340: 4582 9abc bda9 26bd e1dd 8ebc 81de 8bbd
00000350: 3801 edbc 3590 293d bc3f a3bc 3e5a 303d
00000360: fb34 b7bc 55f4 3d3d b20e a2bc e23b 69bc
00000370: 2923 8bbc 7cb2 85bc 96bd 23bd 4a9a 0abd
00000380: 9731 c7bb 9f9d 273b d8ee 7a3c 2b56 42bd
00000390: e30c 91bc a430 0e3d 4591 34bc d7ff c4bc
000003a0: 891d 9bbc c729 0cbd c8d4 3bbc 25e1 8d3c
000003b0: 1c7c e9bc aa88 25bb c0a9 013d 7159 c43c
000003c0: 3ee0 293d 94ee 97bc 9b65 c73c ba13 a23c
000003d0: 0cd4 ec3c d9a7 963d 7236 1fbd 5d3a 623c
000003e0: c8ba 3fbd 1480 10bb aaff 413d 2c95 e63c
000003f0: 9c72 b73c f327 bc3c 6230 37bc d6dd ae3c

action_model._continuous_distribution.mu.bias f4 [2]
-0.009770537 0.005012725
00000000: 9a14 20bc c941 a43b

action_model._discrete_distribution.branches.0.weight f4 [4, 128]
-0.034850042 -0.033099093 0.033770155 0.04097755 -0.011432003 -0.0005529146 0.027588494 -0.029718628
0.04380331 0.06707147 -0.043112144 -0.008068554 0.02232074 0.009840597 0.00019216961 -0.028631594
0.0045752954 0.029460799 -0.008370903 0.040548213 0.03023124 -0.0039521246 0.055325955 -0.03016591
-0.031479966 0.048027173 -0.008672715 -0.010587555 -0.019043978 -0.05581672 0.012492388 -0.042383686
-0.008529276 -0.00997563 0.014755814 -0.004835278 0.00078458 -0.00583016 0.017922547 -0.011219587
0.0023544396 0.0148235345 0.050602436 -0.01988801 0.09171039 0.023694538 0.008508005 0.0005277648
-0.041544426 0.025911923 0.033425335 -0.033757355 0.05851829 0.0074993405 0.03669173 -0.03977847
-0.04628284 -0.009233781 0.008961021 -0.009300289 0.008097817 0.020313943 -0.0066731106 0.0330818
0.0036438298 0.049502455 0.01041192 -0.043534018 0.0282787 -0.029263157 0.014560372 0.051320855
-0.03864205 0.027187087 -0.0016593249 0.0076365424 -0.008974471 -0.0023136833 -0.005145292 0.021653162
0.044430986 0.06606525 -0.047464635 0.014180982 0.000556245 -0.04265355 0.021282872 -0.027822133
-0.009171447 0.007575847 0.01612081 0.030158045 -0.06757881 -0.00039748094 0.0038739794 0.06578467
0.018546393 0.041993324 -0.030562919 -0.01203747 -0.03157139 -0.023201767 0.0027532969 -0.024752712
-0.0036373544 -0.040360983 0.0068858108 -0.02312196 -0.024415458 0.0065183816 -0.06691859 0.046184838
0.022138374 -0.02282927 0.016387945 -0.035758577 0.054238774 0.028947335 0.005503355 0.008309391
0.017916238 0.05117124 -0.017583812 -0.02352985 -0.001714718 0.04345368 0.021438327 0.045458276
0.089398615 -0.036764916 0.024489654 0.009626604 0.013347802 0.034668706 0.023559066 -0.019840484
0.020089164 -0.031094173 -0.024642881 0.0052889003 -0.009833614 0.041788697 0.031649396 -0.010013406
-0.0066566137 0.002622009 -0.005845485 -0.044585135 -0.01838951 -0.018863188 -0.004650041 0.038480885
-0.00026522734 0.020153131 -0.0139979115 0.00845615 0.049349528 -0.012909691 0.041480083 0.0063943733
-0.03406919 0.0078071896 0.028537711 0.002713221 0.012806763 -0.013402335 -0.008007026 -0.006845566
0.0032644176 0.021152565 -0.0015800742 0.059245925 0.0020206734 0.022878163 0.033565868 -0.020718828
0.036923934 -0.0517958 -0.0023786156 0.027394017 0.043895166 -0.008349133 -0.0032877112 0.0043979944
0.017764797 0.05256726 0.00083443575 0.045044713 0.0032356596 -0.019801332 0.00164255 -0.023573508
-0.037565224 1.8959892e-05 -0.019909613 0.045755886 2.848774e-05 0.03356476 -0.027717438 0.021193001
0.044913128 -0.040912453 0.041543003 0.03236473 -0.0020516058 0.006631608 -0.023149755 0.027141245
0.017832553 0.031309266 0.027954804 0.032527138 -0.0014277248 0.01956314 -0.008143583 -0.00070365804
0.0052606696 0.0014128902 0.030627955 -0.0012600676 0.02046739 0.017999347 0.010503538 0.024661098
-0.011771186 0.010686984 -0.010894274 -0.021310417 -0.0031348774 0.022897175 0.010472874 -0.004357907
0.023351107 -0.0011104606 0.032361705 -0.022525793 0.009186676 0.03192486 -0.0010894787 -0.0070039243
-0.027667824 0.01899441 0.0400216 0.0011323103 0.003392788 0.051230673 0.05921404 -0.017742593
-0.01190925 0.04946785 0.020708175 -0.01005015 -0.017210107 0.0025628894 0.023480458 -0.000849061
00000000: ebbe 0ebd ea92 07bd 9352 0a3d 13d8 273d
00000010: 4c4d 3bbc 78f1 10ba 4401 e23c 7b74 f3bc
00000020: 196b 333d c45c 893d 5c96 30bd f831 04bc
00000030: fcd9 b63c 753a 213c 2381 4939 ce8c eabc
00000040: 5cec 953b c657 f13c 1d26 09bc e215 263d
00000050: 81a7 f73c d380 81bb 789d 623d 801e f7bc
00000060: 23f1 00bd 24b8 443d 0118 0ebc 6d77 2dbc
00000070: 1e02 9cbc 13a0 64bd dfac 4c3c 849a 2dbd
00000080: 60be 0bbc d370 23bc 5fc2 713c 4071 9ebb
00000090: 46ac 4d3a ed0a bfbb 4ed2 923c 5cd2 37bc
000000a0: f14c 1a3b 69de 723c 8044 4f3d 2eec a2bc
000000b0: a8d2 bb3d 0c1b c23c 2965 0b3c b259 0a3a
000000c0: 7d2a 2abd 3e45 d43c 01e9 083d 2745 0abd
000000d0: e0b0 6f3d 07bd f53b 114a 163d c0ee 22bd
000000e0: 1393 3dbd 4949 17bc 3fd1 123c 3d60 18bc
000000f0: b5ac 043c 6d69 a63c 1caa dabb c880 073d
00000100: 52cd 6e3b 16c3 4a3d c296 2a3c ba50 32bd
00000110: bba8 e73c 4ab9 efbc a08e 6e3c d135 523d
00000120: 2047 1ebd 74b7 de3c b47d d9ba f63b fa3b
00000130: a909 13bc 2aa1 17bb d699 a8bb f961 b13c
00000140: 44fd 353d 384d 873d 476a 42bd 5957 683c
00000150: f8d0 113a 7db5 2ebd 6b59 ae3c 3eeb e3bc
00000160: d643 16bc d03e f83b ca0f 843c 010e f73c
00000170: c266 8abd fd64 d0b9 97e2 7d3b 1dba 863d
00000180: 9bee 973c 3101 2c3d 165f fabc cf38 45bc
00000190: 0051 01bd a211 bebc a870 343b 33c6 cabc
000001a0: ae60 6ebb 8f51 25bd 5ea2 e13b 446a bdbc
000001b0: ed02 c8bc 2698 d53b 9d0c 89bd 502c 3d3d
000001c0: 895b b53c 7304 bbbc 0340 863c 9677 12bd
000001d0: 7a29 5e3d f622 ed3c 7d55 b43b 1d24 083c
000001e0: 13c5 923c ef98 513d ed0b 90bc acc1 c0bc
000001f0: 63c0 e0ba 7cfc 313d 6e9f af3c 7532 3a3d
00000200: 9f16 b73d cf96 16bd 879e c83c e7b8 1d3c
00000210: bdb0 5a3c c600 0e3d f1fe c03c 8388 a2bc
00000220: 0892 a43c 35b9 febc dedf c9bc 834e ad3b
00000230: 2b1d 21bc a02a 2b3d cca2 013d 450f 24bc
00000240: b91f dabb 03d6 2b3b 7b8b bfbb e79e 36bd
00000250: 99a5 96bc f986 9abc 5f5f 98bb 229e 1d3d
00000260: 360e 8bb9 2e18 a53c 7f57 65bc aa8b 0a3c
00000270: bb22 4a3d 2b83 53bc 05e7 293d e487 d13b
00000280: 238c 0bbd 74d3 ff3b ebc7 e93c 4bd0 313b
00000290: 75d3 513c 7895 5bbc e72f 03bc c550 e0bb
000002a0: d7ef 553b 2548 ad3c 7e1a cfba dbab 723d
000002b0: 466d 043b fc6a bb3c 5d7c 093d 88ba a9bc
000002c0: 8d3d 173d d527 54bd 8ce2 1bbb 6b69 e03c
000002d0: 6bcb 333d cdca 08bc a476 57bb 0d1d 903b
000002e0: 7b87 913c c450 573d 09be 5a3a ce80 383d
000002f0: 5c0d 543b 6736 a2bc d54a d73a 3b1d c1bc
00000300: fedd 19bd 0f0c 9f37 7c19 a3bc 866a 3b3d
00000310: f5f8 ee37 347b 093d ae0f e3bc f29c ad3c
00000320: d4f6 373d d193 27bd ff28 2a3d e190 043d
00000330: 3c74 06bb f64d d93b 8ea4 bdbc 5157 de3c
00000340: 9315 923c 253e 003d 7901 e53c 2d3b 053d
00000350: 7f22 bbba e142 a03c aa6c 05bc b175 38ba
00000360: b261 ac3b ba30 b93a 7ae7 fa3c da28 a5ba
00000370: 3aab a73c 5e73 933c 0817 2c3c 1206 ca3c
00000380: efdb 40bc 7618 2f3c e67d 32bc 2f93 aebc
00000390: 8472 4dbb db92 bb3c 6b96 2b3c c6cc 8ebb
000003a0: d24a bf3c e08c 91ba b58d 043d 0388 b8bc
000003b0: b683 163c a4c3 023d d7cc 8eba 2d81 e5bb
000003c0: a2a7 e2bc 2a9a 9b3c b0ed 233d 076a 943a
000003d0: 8a59 5e3b 41d7 513d 6c8a 723d ea58 91bc
000003e0: 041f 43bc cd9e 4a3d 31a4 a93c 62a9 24bc
000003f0: 36fc 8cbc 26f6 273b 175a c03c 8593 5eba

action_model._discrete_distribution.branches.0.bias f4 [4]
0.010660169 0.0135055175 0.012747045 -0.038178932
00000000: fda7 2e3c 3f46 5d3c fbd8 503c 8361 1cbd

exp_avg f4 [128, 18]
-6.829407e-05 -1.8498005e-05 -7.245494e-05 -5.707121e-05 -4.8436495e-06 -2.100675e-05 4.352846e-05 -9.038908e-07
1.1195866e-05 1.3028216e-05 2.9928053e-05 -7.1306977e-06 9.071326e-05 -3.1659605e-05 4.6174428e-05 6.3014166e-05
-2.7498288e-06 4.0567156e-05 -0.00017405351 0.00012385707 -0.0002855332 0.0002592676 -0.00015821474 6.8448804e-05
-0.00023534622 -1.654694e-05 0.00049102167 0.00018201415 -5.406188e-05 0.00032688916 -0.00010686257 -0.00029523595
-0.00013288342 -2.0534619e-05 5.1615978e-05 0.0002629699 0.00033364145 -0.000105805804 0.00023222035 1.0196642e-05
0.00019634562 -0.00014245832 0.00010185945 1.4771816e-06 -0.00022113774 0.0001785254 -3.458991e-06 -0.00015834613
0.00013089078 0.00029651754 7.7200915e-05 3.2043936e-05 -0.00026693358 -7.4501186e-05 1.0657371e-06 -3.7279577e-05
6.78802e-06 -3.513799e-05 4.3517153e-05 -7.930117e-05 3.569186e-05 -5.953569e-05 -8.4427185e-05 -1.542848e-05
5.1819575e-06 -3.8358245e-05 -9.481347e-06 1.860448e-05 5.973329e-06 4.425924e-05 -7.784205e-05 -1.7847128e-06
-1.0832685e-05 -4.884535e-05 0.00012970367 0.000115839575 1.0065625e-05 -0.00017814881 -2.980515e-05 -1.4259697e-05
8.791755e-05 0.00015724158 -6.6965185e-05 -4.3855714e-05 2.2240449e-05 -1.7013357e-05 -5.4168926e-05 -5.5089262e-05
-8.7224056e-05 -4.6399102e-05 4.9946782e-05 -3.353635e-05 -0.00012481172 -8.801837e-05 8.581595e-05 5.2883446e-05
8.2272025e-05 8.5737905e-05 -6.7563415e-05 -5.4724744e-05 7.291549e-05 1.17249965e-05 8.400061e-05 6.166833e-05
0.00010560732 4.6770485e-05 -0.000105798084 4.321115e-05 0.00012449 -5.023058e-05 0.00011614358 0.00026614423
1.34845795e-05 -0.00023487685 -5.697189e-05 5.7781723e-05 0.000111498106 0.00015844654 -4.9254504e-05 -2.094199e-05
4.1734642e-05 6.454322e-05 3.9412465e-05 -0.00016995179 1.3522101e-05 -6.57523e-05 -2.9026225e-05 1.4879519e-05
-4.131856e-05 -3.7750306e-05 5.9511614e-05 -6.4924774e-05 -5.3116096e-06 5.569274e-05 1.9762523e-05 -0.00015780635
0.00020152699 2.0008863e-05 9.529651e-05 -6.0225342e-05 1.0099397e-05 -0.00015794001 -5.3920256e-05 -7.705941e-06
-1.3091636e-05 -1.0990706e-05 -0.00011539377 8.4194246e-05 -9.2759656e-05 9.101682e-05 -0.00015213387 -0.00010351515
6.219408e-05 0.00013706397 -8.798203e-05 9.162054e-05 -9.416178e-05 -0.00013040009 2.5390098e-05 -3.31842e-05
-5.146515e-05 0.00018012775 1.9091469e-05 0.00015510558 -0.0001194916 0.00013007195 -7.397196e-05 1.997993e-05
-0.0001343126 4.996062e-05 0.00023268432 1.1684242e-06 6.926618e-05 8.628563e-05 8.132561e-05 -0.00014026131
-2.534584e-05 -0.00016008955 -1.13176375e-05 8.078356e-05 0.00035377027 -2.3830982e-05 0.00027885253 5.0848197e-05
0.00013893437 -3.995905e-05 2.7036302e-05 0.00011801839 -0.00022671174 0.00016945286 -2.552085e-05 -7.7505305e-05
0.0001920287 0.00024346638 -8.158624e-07 -7.9876845e-06 -0.00022878541 2.2414019e-05 2.4391557e-05 1.44202195e-05
-4.7349866e-05 -2.7763597e-05 -1.1234857e-05 -3.3879187e-05 -6.4034146e-05 3.142602e-05 8.169605e-05 2.3129698e-05
6.289344e-05 4.410702e-05 3.4964014e-05 -1.6295015e-05 5.344952e-06 -5.0851025e-07 -1.1123072e-05 -4.6269233e-05
-0.000715462 0.00030990047 -0.00041267663 0.00025938704 -0.00039286143 0.00024692435 -0.00027934543 -0.0001433519
0.00058452203 -0.0005071226 0.00011079708 0.00031577665 -0.00028725818 -0.00074013864 -0.00017775748 -0.00031922339
0.00031897952 0.00031695483 0.00024067829 0.00013802409 0.00010156126 0.00019833299 7.725619e-05 -1.503635e-05
-4.461141e-05 0.00020509087 7.827349e-05 0.00016008153 8.659698e-05 2.0445083e-05 0.0003129505 6.178516e-05
-6.587569e-05 -0.00010098693 -5.194059e-05 -5.931219e-05 0.00041216673 -0.00019503344 0.00043550538 -0.00019685748
00000000: 1a39 8fb8 2a2c 9bb7 f3f2 97b8 bf5f 6fb8
00000010: a286 a2b6 a737 b0b7 5492 3638 e7a2 72b5
00000020: e1d5 3b37 c393 5a37 010e fb37 3a44 efb6
00000030: 503d be38 3eca 04b8 6aab 4138 7926 8438
00000040: b389 38b6 a726 2a38 2282 36b9 a1df 0139
00000050: 9eb3 95b9 4fee 8739 72e6 25b9 2c8c 8f38
00000060: 45c7 76b9 48ce 8ab7 e8b7 003a 0ddb 3e39
00000070: 80c0 62b8 5262 ab39 681b e0b8 e6c9 9ab9
00000080: 9f56 0bb9 c241 acb7 3c7e 5838 39df 8939
00000090: 99ec ae39 0fe4 ddb8 2d80 7339 3e12 2b37
000000a0: 20e2 4d39 dd60 15b9 609d d538 9343 c635
000000b0: 36e1 67b9 8c32 3b39 0321 68b6 b709 26b9
000000c0: ba3f 0939 e975 9b39 ede6 a138 ea66 0638
000000d0: 38f3 8bb9 853d 9cb8 730a 8f35 a45c 1cb8
000000e0: a6c4 e336 2161 13b8 3086 3638 7e4e a6b8
000000f0: d8b3 1538 f6b5 79b8 800e b1b8 696c 81b7
00000100: ade0 ad36 dae2 20b8 1312 1fb7 d110 9c37
00000110: 816e c836 ffa2 3938 223f a3b8 448a efb5
00000120: 07be 35b7 4cdf 4cb8 1001 0839 e6ee f238
00000130: 88df 2837 75cd 3ab9 1206 fab7 ef3c 6fb7
00000140: 6060 b838 37e1 2439 a96f 8cb8 b7f1 37b8
00000150: 0091 ba37 e8b7 8eb7 7133 63b8 a50f 67b8
00000160: 0fec b6b8 a89c 42b8 f37d 5138 62a9 0cb8
00000170: e4df 02b9 8196 b8b8 16f8 b338 2bcf 5d38
00000180: 7589 ac38 30ce b338 d5b0 8db8 3f88 65b8
00000190: 35ea 9838 7ab6 4437 7c29 b038 ef53 8138
000001a0: 8079 dd38 6d2b 4438 eadf ddb8 9e3d 3538
000001b0: 8889 0239 adae 52b8 1c92 f338 4689 8b39
000001c0: d43b 6237 4649 76b9 1af5 6eb8 a75a 7238
000001d0: 17d4 e938 ab24 2639 9f96 4eb8 95ac afb7
000001e0: 3b0c 2f38 615b 8738 d04e 2538 1635 32b9
000001f0: fbdc 6237 7fe4 89b8 587d f3b7 0ca3 7937
00000200: 774d 2db8 1556 1eb8 1c9c 7938 3928 88b8
00000210: 613a b2b6 a097 6938 b2c7 a537 d278 25b9
00000220: fd50 5339 b5d8 a737 edd9 c738 789a 7cb8
00000230: 9470 2937 b39c 25b9 6f28 62b8 c448 01b7
00000240: 26a4 5bb7 b964 38b7 8fff f1b8 7191 b038
00000250: f687 c2b8 48e0 be38 2086 1fb9 4616 d9b8
00000260: 316e 8238 d4b8 0f39 fe82 b8b8 6724 c038
00000270: b978 c5b8 02bc 08b9 d2fc d437 432f 0bb8
00000280: 49dc 57b8 ade0 3c39 9e26 a037 d6a3 2239
00000290: 9097 fab8 ec63 0839 6521 9bb8 939a a737
000002a0: 44d6 0cb9 cf8c 5138 b9fc 7339 c0d2 9c35
000002b0: ff42 9138 3ff4 b438 5b8d aa38 1c13 13b9
000002c0: c79d d4b7 b6dd 27b9 e2e0 3db7 586a a938
000002d0: 3e7a b939 a5e8 c7b7 f432 9239 d645 5538
000002e0: e9ae 1139 b499 27b8 04cc e237 a480 f738
000002f0: 78b9 6db9 28af 3139 9c15 d6b7 588a a2b8
00000300: 505b 4939 024b 7f39 a301 5bb5 d802 06b7
00000310: 1ee6 6fb9 bd05 bc37 789c cc37 5fee 7137
00000320: 8899 46b8 dfe5 e8b7 587d 3cb7 8019 0eb8
00000330: 124a 86b8 6fcf 0338 3c54 ab38 a606 c237
00000340: a9e5 8338 8dff 3838 53a6 1238 47b1 88b7
00000350: ca58 b336 8f80 08b5 3b9d 3ab7 3611 42b8
00000360: d88d 3bba 237a a239 855c d8b9 57fe 8739
00000370: f8f8 cdb9 a075 8139 1c75 92b9 bc50 16b9
00000380: 9c3a 193a 6cf0 04ba bb5b e838 d38e a539
00000390: 249b 96b9 dd05 42ba 6964 3ab9 705d a7b9
000003a0: b53c a739 f52c a639 965e 7c39 8fba 1039
000003b0: 49fd d438 9bf7 4f39 9a04 a238 a244 7cb7
000003c0: 231d 3bb8 a90d 5739 c326 a438 8fdb 2739
000003d0: 669b b538 7b81 ab37 8113 a439 a892 8138
000003e0: be26 8ab8 f2c8 d3b8 c9da 59b8 fbc5 78b8
000003f0: 1518 d839 e481 4cb9 8b54 e439 876b 4eb9

exp_avg_sq f4 [128, 18]
6.410244e-07 9.650358e-07 4.3136646e-07 5.8430044e-07 9.99641e-07 4.785499e-07 4.8736155e-07 3.7769604e-07
8.3684773e-07 3.9126252e-07 5.5600646e-07 4.0810042e-07 6.901084e-07 5.9368205e-07 4.835491e-07 2.6641138e-07
5.767354e-07 3.8574927e-07 2.1331323e-06 2.2463369e-06 1.1597834e-06 1.5101843e-06 1.9428358e-06 1.1406098e-06
7.2545384e-07 6.854433e-07 1.7620251e-06 1.1592148e-06 1.4539302e-06 9.83289e-07 1.4780111e-06 1.2432004e-06
6.198347e-07 1.1417901e-06 1.0108674e-06 9.615695e-07 1.2174729e-06 9.74127e-07 6.527678e-07 6.222411e-07
5.6191044e-07 5.600101e-07 5.022072e-07 3.6242116e-07 9.932803e-07 8.1818297e-07 5.0635543e-07 5.576397e-07
7.39426e-07 9.609513e-07 5.1110527e-07 3.83703e-07 5.983923e-07 5.338656e-07 7.1314435e-07 7.9196246e-07
3.169844e-07 4.6277967e-07 2.2077845e-07 2.3750624e-07 2.6405036e-07 2.2627552e-07 6.34418e-07 3.6110768e-07
4.1620464e-07 3.100441e-07 4.9945817e-07 3.627864e-07 4.1869177e-07 3.6948816e-07 3.438312e-07 2.7120987e-07
1.2803375e-06 1.2758946e-06 6.993017e-07 9.137661e-07 7.02615e-07 6.5524563e-07 6.3557616e-07 4.6275375e-07
1.2266108e-06 6.0997064e-07 7.698062e-07 6.519136e-07 9.60983e-07 6.7334395e-07 3.0484279e-07 5.5955866e-07
8.7939554e-07 5.580092e-07 6.336396e-07 7.6599804e-07 3.6045523e-07 5.089708e-07 3.2772158e-07 2.9468515e-07
2.8266314e-07 2.7026465e-07 6.02357e-07 3.0454422e-07 4.024237e-07 3.3828223e-07 4.7718953e-07 2.6807783e-07
5.161712e-07 2.9198614e-07 4.0307754e-07 2.67545e-07 1.4362105e-06 1.334786e-06 8.11034e-07 9.135466e-07
1.4679061e-06 6.25041e-07 6.7370087e-07 4.050327e-07 1.2315329e-06 6.707452e-07 8.434167e-07 6.2456576e-07
9.804634e-07 7.8673844e-07 4.2262212e-07 8.227543e-07 9.332391e-07 5.309583e-07 1.1568196e-06 2.1619805e-06
5.4816525e-07 1.1867453e-06 5.343471e-07 4.881012e-07 6.202956e-07 7.6893593e-07 1.2440108e-06 7.319293e-07
1.1220994e-06 5.28445e-07 1.0953636e-06 5.115574e-07 8.4660377e-07 8.26669e-07 6.087618e-07 5.221261e-07
8.1661796e-07 9.3414553e-07 4.648608e-07 6.004921e-07 8.639439e-07 4.233943e-07 2.9208255e-07 2.803079e-07
7.348032e-07 4.028696e-07 5.816607e-07 4.158309e-07 5.56692e-07 4.5200795e-07 4.5330546e-07 2.8780073e-07
3.812092e-07 3.5900425e-07 8.730008e-07 7.2871416e-07 4.5536964e-07 5.6996765e-07 6.075958e-07 3.8221702e-07
5.377558e-07 2.9031878e-07 8.0505345e-07 5.376984e-07 4.3777487e-07 4.2267862e-07 6.016479e-07 5.108893e-07
4.018236e-07 4.077472e-07 4.972972e-07 3.6636504e-07 1.32978e-06 1.0802282e-06 8.102949e-07 6.7727046e-07
2.4137087e-06 9.564158e-07 4.6961452e-07 4.543739e-07 1.0950796e-06 8.56536e-07 5.877373e-07 6.6229785e-07
8.351775e-07 1.7444783e-06 1.6413353e-06 5.6083326e-07 8.5531406e-07 6.5634083e-07 2.9637397e-07 4.6039062e-07
1.4129175e-07 2.9750248e-07 2.9804974e-07 1.3968773e-07 1.8672236e-07 1.295522e-07 2.9448225e-07 2.0447843e-07
3.1393677e-07 1.3533646e-07 2.7583658e-07 1.669075e-07 2.4857886e-07 1.9524545e-07 1.3205457e-07 1.4978939e-07
1.4875541e-06 5.248092e-07 7.3139375e-07 3.74818e-07 7.1347046e-07 6.497598e-07 4.4952134e-07 3.8898733e-07
9.104472e-07 9.5177865e-07 2.7311705e-07 5.256128e-07 6.01701e-07 1.3903723e-06 3.24491e-07 3.3924334e-07
5.685218e-07 4.7959077e-07 1.288008e-06 1.1419039e-06 7.5530113e-07 9.085513e-07 9.2278117e-07 6.790104e-07
1.0510552e-06 5.1823474e-07 1.3020571e-06 6.76901e-07 7.751033e-07 6.857882e-07 8.946872e-07 9.15875e-07
1.4115238e-06 5.905166e-07 8.665165e-07 7.211315e-07 1.5743601e-06 1.201703e-06 8.544362e-07 7.928192e-07
00000000: dd12 2c35 6186 8135 8e96 e734 d2d8 1c35
00000010: 672b 8635 b375 0035 3bd3 0235 26c6 ca34
00000020: bda3 6035 b60e d234 7940 1535 e518 db34
00000030: e33f 3935 855d 1f35 3ecd 0135 4d07 8f34
00000040: f4d0 1a35 fa18 cf34 ef26 0f36 c6bf 1636
00000050: dba9 9b35 8ab1 ca35 aa61 0236 0e17 9935
00000060: cfbc 4235 4eff 3735 b97e ec35 5196 9b35
00000070: a924 c335 8ef9 8335 1360 c635 0adc a635
00000080: b762 2635 9c3f 9935 24ad 8735 470f 8135
00000090: 0d68 a335 c0be 8235 dd39 2f35 1508 2735
000000a0: 31d6 1635 9a53 1635 6acf 0635 c992 c234
000000b0: da50 8535 1ba1 5b35 7bec 0735 b5b0 1535
000000c0: f87c 4635 09fa 8035 e332 0935 bdff cd34
000000d0: 35a1 2035 f74e 0f35 e86e 3f35 3f97 5435
000000e0: 012e aa34 f473 f834 1e0f 6d34 3805 7f34
000000f0: cec2 8d34 24f6 7234 df4c 2a35 43de c134
00000100: bb72 df34 2374 a634 8112 0635 fcc4 c234
00000110: 8fc8 e034 115e c634 cd97 b834 cd9a 9134
00000120: 10d8 ab35 683f ab35 a6b7 3b35 8749 7535
00000130: 569b 3c35 23e4 2f35 769c 2a35 6470 f834
00000140: 07a2 a435 ddbc 2335 aea4 4e35 29ff 2e35
00000150: 20fb 8035 d8bf 3435 46a9 a334 9434 1635
00000160: 9a0f 6c35 1aca 1535 6217 2a35 fc9e 4d35
00000170: 9784 c134 35a0 0835 b6f1 af34 3835 9e34
00000180: edc0 9734 e418 9134 a8b1 2135 3d80 a334
00000190: b10c d834 289d b534 3718 0035 56ec 8f34
000001a0: 048f 0a35 45c2 9c34 8e66 d834 1ba3 8f34
000001b0: d1c3 c035 e626 b335 d5b5 5935 723a 7535
000001c0: df04 c535 7ec8 2735 5fd8 3435 4573 d934
000001d0: 264b a535 420d 3435 2767 6235 d5a7 2735
000001e0: 7798 8335 4130 5335 bee4 e234 3fdb 5c35
000001f0: b483 7a35 2d87 0e35 0544 9b35 8b16 1136
00000200: a125 1335 4248 9f35 0e70 0f35 0f06 0335
00000210: 6482 2635 e068 4e35 e3f7 a635 cc79 4435
00000220: 0b9b 9635 77da 0d35 6804 9335 f551 0935
00000230: 2b42 6335 43e8 5d35 cb69 2335 3b28 0c35
00000240: 8f35 5b35 fec1 7a35 fb91 f934 8131 2135
00000250: c6e9 6735 df4e e334 85cf 9c34 397d 9634
00000260: 4b3f 4535 fa49 d834 6b23 1c35 5d3f df34
00000270: 956f 1535 80ab f234 d45d f334 0883 9a34
00000280: fea8 cc34 2bbd c034 2858 6a35 db9c 4335
00000290: 8779 f434 e1ff 1835 aa19 2335 8233 cd34
000002a0: 4c5a 1035 1cdd 9b34 da1a 5835 5a56 1035
000002b0: 5207 eb34 82ec e234 ee80 2135 0c24 0935
000002c0: 37ba d734 59e8 da34 017e 0535 d4b0 c434
000002d0: e57a b235 5cfc 9035 0b83 5935 accd 3535
000002e0: 33fb 2136 325e 8035 541f fc34 acf0 f334
000002f0: a6fa 9235 b5ec 6535 00c5 1d35 c3c8 3135
00000300: f630 6035 d123 ea35 da4b dc35 2b8c 1635
00000310: bc98 6535 662f 3035 541d 9f34 9b2b f734
00000320: fbb5 1734 6eb8 9f34 a503 a034 12fd 1534
00000330: da7d 4834 0a1b 0b34 5519 9e34 9a8e 5b34
00000340: 248b a834 0151 1134 b116 9434 2f37 3334
00000350: 6b74 8534 a9a4 5134 e2ca 0d34 cbd5 2034
00000360: f8a7 c735 9de0 0c35 ff54 4435 983a c934
00000370: 5185 3f35 276b 2e35 be55 f134 03d6 d034
00000380: 7565 7435 bb7d 7f35 eca0 9234 d617 0d35
00000390: 9484 2135 d49c ba35 b435 ae34 4021 b634
000003a0: 859c 1835 3abd 0035 9edf ac35 8543 9935
000003b0: e6bf 4a35 2ce3 7335 0ab5 7735 3d45 3635
000003c0: fb11 8d35 d21c 0b35 57c2 ae35 48b4 3535
000003d0: b110 5035 0217 3835 702a 7035 73da 7535
000003e0: 9773 bd35 fe83 1e35 8f9a 6835 c893 4135
000003f0: 9a4e d335 334a a135 695c 6535 1fd2 5435
