Assets/ML-Agents/results/RL_TEST/RL_Test/RL_Test-999962.pt (torch, 503217 bytes, 50 tensors)

network_body.observation_encoder.processors.0.normalizer.running_mean f4 [22]
00000000: 5dc6 7dbe 0000 0000 5ed1 46be 75e2 5b3c
00000010: 0000 0000 2e85 c43c b666 bb42 e8a6 263f
00000020: 4c72 273f cf8b b83f b2a0 1c40 4d43 29be
00000030: 02a5 aa3d 96d8 3cbe 68d5 8a3a 0000 0000
00000040: 160e 8cb9 0fc3 b942 dc28 9a3e 929d 073f
00000050: c15b 993f 8815 f83f
-0.24782701 0.0 -0.19415805 0.013420691 0.0 0.023989286 93.70061 0.6509843
0.6540878 1.4417666 2.447308 -0.1652958 0.08332254 -0.18441996 0.0010592164 0.0
-0.00026713376 92.880974 0.30109298 0.5297481 1.1981126 1.9381571

network_body.observation_encoder.processors.0.normalizer.running_variance f4 [22]
00000000: d8d5 654b 0000 803f 438f 704b 94e4 fa48
00000010: 0000 803f 7900 ed48 719f a24c 3c93 2449
00000020: 2d7e 1f49 54bf 2f4a 8e9b a849 185e ca4b
00000030: d753 953f 26de c74b 9c2a f648 0000 803f
00000040: a618 f248 2c4c b64c 7e4d cd48 6b00 0e49
00000050: 81e4 244a 4fe2 bf49
1.5062488e+07 1.0 1.5765315e+07 513828.62 1.0 485379.78 8.526119e+07 674099.75
653282.8 2.879445e+06 1.3812338e+06 2.652472e+07 1.1666211 2.6197068e+07 504148.88 1.0
495813.2 9.557642e+07 420459.94 581638.7 2.7016002e+06 1.5719139e+06

network_body.processors.0.normalizer.running_mean f4 [22]
00000000: 5dc6 7dbe 0000 0000 5ed1 46be 75e2 5b3c
00000010: 0000 0000 2e85 c43c b666 bb42 e8a6 263f
00000020: 4c72 273f cf8b b83f b2a0 1c40 4d43 29be
00000030: 02a5 aa3d 96d8 3cbe 68d5 8a3a 0000 0000
00000040: 160e 8cb9 0fc3 b942 dc28 9a3e 929d 073f
00000050: c15b 993f 8815 f83f
-0.24782701 0.0 -0.19415805 0.013420691 0.0 0.023989286 93.70061 0.6509843
0.6540878 1.4417666 2.447308 -0.1652958 0.08332254 -0.18441996 0.0010592164 0.0
-0.00026713376 92.880974 0.30109298 0.5297481 1.1981126 1.9381571

network_body.processors.0.normalizer.running_variance f4 [22]
00000000: d8d5 654b 0000 803f 438f 704b 94e4 fa48
00000010: 0000 803f 7900 ed48 719f a24c 3c93 2449
00000020: 2d7e 1f49 54bf 2f4a 8e9b a849 185e ca4b
00000030: d753 953f 26de c74b 9c2a f648 0000 803f
00000040: a618 f248 2c4c b64c 7e4d cd48 6b00 0e49
00000050: 81e4 244a 4fe2 bf49
1.5062488e+07 1.0 1.5765315e+07 513828.62 1.0 485379.78 8.526119e+07 674099.75
653282.8 2.879445e+06 1.3812338e+06 2.652472e+07 1.1666211 2.6197068e+07 504148.88 1.0
495813.2 9.557642e+07 420459.94 581638.7 2.7016002e+06 1.5719139e+06

network_body._body_endoder.seq_layers.0.weight f4 [128, 22]
00000000: bb0a a03d 6d81 f4be 1b7b fe3e 1ebd 3a3e
00000010: 0479 983d 82a9 81be bfd6 71be 03e1 c4be
00000020: cbed d93d 65ec 703e eb3a 613d cc14 4fbd
00000030: 50ef 82be c9a3 58ba 401b 84be 8615 15be
00000040: 3c4c 68bd 3250 803d 60d7 f0be 2dfb a63e
00000050: 372d 64bd 1af8 e33d d98b 903c c918 afbe
00000060: 07ac 163e fc09 b93d cc63 b9be f408 05bf
00000070: 0f20 bc3d a5cd 97be b9b4 babe 3bc8 6f3e
00000080: 6aab 153e 3c7c c63d 436e d7be 904a 16be
00000090: 43e1 e5bd 4111 02bf 8842 233e d51d a53d
000000a0: c5a8 0bbc d6fc af3d ee78 e23d 0a68 4c3e
000000b0: 7e00 133f 98a6 c4bc 4160 7cbe aa44 a6be
000000c0: 4533 19be 105f 7e3e 203a 093c 1b5b 553e
000000d0: b6cb b9bd 9536 bebd f8de e6bd 946a 373d
000000e0: 1cd8 3abe 2b33 1a3e faec 63bd 72ae 8abe
000000f0: 4dd6 c5bd 47fb 93be 6cc6 dbbd c48b 583e
00000100: 9dae 1f3e 73f4 a2be 2896 ea3e e7a9 94be
00000110: ac2f 8bbe 5f99 46be 3fe9 1d3e 7242 f83d
00000120: c919 31be 691b 4f3e 4bb6 a9bd c060 ab3d
00000130: 97cf e03d e022 383e 4e30 873e 58eb 00be
00000140: b160 393d 8369 bbbe 1d9b 55be 2e8f 75be
00000150: bbd2 1c3c b378 223e 72fb 3a3f 9ace 6f3d
00000160: 40b7 493d c22a a53d fa7b eb3e 757d aa3e
00000170: d499 463d 8271 00be cca9 18be 9a3d 1cbd
00000180: 342c 0dbe 9b9b 8c3d a9b7 25bb dd4e 1c3d
00000190: b1a4 ba3e 622a d03e 5a82 5f3e bb32 dfbc
000001a0: 0250 233c a90c b9bd 2e9b c3bd 5022 1b3e
000001b0: b868 54be 4578 1abe 3660 903d f83b 8dbd
000001c0: 5535 77be 3b10 ea3d fe76 023e b578 be3b
000001d0: 4824 b13c 2a3b 0b3e 69ee 093e ee2d 7abe
000001e0: 16c3 a7be 3e1d 88be f447 063f 1769 8cbe
000001f0: 2970 07be 6f7a 94be d337 fa3d 38ce a13e
00000200: 31aa ca3b caaa 973e 125e cd3d 3230 30be
00000210: 7149 4bbe 4cfd 233d 5761 90bd e4de d93b
00000220: 5ba2 1ebe 678b b83e 7b95 31bd a2e0 b03e
00000230: 86fe d73d d582 bdbe eaec 34bf c08b ca3c
00000240: e6bc 273e a9f1 70bd 4414 223e f77e 283e
00000250: b959 843e 26a0 9e3e 9718 913e ba0a 853e
00000260: 2d62 0bbb 50ca 683d ed88 b8be 1f6d e5bc
00000270: 1732 a83d 1935 b9bd 37af fcbd 6edf 1fbe
00000280: 3a1f 78be 5204 1d3e add3 2abe 0cc2 75be
00000290: 33f2 0abe 3a91 49bd 09c7 b8ba 57fc ccbd
000002a0: 86fd 68be a2ae 853e 9e51 e43c 787e 8d3e
000002b0: b42e e3be 48c1 c6bd 8911 823d f439 77be
000002c0: 81db 73be f820 85bc 8cb6 a8bb e46f 503e
000002d0: 8c0c 2ebe 7ac4 0d3d 1fa0 b7bd 2a35 22be
000002e0: 4959 da3e d155 6abc 9a4d 6f3e 5323 be3e
000002f0: 74c3 103e a687 1cbe d375 e13d e7d0 023d
00000300: 91ed 4c3e 580d 133e c31f a63e da1a 053e
00000310: a360 3a3e 779d 833d 24a5 a2bd 7547 5dbc
00000320: e854 df3e 29ba a03e fbd5 fdbd 63ad 19bd
00000330: 116c af3c f7d0 9c3e 5435 463e 1cd5 cabd
00000340: ad4b 943d 9b06 41be c15e 34bf 05de ef3d
00000350: fb52 903d ac43 6dbe 65d3 8b3e 073d b23e
00000360: b186 8fbe f1f4 413e 1b2a 59bd b2e9 02be
00000370: 32a5 01be 5f28 6ebb d0c5 92be 229d 023d
00000380: c0de 8c3e 651f 31bd 4cf1 143e 4316 843e
00000390: 7f26 d3be e119 1d3d d53e e3bd 2c6c 283d
000003a0: 741f 5a3e f08e bbbe d5f1 a9bc 5184 523e
000003b0: 8ae9 94be 417e 6e3d 81a2 d1bd 0d9b 03bd
000003c0: fa23 7d3e d78e 58be e975 8ebe b250 2b3e
000003d0: f6d7 91bd 9b02 f8bd b569 923c 811e a5bd
000003e0: 2745 8bbe 6a05 663d 0c63 e73d 96b5 473e
000003f0: f506 f83d f2b9 87be 82ad a8be ef1e 4ebe
0.07814547 -0.47754994 0.49703297 0.18236205 0.07444957 -0.25324637 -0.23617075 -0.3845292
0.106410585 0.23527677 0.05498783 -0.050556943 -0.25573206 -0.0008264152 -0.2580204 -0.14558992
-0.056713328 0.06265296 -0.47039318 0.32613507 -0.055707183 0.11131306 0.01764481 -0.34198597
0.1471406 0.090351075 -0.3620895 -0.51966786 0.09185802 -0.29649082 -0.36466005 0.23416226
0.1461617 0.096916646 -0.4207631 -0.14676881 -0.11224606 -0.5080758 0.15943348 0.08062331
-0.0085241245 0.085931465 0.11058222 0.19961563 0.57422626 -0.02400522 -0.24646093 -0.32474262
-0.14960964 0.24840951 0.0083756745 0.20835535 -0.09072058 -0.092877544 -0.11272997 0.044779375
-0.18246502 0.15058582 -0.05564592 -0.27086216 -0.09660015 -0.28902647 -0.10731205 0.21147066
0.15593953 -0.31827125 0.45817685 -0.29035875 -0.27184808 -0.19394444 0.15421008 0.121220484
-0.17294993 0.202253 -0.08286723 0.08368063 0.109770946 0.17982054 0.2640404 -0.12589777
0.045258228 -0.36603937 -0.20859952 -0.239804 0.009571726 0.15866356 0.73039925 0.05854664
0.049247026 0.08064796 0.45993024 0.3329884 0.048486546 -0.125433 -0.14908522 -0.038144685
-0.13786393 0.06865617 -0.0025286472 0.038161147 0.36453775 0.40657336 0.21827069 -0.02724587
0.009967806 -0.09035618 -0.095510826 0.15149808 -0.20743072 -0.15084942 0.07049601 -0.06896204
-0.24141438 0.11428877 0.12740704 0.0058127292 0.021623746 0.13596788 0.13469853 -0.24431583
-0.32766026 -0.2658481 0.5245354 -0.27423927 -0.1322638 -0.2899966 0.12217679 0.31602645
0.006184839 0.2962249 0.10027708 -0.17205885 -0.19852234 0.040036485 -0.07049816 0.006648885
-0.15491621 0.36043856 -0.043355446 0.3454638 0.10546593 -0.3701388 -0.70674 0.024724841
0.16380653 -0.058824215 0.15828043 0.16454683 0.25849703 0.3098156 0.28339073 0.25984746
-0.0021268234 0.056833565 -0.36041966 -0.028006135 0.08212679 -0.09043331 -0.12338107 -0.15612575
-0.24230662 0.1533368 -0.1668231 -0.23999804 -0.13568954 -0.049210764 -0.0014097403 -0.100090675
-0.22752962 0.26109797 0.02787095 0.2763555 -0.4437157 -0.09704834 0.06351001 -0.24143201
-0.23814203 -0.016251072 -0.0051487144 0.20355183 -0.16996974 0.034611203 -0.089660875 -0.15840593
0.42646244 -0.014302687 0.23369446 0.37136325 0.1413706 -0.15286121 0.11008801 0.031937506
0.200125 0.14360559 0.32446107 0.12998524 0.18200926 0.064265184 -0.07941654 -0.013505806
0.43619466 0.3139203 -0.12394329 -0.03751887 0.021413835 0.30628178 0.1935628 -0.09903929
0.072409965 -0.18850176 -0.70457083 0.11712269 0.07047077 -0.23170346 0.2730972 0.34812185
-0.2803245 0.18941094 -0.05301867 -0.1278446 -0.12660673 -0.003633998 -0.28666544 0.031888135
0.27513695 -0.04324283 0.14545172 0.25798234 -0.41240308 0.03835476 -0.11095969 0.041118786
0.21301061 -0.3663249 -0.020745197 0.20558287 -0.29084426 0.058225874 -0.10236073 -0.03213029
0.24720755 -0.21148239 -0.27824333 0.16730002 -0.071212694 -0.12109872 0.01787267 -0.08062459
-0.27201197 0.056157507 0.112981886 0.19502863 0.12110702 -0.26509053 -0.32944876 -0.20128988

network_body._body_endoder.seq_layers.0.bias f4 [128]
00000000: 5584 913c a998 9b3c 924f a53d 0ed9 ab3c
00000010: 63af 343d 97ec 5b3d 7898 673d 9b81 5f3d
00000020: af6a 823b 4b02 393d 388d 6c3c 0e2c c13c
00000030: e285 0f3c 6056 d63c 0ae7 a13c 6bf8 003d
00000040: a51d 513c f78d 473d b6a4 103d 801f a53b
00000050: b316 463c 473e 6c3c 0224 4b3d 46e8 84bc
00000060: 18cd ee3b 4602 743d e3bd 483c 8d69 8cbb
00000070: b656 513c f0c3 d5ba fc6a 163d 4dea 9c3c
00000080: 2741 d83c b601 c7bc ab92 15bc 6bf6 c63c
00000090: a20d 48bc 4f47 1b3d 66c8 ab3c 3ff5 e33c
000000a0: ca66 853c ed17 1f3d 8313 a83c 3a95 163d
000000b0: 66a9 2d3d 3918 9bbb 36c3 09bc d2ec 52bb
000000c0: e339 8d3c 9ad0 de3c abb7 623c 2c71 ee3b
000000d0: 5785 b93c 2bf6 023c 9ca1 c53b d581 c93c
000000e0: 281b 063d 6ccd 113c 1c1d c8ba 45ab 743d
000000f0: 210c 143d 6f4d 8abb c0b5 563a 1791 943c
00000100: 4eaf 3f3d 4032 e23c f0c8 bc3d 6bc2 3b3c
00000110: 9b5a da3c b2bc 6b3b 68a1 82bc 716f 1c3d
00000120: 607c 323b e3dc 1b3d 2067 333d 6403 ad3b
00000130: 6f20 0cbc e2a6 f5bb 538e 133d 9ba8 893c
00000140: 17c1 003d e3c5 9a3d 903d 2b3d 3a51 5839
00000150: c9ff b53c a0e2 103d 554e 3c3d ec16 5c3c
00000160: 6a53 be3c 66a4 003c 5961 9f3b 9e5d 1a3c
00000170: 1308 c8bb 208d 183d e574 5c3c 2396 283d
00000180: dc38 b4bb b4c2 0b3b 0923 be3c de99 973c
00000190: a693 8bbb 107c f83c 3a66 493d fba6 b73c
000001a0: 99aa a63c debc 2b3c bb40 8c3d 18d9 b5bc
000001b0: ee47 533d b5cb 9a3c b332 0b3d 68c5 b9bc
000001c0: 42fc adbb ea0e 34bc b6eb c13c fe0a cc3c
000001d0: 843b d73b 39ea 80bc 427c cc3a 785d ec3a
000001e0: 54cc d2bc 170f 453c 643a 883c 0025 46bc
000001f0: 14d6 4e3d 3c69 bd3c b2de d43c 0a14 f43b
0.017763296 0.018993692 0.080718175 0.020977523 0.044112574 0.053692427 0.05654189 0.05456696
0.003980003 0.045168202 0.014437966 0.023580577 0.0087599475 0.026164234 0.019763488 0.03148691
0.012763415 0.048719373 0.03531333 0.0050391555 0.012090373 0.014419145 0.049594887 -0.016224038
0.0072876327 0.05957248 0.012252304 -0.0042850436 0.012777021 -0.0016309004 0.036723122 0.019154692
0.026398255 -0.024292808 -0.009129207 0.024287423 -0.012210282 0.037909802 0.02096958 0.027826903
0.016284365 0.038841177 0.020517116 0.036763407 0.04239788 -0.004733112 -0.008408358 -0.0032184613
0.017239517 0.027199078 0.013837735 0.0072766747 0.02264659 0.007993261 0.006031228 0.024598042
0.032740742 0.008899074 -0.0015267464 0.059733648 0.03614438 -0.0042206566 0.0008190535 0.01813559
0.046798043 0.027611852 0.09218013 0.011459927 0.026654532 0.0035970625 -0.015946105 0.038192216
0.0027234778 0.03805245 0.04379952 0.005279945 -0.008552655 -0.0074967006 0.036024403 0.01680403
0.031434145 0.07557275 0.041806757 0.00020629624 0.022216694 0.035372376 0.04597314 0.013433199
0.023233134 0.007851696 0.0048638997 0.009421734 -0.006104478 0.037243962 0.013455604 0.041158807
-0.005499942 0.002132577 0.023210065 0.018505987 -0.0042595444 0.030332595 0.049169756 0.02241849
0.02034502 0.010482041 0.06848284 -0.022198245 0.05158227 0.018895963 0.033983897 -0.022677138
-0.0053096125 -0.010989884 0.023671966 0.024907585 0.006568374 -0.015736686 0.0015600997 0.0018033227
-0.025732197 0.0120275235 0.016629405 -0.012093782 0.05049713 0.023121469 0.025985096 0.007448678

network_body._body_endoder.seq_layers.2.weight f4 [128, 128]
00000000: da78 2dbd 43a9 dcbc 715e 883e f7d4 fbbc
00000010: 8902 13bd 25bd 013d 86cb 013d e944 503e
00000020: 838d bcbd 5ec3 373b 0c67 0a3e 73f0 36be
00000030: 3da9 e0bd 5e4f 8fbd ad79 aabd d46e d33c
00000040: f3ce 5abb 6664 063d d30c 0b3d 18e7 d3bb
00000050: 4afa 4a3d e50e 2dbd 9422 cf3d 815b 983d
00000060: f2ae 013e 6ab6 f53d ddc8 efbd c87b e13d
00000070: f9db 753e fcd1 8abc 47bf 953d 4d84 733d
00000080: a7c7 edbc fbb7 cb3d f5d4 283c 5168 9cbc
00000090: 45e9 003d eee0 e0b9 728b bd3c 6d65 503c
000000a0: e086 cebd 3b0e ffbd eb8f c73d c1ac 99bd
000000b0: 11c0 48be 712f 373e d302 14be 0f73 343d
000000c0: 6ae8 82bd d937 80bd 2a9b ccbd 2334 68be
000000d0: 4660 823c 2808 dabd ba84 bbbd 5312 b33d
000000e0: 54c6 693d 4b05 17bd b801 35bc e898 593c
000000f0: 088b c23d 6d3a bebd b81a 4ebc 72f6 f0bd
00000100: 3849 32bb caf1 d13d 0295 e93d daaa f8bc
00000110: 7242 41bd e251 823b dc56 c33d 97b8 133c
00000120: a9c5 d33d 7239 0c3e 1b88 9cbc 9648 c4bd
00000130: 4cfb 8b3d be93 bb3d bf42 e2bd 4ff5 51bd
00000140: 240f 2f3e 82c7 5abe 07c1 9abd fe55 42bb
00000150: a846 743d ba62 213e 8435 5c3d e169 d83d
00000160: 66e4 8d3a d5bc 51bd 7ce9 f3bd 4057 04bd
00000170: e258 6c3d 8b80 91be 60c1 1d3d 677d ae3d
00000180: 6348 35bd 3b0a bd3c c13f 06be 5551 f6bd
00000190: 4632 92bd aa41 b1bd 864d d83c b518 143e
000001a0: a7dc 143e 0009 28be 1fa1 403e 654f 9bbd
000001b0: 409b 4fbe 15a3 803d e22a babd 5d41 2cbd
000001c0: 4cc7 d43d 1eb9 0ebc 6e42 69bd e38b f83d
000001d0: aa61 dd3d b77d 6b3d 11cf b43d f56d 0c3d
000001e0: 532f 673d 76e1 76bc 4f14 84bd bf9b e1bd
000001f0: 26f2 78bd c425 6dbd 88b3 2cbe 3be3 03bd
00000200: f91a af3b dfc2 bdbd 3950 1d3d e698 cc3d
00000210: 2bbb b13d 322a 223e c071 933d 34d0 4e3c
00000220: 208c dcbd 6e4b 87be 9329 563c d514 b6bb
00000230: b780 b63d 7e89 b5bd 6e41 87be 49fb b1bd
00000240: 7967 9dbd 9e9d 4b3c e0e7 153e 9ef2 6ebd
00000250: 54bf 38bd 7de5 00bc c7ae 323e 80d0 79bd
00000260: d77d 073e dce9 b9bc 05f5 ae3d c28a dc3d
00000270: 8fe9 c03c b767 f3bc dcc0 9b3d e8c3 89bd
00000280: 7182 b1bc f490 58bc 2a17 88bd d905 843d
00000290: 2cc4 333d 21d8 903d 8820 723e a386 dc3d
000002a0: cd00 113d bbae 123e 33c5 833d 3b29 6bbe
000002b0: bd12 383b 897b a53b 2140 fe3c cb61 a8bc
000002c0: 5cd8 6cbd fe99 e33d aa7c b4bd ddd4 5cbd
000002d0: dba7 78bc 41cd febd 6303 253e 092e 9abd
000002e0: b062 83bd 5123 3abe 362b ed3c 84f7 bf3c
000002f0: afd5 d43c 8b3b ffbd b78b f13c 14b9 12be
00000300: 9e4c b5bd bfed 16bd 54d3 8d3d f269 ca3d
00000310: 4f92 f63b fc86 0ebe 8deb e03b 2c74 01be
00000320: e5eb 053e ad4f 44bd eb12 61bd 8597 fabd
00000330: aa27 863e 8866 cbbd 8559 a6bd 0f86 163b
00000340: ad80 c638 33ca f6bb 1508 48bd da94 0f3e
00000350: 9880 f7bd 4960 9fba 4b13 113c 394d c7bd
00000360: 7ba6 153d 48dd c4bd 4f09 41bd 6943 68bc
00000370: 1148 113e f1d9 04bc 32d1 1e3e 9654 29bd
00000380: 520b f03c 8906 e83c 0f80 6bbd bd3f 833d
00000390: e682 90bd 0838 dfbd 9ef3 6a3d 17a6 153e
000003a0: aad5 d4bd db70 d03d d41a 06bc 5e6d 313d
000003b0: 4b96 c43d 83dc 593d a8ac f7bd c4bd 5abd
000003c0: 68c7 dfbd 8973 c6bc 2fa0 76be e910 82bb
000003d0: 5200 4c3d bfd2 2e3e b763 94bd 291a 8f3c
000003e0: 667b 923d 1e45 26bd 49a7 b9bd efd0 8fbc
000003f0: 65ed 8b3d 8316 98bd d730 4e3d 8ffb babd
-0.04235158 -0.026936179 0.26634553 -0.030741198 -0.03589109 0.031674523 0.031688236 0.20338787
-0.09206679 0.0028040032 0.13515872 -0.17865162 -0.1096978 -0.0699756 -0.08323989 0.025809683
-0.0033387512 0.03281059 0.033947777 -0.0064667575 0.0495551 -0.042250533 0.10114017 0.07439328
0.12664393 0.11997683 -0.117082335 0.110099375 0.24009694 -0.016945831 0.07311874 0.059452344
-0.029025866 0.09947201 0.010304679 -0.01909271 0.031472463 -0.00042892195 0.023137782 0.012719494
-0.10084319 -0.12453886 0.09744247 -0.07503653 -0.19604518 0.17889191 -0.14454202 0.04405504
-0.06391986 -0.06260652 -0.09990533 -0.22676139 0.015915047 -0.10646087 -0.09156175 0.087437294
0.057073906 -0.036870282 -0.011047773 0.013281085 0.09499174 -0.092884876 -0.012579612 -0.11765756
-0.0027204286 0.10251196 0.11405374 -0.030354906 -0.047182508 0.0039770463 0.095380515 0.009016178
0.10340435 0.13693789 -0.019107869 -0.09584157 0.068350405 0.09159039 -0.11047887 -0.051259335
0.1709562 -0.21365169 -0.07556348 -0.0029653306 0.059637696 0.15760317 0.053761974 0.1056707
0.0010825514 -0.051205475 -0.11909768 -0.03230977 0.057701953 -0.28418383 0.038514495 0.08520012
-0.044258486 0.023076167 -0.13110258 -0.120272316 -0.07138495 -0.086551026 0.026404154 0.1446255
0.14537297 -0.16409683 0.18811463 -0.07583503 -0.20274067 0.062811054 -0.090902105 -0.042054523
0.10389575 -0.008711128 -0.056948118 0.12136056 0.108096436 0.057492938 0.08828557 0.03428455
0.056441616 -0.0150684025 -0.06449186 -0.11016034 -0.060777806 -0.057897344 -0.1686536 -0.032199126
0.0053437916 -0.09265684 0.038406584 0.099901006 0.086782776 0.15836409 0.071994305 0.012622882
-0.10768914 -0.26424736 0.0130714355 -0.0055566826 0.08911269 -0.08864115 -0.26417106 -0.08690507
-0.076857515 0.012427716 0.14639235 -0.058336847 -0.04510434 -0.007867214 0.17449485 -0.060989857
0.13231598 -0.02269452 0.085428275 0.107686535 0.02354887 -0.029712541 0.076051444 -0.06726819
-0.021668645 -0.013218153 -0.06645043 0.06446428 0.043888256 0.07072473 0.23645222 0.107678674
0.035401154 0.14324467 0.06434097 -0.22964947 0.002808734 0.005050127 0.031036438 -0.020554444
-0.057823524 0.11113356 -0.0881284 -0.05391394 -0.015176739 -0.12441493 0.16114573 -0.07528312
-0.064153075 -0.18177535 0.028951269 0.023433454 0.025980799 -0.12462529 0.029485567 -0.14328414
-0.08852504 -0.036847826 0.06925073 0.09883489 0.0075247656 -0.1391868 0.0068640173 -0.12641972
0.13078268 -0.047927547 -0.054949682 -0.12235931 0.26202136 -0.09931666 -0.08122543 0.0022968089
9.4653435e-05 -0.0075314282 -0.048835833 0.14021626 -0.12085074 -0.0012159433 0.008854697 -0.09731526
0.03653572 -0.096125185 -0.047128018 -0.014176228 0.14187647 -0.008108602 0.15509489 -0.041340433
0.029302273 0.028323429 -0.057495173 0.064086415 -0.07056217 -0.10899359 0.057361238 0.1461414
-0.10392316 0.101777755 -0.008185107 0.04331719 0.095989786 0.053188812 -0.120934784 -0.05340363
-0.109267056 -0.024225013 -0.24084543 -0.003969301 0.049804993 0.17072581 -0.072455816 0.017468529
0.07152443 -0.04059326 -0.0906511 -0.017555682 0.06832389 -0.07426169 0.050339546 -0.09130012

network_body._body_endoder.seq_layers.2.bias f4 [128]
00000000: 8d74 b23c edaf 303c c7d6 c53c 7879 a53c
00000010: 5687 813c c7f7 693c 5ccf fb3c 00ee e13b
00000020: e4ad 903b 50aa 0a3d d9ed 163c e516 1fbc
00000030: 2aa1 68bc b9f1 003d 8520 093d bf38 fbbb
00000040: 4d9c 9c3c f311 323d 3002 cc3c 877f c23c
00000050: 8b8c 853b c116 9d3a 1661 07bc 1c08 afbb
00000060: d933 813b 110f 0abc f20d e63c 066f e33c
00000070: 8ad2 c53c c5e2 db3c c791 1b3c 1e66 963c
00000080: 52e6 ff3c 7bf7 193d 9e93 1d3d 9b29 973c
00000090: 1a03 04bb 9b3a 173d 14c7 073d 723e db3c
000000a0: 48ce 0e3b 4251 d93c bf58 46ba 5fe7 b63c
000000b0: 4112 f53c 859e f03c 1e8b f63b 33d4 c93c
000000c0: 5843 0d3d d85a e93c 8b2b 0c3c 6a81 f63c
000000d0: bd2c aa3c 07e8 233c 6f85 4b3c 2349 2a3c
000000e0: c4a6 723b 9999 593c afaf 833c 1a2e 653d
000000f0: 5d9a 6fbc 23f3 763d 9ce1 94bc 4668 9abb
00000100: 5ba5 043d af30 053d ce22 9a3c bbf2 783c
00000110: 0cd1 203c 4573 0d3d 46f4 8d3c 0bbc 273b
00000120: a342 283c 8722 8e3c 60b9 fa3c 7d96 043c
00000130: 86ef 8f3c 57fd 163d 2a12 f73c 01f9 80bc
00000140: 2431 323d c9dc 35bc 947d 363c ac7a fb3c
00000150: a829 a9ba f341 313c 969a f53a 29a8 ed3c
00000160: ad9d 8c3c d5fd 863c b459 033d 1863 da3c
00000170: a3f1 5d3c 5062 833b f0d4 363a 434d 933c
00000180: b7d9 98ba b88c bbbb 5511 f73c 4ccf 5cbb
00000190: 593e ffba 74af 9d3c 80b2 433c 40f1 96bc
000001a0: 81ca 96bc f754 bd3c 070b 9a3c b41e ad3c
000001b0: 4a10 f6bb f5b2 6b3b 4158 373d 3127 1c3d
000001c0: f108 fdbb b4d3 a3bb e49f 9f3c 1c3a 0d3d
000001d0: 92a3 f93c c1b4 de3c 5370 30bb b163 683c
000001e0: dfb7 7d3c a406 81bc a5f6 dc3c 00bb 163d
000001f0: e650 a43b b51f 2a3c 848f ae3c 58f3 8a3c
0.021784091 0.0107841315 0.024150265 0.020199522 0.015811604 0.014280266 0.030738525 0.006894827
0.0044152606 0.03385383 0.009211981 -0.009710048 -0.014198581 0.031480525 0.03347828 -0.007666677
0.019117499 0.04347415 0.024903387 0.02374245 0.004075592 0.0011984931 -0.008262893 -0.005341543
0.0039429483 -0.008426444 0.028082822 0.027762901 0.024148244 0.02684153 0.009495205 0.01835924
0.031237755 0.03758953 0.038470857 0.018452456 -0.002014345 0.036921125 0.03314884 0.026763175
0.0021790434 0.026528005 -0.0007566325 0.022327123 0.02991593 0.029372463 0.0075239083 0.024637317
0.034488052 0.0284857 0.008555303 0.030091006 0.020773286 0.01000405 0.01242195 0.010393414
0.003702567 0.013281249 0.016074983 0.05595217 -0.014624205 0.060290467 -0.018173985 -0.0047121374
0.032384258 0.03251713 0.018815424 0.01519459 0.009815466 0.034533758 0.017328393 0.002559426
0.010269794 0.017350448 0.030605972 0.00809252 0.017570268 0.036862697 0.030160028 -0.015743734
0.043503895 -0.011100003 0.011138339 0.030698143 -0.0012906091 0.010818946 0.0018738087 0.02901085
0.01716503 0.016478458 0.03206797 0.02665858 0.01354638 0.0040095225 0.0006974479 0.017981177
-0.0011661564 -0.005723562 0.030159632 -0.0033692895 -0.0019473537 0.019248702 0.011944413 -0.018425584
-0.018407108 0.023111803 0.018804086 0.021132804 -0.007509266 0.003596482 0.0447619 0.038123313
-0.007722013 -0.004999602 0.019485421 0.034479246 0.030473504 0.0271858 -0.002692242 0.0141839245
0.015485733 -0.015750237 0.026973078 0.03679943 0.0050145267 0.010383536 0.021308668 0.016961738

action_model._continuous_distribution.log_sigma f4 [1, 2]
00000000: 0d89 403d ee9d 38bc
0.0470057 -0.011268122

action_model._continuous_distribution.mu.weight f4 [2, 128]
00000000: ff20 8dbd 0cd3 80bd 9105 223d 7e7f 2b3c
00000010: 3d03 463d 9508 ddba 7539 943d 3513 e93b
00000020: 59f3 2cbd 58c0 87bd 1135 453d 32f9 c5bc
00000030: f336 78b8 234c e73c 3d5f 71bd 99b7 263c
00000040: e672 273d 83ac bb3d 49ed 303d c1c6 bb3c
00000050: 2533 443d 4134 b1bb 6901 8ebb a8b4 0c3d
00000060: 0900 0fbc 27b2 d03c 8d2d 88bd cc0c 773d
00000070: 54ab 9fbd 8474 92bd 2744 00bd 22f7 5d3d
00000080: 945d e83c 660c 70bd 27cb 70bd 4df9 3e3d
00000090: 4f03 d73b 76b0 b63d ed7a 10bd a4e8 933c
000000a0: dca4 4ebd 5cb2 b1bd 2340 08bc 01db 983d
000000b0: 9abe b53d aa6e 6dbd 4a5f 083d 1c17 aabd
000000c0: 3e3d e53c 2343 84bd 41be ff3c 1cdb 933d
000000d0: f307 7fbd 7b26 8dbc 9c75 e63c 7ddb e63b
000000e0: faae 33bc 3abe f5bc 5fd6 41bd a9fb 50bc
000000f0: 1188 53bd be97 d1bd fe80 d6bc dbee 193c
00000100: 61c4 12bc 3764 1a3d c318 2d3d e651 23bd
00000110: 5a8e af3c f887 953d 73e4 243d b279 683d
00000120: 64b9 593d b54e 85bb 23fa e83c 12ec 913c
00000130: ac54 00bd b4fe 01bc 3583 d6bc 3e7e 80bc
00000140: 2362 843c 29f7 b1bc 9c73 4bbd d4c4 86bd
00000150: 71ca eb3c 2d5e 38bd da7a d1bc bb0e ed3c
00000160: 604d d33c 6b01 d63a 1634 353d 857f c23b
00000170: b72e bb3c ffce 6abc e1ca 093d bbba 99bd
00000180: cf95 4abc a261 74bc d616 2ebd 1314 dcbc
00000190: bd72 eb3c 91d5 203d 01a5 463d 1b9d 02bd
000001a0: 1cf9 623b 3daf 30bd 5f59 4d3d 4048 363d
000001b0: 78c6 dd3c 8312 56bd 03f8 2ebc 8bab 81bd
000001c0: c6c0 d0bb 9cc6 133d 518a 223d 036f 173d
000001d0: e300 0c3d 9320 813d d88a d53c bc0c 293c
000001e0: b57b 453d e283 a23c ae79 293c 5ecf 6bbd
000001f0: e8a3 aabc 8ba8 80bc d114 043d 80ac 46ba
00000200: 6063 6d3d b940 563d 4342 a7bc bf28 81bd
00000210: f5b7 1d3d 0d75 693c 259d 103c 2a6b d6bc
00000220: fd01 5ebc ac1c 373d 957a 10bd ec3a afbc
00000230: ee46 923c 8b4f febc f224 ea3c 645d c73a
00000240: 1ddb 273d 0745 b03c 283d 883c 61c0 48bd
00000250: 7ebc 2f3a 3d81 323c 9c37 be3c 22a4 623c
00000260: 4219 843c a768 873d d273 6abd 77a6 80bb
00000270: 06a5 013d 5665 5f3c 5bfa 18bd ca4e 703d
00000280: c0a5 f33c 2f06 cc3c 92bd c53c 8cea 9fbc
00000290: 21ba eb3a f116 903d 94e3 0dbc cf31 48bb
000002a0: f423 acbb d8d6 46bb bfdf 22bc bb2b f6bb
000002b0: 9e92 b7bc d903 edbb 4fbc b83c 1632 8cbd
000002c0: ee08 2abd e88e 3abd 561a b63c f09d abbc
000002d0: ca0e 8ebc 08fa 85bc 2c5e ed3c 236f 51bd
000002e0: 9205 06bc 42f8 4abc 16a1 31bd 4fc4 7abb
000002f0: 7ade 1fba eced b53d c964 27bc 28c8 7c3c
00000300: bfcd 7b3d aabd 96bc 7d17 653d 65e7 c8bc
00000310: 1c9e d83c 04f6 d0bc f7d8 29bd 0f95 b43c
00000320: 17c6 d93c 5b48 183d 2e0b 0f3d 68a3 3d3d
00000330: 0cb2 693c 065a 353c 16c2 cfbd f9c3 143c
00000340: abfd 82bd cc04 8c3c 0fc9 b1bc e059 513d
00000350: 9a34 cc3c 99ae 12bd 0885 c7bb ccb9 c4bd
00000360: f14b 3d3c 5939 babc 4d82 dabb dfcf 53bd
00000370: a328 823d 03c3 25bd ead5 9dbb 49d6 90bc
00000380: 1e2b bd3b db98 833a 2625 0dbd bb13 95bc
00000390: 8786 493d eddc 91bb 155d 343c 8f1a 913b
000003a0: 7107 88bb 94f0 753d 0bcb 753d 0a0d 303b
000003b0: 917c b63c f5ec 913c da75 8ebd b97c 5fbb
000003c0: b483 223c 9d35 a13c 5f37 8c3d d2d7 29bd
000003d0: 6325 493c 7b82 d0bc ff4e 703a c0a7 76bc
000003e0: bb21 163d 69d5 8dbc 9ba6 aabd 350b 373d
000003f0: 66bf 2abd aec3 a73c 25fb 9fba 439a 2abc
-0.06891059 -0.06290254 0.03955609 0.010467408 0.048342932 -0.001686352 0.072375216 0.0071128854
-0.042224262 -0.066284835 0.04814631 -0.024166677 -5.9178983e-05 0.028234547 -0.058928717 0.010175609
0.04088106 0.091637634 0.043195043 0.022921922 0.047900338 -0.0054078405 -0.004333664 0.034351975
-0.008728036 0.025475575 -0.06649313 0.06031494 -0.0779635 -0.0715113 -0.031314995 0.054190762
0.028364934 -0.058605574 -0.05878749 0.04662447 0.0065616737 0.08920376 -0.03527348 0.018055268
-0.05045019 -0.086765975 -0.008316073 0.07463647 0.08874245 -0.057966866 0.033294 -0.08305189
0.027983304 -0.06458118 0.03121865 0.07219526 -0.06226344 -0.017230263 0.028132252 0.007045208
-0.010967011 -0.029997934 -0.04732358 -0.012755313 -0.051643435 -0.10234021 -0.026184555 0.0093953265
-0.008957953 0.03769323 0.042259943 -0.039873026 0.021430183 0.073013246 0.04025693 0.056756683
0.053155318 -0.0040682205 0.028439587 0.017812762 -0.03133075 -0.007934261 -0.026185611 -0.015685197
0.016160076 -0.0217243 -0.0496708 -0.06580511 0.028783055 -0.045011688 -0.025571276 0.028937688
0.025793731 0.0016327327 0.044239126 0.0059356117 0.022849424 -0.014331578 0.033640746 -0.07506319
-0.012364819 -0.014915856 -0.042502247 -0.02686504 0.028741235 0.039266173 0.048497204 -0.03188811
0.0034633344 -0.04313587 0.05013406 0.044502497 0.027072176 -0.052263748 -0.010679248 -0.06331547
-0.0063706366 0.03607808 0.03968269 0.036971103 0.034180533 0.06305041 0.026067182 0.0103179775
0.04821368 0.019838277 0.010343952 -0.057570808 -0.02083011 -0.015705368 0.032246415 -0.0007578805
0.0579561 0.052307818 -0.020417338 -0.063066 0.038505513 0.0142490985 0.008826529 -0.026174147
-0.013550279 0.044705078 -0.035273153 -0.0213904 0.017856088 -0.031043788 0.02858207 0.0015210328
0.040980447 0.02151729 0.016630724 -0.04901159 0.0006703808 0.010895071 0.023219876 0.013833078
0.016125325 0.06611758 -0.05723936 -0.003926094 0.03165152 0.013635 -0.037348133 0.05866889
0.029742122 0.024905292 0.024138246 -0.01952102 0.0017984548 0.07035626 -0.008660216 -0.0030547266
-0.0052533094 -0.003034046 -0.009941041 -0.0075125373 -0.02240878 -0.0072331247 0.02255073 -0.06845491
-0.041512422 -0.045546442 0.022229355 -0.020949334 -0.017341036 -0.016354576 0.028975569 -0.05113138
-0.008180039 -0.012388291 -0.043366514 -0.0038263982 -0.000609852 0.088832706 -0.0102169 0.01542858
0.06147551 -0.018400986 0.055930603 -0.0245244 0.02644258 -0.025507934 -0.04146668 0.022043733
0.026583714 0.03717838 0.03492277 0.046298414 0.014263641 0.011068827 -0.10144441 0.009079927
-0.063960396 0.017092131 -0.021702318 0.051111102 0.024927426 -0.03581104 -0.0060888566 -0.096057504
0.01155375 -0.022732424 -0.006668365 -0.051711913 0.06355407 -0.04046918 -0.0048167603 -0.017680304
0.0057729622 0.0010040061 -0.034459256 -0.018197885 0.04920056 -0.0044513852 0.011008521 0.004428215
-0.0041512777 0.060043886 0.06000809 0.002686324 0.022276195 0.017813185 -0.06956072 -0.003410144
0.009919096 0.019678885 0.06846499 -0.041465588 0.01227698 -0.025452843 0.0009167045 -0.015054643
0.03665326 -0.017313676 -0.08332559 0.044688422 -0.041686438 0.02047905 -0.0012205584 -0.010412755

action_model._continuous_distribution.mu.bias f4 [2]
00000000: 49d3 163b 52f5 3cbc
0.002301412 -0.011533098

action_model._discrete_distribution.branches.0.weight f4 [4, 128]
00000000: 2068 953c 22d6 8a3c c1f1 46bd f8f8 f4bb
00000010: 779f f03b 81fb 053d 1ec5 633c 71ec f93c
00000020: 12f9 a8bc a0f3 283d af5a 733d 6252 cdbc
00000030: 3ee5 29bd ecb1 aebd 0f87 e73c 0f4b 64b8
00000040: b1e3 8f3d dc23 503c 8d4c b03c 059b 023c
00000050: 64c2 bcbc ef82 1dbd d161 21bd a819 9f3c
00000060: 94e3 c83c bacb 60bc 535d 963c f7d7 113d
00000070: baef cebc 499e abbc cf78 edba 983a 793c
00000080: 2408 a13d dd72 353d c099 433d 490c c63c
00000090: b5a5 cbbc 4d4f bbbb 40ed f43c a38d 15bd
000000a0: 9972 ab3c 462c 2b3d f57d 52ba d702 73bc
000000b0: f1e9 4b3d 45db 0a3d 0533 d9ba d3a5 873c
000000c0: 0b75 133d afc2 693d 7e9a 1fbd 2cd6 5abb
000000d0: 3590 253d 5ae1 363c e9cc de3a f426 3a3a
000000e0: 1495 cdbc 2107 283c e1f8 b33c 83b4 a93d
000000f0: 9749 4e3c 1184 683c d2c6 293c b2fb 883c
00000100: c50e 893c d3ff 173d 2075 343c 7f66 673c
00000110: b97a 363d 2e39 913b 415e ddbc 5eb5 20ba
00000120: ce7f 8b3d a0ce 81bb 1c80 353d 2e1b d73c
00000130: 811e 98bc df81 a13c 9893 8c3c 10b1 0c3d
00000140: e7b7 ff3c b43c 483c e2f7 9bbc a5dc 013d
00000150: 7289 c7bc 660e 023d 904b 8f3c 83d9 373b
00000160: 535f 0f3d 49bc dfbc 36d8 4cbd 812f 933c
00000170: 9e94 e3bb c976 0fbc 9b9f 233c 6e97 48bc
00000180: 8b7c 1b3d 24a2 22bc eddf 9d3c 0f53 043c
00000190: 19fa c4bc ecf5 833c b525 b53b 190a 3c3d
000001a0: aca3 b03b e86f 94ba dc34 2c3d b716 e23b
000001b0: 51a0 3ebd 7285 e73a 5663 9e3d daf2 1b3d
000001c0: fb06 5ebd df09 b1bc 4ead 26bc 2e3a 893b
000001d0: 463e a8ba fbbd aabc e4ed f2bc 4768 113d
000001e0: e43c 9c3c c1ae 3b3b 83f8 cf3c c29c 523c
000001f0: 1b8c f4bb 4c2e b9bc 3277 39bd 431a 17bc
00000200: aba8 e3bb c598 89bc 0bb5 bc3b ee45 893c
00000210: cd6b 5c3d cec0 2f3d dd07 333c da4e 3d3c
00000220: 270c d83c 413b 1fbb 55d9 0cbd 0124 9f3b
00000230: 46d8 113c a5c4 0d3d d47e 303c e4ae 12bd
00000240: da98 dabb 832e b53c ac34 c93c 7704 d73c
00000250: 46df 57bc 0e95 743d d82d 863c 8555 48bc
00000260: e7a7 3ebc a7b2 853c 2283 edbc df20 c13c
00000270: 75eb 4b3d 0421 cfbc a6de 153d 0266 b43c
00000280: d88f 54bb fc88 7fbc cb34 9eba a12e a93c
00000290: 2bd5 233c c49c f13c 4ce6 22bd 96cd 2a3d
000002a0: 7ee7 8c3c 20ea 6bbc 3cad 743c 5a58 c13c
000002b0: a9eb 90bc ca65 36bd 7568 ab3b a80c a73c
000002c0: fce2 a7bc fd01 843c 95c0 863c d72d d43c
000002d0: 704c 093c 9978 ae3c 1d94 273c 3332 cd3b
000002e0: 4d95 e23c f87f 2b3d be5c a43c a59a 353d
000002f0: 90cb 0bbd e9a0 0a3c 88b1 24bd b306 243c
00000300: e7d8 e33b 0dea 323d 0509 8d3c 7ec6 0ebc
00000310: 9f5a b1bb 2d79 773c 19d9 28bd ba3e 7d3b
00000320: 1066 03bb ccb3 79bb 1678 11bb 86ca f8bc
00000330: 49e3 b93c 824d 083d 00e3 f6bc 09fe 7939
00000340: 4263 273c 2b45 17bb 2909 1cbd 7a33 eebc
00000350: f537 ae3b f9bb 0fbc 2151 053d 6379 123c
00000360: cda3 203d 0db2 103d ebbe 173d dad4 6f3c
00000370: 49b9 54bc 04ac 9d3c de47 ff3b 07f3 363d
00000380: 3ad6 69bd fd6c bd3a 26b4 15bc 915a 65bd
00000390: 2593 b23c cc9d 623c 3d01 99bc cc13 50bd
000003a0: 3572 19ba 6df2 f03c e4a2 083d cbcc f3bc
000003b0: f2a6 d33c 487d 863b aa39 86bc adae b83c
000003c0: 6de4 1f3d d4cd 0abd 50f9 e1ba b148 f03c
000003d0: 9fce ef3c 0c01 a33b 4217 f339 72a8 24bc
000003e0: 7dcb 6dbc b4ea 58bc 15a4 2e3c 295d f53c
000003f0: 568f a13c efca 673d a6e0 223b fdc1 d03c
0.018238127 0.01694781 -0.0485704 -0.0074759685 0.0073432284 0.032710556 0.013901977 0.030508252
-0.020626578 0.041247964 0.059412654 -0.025063697 -0.041478388 -0.0853003 0.028262643 -5.442934e-05
0.070258506 0.012703862 0.021520877 0.00797153 -0.023041911 -0.038454946 -0.039399926 0.019421414
0.02452258 -0.013720447 0.018355047 0.03560635 -0.025260795 -0.0209495 -0.0018117669 0.015211724
0.07862881 0.044298995 0.04775405 0.02417578 -0.024859289 -0.0057162405 0.029898286 -0.03651203
0.020928668 0.04179027 -0.00080296333 -0.01483222 0.04978365 0.033900518 -0.0016570991 0.016558563
0.036000293 0.05707043 -0.038965695 -0.0033391817 0.04042073 0.011162126 0.0016998324 0.00071011414
-0.0250955 0.010255606 0.02196926 0.08286383 0.012590787 0.014191643 0.010362344 0.01672158
0.016730675 0.037109207 0.011014253 0.014123558 0.04455063 0.004431865 -0.027022483 -0.00061305414
0.06811486 -0.003961399 0.044311628 0.026258077 -0.018569233 0.019715248 0.017160222 0.034348547
0.031215621 0.012221504 -0.019039098 0.031704564 -0.024357531 0.031752013 0.017492086 0.002805323
0.035003018 -0.027311461 -0.050010882 0.017966988 -0.006945207 -0.008756348 0.009986783 -0.012243135
0.03796057 -0.009926353 0.019271815 0.008076443 -0.024045037 0.016108476 0.0055281767 0.045908067
0.005390605 -0.0011324855 0.042042598 0.0068996805 -0.04653961 0.0017663671 0.077337906 0.0380734
-0.054205876 -0.021611152 -0.010173155 0.0041878438 -0.0012835942 -0.020842543 -0.02965445 0.035499837
0.019072004 0.0028638097 0.025387054 0.012854757 -0.007462991 -0.022605084 -0.04527969 -0.00922257
-0.006947597 -0.016796479 0.0057588867 0.016756978 0.053813744 0.042908482 0.010927168 0.011554444
0.026372982 -0.0024296793 -0.03438695 0.004856587 0.008901661 0.034611363 0.010772426 -0.03581132
-0.0066710534 0.022116905 0.024561249 0.026247246 -0.013175791 0.059712462 0.016379282 -0.012227421
-0.011636711 0.01632054 -0.028993193 0.023575244 0.049785096 -0.025284298 0.036589287 0.022021297
-0.003243437 -0.015596624 -0.0012070177 0.020652117 0.009999554 0.029493697 -0.03977041 0.04169997
0.017200228 -0.0143990815 0.01493388 0.0236017 -0.017690497 -0.044530667 0.005230958 0.020391777
-0.020493977 0.01611423 0.016449252 0.025900764 0.0083800405 0.02129774 0.010228184 0.0062620877
0.027659083 0.041870087 0.020063754 0.044336934 -0.03412968 0.0084612155 -0.04020837 0.010011363
0.006953347 0.04368024 0.017216215 -0.008714316 -0.005412414 0.015104574 -0.041222665 0.0038642124
-0.0020049848 -0.0038101552 -0.002219682 -0.030370008 0.022691386 0.033277042 -0.030137539 0.00023841126
0.010216536 -0.0023081999 -0.038094673 -0.02907728 0.005316729 -0.0087728435 0.032548074 0.008940074
0.039218713 0.035326052 0.037047308 0.01463815 -0.012983629 0.019247063 0.0077905497 0.044665363
-0.057089068 0.0014452037 -0.009137189 -0.055994574 0.02179868 0.013831567 -0.018677348 -0.05080013
-0.0005853505 0.029412473 0.03335847 -0.029760739 0.025836442 0.00410429 -0.016384918 0.02254423
0.039036203 -0.0338877 -0.0017240439 0.029331537 0.02927333 0.00497449 0.000463659 -0.010049926
-0.014513847 -0.013239551 0.010659237 0.029951649 0.019721668 0.056590017 0.002485314 0.025483126

action_model._discrete_distribution.branches.0.bias f4 [4]
00000000: e906 2abc e189 1d3d 58ad 05bc ee5b 8dbc
-0.010377624 0.03846157 -0.008159004 -0.01725575

exp_avg f4 [128, 22]
00000000: edb7 2336 0000 0000 1fe6 b037 d781 98b7
00000010: 0000 0000 2a90 bb37 c66f 9038 e78c 7cb7
00000020: 186d a938 b77d 71b8 5785 5037 d940 8134
00000030: 3e5e 03b5 164e 8d37 6903 68b8 0000 0000
00000040: 604c 0339 2419 aa38 b7b6 9a35 7454 feb7
00000050: 185f 3cb7 0454 e6b7 8e8e 1c38 0000 0000
00000060: a72b 8fb7 ac34 4c37 0000 0000 0b52 1e38
00000070: acb5 5938 2931 e0b6 d113 8c38 5c98 65b8
00000080: 8da4 cfb8 c519 db38 f361 10b5 ae35 3838
00000090: 7e2a c437 0000 0000 8fcc 3f38 9177 df38
000000a0: 7878 2e37 d882 71b7 6176 3138 76cf 71b4
000000b0: 5099 bc39 0000 0000 e17b 1838 2015 8f39
000000c0: 0000 0000 9aa4 cc37 14a2 4fb8 f6c4 fe36
000000d0: eee3 0739 e516 003a 919b 1fb8 31f9 bbb8
000000e0: 0a0d 27b6 0cdf e6b9 444e f838 0000 0000
000000f0: 748e aa38 2967 af38 bb12 2539 6064 2db7
00000100: f309 23ba f276 f239 6273 3b39 0000 0000
00000110: 67f0 3bb8 827f 5239 0000 0000 94ac 1737
00000120: edd1 e2b8 9df5 2537 fad4 3036 876c 8e39
00000130: a637 45b8 ceb1 efb8 6263 90b5 bf3e 82b9
00000140: cfa8 c138 0000 0000 d0c0 0838 b87e 0cb9
00000150: 0de0 a038 583e 3f37 bd4f d0b9 4f9a 7439
00000160: 2ba4 b738 0000 0000 a53d 98b8 6909 d737
00000170: 0000 0000 076b 3d38 6033 3639 73bb fcb8
00000180: d560 4139 1231 3f38 a81f 91b8 b708 1139
00000190: 5362 96b5 93b4 a1b7 be8a f937 0000 0000
000001a0: 7aa1 0e39 41e6 8939 8f89 0038 b825 21b9
000001b0: bf25 f2b6 9a84 a138 7b44 15b7 0000 0000
000001c0: cd87 5037 b4e4 cc38 0000 0000 6163 0d39
000001d0: 06b3 64b8 36b0 1d39 bb46 9637 8655 deb7
000001e0: 11a0 8fb8 8701 9db8 ae70 1a35 8671 cfb8
000001f0: 75f8 dcb7 0000 0000 7b62 e6b8 5aa9 8db8
00000200: efe5 4c36 976d 1c39 8452 08b7 b7bf 5eb7
00000210: 01ed 88b8 0000 0000 3451 90b7 45c5 e937
00000220: 0000 0000 ca56 8e38 3b29 c036 ee6c 0c39
00000230: 1d75 a335 b317 a6b7 191e 02b9 f189 21b8
00000240: a8d4 b135 e416 5eb8 a055 b7b7 0000 0000
00000250: 23e4 8cb8 e8fe 46b8 0716 1838 8e25 b838
00000260: 7921 41b8 fcba 0b38 d306 64b9 0000 0000
00000270: 672b 80b8 d2c5 cbb8 0000 0000 10be d2b7
00000280: f022 3e38 6f54 3038 1ec4 08b9 9df3 35b9
00000290: fa6f f338 abad 4b38 723c 0236 7d5e 8439
000002a0: 4788 0fb9 0000 0000 6c46 4ab9 fb19 9237
000002b0: 7b2d b6b8 cf84 1137 5a9f a439 2235 29b9
000002c0: 34d8 bd38 0000 0000 ffe1 4338 b070 9537
000002d0: 0000 0000 6783 0338 eec7 8137 583d 93b7
000002e0: fdbb 5438 18c3 bcb8 5ad0 0b38 04bf 0138
000002f0: 0291 e1b3 0972 1ab6 f453 8b38 0000 0000
00000300: b054 2e38 a935 85b7 3915 88b8 5304 04b8
00000310: 2d82 4839 65d6 fbb8 cadb 4ab7 0000 0000
00000320: 92af 26b8 73f9 a538 0000 0000 5002 d438
00000330: b2f2 f536 8872 98b8 57e3 4039 97b5 2538
00000340: ee15 12b9 f0a3 8e38 8367 83b4 5a13 e2b7
00000350: 4b84 02b8 0000 0000 a2fd 0c38 245c 3eb8
00000360: 54e2 83b7 a311 a6b7 768c 2bb9 d42c 0539
00000370: a9e1 b6b9 0000 0000 4785 01b9 7c16 26b9
00000380: 0000 0000 cd0d b8b8 dd2e 2f38 9e33 6237
00000390: a25c 33b9 3aa8 5ab9 85de 7d39 1c26 0b38
000003a0: 7b7d 2d36 6089 3939 7b63 65b9 0000 0000
000003b0: 4546 9cb9 74fa 5836 70c4 fab8 3645 53b6
000003c0: 1f39 d339 888d 1bb9 6e8f 12b9 0000 0000
000003d0: 1b67 2238 0020 f1b7 0000 0000 5deb 8738
000003e0: d61a c7b8 1671 4539 bb97 35b9 1e78 30b9
000003f0: f952 4038 9d73 4eb9 070a 9635 346c 5f38
2.4395952e-06 0.0 2.1087993e-05 -1.8180273e-05 0.0 2.2359269e-05 6.8872745e-05 -1.5053177e-05
8.078868e-05 -5.757596e-05 1.2428812e-05 2.4075305e-07 -4.8938443e-07 1.6844871e-05 -5.5316286e-05 0.0
0.00012521585 8.1109145e-05 1.1527071e-06 -3.0318486e-05 -1.1227814e-05 -2.745726e-05 3.7326063e-05 0.0
-1.7067256e-05 1.2171611e-05 0.0 3.7746544e-05 5.1906027e-05 -6.681443e-06 6.679411e-05 -5.473975e-05
-9.901179e-05 0.00010447534 -5.3786715e-07 4.391901e-05 2.3384808e-05 0.0 4.572846e-05 0.000106557396
1.0399257e-05 -1.4395184e-05 4.2310337e-05 -2.2520348e-07 0.0003597238 0.0 3.6354995e-05 0.00027290825
0.0 2.4395344e-05 -4.9503593e-05 7.592719e-06 0.00012959514 0.0004886224 -3.8053437e-05 -8.9632704e-05
-2.489253e-06 -0.000440352 0.000118401396 0.0 8.132766e-05 8.363865e-05 0.00015742604 -1.0334974e-05
-0.0006219439 0.00046246458 0.00017876693 0.0 -4.4808166e-05 0.00020074661 0.0 9.040483e-06
-0.000108156215 9.891953e-06 2.6350012e-06 0.0002716521 -4.7020287e-05 -0.00011429527 -1.075776e-06 -0.00024842282
9.2344e-05 0.0 3.2604497e-05 -0.00013398647 7.671127e-05 1.1399003e-05 -0.0003973226 0.00023327138
8.756699e-05 0.0 -7.259407e-05 2.563438e-05 0.0 4.516079e-05 0.00017376011 -0.000120512115
0.00018441987 4.558365e-05 -6.920035e-05 0.00013831524 -1.1204487e-06 -1.9276782e-05 2.974772e-05 0.0
0.0001360233 0.0002630223 3.064569e-05 -0.00015368208 -7.2165562e-06 7.701777e-05 -8.897036e-06 0.0
1.2429385e-05 9.770077e-05 0.0 0.0001348383 -5.4526165e-05 0.0001503833 1.791433e-05 -2.6504287e-05
-6.848586e-05 -7.486628e-05 5.753344e-07 -9.8916746e-05 -2.634174e-05 0.0 -0.00010985598 -6.754948e-05
3.0532208e-06 0.00014918145 -8.125444e-06 -1.3276868e-05 -6.529131e-05 0.0 -1.720395e-05 2.7867625e-05
0.0 6.7872534e-05 5.7268458e-06 0.0001339202 1.2178531e-06 -1.9799778e-05 -0.00012408978 -3.851386e-05
1.3249419e-06 -5.2950243e-05 -2.1855172e-05 0.0 -6.718214e-05 -4.744428e-05 3.626014e-05 8.780799e-05
-4.604596e-05 3.3314325e-05 -0.00021746317 0.0 -6.1116e-05 -9.716641e-05 0.0 -2.5122456e-05
4.5332068e-05 4.2040305e-05 -0.0001304303 -0.00017352258 0.00011608 4.8560712e-05 1.9406693e-06 0.000252474
-0.0001368831 0.0 -0.00019290455 1.7416654e-05 -8.686908e-05 8.673595e-06 0.00031399244 -0.0001613689
9.052493e-05 0.0 4.67021e-05 1.7814658e-05 0.0 3.1355212e-05 1.5471098e-05 -1.7552331e-05
5.0719816e-05 -9.0008776e-05 3.3334225e-05 3.0933894e-05 -1.0503756e-07 -2.3014165e-06 6.643674e-05 0.0
4.1563704e-05 -1.5879823e-05 -6.4889384e-05 -3.147528e-05 0.0001912198 -0.00012008547 -1.2091312e-05 0.0
-3.9740997e-05 7.914277e-05 0.0 0.000101093785 7.3298224e-06 -7.269258e-05 0.00018395238 3.9508184e-05
-0.00013931814 6.8016234e-05 -2.4475966e-07 -2.695031e-05 -3.1117623e-05 0.0 3.3614815e-05 -4.5385343e-05
-1.572181e-05 -1.9796955e-05 -0.00016360157 0.00012700568 -0.00034881875 0.0 -0.00012352048 -0.0001583937
0.0 -8.776374e-05 4.1766896e-05 1.3482668e-05 -0.00017105279 -0.0002085277 0.00024210855 3.3175675e-05
2.5852048e-06 0.00017694151 -0.00021876201 0.0 -0.00029806994 3.233229e-06 -0.00011957518 -3.1481736e-06
0.00040287615 -0.00014834676 -0.00013977077 0.0 3.8719834e-05 -2.874434e-05 0.0 6.4811415e-05
-9.494058e-05 0.00018829512 -0.00017318029 -0.00016829415 4.585364e-05 -0.0001968876 1.1178789e-06 5.3268115e-05

exp_avg_sq f4 [128, 22]
00000000: 1c6e 0035 0000 0000 55d9 ed34 5111 1335
00000010: 0000 0000 75ba 0235 6e63 9735 a451 a034
00000020: c395 2f35 7bd3 1a35 9267 1635 5906 c434
00000030: 6a82 5b2e a5f3 c734 7112 1035 0000 0000
00000040: 7b76 1e35 056a 2935 4909 1d34 d9d0 de34
00000050: a6ba 0735 cd8d ba34 3d56 6335 0000 0000
00000060: cfcf 0735 cc72 2035 0000 0000 9019 0935
00000070: 31d2 0035 9e87 d834 21a3 c534 90f3 3035
00000080: f985 2a35 30c8 cf34 68c8 9d2e 4a78 0d35
00000090: 16a6 0c35 0000 0000 83f8 1b35 6ade e434
000000a0: 1aee ac34 179b c534 2d79 4335 efda d134
000000b0: c1b5 9b36 0000 0000 fe8a 6b36 9859 9836
000000c0: 0000 0000 1496 7d36 f480 c136 1bec a236
000000d0: 26c5 8d36 803b 4c36 b462 bd36 e929 6936
000000e0: 2844 0430 5839 4236 fff3 8836 0000 0000
000000f0: 0066 8236 6306 bd36 f53b 3b36 0729 8b36
00000100: 2301 ba36 fbdd 5236 bf9e a135 0000 0000
00000110: 035d 5e35 6927 9735 0000 0000 106d 8435
00000120: d7ef e735 f0de 8a35 8a85 8335 5abe 7c35
00000130: baad b035 8b26 5435 3e95 dc2e 9d70 5c35
00000140: ec59 8735 0000 0000 49ee 8435 a6a9 d335
00000150: 2420 2835 9597 5335 9e57 0136 64d1 3b35
00000160: 85a2 bc35 0000 0000 c8c7 9a35 c330 8e35
00000170: 0000 0000 e5f3 9135 d4d8 f935 8ff7 8135
00000180: 96b8 7d35 59b9 8735 b4f7 af35 77db 5435
00000190: 4d91 e52e 6933 a135 2293 8e35 0000 0000
000001a0: 8bc8 a435 0b4e d235 0e4a 2435 fb72 6a35
000001b0: a994 6f35 1df4 6135 1c74 1b35 0000 0000
000001c0: 7e0b 2935 4a1b 2c35 0000 0000 a985 2035
000001d0: 1d26 3635 5ce1 3435 6cb8 7235 f873 e134
000001e0: d4f5 6935 d2f7 0635 7bbf 7f2e 9c75 0b35
000001f0: 1873 2835 0000 0000 5f7c 2b35 0464 be34
00000200: 24e1 cc34 f2b5 2a35 e559 4e35 63b4 0b35
00000210: 1363 0835 0000 0000 ecb3 0135 a23b 2635
00000220: 0000 0000 32e7 1035 6fd5 1735 434e 4c35
00000230: 986b 8235 ef3b c834 5ebb 7035 4e44 ed34
00000240: 9fb2 952e 0564 ee34 5055 2335 0000 0000
00000250: 85db 1e35 486a c134 a233 2b35 5a34 0f35
00000260: 03d1 2635 5230 0c35 c586 9b35 0000 0000
00000270: ffd9 1935 aebc 4135 0000 0000 3b71 2235
00000280: e59e 5a35 3b68 1935 785f 0e35 5707 1835
00000290: b2ac 6735 3d7f ee34 efb4 872e 0231 4335
000002a0: 2233 2b35 0000 0000 7573 3135 b935 f234
000002b0: 4e8d 6134 61b5 e834 dea7 8d35 30bc ec34
000002c0: d9e6 ac35 0000 0000 cb6e 9435 3e6a 9d35
000002d0: 0000 0000 67ff 9735 3534 0336 b5f1 2735
000002e0: 9035 c335 06f4 4b35 bca9 c935 2168 5635
000002f0: d6ee e62e 52d9 5635 cb0e 9535 0000 0000
00000300: 4699 8e35 bdfb 8935 ded5 9035 dd48 4b35
00000310: 098e c435 3614 4935 02fc 3b36 0000 0000
00000320: 2360 3036 6aaa 0e36 0000 0000 7422 1236
00000330: 877e fc35 cf4c f435 02b6 0c36 5a11 d435
00000340: 17d2 3d36 c91c dc35 8f5d d72f 0025 0a36
00000350: 1965 0c36 0000 0000 e8fd 1e36 6811 ab35
00000360: e2cc 7135 deaf de35 49a1 1b36 6831 d735
00000370: 0ac2 a835 0000 0000 0995 5935 3267 8335
00000380: 0000 0000 0ae9 6235 ad65 4a35 45e9 8935
00000390: eded 2c35 2244 7c35 382a 9d35 566f 2d35
000003a0: 8639 b62e a720 5535 dae6 7435 0000 0000
000003b0: aaac 8235 58ca 2a35 8f21 1635 37c1 3b35
000003c0: 22a8 d535 28e6 3535 037d b735 0000 0000
000003d0: db23 a835 c8bd ab35 0000 0000 3c69 a735
000003e0: cbb6 3c36 66f6 9f35 f42f ab35 e566 b535
000003f0: 52e6 c335 1f76 6435 7ec2 342f e9da 9a35
4.7843946e-07 0.0 4.430282e-07 5.4786966e-07 0.0 4.8700105e-07 1.1279315e-06 2.9861724e-07
6.541051e-07 5.7677215e-07 5.603007e-07 3.6512463e-07 4.9910666e-11 3.7243913e-07 5.3671016e-07 0.0
5.9032e-07 6.3111685e-07 1.4625142e-07 4.150268e-07 5.056303e-07 3.4748373e-07 8.4689583e-07 0.0
5.059382e-07 5.9771696e-07 0.0 5.1073675e-07 4.7989585e-07 4.033181e-07 3.68128e-07 6.591954e-07
6.352489e-07 3.870241e-07 7.175133e-11 5.2701637e-07 5.239575e-07 0.0 5.810363e-07 4.2630137e-07
3.2210738e-07 3.6806952e-07 7.2819495e-07 3.908858e-07 4.640519e-06 0.0 3.5098633e-06 4.540383e-06
0.0 3.7787295e-06 5.7668603e-06 4.8554625e-06 4.2250786e-06 3.0433002e-06 5.6441295e-06 3.47441e-06
4.8118176e-10 2.8941631e-06 4.0815207e-06 0.0 3.8861763e-06 5.6333824e-06 2.790007e-06 4.147299e-06
5.5433643e-06 3.1421648e-06 1.2041636e-06 0.0 8.2836794e-07 1.1261847e-06 0.0 9.866508e-07
1.7280644e-06 1.0346685e-06 9.799126e-07 9.4154314e-07 1.3163583e-06 7.903224e-07 1.00309525e-10 8.212026e-07
1.0084455e-06 0.0 9.904116e-07 1.5770099e-06 6.263165e-07 7.8824206e-07 1.9273498e-06 6.996763e-07
1.4054391e-06 0.0 1.1532038e-06 1.0594016e-06 0.0 1.0874325e-06 1.8615051e-06 9.683298e-07
9.451845e-07 1.0112227e-06 1.3110607e-06 7.929552e-07 1.0439525e-10 1.2010397e-06 1.0622646e-06 0.0
1.2277318e-06 1.5668933e-06 6.1202525e-07 8.733911e-07 8.9250767e-07 8.4174263e-07 5.791096e-07 0.0
6.297413e-07 6.4114704e-07 0.0 5.9799146e-07 6.7855746e-07 6.7383166e-07 9.0420394e-07 4.1993894e-07
8.715699e-07 5.0279516e-07 5.8150356e-11 5.195268e-07 6.275236e-07 0.0 6.388345e-07 3.546303e-07
3.8161772e-07 6.35947e-07 7.6871794e-07 5.204403e-07 5.080812e-07 0.0 4.8318066e-07 6.1926596e-07
0.0 5.3980614e-07 5.656247e-07 7.610981e-07 9.717069e-07 3.729651e-07 8.967962e-07 4.4194388e-07
6.807465e-11 4.4403728e-07 6.084638e-07 0.0 5.917903e-07 3.602638e-07 6.37776e-07 5.334783e-07
6.214397e-07 5.222438e-07 1.1587623e-06 0.0 5.731417e-07 7.217267e-07 0.0 6.0514475e-07
8.144255e-07 5.7148617e-07 5.303805e-07 5.6635093e-07 8.630551e-07 4.4423533e-07 6.1712295e-11 7.2714477e-07
6.377687e-07 0.0 6.610565e-07 4.51151e-07 2.1006164e-07 4.3345338e-07 1.0554174e-06 4.409535e-07
1.2882184e-06 0.0 1.1059104e-06 1.1728332e-06 0.0 1.1324709e-06 1.955091e-06 6.256408e-07
1.4544221e-06 7.5978494e-07 1.5025066e-06 7.987274e-07 1.0501615e-10 8.0037455e-07 1.110567e-06 0.0
1.0624433e-06 1.0280561e-06 1.079108e-06 7.5729423e-07 1.4644476e-06 7.4907746e-07 2.801186e-06 0.0
2.6282003e-06 2.1258843e-06 0.0 2.177575e-06 1.8812287e-06 1.8201771e-06 2.0967568e-06 1.5800281e-06
2.8285483e-06 1.6399655e-06 3.917475e-10 2.058514e-06 2.0920472e-06 0.0 2.3691628e-06 1.2745559e-06
9.007764e-07 1.6591473e-06 2.319068e-06 1.6033127e-06 1.2573448e-06 0.0 8.1055674e-07 9.790294e-07
0.0 8.453068e-07 7.539882e-07 1.0275186e-06 6.442122e-07 9.397646e-07 1.1709699e-06 6.460954e-07
8.28662e-11 7.93962e-07 9.1233017e-07 0.0 9.736007e-07 6.3624384e-07 5.592819e-07 6.9944093e-07
1.591867e-06 6.7762676e-07 1.3670946e-06 0.0 1.2527411e-06 1.2795726e-06 0.0 1.2473097e-06
2.8120583e-06 1.1918135e-06 1.2754449e-06 1.3515497e-06 1.4595664e-06 8.510851e-07 1.6440002e-10 1.1537605e-06

exp_avg f4 [128]
00000000: 1520 4eb8 c48b 62b8 9b0e 83b9 0d8e e2b8
00000010: 6ff6 ebb8 b253 7238 9e83 0b39 6659 4c39
00000020: d5f6 30b7 ba2e ceb7 de1b 8839 e36b eb38
00000030: bb28 a1b7 4ece 1e39 4d0c dcb7 2027 2e38
00000040: 5be6 92b7 49b3 e9b8 e1a4 c7b7 475b bab7
00000050: 79c7 c5b9 8005 fa38 c20e 53b8 e0ae 69b6
00000060: c6e0 8cb8 9c35 09b9 fd6c c7b8 980c 89b8
00000070: f90a 0e38 1988 c638 303c c436 1648 1a38
00000080: 15d3 a338 0824 e537 77c2 3eb9 7882 bdb9
00000090: 4d92 ca37 7d35 77b8 7d8a 8437 305e 92b8
000000a0: c157 87b8 d456 91b8 6537 9338 f398 3738
000000b0: a38a bcb8 3987 2ab8 376d bbb7 022e be36
000000c0: c247 3b35 e9b0 f0b7 cf85 04b9 8cf9 40b8
000000d0: bad1 8ab7 936f 06b8 c63f 9e38 5352 fb38
000000e0: 1c02 8739 cf28 5eb8 9660 35b8 c2b4 f437
000000f0: e04e cf38 0304 8ab7 18ae 14b8 afee 8b38
00000100: b125 c139 3b6d b039 bf83 2cb9 127e 0138
00000110: 067e f337 d35b 4f39 493b 2739 a748 e738
00000120: 78ab 18b8 3d99 5038 dc0e 1d37 2a09 9cb9
00000130: ad31 48b9 c721 a637 4acd b638 8e2a 0538
00000140: 3a53 14b8 b810 0239 f720 f337 4181 9638
00000150: c0b5 b7b8 ec6a 64b8 83c9 c6b8 17cd 65b8
00000160: c5fc 4238 05eb 9737 79bb 01b9 ab52 9c38
00000170: 7b7b b2b7 3cc5 1c39 216e 1bb8 cf90 1db9
00000180: 1067 dcb8 d442 22b8 4fb8 ca38 9736 2a39
00000190: 556f 8eb8 06da d7b8 af56 3437 5750 ab38
000001a0: 1216 00b8 9cc7 1939 25be 9138 528f ebb8
000001b0: c2e0 5fb8 b40a af38 a51a c538 56ae 1139
000001c0: acc8 ffb8 32ba 8cb8 7b13 12b8 17af 8439
000001d0: a0d5 c1b7 01eb e537 46f8 85b8 4118 9eb6
000001e0: f563 e7b8 184c 6835 3910 ad38 851a 3f37
000001f0: aa97 53b8 b8a3 3f38 7d78 de37 f706 beb8
-4.9144106e-05 -5.4012766e-05 -0.0002499715 -0.00010802979 -0.00011251575 5.7775243e-05 0.00013305104 0.0001948826
-1.05478875e-05 -2.4578872e-05 0.00025960704 0.00011225769 -1.9211662e-05 0.00015144909 -2.6231772e-05 4.152127e-05
-1.7511824e-05 -0.000111437 -2.3799426e-05 -2.2215432e-05 -0.00037723387 0.000119219534 -5.0320064e-05 -3.4821496e-06
-6.7175875e-05 -0.00013085309 -9.50936e-05 -6.535015e-05 3.3865657e-05 9.466726e-05 5.848262e-06 3.6783596e-05
7.811763e-05 2.7315706e-05 -0.00018192256 -0.00036146096 2.4148403e-05 -5.8939204e-05 1.5800115e-05 -6.979366e-05
-6.453647e-05 -6.930312e-05 7.019824e-05 4.3773045e-05 -8.990362e-05 -4.0657094e-05 -2.2342994e-05 5.6677973e-06
6.976735e-07 -2.869261e-05 -0.00012638349 -4.6008776e-05 -1.6548543e-05 -3.2052e-05 7.545906e-05 0.00011983947
0.00025750778 -5.296693e-05 -4.3243715e-05 2.9171239e-05 9.885221e-05 -1.645275e-05 -3.5448087e-05 6.672495e-05
0.0003683991 0.0003365072 -0.00016452277 3.087341e-05 2.9026542e-05 0.00019775266 0.00015948447 0.00011028471
-3.6399317e-05 4.973378e-05 9.361389e-06 -0.00029761466 -0.00019091992 1.980447e-05 8.716674e-05 3.1749303e-05
-3.536346e-05 0.00012403994 2.8983208e-05 7.176633e-05 -8.7599736e-05 -5.4459015e-05 -9.47891e-05 -5.478886e-05
4.6488614e-05 1.8110042e-05 -0.00012372238 7.454058e-05 -2.1276754e-05 0.00014950795 -3.7057445e-05 -0.00015026632
-0.000105096144 -3.868605e-05 9.666441e-05 0.000162328 -6.791825e-05 -0.00010292609 1.0749019e-05 8.16888e-05
-3.0538133e-05 0.00014665577 6.949556e-05 -0.00011232369 -5.3376665e-05 8.346644e-05 9.398655e-05 0.00013893223
-0.000121967256 -6.710402e-05 -3.4827255e-05 0.00025307454 -2.310687e-05 2.740836e-05 -6.388179e-05 -4.7115905e-06
-0.00011033557 8.6537466e-07 8.2523045e-05 1.1390662e-05 -5.044757e-05 4.5690424e-05 2.6520569e-05 -9.061203e-05
