Assets/ML-Agents/results/RL_TEST/RL_Test/RL_Test-4106.pt (torch, 175341 bytes, 14 tensors)

network_body._body_endoder.seq_layers.0.weight f4 [128, 28]
0	0x3d561a11	0.052270953
1	0xbdf7e5d1	-0.12104381
2	0xbd4ae85f	-0.049538013
3	0xbe53b263	-0.20673518
4	0x3e55c7ed	0.20877047
5	0xbb887c24	-0.0041651893
6	0xbe1a8c0f	-0.1509249
7	0xbe018097	-0.1264671
8	0xbd988027	-0.07446318
9	0xbddfe1b1	-0.10931719
10	0xbe96b7fe	-0.2943725
11	0x3eed1009	0.46301296
12	0x3e84f84f	0.25970694
13	0xbdacdb89	-0.084403105
14	0xbbcb4668	-0.0062034614
15	0x3cdb75c3	0.026789552
16	0x3e4e24a7	0.2013117
17	0xbde36bb4	-0.11104527
18	0x3d6e32a5	0.058153767
19	0xbeb32187	-0.34986517
20	0x3c8bf324	0.017083712
21	0xbe8898d8	-0.2667911
22	0xbe6f94a1	-0.23396541
23	0xbdc65a05	-0.096851386
24	0x3e23249c	0.15931934
25	0xbda1240f	-0.07868206
26	0xbe7e102f	-0.24810861
27	0x3e8f1c67	0.27951357
28	0xbe11b5af	-0.14229463
29	0x3d190614	0.037359312
30	0xbd91ac30	-0.0711292
31	0x3c70b89f	0.014692455
32	0x3e8feac6	0.28108805
33	0xbe39dc6d	-0.18150492
34	0x3ecfe2e0	0.4060278
35	0xbce69062	-0.028145019
36	0xbc925a65	-0.01786537
37	0x3d9feda6	0.07809
38	0x3e2d4fad	0.16924925
39	0xbe197161	-0.14984657
40	0x3ed4035f	0.41408822
41	0x3e8e65ad	0.27811947
42	0xbe9bb6df	-0.30412957
43	0xbe7e0de8	-0.24809992
44	0x3d6f1908	0.05837348
45	0xbe086626	-0.13320217
46	0xbe1509f8	-0.14554584
47	0x3e4b0b23	0.19828467
48	0x3e8bbdcb	0.27293238
49	0xbea65959	-0.32490042
50	0x3d4dfdfb	0.050291043
51	0xbb52c6bd	-0.0032161914
52	0xbde4a366	-0.11163978
53	0xbe4bfb04	-0.19919974
54	0xbe233f93	-0.1594222
55	0xbe0ee478	-0.13954341
56	0xbe52e885	-0.20596512
57	0x3d86c9a2	0.06581427
58	0x3e95d19e	0.29261488
59	0x3e05a2ff	0.1305046
60	0x3ea6d2c9	0.3258269
61	0x3d3d94f5	0.046284635
62	0xbd83c1c3	-0.064334415
63	0x3cb11734	0.02161751
64	0xbe08c709	-0.13357176
65	0xbed257b3	-0.41082534
66	0x3d892149	0.06695802
67	0x3ee17456	0.4403407
68	0x3d282af5	0.041056592
69	0x3ca4e318	0.020127818
70	0x3dc47a2d	0.09593616
71	0xbe641f8b	-0.22277658
72	0xbe8406f3	-0.25786552
73	0xbe814f0c	-0.2525562
74	0xbdb497b3	-0.08817997
75	0x3e70ad36	0.23503575
76	0x3e5f52f5	0.2180899
77	0xbe7ecd2e	-0.24882957
78	0x3e9f0a3f	0.31062505
79	0x3f2509c6	0.6446804
80	0x3cd5e4ee	0.026110139
81	0x3d90477b	0.07044884
82	0xbd8129b5	-0.06306783
83	0xbdae7254	-0.085179
84	0xbdc6c7f4	-0.09706107
85	0xbe39e814	-0.18154937
86	0x3deca692	0.11555208
87	0x3e7887d2	0.24270561
88	0xbdbd9218	-0.09256381
89	0xbd861317	-0.0654661
90	0x3d7cfd14	0.06176479
91	0xbea55fe8	-0.32299733
92	0x3e552e90	0.20818543
93	0x3d704547	0.058659818
94	0xbe93c46a	-0.2886079
95	0x3e90ef4f	0.28307578
96	0x3e044c46	0.12919721
97	0xbe38d7fc	-0.18051142
98	0xbdce80a2	-0.100831285
99	0xbeafa24a	-0.34303504
100	0x3e97d4ff	0.2965469
101	0x3e133cdb	0.14378683
102	0xbdde11e8	-0.10843259
103	0xbe893924	-0.26801407
104	0xbdcaf878	-0.09910673
105	0x3de6aebd	0.112637974
106	0xbe0acf36	-0.13555607
107	0xbd9be349	-0.076117106
108	0xbe189032	-0.14898756
109	0xbda9db96	-0.08293836
110	0x3e62f40b	0.22163408
111	0xbdc82e4e	-0.09774457
112	0x3de17c1e	0.110100016
113	0xbda1d8ac	-0.07902655
114	0x3e39008a	0.18066612
115	0x3e0a0f15	0.13482316
116	0x3e016e59	0.1263975
117	0xbd424c06	-0.047435783
118	0x3e1553b2	0.14582708
119	0x3d899de9	0.06719572
120	0xbd797d99	-0.060910795
121	0xbd8a05a7	-0.06739359
122	0xbd92cb14	-0.0716764
123	0x3da13484	0.07871345
124	0x3e8049f7	0.2505643
125	0x3ea506e0	0.32231808
126	0x3b0b0a94	0.0021216022
127	0xbd8bca9c	-0.06825754
128	0xbca551a0	-0.020180523
129	0xbda851fd	-0.08218763
130	0x3e42f8c8	0.19040215
131	0x3daace28	0.083401024
132	0xbd15e77f	-0.036597725
133	0x3dd54f11	0.10415471
134	0xbe003acc	-0.12522429
135	0xbd166bf3	-0.036724042
136	0xbe074f44	-0.13213831
137	0x3d1e7c88	0.03869298
138	0xb97e26f0	-0.00024237833
139	0xbe2a7353	-0.16645555
140	0x3d4ea64b	0.050451558
141	0xbe93c2b9	-0.288595
142	0xbca05be7	-0.019575072
143	0x3daa7a2d	0.083240844
144	0x3ce74be8	0.028234437
145	0x3da5ba3a	0.080921605
146	0x3e79924f	0.24372219
147	0xbd242659	-0.040075634
148	0xbe02278c	-0.12710398
149	0xbdd99a21	-0.10625101
150	0xbd8164e5	-0.06318072
151	0x3cb7b4e8	0.02242513
152	0x3d6db930	0.058037937
153	0xbea0716e	-0.3133654
154	0x3d5f55ca	0.054525174
155	0x3cb96da7	0.022635294
156	0x3e30d965	0.1727043
157	0x3e4dc46e	0.20094463
158	0x3e8bbbcd	0.27291718
159	0xbe62e2e3	-0.22156863
160	0x3ddb0baf	0.10695588
161	0x3da1b2db	0.07895442
162	0xbe0cb980	-0.13742638
163	0x3df8d6b3	0.121503256
164	0xbeb96398	-0.36208797
165	0x3dcec4b8	0.10096115
166	0x3d8a2653	0.06745591
167	0xbe88fc50	-0.26755
168	0x3d3c472f	0.045966323
169	0x3dee7187	0.11642747
170	0x3e6accbf	0.22929667
171	0x3c67910a	0.014133701
172	0xbdc9f6d6	-0.09861533
173	0x3d85e910	0.06538594
174	0xbdd0e98a	-0.10200794
175	0xbe9c7d10	-0.30564165
176	0xbe6c49d9	-0.23075046
177	0x3e435823	0.1907659
178	0x3e25dc2f	0.16197275
179	0x3d8b3a5b	0.0679824
180	0xbd922b5d	-0.07137177
181	0xbe9e961c	-0.309739
182	0xbe5c237b	-0.2149791
183	0x3dff0858	0.12452763
184	0x3d80d26e	0.06290136
185	0x3e5b8634	0.21437913
186	0x3da20045	0.07910208
187	0xb9759be2	-0.00023423092
188	0xbcb86973	-0.02251122
189	0xbeeaa480	-0.4582863
190	0xbd909c4a	-0.0706106
191	0xbe8d0548	-0.27543092
192	0x3dac7a80	0.084218025
193	0x3dd18c5b	0.10231849
194	0x3d90d05c	0.070709914
195	0x3d1dd70f	0.038535174
196	0xbe500af0	-0.20316672
197	0x3c51a86a	0.012796501
198	0xbdb8a6d1	-0.09016193
199	0x3cecab03	0.028890138
200	0x3c8acafb	0.016942492
201	0x3e66d8f2	0.22543696
202	0xbd7c554e	-0.06160479
203	0x3b7cfc4b	0.0038602527
204	0x3d531e7c	0.051542744
205	0x3be0d8c8	0.00686178
206	0x3e2c1f40	0.16808796
207	0x3e5e349a	0.21699753
208	0xbdb21274	-0.08694926
209	0x3c97ae3e	0.018515702
210	0x3dafd5a5	0.08585671
211	0xbd4322e8	-0.04764071
212	0xbe91b574	-0.2845875
213	0xbe83acac	-0.25717676
214	0xbe6bd2c7	-0.23029624
215	0x3de4e294	0.11176029
216	0x3c333ee8	0.010940291
217	0xbdcfa3ce	-0.10138665
218	0xbe5e33fd	-0.2169952
219	0x3e835b90	0.25655794
220	0x3d9a4cd4	0.07534185
221	0xbe575d33	-0.21031646
222	0xbec66939	-0.38752154
223	0xbe0f8d4d	-0.14018746
224	0x3d40b1ff	0.04704475
225	0x3e8e6c82	0.2781716
226	0xbdcdfbd9	-0.10057802
227	0x3d32cd08	0.043652564
228	0x3df40f92	0.11917032
229	0x3e232463	0.15931849
230	0x3e273ccb	0.16331784
231	0x3d794212	0.060854025
232	0x3d7d3cca	0.06182555
233	0xbe45b207	-0.19306193
234	0x3cc56017	0.02409367
235	0x3db5b125	0.08871678
236	0xbd6e3adf	-0.058161613
237	0xbd47f23c	-0.048814997
238	0xbc5f2ff8	-0.0136222765
239	0x3e456e35	0.19280322
240	0x3de96220	0.11395669
241	0x3e98e153	0.2985941
242	0x3e79feec	0.24413651
243	0x3ce2d324	0.02768857
244	0xbdf4d798	-0.11955184
245	0x3e0964e5	0.13417394
246	0xbe5c13ac	-0.21491879
247	0x3e9b0d74	0.302837
248	0x3e82147f	0.25406262
249	0xbe9f4ddd	-0.31114092
250	0xbea8df10	-0.32982683
251	0x3d8d6ab3	0.06905117
252	0xbde990a3	-0.114045404
253	0x3e210371	0.15723969
254	0x3d9fdd0a	0.07805832
255	0x3e5ccee1	0.21563293

network_body._body_endoder.seq_layers.0.bias f4 [128]
0	0x00000000	0.0
1	0x00000000	0.0
2	0x00000000	0.0
3	0x00000000	0.0
4	0x00000000	0.0
5	0x00000000	0.0
6	0x00000000	0.0
7	0x00000000	0.0
8	0x00000000	0.0
9	0x00000000	0.0
10	0x00000000	0.0
11	0x00000000	0.0
12	0x00000000	0.0
13	0x00000000	0.0
14	0x00000000	0.0
15	0x00000000	0.0
16	0x00000000	0.0
17	0x00000000	0.0
18	0x00000000	0.0
19	0x00000000	0.0
20	0x00000000	0.0
21	0x00000000	0.0
22	0x00000000	0.0
23	0x00000000	0.0
24	0x00000000	0.0
25	0x00000000	0.0
26	0x00000000	0.0
27	0x00000000	0.0
28	0x00000000	0.0
29	0x00000000	0.0
30	0x00000000	0.0
31	0x00000000	0.0
32	0x00000000	0.0
33	0x00000000	0.0
34	0x00000000	0.0
35	0x00000000	0.0
36	0x00000000	0.0
37	0x00000000	0.0
38	0x00000000	0.0
39	0x00000000	0.0
40	0x00000000	0.0
41	0x00000000	0.0
42	0x00000000	0.0
43	0x00000000	0.0
44	0x00000000	0.0
45	0x00000000	0.0
46	0x00000000	0.0
47	0x00000000	0.0
48	0x00000000	0.0
49	0x00000000	0.0
50	0x00000000	0.0
51	0x00000000	0.0
52	0x00000000	0.0
53	0x00000000	0.0
54	0x00000000	0.0
55	0x00000000	0.0
56	0x00000000	0.0
57	0x00000000	0.0
58	0x00000000	0.0
59	0x00000000	0.0
60	0x00000000	0.0
61	0x00000000	0.0
62	0x00000000	0.0
63	0x00000000	0.0
64	0x00000000	0.0
65	0x00000000	0.0
66	0x00000000	0.0
67	0x00000000	0.0
68	0x00000000	0.0
69	0x00000000	0.0
70	0x00000000	0.0
71	0x00000000	0.0
72	0x00000000	0.0
73	0x00000000	0.0
74	0x00000000	0.0
75	0x00000000	0.0
76	0x00000000	0.0
77	0x00000000	0.0
78	0x00000000	0.0
79	0x00000000	0.0
80	0x00000000	0.0
81	0x00000000	0.0
82	0x00000000	0.0
83	0x00000000	0.0
84	0x00000000	0.0
85	0x00000000	0.0
86	0x00000000	0.0
87	0x00000000	0.0
88	0x00000000	0.0
89	0x00000000	0.0
90	0x00000000	0.0
91	0x00000000	0.0
92	0x00000000	0.0
93	0x00000000	0.0
94	0x00000000	0.0
95	0x00000000	0.0
96	0x00000000	0.0
97	0x00000000	0.0
98	0x00000000	0.0
99	0x00000000	0.0
100	0x00000000	0.0
101	0x00000000	0.0
102	0x00000000	0.0
103	0x00000000	0.0
104	0x00000000	0.0
105	0x00000000	0.0
106	0x00000000	0.0
107	0x00000000	0.0
108	0x00000000	0.0
109	0x00000000	0.0
110	0x00000000	0.0
111	0x00000000	0.0
112	0x00000000	0.0
113	0x00000000	0.0
114	0x00000000	0.0
115	0x00000000	0.0
116	0x00000000	0.0
117	0x00000000	0.0
118	0x00000000	0.0
119	0x00000000	0.0
120	0x00000000	0.0
121	0x00000000	0.0
122	0x00000000	0.0
123	0x00000000	0.0
124	0x00000000	0.0
125	0x00000000	0.0
126	0x00000000	0.0
127	0x00000000	0.0

network_body._body_endoder.seq_layers.2.weight f4 [128, 128]
0	0x3ca01849	0.01954283
1	0xbe20d292	-0.15705326
2	0xbe686b1b	-0.22697107
3	0xbd06064a	-0.03272084
4	0xbe261b0e	-0.16221258
5	0x3cba3a40	0.022732854
6	0x3e0a9c55	0.13536198
7	0xbbb660ef	-0.0055657546
8	0x3dee458f	0.11634361
9	0x3d9594df	0.073037855
10	0x3d433337	0.047656264
11	0xbc8b1a3a	-0.01698028
12	0xbd4543aa	-0.048160233
13	0xbd4a5507	-0.049397495
14	0x3d830071	0.063965686
15	0xbd5cb6e1	-0.053885344
16	0xbd3d6021	-0.046234254
17	0x3da590c2	0.08084251
18	0x3c32a88c	0.0109044425
19	0xbd562644	-0.052282587
20	0x3d382870	0.04496044
21	0x3e036e47	0.12835036
22	0xbd1e48ef	-0.038643774
23	0x3da4c0c1	0.080445774
24	0x3d855515	0.06510369
25	0x3d4f41aa	0.05059973
26	0xbbd05ec7	-0.0063589546
27	0xbe0320d1	-0.12805487
28	0x3d87d298	0.066319644
29	0x3d51c9cb	0.051217835
30	0xbdcc4760	-0.09974551
31	0x3cdb4a2f	0.026768772
32	0xbd068f8c	-0.03285174
33	0x3c09e769	0.008416989
34	0x3ca8cda5	0.020605871
35	0x3d4d0148	0.05005005
36	0xbb8f5fcf	-0.004375435
37	0x3ce181ad	0.027527655
38	0xbe45c863	-0.19314723
39	0xbbd0366f	-0.0063541452
40	0xbdfe4fda	-0.12417574
41	0xbcc44125	-0.023956845
42	0xbd716034	-0.058929637
43	0x3e225d71	0.15855958
44	0xbcb5e780	-0.022205114
45	0xbc8ee12a	-0.017441351
46	0xbc7119d9	-0.014715635
47	0xbd941e62	-0.072323576
48	0x3e1a3409	0.15058912
49	0x3cdb9148	0.026802674
50	0xbd135f54	-0.035979584
51	0xbd03e727	-0.032202866
52	0x3c8d979f	0.017284213
53	0xbcd8269a	-0.026385594
54	0x3d8f3245	0.0699201
55	0xbce35519	-0.027750539
56	0x3dc1c0b8	0.09460586
57	0x3d6c253a	0.05765269
58	0x3d314d3a	0.04328654
59	0xbdeeccd0	-0.11660159
60	0x3d8b7c16	0.06810777
61	0xbd3e772f	-0.04650038
62	0xbdfb6ea3	-0.12276962
63	0xbcfdf0e9	-0.030998664
64	0xbd3c4434	-0.04596348
65	0xbdb169b9	-0.08662743
66	0xbdaa471b	-0.083143435
67	0x3a8ed2f1	0.0010896606
68	0xbe7059a6	-0.23471698
69	0xbd49036e	-0.049075536
70	0x3e01470a	0.12624756
71	0xbbae492b	-0.005318781
72	0x3cc3428e	0.023835447
73	0x3dad8709	0.084730215
74	0x3e35db5e	0.17759463
75	0x3d505475	0.050861795
76	0x3e3c5172	0.18390444
77	0xbdd52868	-0.104080975
78	0xbd8c3459	-0.06845922
79	0x3c2730e1	0.010204525
80	0x3cf06d5e	0.029349025
81	0x3c8c35a9	0.01711543
82	0xbb8a797c	-0.004225908
83	0x3db5e905	0.088823356
84	0x3d74aba9	0.05973402
85	0x3cdac092	0.026703153
86	0x3dd18bb9	0.10231728
87	0x3bfb1488	0.0076623596
88	0xbd8d3eb3	-0.068967246
89	0xbc3a6184	-0.011375789
90	0x3d314582	0.04327918
91	0x3ab6cdc5	0.0013946822
92	0xbe190e1b	-0.14946787
93	0xbd883a50	-0.06651747
94	0x3d7208cd	0.059090424
95	0xbd9e8977	-0.07741063
96	0xbd3bbefc	-0.045836434
97	0x3e1dc7b7	0.15408216
98	0xbdc68a9a	-0.09694405
99	0x3b976ca5	0.0046211057
100	0x3a2c3755	0.00065695244
101	0xbcbefac4	-0.023312934
102	0xb947f975	-0.00019071049
103	0xbe0a535c	-0.13508362
104	0xbc1fef58	-0.009761654
105	0xbda3e1b4	-0.08002034
106	0xbde5599a	-0.11198731
107	0x3d56e7f6	0.05246731
108	0xbd0e5277	-0.034746613
109	0xbe0183b4	-0.12647897
110	0xbc696149	-0.014244386
111	0x3d65566a	0.055990614
112	0x3c263c4b	0.010146211
113	0x3dcfe160	0.10150409
114	0xbdee97dc	-0.116500586
115	0x3d370ba5	0.04468884
116	0xbc3901c6	-0.011291927
117	0x3ceae50a	0.028673667
118	0xbd630eda	-0.055434085
119	0x3db74076	0.08947842
120	0x3d3f0683	0.04663707
121	0xbd989aa3	-0.074513696
122	0x3d8f1a1d	0.069874026
123	0x3d963ce8	0.07335836
124	0xbd46fc22	-0.048580296
125	0x3d59e725	0.053198952
126	0x3e331230	0.17487407
127	0xbc9000fb	-0.017578593
128	0x3dc30f43	0.09524395
129	0x3c96e50c	0.018419765
130	0x3d167919	0.03673658
131	0xbdfe93fb	-0.12430569
132	0xbdab1670	-0.08353889
133	0x3d89824f	0.067143075
134	0x3bb16b4a	0.005414401
135	0xbcb49e95	-0.022048274
136	0x3cf8eb1a	0.030385543
137	0x3de445de	0.111461386
138	0x3d1a37db	0.037650924
139	0xbe0f68d3	-0.14004831
140	0xbdfad9dd	-0.122485854
141	0x3e73f5ad	0.23824187
142	0xbd831812	-0.064010754
143	0xbdc93c97	-0.0982601
144	0x3c90264f	0.017596392
145	0x3dad3c5c	0.08458778
146	0xbc20d6dc	-0.0098168515
147	0xbe18f5fd	-0.14937587
148	0xbdb72aef	-0.08943736
149	0x3e0fd4d1	0.14046027
150	0xbe86d944	-0.26337636
151	0x3d21f0bb	0.03953622
152	0x3e07f175	0.13275702
153	0x3e240628	0.16017973
154	0xbc1a0383	-0.009400251
155	0x3d2beb45	0.041972417
156	0xbc93e0f3	-0.0180516
157	0xbe4b168b	-0.19832818
158	0x3da398c9	0.07988126
159	0x3d35f5b0	0.04442376
160	0x3c8e21bb	0.017350068
161	0x3cdb954c	0.026804589
162	0xbdbedc59	-0.09319372
163	0xbc81f5c2	-0.015864257
164	0xbd159225	-0.036516327
165	0x3d387d3b	0.045041304
166	0xbe20dd63	-0.15709452
167	0x3dd792f9	0.1052608
168	0x3d7dd405	0.061969776
169	0xbe0861d7	-0.13318573
170	0x3de146c4	0.109998256
171	0xbe10eeae	-0.14153549
172	0xbdbcb69e	-0.09214519
173	0x3da8bb7b	0.08238884
174	0xbda17662	-0.07883908
175	0xbd92f6fb	-0.07176014
176	0xbe6ef515	-0.23335679
177	0x3d1fbb1d	0.038996805
178	0xbc7c263a	-0.015389973
179	0x3dd50d13	0.10402884
180	0x3d0995bb	0.03359006
181	0x3db560a4	0.08856323
182	0xbc50ebc8	-0.012751527
183	0x3e312cf3	0.17302303
184	0x3e318e6f	0.1733949
185	0x3d6fe655	0.05856927
186	0x3d0c3ce3	0.034237754
187	0x3df646f7	0.12025254
188	0xbd246aa8	-0.040140778
189	0xbe0fc8a3	-0.1404138
190	0xbd95cbb1	-0.07314242
191	0x3cc39ddc	0.023878984
192	0xbcc904ce	-0.024538424
193	0x3ccb9132	0.024849508
194	0x3d84b7bb	0.06480356
195	0xbc687776	-0.014188638
196	0xbcc834b5	-0.024439195
197	0x3c2b9256	0.010471901
198	0x3d5cd8c4	0.05391766
199	0x3d3422ad	0.043978382
200	0x3e3de815	0.18545564
201	0xbc283e97	-0.010268829
202	0x3d660955	0.056161243
203	0x3d17ff00	0.03710842
204	0x3d4ed39c	0.050494775
205	0xbd34e601	-0.04416466
206	0xbba636e1	-0.00507246
207	0x3d11d9e8	0.035608202
208	0xbdc4193d	-0.09575126
209	0xbdb4d474	-0.08829585
210	0xbc8eebea	-0.017446477
211	0xbd91cb89	-0.071188994
212	0xbc5946c5	-0.013261502
213	0x3dcc3b33	0.09972229
214	0x3d0a27b6	0.033729278
215	0x3db6d4af	0.08927285
216	0x3b9afe29	0.0047300053
217	0x3c0de79e	0.008661179
218	0xbdbb6ef1	-0.0915202
219	0xbd9da16a	-0.07696803
220	0xbd725954	-0.05916722
221	0xbe370294	-0.17872077
222	0xbd204f67	-0.039138224
223	0x3dbd7758	0.09251279
224	0x3d3f54d7	0.04671177
225	0x3d6866f5	0.056738812
226	0x3ce503e3	0.027955955
227	0xbcb73744	-0.02236522
228	0xbd58aee3	-0.05290116
229	0xbdc5dea0	-0.09661603
230	0xbd7cea48	-0.061746866
231	0xbda60b64	-0.08107641
232	0x3dd49813	0.10380568
233	0x3cacba47	0.021084918
234	0xbda17aa2	-0.078847185
235	0xbe4037bf	-0.18771265
236	0x3dd9e3a7	0.10639124
237	0xbe147373	-0.14497165
238	0xbdc28e50	-0.094998
239	0x3b18ca23	0.0023313842
240	0xbde93f2c	-0.11389002
241	0x3cabdd35	0.020979503
242	0x3d183c57	0.03716692
243	0x3c2df489	0.010617384
244	0xbd1c02b5	-0.03808852
245	0xbe6363a2	-0.22205976
246	0x3ac2dbd5	0.001486654
247	0x3d1f45a7	0.038884785
248	0xbdb3094d	-0.08742008
249	0x3b943dae	0.0045239544
250	0xbd9d312e	-0.07675396
251	0xbd23e956	-0.04001745
252	0xbd7ec32b	-0.062197845
253	0xbe1c05e2	-0.15236619
254	0xbe24a0d1	-0.16076972
255	0xbd3d5e10	-0.046232283

network_body._body_endoder.seq_layers.2.bias f4 [128]
0	0x00000000	0.0
1	0x00000000	0.0
2	0x00000000	0.0
3	0x00000000	0.0
4	0x00000000	0.0
5	0x00000000	0.0
6	0x00000000	0.0
7	0x00000000	0.0
8	0x00000000	0.0
9	0x00000000	0.0
10	0x00000000	0.0
11	0x00000000	0.0
12	0x00000000	0.0
13	0x00000000	0.0
14	0x00000000	0.0
15	0x00000000	0.0
16	0x00000000	0.0
17	0x00000000	0.0
18	0x00000000	0.0
19	0x00000000	0.0
20	0x00000000	0.0
21	0x00000000	0.0
22	0x00000000	0.0
23	0x00000000	0.0
24	0x00000000	0.0
25	0x00000000	0.0
26	0x00000000	0.0
27	0x00000000	0.0
28	0x00000000	0.0
29	0x00000000	0.0
30	0x00000000	0.0
31	0x00000000	0.0
32	0x00000000	0.0
33	0x00000000	0.0
34	0x00000000	0.0
35	0x00000000	0.0
36	0x00000000	0.0
37	0x00000000	0.0
38	0x00000000	0.0
39	0x00000000	0.0
40	0x00000000	0.0
41	0x00000000	0.0
42	0x00000000	0.0
43	0x00000000	0.0
44	0x00000000	0.0
45	0x00000000	0.0
46	0x00000000	0.0
47	0x00000000	0.0
48	0x00000000	0.0
49	0x00000000	0.0
50	0x00000000	0.0
51	0x00000000	0.0
52	0x00000000	0.0
53	0x00000000	0.0
54	0x00000000	0.0
55	0x00000000	0.0
56	0x00000000	0.0
57	0x00000000	0.0
58	0x00000000	0.0
59	0x00000000	0.0
60	0x00000000	0.0
61	0x00000000	0.0
62	0x00000000	0.0
63	0x00000000	0.0
64	0x00000000	0.0
65	0x00000000	0.0
66	0x00000000	0.0
67	0x00000000	0.0
68	0x00000000	0.0
69	0x00000000	0.0
70	0x00000000	0.0
71	0x00000000	0.0
72	0x00000000	0.0
73	0x00000000	0.0
74	0x00000000	0.0
75	0x00000000	0.0
76	0x00000000	0.0
77	0x00000000	0.0
78	0x00000000	0.0
79	0x00000000	0.0
80	0x00000000	0.0
81	0x00000000	0.0
82	0x00000000	0.0
83	0x00000000	0.0
84	0x00000000	0.0
85	0x00000000	0.0
86	0x00000000	0.0
87	0x00000000	0.0
88	0x00000000	0.0
89	0x00000000	0.0
90	0x00000000	0.0
91	0x00000000	0.0
92	0x00000000	0.0
93	0x00000000	0.0
94	0x00000000	0.0
95	0x00000000	0.0
96	0x00000000	0.0
97	0x00000000	0.0
98	0x00000000	0.0
99	0x00000000	0.0
100	0x00000000	0.0
101	0x00000000	0.0
102	0x00000000	0.0
103	0x00000000	0.0
104	0x00000000	0.0
105	0x00000000	0.0
106	0x00000000	0.0
107	0x00000000	0.0
108	0x00000000	0.0
109	0x00000000	0.0
110	0x00000000	0.0
111	0x00000000	0.0
112	0x00000000	0.0
113	0x00000000	0.0
114	0x00000000	0.0
115	0x00000000	0.0
116	0x00000000	0.0
117	0x00000000	0.0
118	0x00000000	0.0
119	0x00000000	0.0
120	0x00000000	0.0
121	0x00000000	0.0
122	0x00000000	0.0
123	0x00000000	0.0
124	0x00000000	0.0
125	0x00000000	0.0
126	0x00000000	0.0
127	0x00000000	0.0

action_model._continuous_distribution.log_sigma f4 [1, 2]
0	0x00000000	0.0
1	0x00000000	0.0

action_model._continuous_distribution.mu.weight f4 [2, 128]
0	0xbc56baca	-0.013106057
1	0x3ce8b9ab	0.028408846
2	0xbbb8063a	-0.0056159766
3	0xb92f8d2f	-0.00016741896
4	0x3c8e8eae	0.01740202
5	0xbcd3ef4a	-0.025870938
6	0x3c9ce3bc	0.019151561
7	0xbcc81a67	-0.024426652
8	0x3cc0c0f9	0.023529517
9	0x3c8c3c8c	0.017118715
10	0xbc2032d4	-0.009777743
11	0x3b0921ab	0.0020924609
12	0xbc6d4cc7	-0.014483637
13	0xbc283e2f	-0.010268732
14	0xbb106d4c	-0.0022037802
15	0xba0a788c	-0.0005282245
16	0xbb44213f	-0.0029927043
17	0xbc3efb83	-0.011656645
18	0xbc4c2752	-0.012460547
19	0xbc6a55bd	-0.014302668
20	0x3bb9c573	0.0056692897
21	0xbbf7634d	-0.0075496794
22	0x3c05a3f6	0.008156767
23	0xbc6ad677	-0.014333359
24	0xbca2a574	-0.019854285
25	0x3c314d24	0.010821614
26	0x3b865bf3	0.0041003167
27	0xbc5171f7	-0.012783519
28	0x3c167298	0.009182595
29	0x3af1d07d	0.0018448975
30	0x3cea49ff	0.028599737
31	0x3b608d8f	0.0034264063
32	0xbcca6ae1	-0.024709167
33	0x3c8c2def	0.017111747
34	0xb89abed3	-7.378836e-05
35	0xbceac1c8	-0.028656855
36	0x3c6b27bf	0.014352738
37	0x3b6efc77	0.0036466399
38	0x393c81ca	0.00017977427
39	0xba963140	-0.001145877
40	0x3c202b67	0.009775973
41	0xbd0de327	-0.034640457
42	0xbbd51720	-0.006503001
43	0x3cc9f931	0.024654957
44	0x3c5d65c0	0.013513029
45	0x3d02278b	0.031775992
46	0x3c8d035c	0.017213516
47	0x3c734725	0.014848505
48	0xbc5c3b17	-0.0134418225
49	0xbd6aba4f	-0.057306584
50	0x3c76a655	0.015054305
51	0xbd20c283	-0.039248
52	0x3c12a0f9	0.008949512
53	0xb970cc7a	-0.00022964357
54	0x3c0da237	0.008644632
55	0x3c38f5d6	0.011289081
56	0x3c2802a7	0.010254539
57	0x3b852d9e	0.004064276
58	0x3b288f44	0.0025720159
59	0xbc644d28	-0.013934411
60	0xbc7a453b	-0.015275295
61	0x3b7fef87	0.0039052682
62	0xbb6cdcff	-0.0036142466
63	0x3c0b1dd8	0.008491002
64	0x3ad56602	0.0016281011
65	0xbb344e15	-0.002751236
66	0xbc32241f	-0.01087287
67	0x3b9addc2	0.0047261426
68	0xb98c89b3	-0.00026805475
69	0x3c1d1218	0.009586833
70	0xbc30725b	-0.010769452
71	0x3c30ccd6	0.010791024
72	0xbd15a4f3	-0.03653426
73	0x3afe10e3	0.0019383695
74	0xbc5b9e1b	-0.0134043945
75	0x3c68d6d8	0.014211379
76	0x3c93061f	0.017947255
77	0x3c53308d	0.012889993
78	0xbce2ed82	-0.027701143
79	0xbc74b918	-0.014936708
80	0x3cc9d99d	0.024639899
81	0xbc8b78e8	-0.017025426
82	0xbc18c368	-0.009323932
83	0xbc855aa0	-0.016278565
84	0xbba3edd9	-0.005002719
85	0x3b191d96	0.0023363582
86	0xbacdf65b	-0.0015713678
87	0xbb791882	-0.0038008993
88	0xbcc239eb	-0.023709258
89	0x3c9176cd	0.017756844
90	0xba129a02	-0.0005592407
91	0xbc8a5fac	-0.016891323
92	0x3bf23b1f	0.0073923017
93	0xbc2585d1	-0.010102705
94	0x3d122912	0.0356837
95	0xbc2112ea	-0.00983117
96	0xbb24d6f0	-0.0025152527
97	0x3cdfa1e7	0.02729888
98	0xbaac46ff	-0.0013143717
99	0x3c9e84ee	0.019350495
100	0xbab7fe6d	-0.0014037617
101	0x3a936ac1	0.0011247025
102	0xbc33d8b5	-0.01097696
103	0x3b54b7f7	0.0032458284
104	0xbb974dca	-0.0046174275
105	0xbbdd7d55	-0.0067593255
106	0xbbb88e50	-0.0056321993
107	0x3c40fe02	0.01177931
108	0x3c160413	0.009156245
109	0x3b740983	0.0037237115
110	0xbba1fbef	-0.004943363
111	0x3ccaf473	0.024774766
112	0x3c7c3c68	0.015395261
113	0x3c8e61e8	0.01738067
114	0xbbde6acb	-0.006787633
115	0x3cff8503	0.031191355
116	0xbca9f531	-0.0207468
117	0xbcd28c92	-0.025701795
118	0x3c632dab	0.013865869
119	0xbc8bed0f	-0.017080812
120	0xbcfa58a3	-0.030559843
121	0xbce9dcc3	-0.02854765
122	0xbbbd7f43	-0.005782993
123	0x3c46e0a4	0.012138519
124	0xbcef7962	-0.029232685
125	0xbd5893b8	-0.05287525
126	0xb8fc9fa2	-0.0001204603
127	0x3c881dd7	0.016615791
128	0xbb2a9a9d	-0.0026032098
129	0x3bc4e60e	0.00600887
130	0x3c65036a	0.013977865
131	0x3d100d42	0.035168894
132	0x3bf4cff3	0.0074710785
133	0xbc1eb737	-0.0096872365
134	0xbb60f077	-0.0034323016
135	0xbc5d5daa	-0.013511101
136	0xbbbcb8d5	-0.0057593384
137	0x3c8a20ac	0.016861282
138	0x3c8b3530	0.016993135
139	0x3d37d1cb	0.04487781
140	0xbb6b8ce7	-0.0035942139
141	0x3bd1d91d	0.0064040557
142	0x3c1f1563	0.009709689
143	0x3cecd737	0.028911216
144	0xbbacf5b1	-0.005278312
145	0x3cf8157a	0.030283678
146	0x3b7449d7	0.0037275457
147	0x3aedbb32	0.0018137454
148	0x3c15d22b	0.009144346
149	0xbcddb795	-0.027065078
150	0x3c0952ee	0.008381588
151	0x3c9ba15c	0.01899784
152	0xbb1cc995	-0.0023923863
153	0xbc23deaf	-0.010001822
154	0xbc0f031f	-0.0087287715
155	0x3ac7f4f7	0.00152555
156	0xbcb1a2bf	-0.021684049
157	0x3c8435ca	0.01613893
158	0xbd12826f	-0.035768922
159	0x3b4a74b4	0.0030892314
160	0xbc20d6cd	-0.0098168375
161	0xba382a9f	-0.0007025394
162	0x3bed8cd8	0.007249456
163	0x3bb03907	0.005377892
164	0xbd37eba0	-0.044902444
165	0xbc13772d	-0.009000582
166	0xbc5ce4bd	-0.01348227
167	0xbcef7e7b	-0.029235115
168	0xbc141da2	-0.009040268
169	0x3c06d2ee	0.0082290005
170	0x3cca8bfc	0.024724953
171	0xbbbae35e	-0.005703374
172	0x3c18c37b	0.00932395
173	0xbc902250	-0.017594486
174	0x3d09dd19	0.03365812
175	0x3b6a0e4a	0.0035714083
176	0x3c7f9c6b	0.015601258
177	0xbcbe1ef0	-0.023208112
178	0x3c5d5ed2	0.013511376
179	0x3c8e8958	0.017399475
180	0xbc9c4016	-0.019073527
181	0x3c2324d2	0.009957509
182	0x3cb4f56f	0.022089688
183	0x3c3220e6	0.010872101
184	0x3c063ec1	0.008193673
185	0x3cfa50e5	0.030556152
186	0xbc99fee4	-0.0187983
187	0xbc64005b	-0.0139161
188	0x3ca7a8c4	0.020466216
189	0xbb2a3629	-0.0025972223
190	0xbc8afaa9	-0.016965227
191	0x3ab29151	0.001362363
192	0x3bf34e8a	0.007425134
193	0x3b2cf09b	0.002638853
194	0xbc88eb33	-0.016713714
195	0xbbfc4663	-0.0076988204
196	0xbba0ab73	-0.004903251
197	0x3c1fe130	0.009758279
198	0xbc82368a	-0.015895147
199	0xbc862bd6	-0.016378324
200	0xbc0dc5df	-0.008653133
201	0xbd4d0a93	-0.050058912
202	0x3bc40344	0.0059818346
203	0x3c10bda9	0.008834281
204	0x3c20f122	0.009823116
205	0xb7d830cd	-2.5771931e-05
206	0xbc8c2655	-0.017108122
207	0x3b26ea01	0.0025469067
208	0x3bd642eb	0.006538739
209	0x3d02fcc4	0.031979337
210	0xbbaeef4b	-0.0053385845
211	0x3ca5530a	0.020181198
212	0x3cf1fd97	0.029539866
213	0x3b7732ad	0.0037719414
214	0x3c23492b	0.009966175
215	0xbc8a1085	-0.01685358
216	0x3c8219ff	0.015881537
217	0x3b8fbd41	0.0043865745
218	0x3c84bf7f	0.016204594
219	0x3c82a440	0.015947461
220	0xbccb4b8b	-0.024816295
221	0x3c473164	0.012157772
222	0x3cd2c718	0.0257297
223	0x3d398fbd	0.045303095
224	0x3a87808f	0.0010337996
225	0x3cd3f388	0.02587296
226	0x3ca086a6	0.019595455
227	0xbc028e57	-0.007968507
228	0xbabbc597	-0.0014325854
229	0xbbb28459	-0.005447906
230	0xbc76a645	-0.01505429
231	0x3c7c3f15	0.015395899
232	0xbb5ddb9d	-0.0033852824
233	0xbb80316f	-0.003912143
234	0xbb2ca6bf	-0.0026344506
235	0xbc9527bd	-0.018207425
236	0x3c8ba199	0.01704483
237	0xbba644eb	-0.0050741336
238	0x3c399f98	0.011329554
239	0x3b92e5a6	0.0044829426
240	0x3b536068	0.0032253508
241	0xbcd009db	-0.025395324
242	0x3bb65b89	0.005565111
243	0xbb059f66	-0.0020389198
244	0x3c322b69	0.010874608
245	0xbbb20c05	-0.0054335617
246	0xbcdc522d	-0.026894653
247	0x3b7e6a5b	0.0038820717
248	0xbc84b104	-0.016197689
249	0xbbb1a97a	-0.0054218145
250	0xba6d4c13	-0.00090521685
251	0x3a514f77	0.00079845585
252	0x3cdb3a98	0.026761338
253	0xbc1d36a3	-0.009595546
254	0x3b00b073	0.0019636422
255	0xbcb532e8	-0.022119

action_model._continuous_distribution.mu.bias f4 [2]
0	0x00000000	0.0
1	0x00000000	0.0

action_model._discrete_distribution.branches.0.weight f4 [4, 128]
0	0x3c2fb38a	0.010723958
1	0xbbd83b0f	-0.006598837
2	0xbbfcb1bb	-0.007711617
3	0x3b85944f	0.0040765177
4	0x3b3279fb	0.002723335
5	0xbc3fecd7	-0.011714182
6	0x3ba49ba0	0.0050234348
7	0x3c4c2e60	0.012462229
8	0xbc6bcef8	-0.014392607
9	0x3b261a2a	0.0025345185
10	0x3c767175	0.015041699
11	0xbc37e622	-0.0112243015
12	0xbc5e01bf	-0.013550221
13	0x3a39e536	0.0007091345
14	0x3b1dde09	0.0024088642
15	0x3c048f80	0.008090854
16	0xbbf74693	-0.007546255
17	0x3ba4b174	0.005026037
18	0x3adafda3	0.001670767
19	0x3bdb7ca2	0.006698207
20	0xbc31d9a7	-0.010855115
21	0xbbfafd37	-0.00765958
22	0xbc6336f5	-0.013868083
23	0x3b046d30	0.0020206682
24	0xbb85b182	-0.0040799985
25	0xbb797b2f	-0.0038067808
26	0x3c275ee0	0.010215491
27	0xbc92e3ea	-0.017930944
28	0xbbada714	-0.0052994583
29	0xbb3590b0	-0.0027704649
30	0x3c151ba7	0.009100831
31	0x3c2c5ed9	0.01052066
32	0xbbef3665	-0.0073001855
33	0x3c0f37bf	0.008741318
34	0xbc15cb55	-0.009142716
35	0x3baf2dc3	0.0053460314
36	0xbb8138d5	-0.0039435425
37	0xbc8708b0	-0.016483635
38	0x3c105510	0.008809343
39	0x3b49f266	0.0030814647
40	0xbcd922d8	-0.026505873
41	0x3c030a5e	0.007998077
42	0x3be27dda	0.0069119753
43	0x3b8945cf	0.00418923
44	0x3a84232b	0.0010081282
45	0xbab00087	-0.0013427892
46	0xbc9fb45b	-0.01949518
47	0x3b54fcf0	0.0032499395
48	0xbbb04af1	-0.0053800275
49	0xbac3f7a2	-0.001495112
50	0xbc4bbd63	-0.01243529
51	0xbba752f8	-0.005106326
52	0xbc106b0b	-0.0088145835
53	0x3c3c027b	0.011475201
54	0x3b2c12d0	0.002625633
55	0xbac35854	-0.0014903643
56	0xbb9dc46b	-0.0048146746
57	0x3c2e712c	0.010647099
58	0x3c024c01	0.007952691
59	0xbc22ed6f	-0.009944304
60	0xbbc770de	-0.006086453
61	0xbbc1a65f	-0.0059097256
62	0x3c159dcb	0.009131859
63	0x3b30d9cf	0.0026985293
64	0x3b169297	0.0022975558
65	0x3beb27dd	0.007176383
66	0xbc638185	-0.01388586
67	0x3a0941c1	0.00052359333
68	0x3ba7bae9	0.005118717
69	0x3c1644ed	0.009171707
70	0xbbc1999b	-0.005908204
71	0x3bc218f3	0.0059233843
72	0x3c74bf30	0.014938161
73	0xbc32a267	-0.010902978
74	0xba33b87f	-0.00068558
75	0x3c7b819f	0.015350728
76	0x3ac20e0c	0.0014805212
77	0x3bd83fca	0.006599401
78	0xbc048bf3	-0.008090007
79	0xbb8331fa	-0.0040037604
80	0xbbc95290	-0.0061438754
81	0xbc8dd4eb	-0.017313441
82	0x3bd4f9d3	0.006499508
83	0x3c27f66a	0.010251621
84	0xbc77094f	-0.015077903
85	0x3c990264	0.018677898
86	0xbb05b4db	-0.0020401988
87	0xbc753212	-0.014965551
88	0xbbbc0d86	-0.005738917
89	0xbbd882fd	-0.006607412
90	0xbca601c8	-0.020264521
91	0xbc333112	-0.010936992
92	0x3c264168	0.01014743
93	0x3b8d7cc3	0.0043178513
94	0x3c5b96eb	0.013402681
95	0x3c3c7053	0.01150139
96	0x3bfb0165	0.0076600784
97	0x3c32f185	0.010921841
98	0x3bd05b9f	0.0063585783
99	0x3b0fbb5b	0.002193174
100	0x3b2c2ae8	0.0026270691
101	0x3a38023c	0.0007019376
102	0xbc76aedf	-0.015056341
103	0xbc0a5210	-0.008442417
104	0x3c216356	0.009850344
105	0xbc9f8910	-0.019474536
106	0x3aef873b	0.0018274555
107	0x3ba71cc8	0.0050998665
108	0xbc8f4166	-0.01748724
109	0xb9f6030a	-0.0004692304
110	0xbc3a6ff7	-0.011379234
111	0xbbaf8d93	-0.005357453
112	0xbbaa90c3	-0.005205245
113	0x3bd192ef	0.0063956897
114	0x3c26a3d8	0.010170899
115	0xbbcab854	-0.0061865244
116	0xbc62f98d	-0.013853443
117	0xbc248977	-0.01004254
118	0xbbc2bb38	-0.0059427284
119	0x3a1bd257	0.0005944124
120	0xbc41cf1f	-0.011829167
121	0xbbbedbae	-0.0058245277
122	0xbc6d1892	-0.01447119
123	0xbc8a805a	-0.016906906
124	0xbb3a8789	-0.0028462133
125	0xbc0e07d3	-0.008668858
126	0xb9b169d8	-0.0003383893
127	0xbb7ce8ba	-0.0038590864
128	0xbba4bfef	-0.005027763
129	0x3c1516e0	0.009099692
130	0x3bd99e18	0.0066411607
131	0xbaf4cb83	-0.0018676374
132	0x3bc463cf	0.0059933434
133	0x3bd337c0	0.006445855
134	0xbc9e5384	-0.019326933
135	0xbc29c4ca	-0.01036186
136	0xbbdd107a	-0.006746349
137	0x3b95cc09	0.004571442
138	0x3c665763	0.014058921
139	0x39b70589	0.00034908604
140	0xbaa91b8f	-0.001290189
141	0x391f9e8f	0.0001522249
142	0xbab0a553	-0.0013477005
143	0xbb7a22a5	-0.0038167622
144	0xbc4e9c18	-0.012610458
145	0x3ca092f7	0.019601328
146	0xbc1f95a7	-0.00974027
147	0xbc78353b	-0.01514941
148	0xbb199951	-0.002343733
149	0x3b3fdeef	0.0029277166
150	0x3b0270c6	0.0019903644
151	0xbba2edd3	-0.0049721985
152	0xbc005cba	-0.007834608
153	0x3c478e71	0.012179957
154	0x3973fe33	0.00023268982
155	0xbbe2f2fb	-0.006925938
156	0x3bbbeab6	0.005734767
157	0xbbdb4be3	-0.006692396
158	0x3a404415	0.0007334364
159	0xbb06e6a2	-0.0020584245
160	0x3ac7b62e	0.0015236789
161	0x3b723ad8	0.0036961343
162	0x3c11eeec	0.008907061
163	0x3ba65ed3	0.005077222
164	0xbc2dd136	-0.010608962
165	0xbc18905d	-0.009311763
166	0xbb41b131	-0.0029555077
167	0xbb6e7aba	-0.0036389069
168	0xbb57d388	-0.003293248
169	0xbb798fd0	-0.0038080104
170	0x3c3b5cab	0.011435668
171	0x3c939233	0.01801405
172	0x3c092ae8	0.008372046
173	0x3c021ec5	0.007941906
174	0xbb86f1aa	-0.004118164
175	0xba4fd072	-0.0007927484
176	0x3bbd20e7	0.0057717445
177	0xb9bbae26	-0.0003579717
178	0x39de02a8	0.0004234512
179	0x3b5bfbb5	0.0033566777
180	0xbc247b53	-0.010039168
181	0x39798995	0.00023797744
182	0xbca1acd7	-0.019735737
183	0x3c0b3a5d	0.008497802
184	0x3b2e35e2	0.002658241
185	0x38c4a62d	9.376961e-05
186	0xbc0c1058	-0.0085488185
187	0xbbad4c17	-0.0052886116
188	0xbc064da3	-0.008197221
189	0x3b63aa38	0.003473891
190	0xbc10445d	-0.008805362
191	0x3c2aeba5	0.010432159
192	0x3b62b1d7	0.0034590864
193	0x3c0693ff	0.008213996
194	0xbb0b65d7	-0.0021270418
195	0x3c3b962d	0.011449379
196	0x3b03439a	0.0020029307
197	0xbbd5abcb	-0.0065207235
198	0xbc14d8ca	-0.00908489
199	0xbc00107c	-0.00781643
200	0x3b26626b	0.0025388252
201	0x3b2d21d3	0.0026417866
202	0xbc0e4dc1	-0.00868553
203	0xbb9b6c9c	-0.004743172
204	0x3bc7e78b	0.0061006
205	0xbb4a0459	-0.0030825345
206	0x3c02403f	0.007949888
207	0x3b8d2c22	0.0043082396
208	0x3b2c8075	0.0026321684
209	0xba7190ef	-0.0009215017
210	0xbc3c3617	-0.011487505
211	0xbb9cb4b3	-0.004782283
212	0xbc0051c5	-0.007831995
213	0x3b91a498	0.00444467
214	0xbc0c85c0	-0.00857681
215	0xbafa188a	-0.00190808
216	0x3bcd05a3	0.0062567755
217	0xbc56260a	-0.013070593
218	0xb9669d73	-0.00021993164
219	0xbc914173	-0.017731404
220	0x3862163f	5.3903317e-05
221	0x3bd220cd	0.0064126016
222	0xb8804efd	-6.118228e-05
223	0xbc8d21f6	-0.017228108
224	0xbb4a258b	-0.0030845131
225	0xbc1ec0fc	-0.009689566
226	0x3be880d7	0.007095437
227	0xbb820f85	-0.003969135
228	0x3b62952b	0.0034573774
229	0xbc86027b	-0.016358605
230	0xb991c34b	-0.0002780206
231	0x3a78493f	0.0009471364
232	0x3c850591	0.016238006
233	0x3bdf8783	0.006821574
234	0xba9bdbb0	-0.0011891034
235	0x3b17a1d5	0.002313723
236	0xbab5e450	-0.0013877247
237	0x3b631805	0.0034651768
238	0xbb096923	-0.0020967207
239	0xbbee261b	-0.007267726
240	0x3bfa2827	0.007634181
241	0xbb366f23	-0.0027837239
242	0x3c085adb	0.008322443
243	0x3c108ddb	0.0088228835
244	0x3c762287	0.01502288
245	0xbb31819e	-0.0027085315
246	0xbab7331f	-0.0013977027
247	0xbcad14e5	-0.021128127
248	0xbb82f32b	-0.003996273
249	0xb898138b	-7.251565e-05
250	0xbc0f2656	-0.008737167
251	0x3aceb2d5	0.0015769849
252	0x3be21268	0.006899167
253	0xbc4ccc59	-0.012499892
254	0xbb67d6cd	-0.0035375834
255	0xbab350a8	-0.0013680654

action_model._discrete_distribution.branches.0.bias f4 [4]
0	0x00000000	0.0
1	0x00000000	0.0
2	0x00000000	0.0
3	0x00000000	0.0

network_body._body_endoder.seq_layers.0.weight f4 [128, 28]
0	0x3d1003e0	0.035159945
1	0x3cf1a823	0.02949912
2	0x3dae1cac	0.085015625
3	0x3ee0722f	0.43837115
4	0x3e96e099	0.2946823
5	0xbe06976f	-0.13143705
6	0x3e0a7a11	0.13523127
7	0x3e2333a8	0.15937674
8	0x3e91535d	0.28383914
9	0x3e3af2cb	0.1825668
10	0x3e052233	0.13001327
11	0xbe0d85fa	-0.13820639
12	0xbde23784	-0.11045745
13	0xbe85635b	-0.26052365
14	0xbd93bfda	-0.07214327
15	0x3df7168b	0.120648466
16	0xbd0afaf1	-0.033930723
17	0x3d8fba55	0.07017962
18	0x3dd2efdc	0.10299656
19	0x3e449ff9	0.1920165
20	0xbe26d220	-0.16291094
21	0xbea73380	-0.3265648
22	0x3e9b849a	0.30374604
23	0xbe6fbed4	-0.23412639
24	0x3d4e3dab	0.05035178
25	0x3d0440a4	0.03228821
26	0xbec390a3	-0.38196287
27	0x3d7cd68b	0.06172804
28	0xbe10a206	-0.14124307
29	0xbc296bf6	-0.010340681
30	0x3e9ec5e9	0.31010368
31	0x3cce944b	0.025217196
32	0xbe49141f	-0.19636582
33	0xbdde24dc	-0.10846874
34	0x3dab4c8f	0.08364212
35	0x3ed36340	0.4128666
36	0xbe326ee5	-0.17425115
37	0xbe06ac89	-0.13151754
38	0xbe8864b2	-0.26639324
39	0x3d863708	0.06553465
40	0x3e33fafc	0.17576212
41	0x3eaa67ac	0.3328222
42	0x3d7327df	0.059364196
43	0xbe3682e1	-0.17823364
44	0xbc41f1d0	-0.011837438
45	0x3edc2b05	0.4300157
46	0xbe5a581d	-0.21322675
47	0xbda866b9	-0.08222718
48	0xbd985ee1	-0.07439972
49	0x3c405a38	0.01174026
50	0x3da20ee7	0.07912999
51	0x3de445ee	0.111461505
52	0x3d2b9f23	0.04189981
53	0xbdf4dcf1	-0.11956204
54	0xbe79b2f5	-0.24384673
55	0x3ccdb63a	0.025111306
56	0x3b11f725	0.0022272554
57	0x3d6263b8	0.05527088
58	0xbd1da604	-0.038488403
59	0xbccf4cb0	-0.025305122
60	0x3e6cda5d	0.23130174
61	0x3e3b4ddd	0.18291421
62	0xbcda79b6	-0.026669364
63	0xbe2caf21	-0.16863681
64	0x3d44ebb7	0.048076358
65	0xbe4eee96	-0.20208201
66	0xbe91e820	-0.2849741
67	0x3e47fd89	0.1953031
68	0x3ea6ad6a	0.3255418
69	0x3da649bd	0.08119533
70	0xbe994166	-0.29932708
71	0xbd9d298d	-0.07673941
72	0xbe7810e9	-0.242252
73	0xbe0fcee1	-0.14043762
74	0xbe6e67fc	-0.23281854
75	0xbd722898	-0.059120744
76	0x3b7fbf85	0.0039024067
77	0x3e4cc6a3	0.19997649
78	0xbcf7ba29	-0.030240135
79	0x3d42d0b0	0.0475623
80	0x3d1e80ac	0.03869693
81	0xbd7877f4	-0.06066127
82	0xbd4753d2	-0.04866392
83	0xbec0e117	-0.3767173
84	0x3e5ed769	0.2176186
85	0xbd83effb	-0.06442257
86	0x3e6e5851	0.23275878
87	0x3daf14c5	0.08548883
88	0xbd8d6aea	-0.06905158
89	0x3e433519	0.19063224
90	0xbdf1f24f	-0.11813795
91	0xbd1fa671	-0.03897709
92	0x3d79add9	0.06095681
93	0x3b27f4ce	0.0025628093
94	0x3d92de57	0.07171314
95	0x3df0eef7	0.11764329
96	0xbd500908	-0.050789863
97	0x3d165f62	0.036712058
98	0xbee55b5b	-0.4479626
99	0x3df20c99	0.11818809
100	0x3dd438e7	0.10362416
101	0x3ac54636	0.0015050832
102	0x3c97c425	0.018526146
103	0x3db7963c	0.08964202
104	0xbe31d88c	-0.17367762
105	0xbe6b3e24	-0.22972924
106	0xbcd168f5	-0.025562743
107	0xbd046f60	-0.032332778
108	0xbd056ed2	-0.03257639
109	0xbd8d11da	-0.068881705
110	0xbe9ab7fc	-0.30218494
111	0xbe269d53	-0.16270952
112	0x3e6c6ab6	0.23087582
113	0x3e8f78b1	0.28021768
114	0xbe695333	-0.22785644
115	0x3ce134cf	0.027491001
116	0xbdbd9d0a	-0.092584684
117	0x3db605f8	0.08887857
118	0xbe955db9	-0.29173067
119	0xbddc7b6e	-0.1076573
120	0xbeb8d80e	-0.36102337
121	0xbd93d1c3	-0.07217743
122	0x3d64470c	0.055731818
123	0x3e950356	0.29104108
124	0xbdf7fa3d	-0.12108276
125	0x3ef5ff47	0.48046324
126	0xbd80f6e6	-0.06297092
127	0xbe26f003	-0.16302495
128	0xbe8b03fe	-0.27151483
129	0xbe89fa3d	-0.2694873
130	0xbe6116a5	-0.21981294
131	0x3e1f15b1	0.15535618
132	0xbe12695b	-0.14298002
133	0xbeddf13e	-0.43348116
134	0x3e396d02	0.1810799
135	0xbe25102c	-0.1611945
136	0x3cb8bc5e	0.022550758
137	0x3d2dc65c	0.0424255
138	0xbe61a9af	-0.22037385
139	0x3e21c8f5	0.15799315
140	0xbea7db8d	-0.3278469
141	0xbdfadaae	-0.12248741
142	0x3e738366	0.23780593
143	0xbc1bcd9e	-0.009509472
144	0x3e497f92	0.1967757
145	0xbe4a16a4	-0.19735199
146	0xbe81dfb9	-0.25366
147	0x3de4d112	0.111726895
148	0xbeb28a79	-0.3487127
149	0xbe8f0eee	-0.27941078
150	0x3e3ce34a	0.18446079
151	0x3d50f690	0.05101639
152	0x3a27ea8c	0.00064054946
153	0x3c11a3fc	0.008889195
154	0x3de3198b	0.11088856
155	0x3e164045	0.14672954
156	0xbe6aa2b0	-0.22913623
157	0xbe342d04	-0.17595297
158	0x3e0850c6	0.13312063
159	0xbce382c1	-0.02777231
160	0x3e0414de	0.12898585
161	0x3e32e6fe	0.17470929
162	0xbe806634	-0.25077975
163	0xbe49e334	-0.19715577
164	0xbc9a8538	-0.018862352
165	0x3dea6f45	0.11447004
166	0x3ddd0d88	0.107935965
167	0x3f0640e0	0.5244274
168	0x3d8b54d4	0.06803289
169	0x3e2c0120	0.16797304
170	0x3e72b3e7	0.2370144
171	0xbc851c18	-0.016248748
172	0xbe5825cc	-0.21108168
173	0xbeb2f444	-0.34951985
174	0xbc50ad8f	-0.012736692
175	0x3db060db	0.08612224
176	0x3e2c9db9	0.16857041
177	0x3e976317	0.29567787
178	0xbc1398ce	-0.009008599
179	0x3cec75f0	0.02886483
180	0xbe0ce7d0	-0.13760304
181	0x3e53ac0c	0.206711
182	0x3dbe56c5	0.09293894
183	0xbd05651e	-0.032567136
184	0xbe8d9040	-0.27649117
185	0x3db60764	0.088881284
186	0x3e01b0b5	0.12665065
187	0xbea46bc0	-0.32113457
188	0xbe040a54	-0.12894565
189	0xbe4c7d70	-0.19969726
190	0x3db3137b	0.0874395
191	0x3e3ef853	0.18649416
192	0x3cb58c6b	0.022161683
193	0x3ce74eb5	0.028235773
194	0x3edc867b	0.4307135
195	0x3e1bab75	0.15202124
196	0x3e622771	0.22085358
197	0x3c0c9038	0.008579306
198	0x3b62307e	0.0034513767
199	0x3eb1e4c7	0.34744856
200	0xbd968f93	-0.07351603
201	0x3ccef7ed	0.025264705
202	0x3e4b1a8d	0.19834347
203	0x3e17a422	0.14808705
204	0x3e4d919f	0.20075081
205	0x3e90b9e9	0.28266838
206	0x3e54d4df	0.20784329
207	0xbd0c0930	-0.03418845
208	0x3db8a52d	0.0901588
209	0x3e35886c	0.17727822
210	0x3e62f844	0.22165018
211	0x3e1f0079	0.15527524
212	0xbef81b7a	-0.48458463
213	0x3de4774a	0.11155565
214	0xbe6ecd14	-0.23320419
215	0x3d6f3463	0.05839957
216	0x3ddfb2ca	0.10922773
217	0x3d6705b5	0.056401927
218	0xbdb8c1aa	-0.090213135
219	0x3d1d9d04	0.03847982
220	0x3e1f9ed6	0.15587935
221	0x3b93978a	0.004504149
222	0x3ba49a69	0.00502329
223	0xbd1845a1	-0.03717578
224	0x3e208f0d	0.1567957
225	0xbda89fda	-0.08233614
226	0x3e65d0f0	0.22442985
227	0xbeaa25e2	-0.33232027
228	0x3da9f3ed	0.08298478
229	0x3e762c6a	0.2404038
230	0x3e403e02	0.18773654
231	0xbcbc912f	-0.023018448
232	0xbe97e323	-0.2966548
233	0x3e5c6a99	0.21525039
234	0xbe8cfbe2	-0.2753592
235	0xbe3c8506	-0.1841012
236	0x3c217453	0.009854394
237	0x3eb28a4c	0.34871137
238	0x3e2a2eb4	0.16619378
239	0xbeb52bc5	-0.35384956
240	0xbef243f1	-0.4731746
241	0xbe948883	-0.290104
242	0xbe25b6a8	-0.16182959
243	0x3e1a1804	0.15048224
244	0xbf1228f2	-0.5709373
245	0xbe620712	-0.2207301
246	0x3e9935a6	0.29923743
247	0x3e449948	0.19199097
248	0x3dd76bbe	0.10518597
249	0xbea3451d	-0.31888667
250	0xbe8446df	-0.2583532
251	0x3a033458	0.0005005053
252	0x3e97ec40	0.29672432
253	0x3e226729	0.15859665
254	0xbc1ef590	-0.009702101
255	0xbcfda895	-0.030964175

network_body._body_endoder.seq_layers.0.bias f4 [128]
0	0x00000000	0.0
1	0x00000000	0.0
2	0x00000000	0.0
3	0x00000000	0.0
4	0x00000000	0.0
5	0x00000000	0.0
6	0x00000000	0.0
7	0x00000000	0.0
8	0x00000000	0.0
9	0x00000000	0.0
10	0x00000000	0.0
11	0x00000000	0.0
12	0x00000000	0.0
13	0x00000000	0.0
14	0x00000000	0.0
15	0x00000000	0.0
16	0x00000000	0.0
17	0x00000000	0.0
18	0x00000000	0.0
19	0x00000000	0.0
20	0x00000000	0.0
21	0x00000000	0.0
22	0x00000000	0.0
23	0x00000000	0.0
24	0x00000000	0.0
25	0x00000000	0.0
26	0x00000000	0.0
27	0x00000000	0.0
28	0x00000000	0.0
29	0x00000000	0.0
30	0x00000000	0.0
31	0x00000000	0.0
32	0x00000000	0.0
33	0x00000000	0.0
34	0x00000000	0.0
35	0x00000000	0.0
36	0x00000000	0.0
37	0x00000000	0.0
38	0x00000000	0.0
39	0x00000000	0.0
40	0x00000000	0.0
41	0x00000000	0.0
42	0x00000000	0.0
43	0x00000000	0.0
44	0x00000000	0.0
45	0x00000000	0.0
46	0x00000000	0.0
47	0x00000000	0.0
48	0x00000000	0.0
49	0x00000000	0.0
50	0x00000000	0.0
51	0x00000000	0.0
52	0x00000000	0.0
53	0x00000000	0.0
54	0x00000000	0.0
55	0x00000000	0.0
56	0x00000000	0.0
57	0x00000000	0.0
58	0x00000000	0.0
59	0x00000000	0.0
60	0x00000000	0.0
61	0x00000000	0.0
62	0x00000000	0.0
63	0x00000000	0.0
64	0x00000000	0.0
65	0x00000000	0.0
66	0x00000000	0.0
67	0x00000000	0.0
68	0x00000000	0.0
69	0x00000000	0.0
70	0x00000000	0.0
71	0x00000000	0.0
72	0x00000000	0.0
73	0x00000000	0.0
74	0x00000000	0.0
75	0x00000000	0.0
76	0x00000000	0.0
77	0x00000000	0.0
78	0x00000000	0.0
79	0x00000000	0.0
80	0x00000000	0.0
81	0x00000000	0.0
82	0x00000000	0.0
83	0x00000000	0.0
84	0x00000000	0.0
85	0x00000000	0.0
86	0x00000000	0.0
87	0x00000000	0.0
88	0x00000000	0.0
89	0x00000000	0.0
90	0x00000000	0.0
91	0x00000000	0.0
92	0x00000000	0.0
93	0x00000000	0.0
94	0x00000000	0.0
95	0x00000000	0.0
96	0x00000000	0.0
97	0x00000000	0.0
98	0x00000000	0.0
99	0x00000000	0.0
100	0x00000000	0.0
101	0x00000000	0.0
102	0x00000000	0.0
103	0x00000000	0.0
104	0x00000000	0.0
105	0x00000000	0.0
106	0x00000000	0.0
107	0x00000000	0.0
108	0x00000000	0.0
109	0x00000000	0.0
110	0x00000000	0.0
111	0x00000000	0.0
112	0x00000000	0.0
113	0x00000000	0.0
114	0x00000000	0.0
115	0x00000000	0.0
116	0x00000000	0.0
117	0x00000000	0.0
118	0x00000000	0.0
119	0x00000000	0.0
120	0x00000000	0.0
121	0x00000000	0.0
122	0x00000000	0.0
123	0x00000000	0.0
124	0x00000000	0.0
125	0x00000000	0.0
126	0x00000000	0.0
127	0x00000000	0.0

network_body._body_endoder.seq_layers.2.weight f4 [128, 128]
0	0x3e2098b8	0.15683258
1	0x3e1b6003	0.15173344
2	0x3d8c7252	0.06857742
3	0xbd64952b	-0.05580632
4	0xbd1b5512	-0.037922926
5	0x3df41540	0.119181156
6	0xbde58d05	-0.11208538
7	0xbcded34b	-0.027200362
8	0xbdb5ac37	-0.08870738
9	0x3df94ba1	0.12172628
10	0xbd16bf3a	-0.03680346
11	0x3afe3903	0.0019395653
12	0x3e1456a8	0.14486182
13	0xbcc587b1	-0.024112554
14	0xbd5ed0a5	-0.054398198
15	0xbd5c4a2a	-0.053781666
16	0xbd6d199a	-0.057885744
17	0xbc54de17	-0.0129924035
18	0x3e072481	0.13197519
19	0x3ca87d33	0.020567512
20	0x3dab3f77	0.08361714
21	0xbd9b8785	-0.07594208
22	0xbce36424	-0.027757712
23	0xbe3aefc1	-0.18255521
24	0xbd14e75c	-0.036353454
25	0xbd5a49ae	-0.053292923
26	0xbd552353	-0.05203564
27	0x3deb3faa	0.11486752
28	0xbdfcecb5	-0.12349836
29	0x3d8a6d8c	0.06759176
30	0x3dfa318b	0.12216481
31	0x3d940da9	0.07229168
32	0x3d99f0e9	0.07516653
33	0xbd14f775	-0.036368806
34	0x3d834131	0.06408919
35	0x3d1f5f8f	0.03890949
36	0xbd767961	-0.06017435
37	0xbd8b3a19	-0.067981906
38	0x3e10103b	0.14068691
39	0xbe413c21	-0.18870594
40	0xbe181a82	-0.14853862
41	0xbdca0ef1	-0.09866131
42	0xbcb3b903	-0.021938806
43	0xbe715ec2	-0.23571303
44	0xbe044c09	-0.1291963
45	0x3d57cddf	0.05268657
46	0x3bd75ec3	0.006572576
47	0xbd597eb7	-0.05309936
48	0x3dfa3be2	0.12218453
49	0x3dea09d2	0.11427654
50	0xbd9dd84f	-0.07707273
51	0x3d55f9f1	0.052240316
52	0xbd09269e	-0.033484094
53	0x3e28af0f	0.1647303
54	0xbd5fc8ca	-0.054634847
55	0x3c6da0ff	0.0145037165
56	0xbdfbf93b	-0.12303396
57	0x3d56b7db	0.052421432
58	0x3e12f833	0.14352493
59	0x3decf60a	0.11570366
60	0x3ddc554d	0.10758457
61	0xbd51ed98	-0.051251978
62	0x3d308830	0.04309863
63	0x3d587d95	0.05285414
64	0x3d911cdb	0.07085582
65	0xbd3c7fc7	-0.046020295
66	0x3d5308f5	0.051522214
67	0xbd8934f0	-0.0669955
68	0xbde63b58	-0.11241788
69	0x3d7aa826	0.061195515
70	0xbabb96c5	-0.0014311901
71	0xbd9bcf45	-0.07607893
72	0x3d3e5272	0.046465345
73	0xbd8560b1	-0.06512583
74	0x3d304ae2	0.043040164
75	0x3d8735ee	0.06602083
76	0x3de60678	0.112317026
77	0x3bc7a9f5	0.0060932585
78	0x3e3c2886	0.18374833
79	0x3def7079	0.11691374
80	0xbdec503a	-0.115387395
81	0x3c78367e	0.015149711
82	0x3b2934a8	0.002581874
83	0x3bec3024	0.0072078872
84	0x3dd58e6d	0.10427556
85	0xbd98cef4	-0.07461348
86	0x3c6ec071	0.014572249
87	0x3c9776cf	0.01848927
88	0x3d5e9f2a	0.05435101
89	0x3d73782b	0.059440773
90	0x3d8361b5	0.064151205
91	0x3df46efd	0.11935232
92	0x3ca1f3ca	0.019769568
93	0x3d980d67	0.07424431
94	0x3cb0401e	0.021514948
95	0xbdff9e38	-0.1248135
96	0xbd3311a7	-0.043718006
97	0x3e0358eb	0.12826888
98	0xbe208cd6	-0.15678725
99	0xbd8f2f04	-0.069913894
100	0xbe00450c	-0.1252634
101	0xbe23f8e0	-0.16012907
102	0xbdd1a53c	-0.10236594
103	0xbd024048	-0.031799585
104	0x3bfc9d3d	0.007709174
105	0xbc314e6d	-0.010821921
106	0xbd169af6	-0.036768876
107	0x3c347d9d	0.011016277
108	0x3ceb8d6b	0.028753957
109	0x3d98e775	0.07466022
110	0xbdbb6ec2	-0.09151985
111	0x3d0a93a2	0.0338322
112	0x3cdea957	0.027180357
113	0xbd8b5d4a	-0.06804903
114	0xbc077177	-0.008266798
115	0x3d70bd88	0.0587745
116	0x3d39ecaf	0.045391735
117	0xbe0e2c0e	-0.13883993
118	0x3da58f0a	0.08083923
119	0x3d4babb5	0.0497243
120	0xbd9923e5	-0.074775495
121	0xbcf7c046	-0.03024305
122	0xbd0c6097	-0.034271803
123	0x3c9c10ed	0.01905104
124	0xbd77d667	-0.060507204
125	0xbd683d43	-0.05669905
126	0xbd277060	-0.040878654
127	0xbda31b1c	-0.07964155
128	0x3da590b1	0.08084238
129	0x3d778ed0	0.06043893
130	0xbe26a04b	-0.16272084
131	0xbcfd1b17	-0.030896707
132	0x3e17406a	0.14770666
133	0xbd9d2af3	-0.076742075
134	0xbd6e2934	-0.058144763
135	0xbd2623d9	-0.04056153
136	0xbcce0e81	-0.0251534
137	0x3d1e4403	0.03863908
138	0x3bd8faf6	0.0066217138
139	0x3def8a26	0.116962716
140	0xbdcdba0d	-0.10045252
141	0x3de073e9	0.10959608
142	0x3e448fda	0.191955
143	0xbcd88b1b	-0.026433518
144	0xbda5e51c	-0.0810034
145	0x3df3589d	0.11882136
146	0xbe0804c8	-0.13283074
147	0x3e10c0a7	0.14135991
148	0x3db632f6	0.08896439
149	0xbd8b7635	-0.068096556
150	0xbdb63145	-0.08896116
151	0x3dd06cd6	0.10177009
152	0xbd20462d	-0.039129425
153	0x3da0f60e	0.07859431
154	0x3e13abe2	0.14421037
155	0x3d6053d3	0.05476744
156	0xbce79c5e	-0.028272804
157	0xbb8da84f	-0.0043230425
158	0xbd6bf69a	-0.057608224
159	0xbdd7165c	-0.105023116
160	0x3ce7e89d	0.02830916
161	0x3d827a5b	0.06370994
162	0x3dbd0ae9	0.092305966
163	0xbdde7c12	-0.10863508
164	0xbb6c24cd	-0.0036032677
165	0x3cb4b4ba	0.022058833
166	0x3dd0adf9	0.10189433
167	0x3cfdc14f	0.030975966
168	0xbd8adf19	-0.06780834
169	0x3cab1acd	0.020886803
170	0xbe0a25bf	-0.13490961
171	0x3d42b74c	0.047538087
172	0x3dcb9b56	0.09941737
173	0x3ce664ee	0.028124299
174	0xbc8b3939	-0.01699506
175	0xbe10516b	-0.14093558
176	0x3d8b1ce1	0.067926176
177	0x3e1840a9	0.14868416
178	0x3e05e353	0.13074999
179	0xbd19f2dc	-0.037585124
180	0xbd72d96f	-0.059289392
181	0x3c899e9b	0.016799262
182	0xbc82ed14	-0.015982188
183	0x3d2e8173	0.04260392
184	0x3cca9656	0.024729889
185	0x3e51401f	0.20434617
186	0xbe0baa86	-0.13639268
187	0x3baf2b32	0.0053457255
188	0xbd259fe1	-0.040435676
189	0xbd97c41a	-0.0741045
190	0x3c71091f	0.014711647
191	0xbdaf9a4f	-0.08574354
192	0x3dc4bd58	0.09606427
193	0x3d7b48ac	0.061348602
194	0xba6ee58c	-0.00091131846
195	0x3d7f62f4	0.06235023
196	0xbdf8c876	-0.1214761
197	0xbc5e021e	-0.013550309
198	0x3dfa5d47	0.122248225
199	0xbc1f4210	-0.00972034
200	0x3d3ec3b2	0.04657335
201	0xbdc35f82	-0.09539701
202	0xbb3d4e38	-0.0028885733
203	0xbbd51293	-0.0065024584
204	0xbc84ae6f	-0.016196458
205	0xbc90aafe	-0.01765966
206	0x3d0de19c	0.034638986
207	0x3c892b8d	0.0167444
208	0xbcb8e146	-0.022568356
209	0xbd4f34a7	-0.050587323
210	0xbd189ffa	-0.03726194
211	0xbd4cdee3	-0.05001725
212	0x3d6ea191	0.05825955
213	0x3c5d5c21	0.013510735
214	0x3e2a47a2	0.16628888
215	0x3d1a63b0	0.037692726
216	0xbe181c8f	-0.14854644
217	0x3b7102f2	0.0036775437
218	0xbd8285fb	-0.06373211
219	0xbda3786a	-0.079819515
220	0xbc1f6d6a	-0.009730676
221	0xbbcc84d3	-0.00624142
222	0x3cf29412	0.029611621
223	0x3dcf1aac	0.10112509
224	0x3d84fb82	0.06493284
225	0xbd8e42a8	-0.069463074
226	0x3d89ed84	0.06734756
227	0x3d577469	0.05260125
228	0x3d7f6e38	0.062360972
229	0xbd50d621	-0.05098546
230	0x3da41824	0.08012417
231	0xbcc917c2	-0.024547461
232	0x3cb2e207	0.021836294
233	0xbdc16b5f	-0.094443075
234	0x3d7767aa	0.060401596
235	0x3d08a59d	0.033361066
236	0xbd71dd4c	-0.059048936
237	0x3d6caebe	0.057783835
238	0x3de4389f	0.11143612
239	0x3d024476	0.03180357
240	0x3d899703	0.06718256
241	0x3d96da5f	0.0736587
242	0xbd93700b	-0.07199105
243	0xbd4a0bb9	-0.049327586
244	0xbd900703	-0.070325874
245	0x3c8ba413	0.01704601
246	0x3d2e312b	0.04252736
247	0x3d8524ba	0.06501146
248	0xbd3271e9	-0.043565664
249	0x3d9a5fc8	0.075378
250	0xbd7e5c46	-0.062099718
251	0x3c202816	0.009775182
252	0xbd50db4a	-0.05099038
253	0x3dd66e54	0.10470262
254	0xbd034698	-0.032049745
255	0xbdb22dfe	-0.087001786
