Assets/ML-Agents/results/RL_TEST/RL_Test/RL_Test-19378.pt (torch, 521570 bytes, 50 tensors)

network_body.observation_encoder.processors.0.normalizer.running_mean f4 [28]
000000 c6 0d 28 40 00 00 00 00 a0 36 48 bf f6 f5 a1 3c
       2.6258407 0.0 -0.7820835 0.019770604
000010 00 00 00 00 ea a8 96 bd d4 f9 c7 42 da 66 5f 3f
       0.0 -0.073564366 99.987946 0.87266314
000020 f5 c3 5e 3f 63 dd 90 3f 30 42 50 3f 87 c2 e3 3f
       0.87017757 1.1317562 0.81350994 1.779374
000030 0a 96 aa 3d 3d 56 e4 bd 5e b9 dc 3d 00 00 00 00
       0.08329399 -0.11149261 0.107775435 0.0
000040 73 fc 58 bd 82 0e c5 42 33 c1 2f 3f e2 3d 34 3f
       -0.05297513 98.528336 0.68654174 0.70406926
000050 8e fe 3a 3f 40 ab 87 3f 00 00 00 00 00 00 00 00
       0.7304467 1.0599136 0.0 0.0
000060 00 00 00 00 00 00 00 00 00 00 00 00 00 00 00 00
       0.0 0.0 0.0 0.0

network_body.observation_encoder.processors.0.normalizer.running_variance f4 [28]
000000 4e db bb 49 00 00 80 3f 2c c0 9b 49 5c 22 16 46
       1.5389218e+06 1.0 1.2759095e+06 9608.59
000010 00 00 80 3f 75 eb 16 46 d3 3f 1c 46 69 6c 92 45
       1.0 9658.864 9999.956 4685.5513
000020 df 17 90 45 8a 15 92 46 08 63 0a 47 aa 7f 63 49
       4610.984 18698.77 35427.03 931834.6
000030 61 36 86 3f 6f 00 60 49 a9 09 1f 46 00 00 80 3f
       1.0485345 917510.94 10178.415 1.0
000040 8b 68 0b 46 57 2a 76 48 67 33 82 45 70 66 84 45
       8922.136 252073.36 4166.4253 4236.8047
000050 c0 ef cd 45 2f c7 32 45 00 00 80 3f 00 00 80 3f
       6589.9688 2860.449 1.0 1.0
000060 00 00 80 3f 00 00 80 3f 00 00 80 3f 00 00 80 3f
       1.0 1.0 1.0 1.0

network_body.processors.0.normalizer.running_mean f4 [28]
000000 c6 0d 28 40 00 00 00 00 a0 36 48 bf f6 f5 a1 3c
       2.6258407 0.0 -0.7820835 0.019770604
000010 00 00 00 00 ea a8 96 bd d4 f9 c7 42 da 66 5f 3f
       0.0 -0.073564366 99.987946 0.87266314
000020 f5 c3 5e 3f 63 dd 90 3f 30 42 50 3f 87 c2 e3 3f
       0.87017757 1.1317562 0.81350994 1.779374
000030 0a 96 aa 3d 3d 56 e4 bd 5e b9 dc 3d 00 00 00 00
       0.08329399 -0.11149261 0.107775435 0.0
000040 73 fc 58 bd 82 0e c5 42 33 c1 2f 3f e2 3d 34 3f
       -0.05297513 98.528336 0.68654174 0.70406926
000050 8e fe 3a 3f 40 ab 87 3f 00 00 00 00 00 00 00 00
       0.7304467 1.0599136 0.0 0.0
000060 00 00 00 00 00 00 00 00 00 00 00 00 00 00 00 00
       0.0 0.0 0.0 0.0

network_body.processors.0.normalizer.running_variance f4 [28]
000000 4e db bb 49 00 00 80 3f 2c c0 9b 49 5c 22 16 46
       1.5389218e+06 1.0 1.2759095e+06 9608.59
000010 00 00 80 3f 75 eb 16 46 d3 3f 1c 46 69 6c 92 45
       1.0 9658.864 9999.956 4685.5513
000020 df 17 90 45 8a 15 92 46 08 63 0a 47 aa 7f 63 49
       4610.984 18698.77 35427.03 931834.6
000030 61 36 86 3f 6f 00 60 49 a9 09 1f 46 00 00 80 3f
       1.0485345 917510.94 10178.415 1.0
000040 8b 68 0b 46 57 2a 76 48 67 33 82 45 70 66 84 45
       8922.136 252073.36 4166.4253 4236.8047
000050 c0 ef cd 45 2f c7 32 45 00 00 80 3f 00 00 80 3f
       6589.9688 2860.449 1.0 1.0
000060 00 00 80 3f 00 00 80 3f 00 00 80 3f 00 00 80 3f
       1.0 1.0 1.0 1.0

network_body._body_endoder.seq_layers.0.weight f4 [128, 28]
000000 5e 61 a1 3e aa 82 4f be 12 de 0c 3e 17 f5 c2 be
       0.31519598 -0.20264688 0.13756588 -0.38077614
000010 36 34 55 3e 3c a4 9c be 8f 0b 67 3e 80 d0 bd be
       0.20820698 -0.3059405 0.22563003 -0.37073135
000020 fa 10 8d be ac 66 07 be a5 8f 74 be 1b 4d 52 be
       -0.27552015 -0.1322276 -0.23882921 -0.20537226
000030 99 ec 27 be ed 24 ea be 87 a3 88 be 3c a8 52 bd
       -0.16398849 -0.45731297 -0.2668726 -0.051429972
000040 df 2d 66 bc ee 32 f5 3d f4 be 75 be 35 4e 96 be
       -0.014049022 0.11972605 -0.23998624 -0.29356542
000050 b8 47 8f bd 42 88 18 3d 2a 59 dd bd d5 d8 8e be
       -0.06996101 0.03723932 -0.10808022 -0.27899805
000060 9f f0 d7 3d bc 45 a1 bc 57 d4 42 3d eb 10 8a be
       0.10543942 -0.019686572 0.047565784 -0.26966032
000070 ac 14 6e be cf 02 86 be 3a d9 99 be d5 fb b9 3d
       -0.23250073 -0.26174018 -0.30048543 0.09081236
000080 bd 37 89 bd 47 80 fc bb 83 d9 1b 3b 33 00 a0 3d
       -0.06700084 -0.0077057215 0.002378077 0.07812538
000090 0b 3a 15 3e 83 01 dc 3d 62 67 d0 3d eb d1 53 bd
       0.14572923 0.10742476 0.10175969 -0.051713865
0000a0 52 2a 8b 3d e8 20 14 3e 23 9c 60 be a3 85 b3 3e
       0.06795181 0.14465678 -0.21934561 0.35062894
0000b0 12 c8 31 be b7 32 bc 3d 1d af 72 bd 55 2c 8c bd
       -0.17361477 0.091893606 -0.059249032 -0.06844393
0000c0 6b 7a fd bd 78 f1 d2 bb 09 fa b4 3b 74 51 1d be
       -0.12376865 -0.0064374767 0.0055229706 -0.15363103
0000d0 df 75 8b bc 69 2d 9e bd 8d 12 3a 3d 77 16 0c bc
       -0.017023979 -0.07723505 0.045427848 -0.008550278
0000e0 c5 9c 9a 3d a8 4d e7 3d cb 5e 3b 3e c1 c7 9e 3e
       0.07549433 0.11294109 0.1829788 0.31011775
0000f0 38 48 92 3d 9d 78 a9 3e ae 60 19 3e 86 d4 82 3d
       0.07142681 0.33099833 0.14978287 0.06388192
000100 c8 ab 84 3c cd 9f 24 3d 37 11 bf 3e ce 95 22 3b
       0.016195193 0.04019146 0.3731782 0.0024808529
000110 e3 d9 9d bd 25 32 79 ba ed 51 47 be 36 05 aa 3d
       -0.07707574 -0.00095060683 -0.19464846 0.08301775
000120 eb 1a ba be 9a 45 82 bd 56 ff d2 3e ed ec 54 bc
       -0.36348662 -0.06360932 0.4121043 -0.012995941
000130 64 3c b1 3d 66 24 79 3c fd b5 a5 3a 37 ab ac bd
       0.08654097 0.015206432 0.0012642738 -0.08431094
000140 0e 12 dd bd 94 c7 98 3d f8 a5 fb bd dc 92 0e 3e
       -0.10794459 0.074599415 -0.122875154 0.1392321
000150 3b 61 5f be 1f 64 92 3d 4b c1 96 3d 61 f2 40 be
       -0.21814434 0.07148003 0.073610865 -0.1884246
000160 b7 1d 09 3d 6c e2 b8 bc ac f2 85 3e d1 3b 8f be
       0.033475604 -0.022568904 0.26161706 -0.27975324
000170 ad 94 49 bd e2 24 8a bd 84 6b 5c be 65 2d 69 bc
       -0.049214054 -0.06745316 -0.21525389 -0.014232014
000180 55 7a 68 bd f7 7e 6c be 7a 38 90 3d 16 5e 7c 3e
       -0.05675729 -0.23095308 0.07042022 0.24645266
000190 99 ab 22 3e 2f 28 66 3d 12 3e 97 be fa 06 00 bc
       0.15885772 0.056190666 -0.29539543 -0.007814163
0001a0 bc 48 4b bd f8 b1 1c bb 17 8f c8 be 2b dd b3 3d
       -0.04962991 -0.0023909789 -0.3917167 0.08782419
0001b0 69 1e 0b 3d f0 15 fd 3d f6 be ed 3d ff 87 21 3e
       0.03396455 0.123577 0.116086885 0.15774535
0001c0 9d 2a 0f 3d 76 ef 02 be 86 7e 21 3e c4 61 72 be
       0.03495275 -0.1278666 0.15770921 -0.23670107
0001d0 da af f1 bd bf ed 22 bd e7 49 76 be 1c d3 7e be
       -0.11801119 -0.039777514 -0.24051629 -0.2488522
0001e0 2b 39 89 3d bf f4 0c 3c f4 10 73 3e 52 49 70 be
       0.06700357 0.008603274 0.23736936 -0.2346547
0001f0 92 45 24 3e eb 1e 24 3e 7b c2 2d be e4 84 27 be
       0.16042164 0.1602742 -0.1696872 -0.16359288
000200 6f b5 c1 3e 48 07 d8 3d 89 ba a7 be c1 22 83 be
       0.37833735 0.10548264 -0.32759503 -0.25612453
000210 1c 9c e4 bd c4 3c c4 3d 04 28 32 3d cb 0a a5 be
       -0.11162588 0.095819026 0.043495193 -0.32234797
000220 7c 9c fb bc 15 40 df bc b7 c6 25 be 94 01 61 3d
       -0.030714266 -0.027252236 -0.16189085 0.054933146
000230 79 86 3f bd dd b0 9d 3d 54 a1 ab be 27 c5 64 be
       -0.046759102 0.076997496 -0.3352152 -0.22340833
000240 c1 c6 73 ba ea cd b4 3a 52 c2 0b 3e da 3b 8d 3e
       -0.0009299331 0.0013794277 0.13648346 0.27584726
000250 7d bd fd bc a4 d5 b3 bc 1e 23 84 bd 19 14 fc bd
       -0.030974144 -0.021952458 -0.064520106 -0.12308521
000260 29 9e 13 be c3 a4 f2 bd 66 65 20 bd b3 40 98 be
       -0.14415802 -0.11847832 -0.0391592 -0.29736862
000270 b3 21 2b 3e bc c5 8a 3e be 28 61 bd 33 51 3f be
       0.16712074 0.27103984 -0.054970495 -0.18683319
000280 de 93 8d bd fe 63 6f 3d 00 a9 87 be 97 93 5b bd
       -0.06912969 0.05844497 -0.26496124 -0.05360755
000290 9a 34 b3 bd f6 9b e5 bc fd 92 70 3d 28 b4 fe be
       -0.08750267 -0.02802847 0.05873393 -0.49746823
0002a0 44 4c b1 3d 62 94 11 3e 03 5e 3b be c4 73 61 3e
       0.08657125 0.1421676 -0.18297581 0.22016817
0002b0 ec c8 1f 3e 8d 36 bb bd 92 b0 6d be 30 60 73 bd
       0.1560399 -0.09141264 -0.23211887 -0.059417903
0002c0 f6 bc e7 3d 77 c7 d5 3c 4b 23 75 3e aa d8 0d 3e
       0.11315338 0.026096089 0.23939244 0.13852182
0002d0 70 fc b9 3d a8 d9 5e be c9 6f 0b be 6e f4 9b 3d
       0.09081352 -0.21762717 -0.13616861 0.07614981
0002e0 fd 50 3a 3e bb bc f5 3d 03 b6 83 3d c0 37 13 bc
       0.18194957 0.11998888 0.064312 -0.00898546
0002f0 b9 70 26 ba b7 c8 33 bd 69 42 10 be da 33 af be
       -0.00063491944 -0.04389259 -0.14087833 -0.34219247
000300 e3 12 3e be 94 63 e8 bd c9 57 64 3e ef 6d 4a bc
       -0.18561892 -0.11347118 0.22299112 -0.012355312
000310 84 9c 17 be cc cd 92 be b5 72 61 bd 09 0b ce 3e
       -0.148058 -0.28672636 -0.055041034 0.40242794
000320 7d 80 4a be 67 9f 82 3e 36 fe 29 be 42 80 14 bd
       -0.19775577 0.2551224 -0.1660088 -0.03625513
000330 1b 40 91 3e 64 45 c6 be 4a 9c 77 3e 9f d5 2c 3d
       0.2836922 -0.38724816 0.24180713 0.042195912
000340 fb 9d 17 be d4 b4 68 be d3 75 5b be 23 57 91 be
       -0.14806359 -0.2272523 -0.21431665 -0.28386793
000350 ad 7e 2e 3d 55 43 d5 3d 0e 7d 10 3e 6c 5f e8 bd
       0.042601276 0.10413233 0.14110205 -0.11346325
000360 3c 2c bc be e7 cf 47 3d b0 79 f1 3c d8 18 a1 3b
       -0.36752498 0.048782256 0.02947697 0.0049162917
000370 f0 ac b4 3d 38 21 a6 be 81 23 bd 3d f7 b8 9f bd
       0.08822048 -0.3244722 0.092352875 -0.07798951
000380 bd 2f 2f 3d 59 c0 9e be 3f 5f f0 bd 7c b9 4a be
       0.042770136 -0.31006125 -0.11736917 -0.19797319
000390 75 7e 75 3e 58 f9 fd 3d fd 27 5b 3e dc 8d c8 bd
       0.23974021 0.12401074 0.21401973 -0.097926825
0003a0 ed 9b 3f be f9 f8 3c be ed 5a 05 3d fa 90 6d 3b
       -0.18711825 -0.1845435 0.032557417 0.0036249743
0003b0 53 43 d1 bd 2f 66 74 be 8b 27 81 bd d6 f5 11 3e
       -0.10217919 -0.23867105 -0.0630637 0.14253935
0003c0 de f1 30 be b5 13 a7 3e 5d 6c 56 3e 1f 25 e4 bd
       -0.17279765 0.32632223 0.20939775 -0.11139893
0003d0 0a cc 8c 3e 34 9a 99 3e 4e e0 2b bd c1 63 5c be
       0.2749942 0.3000046 -0.04196196 -0.21522428
0003e0 a8 f2 03 bd f6 ba 31 be fb 50 de bd c7 8c 25 be
       -0.032213837 -0.17356476 -0.108552895 -0.16166984
0003f0 fc 30 d1 3d 4f 73 53 bd 9d d0 e9 bd 9c 6e bd bd
       0.10214421 -0.05162364 -0.11416743 -0.09249613

network_body._body_endoder.seq_layers.0.bias f4 [128]
000000 5b d2 43 bb 40 f4 0c 3b a3 2f a2 3a 0c 09 b1 bb
       -0.002988002 0.002150789 0.0012373816 -0.00540269
000010 7b fb 82 3b 85 00 5e bb 7a 13 64 3b 1a 95 06 bc
       0.003997264 -0.0033874821 0.0034801648 -0.0082142595
000020 73 d0 86 3b d9 b6 a3 ba 62 88 1a bc c0 81 e6 3b
       0.0041142046 -0.0012490406 -0.00943193 0.0070345104
000030 c6 92 2f 3c f2 cb 11 3c c3 a4 90 3a 3f 2a ad 3b
       0.010716146 0.008898722 0.0011035431 0.005284577
000040 e9 17 2f bb fa be 6a 3b d3 92 16 bc d0 c1 c0 3a
       -0.0026717132 0.0035819397 -0.009190279 0.0014706198
000050 54 e8 e8 3a 74 86 b0 3a 7a b8 d0 3b 4c 45 06 3a
       0.0017769434 0.0013467805 0.0063696476 0.00051220204
000060 37 30 ff 3a 4a 7e 1f 3c e4 b4 b6 3b 52 ef a6 39
       0.0019469325 0.0097346995 0.005575763 0.00031840295
000070 be e2 45 bb 1e 1c 71 ba 3d d2 ca bb 8c 12 6a 3a
       -0.0030194963 -0.000919761 -0.006189613 0.00089291553
000080 6f 3b 45 3b b2 99 0d 3c 35 b7 61 bb 1d 1a 95 bb
       0.003009524 0.008642601 -0.0034441475 -0.004550232
000090 df 97 38 3b df f0 86 bb 21 79 33 bb fa f8 08 38
       0.0028166694 -0.0041180695 -0.002738543 3.2656804e-05
0000a0 0f 20 39 bb c5 51 85 ba 41 3e ab bb 9b 29 59 bb
       -0.0028247868 -0.0010171464 -0.005225927 -0.003313637
0000b0 20 98 8a bb ca c7 81 bb 86 52 c4 3b e9 9c 45 3a
       -0.0042295605 -0.0039605843 0.005991283 0.0007538335
0000c0 d2 52 88 3b ca 27 78 ba c9 5c 0b 3b 5d 77 88 3b
       0.0041602636 -0.0009466378 0.002126502 0.00416462
0000d0 26 4a ab 3b 28 fc a8 3a d3 e8 e0 bb bf ee 89 38
       0.005227345 0.0012892531 -0.0068636923 6.577139e-05
0000e0 1f ea ae bb 29 be 79 3b f6 2e b2 3a 70 24 cf 3b
       -0.005337968 0.003810773 0.0013594318 0.0063214824
0000f0 df c5 3d 3b e5 72 36 3a 51 1a 80 3b 3b ec 3e 3c
       0.0028957052 0.00069598696 0.003909387 0.011653001
000100 63 c0 11 bc 20 6c 85 3b fe 0b 92 bb 9a 7b a6 bb
       -0.008895966 0.0040717274 -0.004456996 -0.0050806524
000110 d3 db ac 3b 88 12 84 3b 73 e9 1f bc 4d 38 88 bb
       0.0052752285 0.0040305294 -0.0097602485 -0.004157102
000120 81 c6 e4 39 ea 32 92 3b e3 0a ac 3b 53 7d 87 3b
       0.00043635446 0.004461636 0.0052503212 0.004134813
000130 29 6c 88 bb 14 cc 14 3b 6a a4 ae 3b be 0b c5 3a
       -0.0041632843 0.0022704648 0.0053296583 0.0015033407
000140 e7 ea d7 39 11 d0 1a 3b d5 d8 e4 bb ba fa 85 bb
       0.00041183011 0.0023622552 -0.006983856 -0.004088727
000150 f1 72 be 3b 43 a3 96 bb 82 54 11 3a 34 7f 30 3a
       0.005812042 -0.004597099 0.00055439037 0.0006732822
000160 40 62 f5 bb ce 77 b9 ba 04 48 21 3b 60 c1 90 bb
       -0.007488519 -0.0014150084 0.0024609575 -0.0044175833
000170 c5 bb 65 3b 2f 2a a7 bb d8 a6 ed bb aa 55 e6 39
       0.0035054546 -0.005101464 -0.0072525553 0.00043932843
000180 08 5b a3 b8 0d a4 00 3c 09 74 49 bb f1 f0 61 bb
       -7.7894016e-05 0.007851613 -0.0030739328 -0.0034475888
000190 dc c6 83 bb fa 0b 37 39 8f 95 e3 3b 1f a7 44 3b
       -0.0040215086 0.00017456702 0.006945319 0.0030006838
0001a0 5e d3 df 3a 5d 34 2e 3a 52 58 26 3c 49 0a 00 bc
       0.0017076542 0.0006645376 0.010152893 -0.007814952
0001b0 68 ad 12 3c 5f 95 12 3b 8d 71 52 3b 28 7d 1d 3c
       0.008952476 0.0022366864 0.0032111139 0.009612359
0001c0 99 61 e4 ba 0d bd 3f 3b 28 a7 f7 bb 92 d1 7d 3b
       -0.0017424106 0.002925697 -0.0075577684 0.003872965
0001d0 3a 6f da 3b d9 b4 a2 3b ba 43 22 3c c7 3b a8 3b
       0.0066660913 0.0049654064 0.009903843 0.005134079
0001e0 80 48 b2 ba e4 98 e0 bb 58 b6 96 bb 5b 79 cc 3b
       -0.0013601929 -0.0068541635 -0.004599374 0.0062400526
0001f0 f1 c8 15 3c 13 3f b2 bb a0 77 98 3b c8 cf c9 3b
       0.009142146 -0.005439648 0.0046529323 0.0061588027

network_body._body_endoder.seq_layers.2.weight f4 [128, 128]
000000 2d 09 a0 bb fd d3 38 bd b5 5a 97 bd ef 80 86 bd
       -0.0048839063 -0.045124043 -0.07390348 -0.06567561
000010 6f bd a1 bd ad 26 1c be 73 0b bc bd c3 37 45 3d
       -0.0789746 -0.15249129 -0.09181871 0.04814888
000020 ef cd 8e bd 7b df 82 bd cf f5 fa bc 93 2d b4 bb
       -0.069728725 -0.06390282 -0.030634789 -0.005498597
000030 a9 72 04 3d 40 55 2a 3d df ef 61 3d e2 ba ec 3a
       0.03233591 0.041585207 0.0551604 0.0018061067
000040 ab 8d 31 3d 00 34 01 bd 4c 23 8d 3d 77 4f 96 3d
       0.043347996 -0.03154373 0.06891498 0.073393755
000050 7f 3d ba bd 20 c4 3c be 52 af 7f 3d 73 3f dc bc
       -0.09093761 -0.18434191 0.062423058 -0.026885724
000060 14 ff e0 3c 97 f2 74 bd 57 29 c0 3c 86 83 78 3d
       0.02746538 -0.059801664 0.023457212 0.060672306
000070 ee 0e 13 3d c8 74 1a bd 78 ed 26 3e 7e 66 d7 3c
       0.03590291 -0.037709028 0.16301525 0.02629399
000080 3a 53 36 3d 9f b4 d9 3d e9 0c ba 3b 0f dd 27 3c
       0.044512965 0.10630154 0.0056778085 0.010245576
000090 96 93 0d bc c9 4f 96 3d 05 e6 ac 3d 69 7c 25 3d
       -0.008641144 0.073394366 0.0844231 0.04040185
0000a0 9b 4f ef bd 78 aa dc 3d 8c 57 c3 3d 57 2a 79 3c
       -0.116851054 0.10774702 0.095381826 0.0152078485
0000b0 db a5 98 ba 9c d8 95 bd db e9 37 3d 28 25 a1 bd
       -0.0011646108 -0.073167056 0.044900756 -0.07868415
0000c0 1b 22 e5 3d 49 11 52 3d 86 5c 25 be e7 63 04 3d
       0.11188146 0.051286016 -0.16148576 0.032321837
0000d0 2b ac f2 bd af ed d0 bd 86 26 f4 bd 4b 40 ab 3d
       -0.11849245 -0.102015845 -0.1192141 0.08361872
0000e0 9c 4f 26 bb 18 a4 04 3e ac 74 5c bd be 57 43 bc
       -0.002537704 0.12953222 -0.053822204 -0.011922775
0000f0 95 18 61 be 72 6f 55 3d b3 95 94 bd 8e 4b c6 3d
       -0.21982034 0.052108236 -0.07255115 0.0968238
000100 28 2d 11 bc 51 ec f6 3c 23 93 da bc f5 45 1a bd
       -0.008860864 0.030141981 -0.026681488 -0.037664372
000110 8c f0 be bd 44 f6 b9 bd 88 89 0d bd ea 7e 05 bd
       -0.093232244 -0.090801746 -0.03455499 -0.032591738
000120 ba 58 da 3d 0a f7 87 bb 12 cd c3 bd f5 f4 ed bd
       0.106614545 -0.0041493224 -0.095605984 -0.116189875
000130 be 2e 9a 3c 3c 36 6e 3d a9 89 41 be 57 57 2d bd
       0.018821117 0.05815719 -0.1890017 -0.042319622
000140 4f 9f 9c bd 6f 65 85 3c e5 83 c5 bd 25 62 d6 3d
       -0.07647573 0.016283719 -0.096442975 0.10467938
000150 a6 f4 54 3e ab 71 15 3d d8 87 a7 bd 6d d1 8b 3d
       0.20796451 0.036485355 -0.08180207 0.06827054
000160 40 bb 54 bc ff 98 1f 3d cc 95 32 3c eb 37 5d 3d
       -0.012984097 0.038964268 0.010899972 0.054008406
000170 da e4 a6 bd b8 1e e2 bd df 08 0f bd fe e7 cd bc
       -0.08149119 -0.110410154 -0.03492057 -0.025135037
000180 0b 8a 05 3c 0e 97 e9 bd 48 a0 e5 bd 8d 2a ba 3d
       0.008150588 -0.114057645 -0.11212212 0.09090147
000190 21 b2 1a 3d b2 89 f9 3b 41 31 0a bd 39 f8 13 bd
       0.037767533 0.0076152915 -0.03373838 -0.036125395
0001a0 a0 1b da bd 0e a1 36 bd 15 a9 41 be af ea 0b 3e
       -0.106498 -0.044587187 -0.18912156 0.13663743
0001b0 d0 51 18 3d d1 74 52 3d 02 d0 7c bd 76 a2 44 3a
       0.037187397 0.051380936 -0.06172181 0.0007501015
0001c0 82 69 9f 3d a0 ba 9b bd ac 5d 93 3d d7 cb 88 bc
       0.07783796 -0.07603955 0.07195601 -0.01669876
0001d0 30 87 77 3b 41 c2 95 3d 4a 7d a3 3c 98 97 99 bd
       0.0037769787 0.073124416 0.019957203 -0.07499617
0001e0 bd 45 b1 bd bd a5 16 3d fc 94 59 3d 6e d5 65 bd
       -0.0865588 0.036779154 0.0531206 -0.056111746
0001f0 1e e9 07 be 08 77 19 3c 7d 8b 62 bd 5e 1e 0d 3d
       -0.13272521 0.009366758 -0.055308808 0.03445279
000200 3c 73 ae bd 0a 49 9d bc af 51 be 3d fe 2d 64 3d
       -0.08518073 -0.019199867 0.09292924 0.055707924
000210 6e e5 33 bc 67 69 e2 bd 35 8d 90 3a 21 de ba bd
       -0.010979993 -0.1105526 0.0011028411 -0.09124399
000220 b7 ae b5 bd d9 fd 76 3c 09 7b f5 3c 68 fe 1f 3c
       -0.08871215 0.01507517 0.029965894 0.009765245
000230 d9 a2 90 bc a1 ec 77 bd aa f1 ba bd 42 80 80 bd
       -0.017655777 -0.0605284 -0.09128125 -0.06274463
000240 f3 ec d5 bb 11 9d fd bd 83 ff a3 3c b4 6b 46 39
       -0.0065284907 -0.12383474 0.020019298 0.00018922874
000250 c3 ef 9e bd 51 91 da 3b bc f8 40 bd 35 3e a9 bb
       -0.07760575 0.006670155 -0.04711221 -0.0051648864
000260 f7 da 88 3d 66 69 df bd b3 e7 8f 3d 04 2c e3 3c
       0.06682389 -0.10908775 0.07026615 0.02773095
000270 04 2a 59 bd 61 c8 db 3d bf 01 5c 3c da de 8e 3c
       -0.053018585 0.107315786 0.013428151 0.017440248
000280 27 aa b5 3d ae 3e 38 be 60 74 cd 3c 7e c7 fd bc
       0.088703446 -0.1799266 0.025079906 -0.030978914
000290 b4 ed d5 3d 2b c0 8d 3d 0f bc 18 bd 25 57 0a bd
       0.10445729 0.06921419 -0.03728872 -0.033774514
0002a0 24 13 d4 3c e7 2c 97 bc 7f 03 9f 3b a5 d3 97 bd
       0.025888033 -0.018454028 0.0048527117 -0.07413415
0002b0 64 65 e6 3c dc 85 bd bc 3e f9 07 bd 8a 5a b4 3d
       0.028124519 -0.023135118 -0.03319668 0.088063315
0002c0 00 68 ed bd 26 85 56 3d 2a 60 06 be 13 7f 0b 3c
       -0.11592102 0.052373074 -0.13122621 0.008514184
0002d0 36 34 ed 3d 57 99 a1 3d b8 a5 e5 bd da 5a 9d 3d
       0.11582224 0.078905754 -0.11213249 0.07683344
0002e0 02 13 3f 3e 31 18 8d bd 03 44 67 bd 57 e8 9e 3d
       0.18659595 -0.0688938 -0.056461345 0.07759159
0002f0 43 91 27 bc d9 f2 d0 3d 09 c6 3a 3d aa a1 02 3e
       -0.010227504 0.102025695 0.045599017 0.12756982
000300 c9 c1 a5 3d 5d 20 ea bd fb db b2 3d 49 ef 7f bd
       0.08093602 -0.11431954 0.08733364 -0.06248406
000310 07 2d cc bd 55 4c 63 3d 17 13 5f bd 4b 93 26 bd
       -0.09969526 0.055492718 -0.054461565 -0.040667813
000320 99 08 f8 3c 48 13 45 3d f1 88 95 bb 5f 38 cd bc
       0.030277537 0.04811409 -0.004563444 -0.025051294
000330 b8 cd 99 bd a3 b1 14 be 75 43 80 3d 5e bc dd 3c
       -0.07509941 -0.14520888 0.062628664 0.02706736
000340 86 8b 85 3d 1f f8 a7 3d 90 db 33 bd d1 d8 8e 3c
       0.065207526 0.08201622 -0.043910563 0.01743737
000350 9b b8 3a bd b6 cc 66 3c d2 9d 8a 3d 96 b9 83 3e
       -0.04558621 0.014086893 0.06768383 0.25727528
000360 b9 58 05 be f4 0e d1 bd 9c 5d 1b be 44 ed ae bd
       -0.13022126 -0.1020793 -0.15172428 -0.085413486
000370 1c e7 02 be 29 f5 2a 3e f6 70 03 be ae 7f 97 3c
       -0.12783474 0.16695084 -0.1283606 0.0184935
000380 db 80 fb bc 41 20 9a 3d 09 59 92 3d ba a4 aa 39
       -0.030701092 0.07525683 0.07145888 0.00032547658
000390 bc 8c d8 bd b4 ee 47 bd ee bd 8a bd b1 bf 4c bd
       -0.10573718 -0.04881163 -0.067745075 -0.0499875
0003a0 c8 52 96 bc 86 40 16 bd ed ee bb 3c 95 fc 58 bb
       -0.01835002 -0.036682628 0.022941077 -0.0033109535
0003b0 b3 c7 af bc ec 7f 39 3e 0f 72 a8 bd 04 96 67 3d
       -0.021457529 0.18115205 -0.0822488 0.05653955
0003c0 c3 22 da 3d 6a 35 b9 bc 86 2c 8b bd 7d 7c 21 3e
       0.106511615 -0.022608478 -0.067956015 0.15770145
0003d0 28 27 a0 bd 12 31 9e 3d 33 10 d0 3b cc f1 8f 3d
       -0.078199685 0.07724203 0.0063495873 0.07028541
0003e0 07 d5 9b 3c 3d 42 16 be a4 0a 6b 3d f3 56 8a 3d
       0.019022478 -0.14673705 0.057383195 0.067548655
0003f0 01 35 22 3e 78 cd 07 3e f6 67 c7 bd 8f b5 ba bd
       0.15840532 0.13261974 -0.09736626 -0.09116661

network_body._body_endoder.seq_layers.2.bias f4 [128]
000000 e7 93 1b bc e3 c9 b4 3b 3b b3 c7 3b 11 65 a1 bb
       -0.009495712 0.005517231 0.006094364 -0.004925378
000010 0c ff b0 3b 10 d1 c7 bb 71 0c d1 3b b1 96 e1 3b
       0.0054014977 -0.0060979202 0.006379657 0.006884419
000020 a1 5a 0d bc d8 de f3 3a 30 e2 a9 ba cc 3d 25 3a
       -0.008627565 0.0018605841 -0.0012961086 0.0006303459
000030 22 f7 c5 ba 08 53 77 3b d3 09 0a bc 2f fc 28 bb
       -0.0015103559 0.00377387 -0.008425194 -0.0025785079
000040 a1 c4 ac ba a7 6d 29 bc 33 22 bf bb cb 4d d1 bb
       -0.0013181159 -0.010341085 -0.0058329343 -0.0063874475
000050 83 bc 69 3a 18 bd 30 3b 33 09 1a bc 56 fa 05 3c
       0.0008916335 0.0026968177 -0.009401607 0.0081773605
000060 85 fe 13 3b 24 a5 01 3c 51 6e e1 bb f0 14 25 3c
       0.0022582125 0.007912908 -0.006879606 0.010075793
000070 10 69 db bb 89 b4 3d 3c d1 41 2c 3c 41 32 8f 3b
       -0.006695874 0.0115786875 0.010513739 0.0043700044
000080 a4 46 d1 39 6b 1d 42 3b 63 3a 2e bb 77 82 90 bb
       0.00039916218 0.0029619585 -0.0026585094 -0.004410084
000090 7c bd 94 39 6a bc d7 3b b7 e5 04 3c ce d3 cd 3b
       0.00028369937 0.00658374 0.008111409 0.0062813526
0000a0 82 81 ee 3b a9 5d c7 bb ab ff 36 3a d5 bf e3 b9
       0.007278622 -0.006084163 0.00069808465 -0.0004343974
0000b0 0f a8 d0 bb 96 68 88 3b 3a a5 50 bb 3f 44 0e 3b
       -0.0063676904 0.0041628582 -0.0031836764 0.0021708158
0000c0 32 66 98 bb d1 82 93 3b 7c 05 a5 3b 4e bd ee 3b
       -0.0046508545 0.0045016785 0.005036054 0.0072857505
0000d0 78 96 0c bc ae 7d 16 3b 6b 90 0f bc 15 59 0f ba
       -0.008580796 0.0022963095 -0.008762459 -0.00054682913
0000e0 91 41 29 3c 46 9c 08 bc a0 ff 9e bb b1 10 0c 3c
       0.010330574 -0.00833804 -0.00485225 0.008548901
0000f0 8b 5f fd bb 79 4f 37 bb 13 d8 a6 3b c2 8e 11 bc
       -0.007732337 -0.0027970953 0.005091676 -0.008884134
000100 1d 43 af 3b 0a ce fa 3b d7 d2 f7 bb 08 59 fb 3b
       0.0053485767 0.0076539563 -0.007562976 0.0076705255
000110 96 14 e4 3b 2e 92 90 bb fb e2 20 3c c6 cf 26 3c
       0.006960462 -0.004411957 0.009819741 0.010181373
000120 89 20 a4 3b e7 ec 91 3b d5 3a d8 ba da 40 b7 39
       0.0050087613 0.00445329 -0.0016497025 0.00034952798
000130 9e 6c 39 3c 8b 6a 83 3b 3b 2c 99 3b 51 b5 9e 3b
       0.0113174 0.0040105036 0.004674462 0.004843392
000140 fc e3 4b bb fd e1 c1 bb ca 13 10 39 ef 94 1a 39
       -0.003111123 -0.0059168325 0.00013740282 0.00014742067
000150 5e 20 b3 ba 55 87 54 bc 38 fa dc bb c9 a1 8b bb
       -0.0013666262 -0.012971719 -0.0067436956 -0.0042612297
000160 b1 b1 06 3c 50 d6 1b 3b fc f4 48 bc 65 3d b3 bb
       0.008221076 0.0023778863 -0.01226544 -0.0054699653
000170 0d 22 94 3b d8 d7 25 3b e1 dc b9 3a 4c c3 2e 3c
       0.0045206607 0.0025305655 0.0014180207 0.01066668
000180 02 f6 0f 3c 17 74 cd bb 89 bc f0 ba 4d a0 d7 3b
       0.00878668 -0.0062699425 -0.0018366735 0.0065803886
000190 4d 1e b1 3b 8d b6 c2 bb 8f 0b f8 bb 26 0e cf 3b
       0.0054052235 -0.005942172 -0.0075697373 0.0063188253
0001a0 db 17 02 3b 97 eb 4e 3b 7d dd 1f bc 2b a4 9d bb
       0.0019850645 0.0031573528 -0.009757397 -0.00481083
0001b0 95 8d bd 3a 35 fe 18 3c 7d ab b7 ba 17 03 ea 3a
       0.001446175 0.009337951 -0.00140129 0.0017853704
0001c0 88 61 af bb 0e d6 36 bb b0 00 82 3b 05 3b 97 3b
       -0.005352203 -0.0027898583 0.003967367 0.00461519
0001d0 95 d5 ad 3b ef 86 8d bb 72 4b 85 bb f0 81 0f 3b
       0.005305002 -0.004319064 -0.0040678317 0.0021897517
0001e0 eb 6b 12 bc 4b 16 a7 ba ec dc 14 bb 93 7a 1d 3b
       -0.008936862 -0.0012747733 -0.0022714688 0.0024029359
0001f0 2f 4b f5 3b 1c 33 28 b8 3b 2c 24 3c c7 79 06 3c
       0.007485769 -4.010192e-05 0.010020311 0.008207745

action_model._continuous_distribution.log_sigma f4 [1, 2]
000000 3a ed 06 39 3c 2f f2 3a
       0.0001286761 0.0018477212

action_model._continuous_distribution.mu.weight f4 [2, 128]
000000 86 79 b3 3b 3d 58 b9 bb 80 09 23 3c 6c d9 d1 3c
       0.005477133 -0.005656271 0.009950995 0.02561637
000010 74 df 82 bc 44 e7 73 bb 25 1f 58 3c bb 4c 82 bc
       -0.015975691 -0.0037216702 0.013191019 -0.015905729
000020 31 27 f9 3b 0e 7b ba 3a 88 d6 be bc 2c 9b 33 3b
       0.007603549 0.0014227347 -0.023295656 0.0027405722
000030 dc 75 fe bb 79 cf 72 bc e4 48 96 3b 10 19 2f bc
       -0.007765515 -0.014819973 0.004586326 -0.010687128
000040 49 15 a6 3c 6d aa cf 3b 86 f0 2e 3c f1 81 d4 3c
       0.020273821 0.006337455 0.010677462 0.025940867
000050 eb c0 90 3c 5e 59 b6 bb 59 bb 19 3c 8c 2b 40 3c
       0.017670115 -0.0055648526 0.009383046 0.011729132
000060 2a 25 de 3c a9 12 a4 bb 61 22 16 3b c7 cf cd bc
       0.02711733 -0.0050071073 0.0022908675 -0.02512349
000070 7b cd 13 3d d8 6d af bc 7a e7 5f bc 39 07 ad 3b
       0.036084633 -0.021414682 -0.013666028 0.005280402
000080 de 56 3c 3c 21 1f f1 3c 32 46 36 bc ff 65 c0 3c
       0.01149532 0.029433789 -0.011125134 0.023486136
000090 a6 eb 27 3d 1c 1e 76 3b 09 6d 03 3b f6 2e be 3b
       0.040996216 0.0037554568 0.0020054004 0.005803938
0000a0 1d 30 00 bc ad d1 01 3c e6 5e 8a bc 1e 19 bf bc
       -0.007823971 0.007923526 -0.016890954 -0.023327406
0000b0 22 8c 99 3b 3a 3f 66 3c 43 ac 1c bc fb 98 b0 bc
       0.0046858946 0.01405316 -0.009562555 -0.021557322
0000c0 42 21 d2 3b 65 ef ae bc 48 f4 97 bb 33 9e b4 bb
       0.006412656 -0.021354387 -0.004637275 -0.005512023
0000d0 53 6c 5f 3c c7 ca 83 3c ff 65 d3 3c 9d 17 66 b9
       0.013636666 0.016087903 0.025805471 -0.00021943306
0000e0 0a 82 e5 bb 45 4c b9 3c 3f 1f 6a bc 4b 25 6e bc
       -0.0070040273 0.022619376 -0.014289676 -0.0145352585
0000f0 73 fd df 3b c4 d9 c9 bc a8 27 89 bb 63 5a d4 3c
       0.0068356334 -0.024639972 -0.0041856356 0.025922006
000100 0f 96 3d 3c 6a 33 23 bd 57 77 65 bc 34 d5 f0 bc
       0.011571421 -0.039843954 -0.014005504 -0.029398538
000110 bf c2 f0 bc 90 58 db 3b 0b 45 7e bc 20 c6 dd bb
       -0.029389737 0.006693907 -0.015519391 -0.006768003
000120 dc 07 9d bc f5 36 71 3c c7 a4 01 3c 16 6d 16 3c
       -0.019168787 0.014722575 0.007912821 0.009181282
000130 4d 0b 78 bc bd bb 0d bd 8d c6 01 3c ca 58 9a 3b
       -0.015139413 -0.03460287 0.007920873 0.0047102915
000140 be f9 ca ba 13 a7 8c 3c 93 d9 9d bc 13 ae f1 bc
       -0.0015485806 0.017169511 -0.019268787 -0.02950195
000150 5e 1c 97 3c e6 f4 21 3b 6d 60 5f bc 6c 94 2c 3a
       0.018446144 0.0024712621 -0.01363383 0.0006583396
000160 72 81 9e 3b bc ff 93 bc b1 65 4f 3c 32 f0 e9 3c
       0.0048372084 -0.01806628 0.012658522 0.028556917
000170 76 91 5e 3c 7a 0e 29 bc ae 8b 2f bc cc c3 f1 bb
       0.013584485 -0.010318393 -0.010714455 -0.007378077
000180 9f 14 15 3b 10 24 03 3b cc b1 af bc a3 aa 9b 3b
       0.0022747887 0.0020010509 -0.021447085 0.004750566
000190 d2 dc bc 3b 6c 5e 44 3c f3 94 a1 3c ce 2a 12 bc
       0.0057636285 0.011985403 0.019724345 -0.008921338
0001a0 57 65 4c bb 42 39 8e 3c 34 81 1e 3c 17 4d 46 3c
       -0.0031188333 0.017361287 0.009674359 0.012103341
0001b0 45 62 70 3b be 30 38 bc a2 4b 7f bc 5b a2 69 bc
       0.0036679667 -0.01124209 -0.015581997 -0.0142599
0001c0 a5 df 8d 3b 74 6d 85 bc 7a af 4d bc cf 64 d8 ba
       0.004329639 -0.016287543 -0.012554044 -0.0016509535
0001d0 be ec 17 3c 08 0b 37 bb 3d cc 9f 3c 7a 4c d3 bc
       0.009272752 -0.002793016 0.019506568 -0.025793303
0001e0 97 16 a0 3b 06 73 f8 3c 69 d5 69 bc 92 82 ae 3c
       0.0048855054 0.030328285 -0.014272072 0.021302495
0001f0 1e 35 0b bb 34 ee 83 bc ab ba 6f 3b 8d 0f 1e bc
       -0.0021241377 -0.016104795 0.0036579769 -0.009647262
000200 38 e5 ef 3c a4 76 a4 bb 06 6e 4a bd c0 a3 2a bb
       0.029284105 -0.005019026 -0.049421333 -0.0026037544
000210 d0 e5 a1 bb 03 3a 6e b9 ac 56 9e bc d5 7f a9 bc
       -0.004940726 -0.0002271906 -0.019328438 -0.020690838
000220 68 f1 81 3b e4 b5 0b 39 7e d4 b0 3c 93 a0 6a bb
       0.0039655454 0.00013323833 0.0215857 -0.0035801276
000230 1e 22 bf 3c eb 01 c1 3b 80 f7 0f 3c 80 db 18 3d
       0.023331698 0.005890121 0.008787036 0.037318707
000240 29 e9 84 bc 12 1f 6c 3c 6d ce 1a 3b 73 2b d0 3c
       -0.01622446 0.014411705 0.0023621575 0.025411343
000250 c3 11 ba bb 35 23 b9 3a bb 1c 22 3c e6 87 a7 bc
       -0.005678387 0.0014124872 0.009894545 -0.020450544
000260 b3 ba d3 bc 6f b1 6f bc a1 ba fb 3c 8d fe 10 bd
       -0.025845861 -0.014629706 0.03072864 -0.03539901
000270 bb f7 22 3c 0d 86 72 bc da 50 2c bc b3 9b 90 bc
       0.009946759 -0.014802468 -0.010517323 -0.017652368
000280 c0 db 84 bc fa 09 48 bd 4e 67 25 3c 2c 10 8e bb
       -0.016218066 -0.04883764 0.010095431 -0.004335424
000290 07 bf e3 bc f6 5f 0b bd e9 be 3f bc c0 6e 2b bc
       -0.02780105 -0.034027062 -0.011703231 -0.010463417
0002a0 9c 51 ec bc e4 0f ec 3a cc 64 fa 3b 46 21 d7 3c
       -0.028847508 0.0018010107 0.0076414105 0.026260983
0002b0 b5 6f 87 3c 4a 92 6f bc 08 fd 59 3c 3e 07 ed 3a
       0.016532758 -0.01462228 0.013304956 0.0018083823
0002c0 e7 e0 ab 3b c7 36 0b ba 06 0d a0 bc 59 3a bf bc
       0.0052453163 -0.00053105917 -0.01953746 -0.023343252
0002d0 94 c1 df 3c a4 9c 38 bc 8e 5f a8 3c 40 68 6f 3b
       0.027313985 -0.011267815 0.020553377 0.0036530644
0002e0 84 86 03 bc 86 d4 b3 3b 49 19 28 3c 41 76 cf bb
       -0.0080276765 0.0054879813 0.010259935 -0.0063312356
0002f0 3e c4 cf 3b b1 97 e4 3c 31 f5 e6 bb e8 11 2f 3c
       0.0063405326 0.027904363 -0.007048272 0.0106854215
000300 fe 6d bf bc d6 44 4b bc 32 47 84 3c 84 5f 1d bc
       -0.023367878 -0.0124065485 0.01614723 -0.009605292
000310 2c ce 13 bd 78 d0 86 3a 89 d0 b4 bc ba 14 05 bd
       -0.036085293 0.0010285517 -0.022072094 -0.03249047
000320 e8 ca 49 3b 98 84 b3 bb 2c 49 25 bc 3f 16 34 bb
       0.0030791108 -0.005478453 -0.010088246 -0.002747908
000330 c6 04 c6 bc 47 45 44 bb d2 04 82 bc 90 77 da bc
       -0.024172198 -0.002994852 -0.01587144 -0.02666834
000340 74 f5 8d 3c b9 27 fb 3c 3a 38 49 3c f0 fd a7 3c
       0.017328955 0.03065859 0.012281472 0.020506829
000350 dc 89 b9 bb 44 36 b6 3c 2f 25 c7 3c 21 b7 3f 3c
       -0.005662186 0.022242673 0.024309723 0.011701376
000360 26 e1 47 bc a7 bf eb 3b ca 64 20 3d 3c c7 6b 3b
       -0.012199676 0.0071944776 0.03915862 0.0035976907
000370 7c 5a e8 bc fe fa 08 3b 2d 09 92 3b 76 32 94 bc
       -0.028363459 0.0020901556 0.0044566602 -0.018090468
000380 f3 6d ed bc e1 e9 c6 3c 00 d0 ab 3c 90 70 ec bc
       -0.028983092 0.024281444 0.020973206 -0.028862268
000390 9c 4f 90 bc c8 2b 21 3b f7 a5 ff 3b 7c dd 7b bb
       -0.017616086 0.0024592746 0.007801767 -0.0038431576
0003a0 f4 0e 62 3a 48 27 dc bc bf 23 08 3c db 58 c2 3c
       0.0008623444 -0.0268742 0.008309304 0.02372401
0003b0 f1 8a 70 bc 99 b3 41 bc 2c 7a 85 3c f4 cf 81 3b
       -0.014681564 -0.011822605 0.016293608 0.0039615575
0003c0 4a 18 ac 3c 55 2c 9e 3c cc 9a b7 bc 30 53 03 bc
       0.021007676 0.019308249 -0.02241268 -0.008015439
0003d0 1e f9 fa bb d3 4d cc 3b 17 61 07 bc 0c 11 07 3c
       -0.0076590916 0.0062348633 -0.008262894 0.00824381
0003e0 ad 58 db 3b b1 97 2d bc 42 0d 81 3c 1c f6 f0 bc
       0.0066939206 -0.010595248 0.015753392 -0.02941423
0003f0 a1 2c cf bb f1 fb a8 bb 53 87 28 bd b0 c3 69 bc
       -0.006322459 -0.005156987 -0.04114468 -0.014267847

action_model._continuous_distribution.mu.bias f4 [2]
000000 14 30 b8 bb 56 34 01 bc
       -0.0056209657 -0.007886013

action_model._discrete_distribution.branches.0.weight f4 [4, 128]
000000 9d 90 f6 bb 82 1a 78 3c 90 ef 05 ba 62 5d db 3b
       -0.0075245635 0.015143039 -0.0005109245 0.0066944817
000010 7c 80 56 bb 56 00 e3 3b f0 60 8f 3c 44 20 ce 3b
       -0.0032730391 0.0069275303 0.017502278 0.0062904675
000020 b6 4a 89 3b f1 14 00 bc cb 9f d5 bb 5f 4d e3 bb
       0.0041898144 -0.007817493 -0.006519293 -0.0069367136
000030 80 56 8d 3c d7 b8 d6 3a 4d e4 0c ba 5c 31 b6 3b
       0.01725316 0.0016381991 -0.00053745956 0.0055600833
000040 28 7d 31 bb 00 9b 04 3b 79 d0 9d 3b 16 6c bc bb
       -0.0027082656 0.0020233989 0.0048161116 -0.0057501895
000050 0a 45 bf 3a fc d7 2e 3c 0c 90 dd 3b 6b 64 06 3c
       0.0014592719 0.010671612 0.0067615565 0.008202652
000060 c6 1e c0 3b 39 e8 2d bb 98 44 58 bc 0d 6a 6e 3c
       0.0058630435 -0.002653612 -0.013199948 0.014551652
000070 98 dd 0f bc b1 05 75 3b 5a 4d a7 3c 88 d9 87 3b
       -0.008780859 0.0037387426 0.020422626 0.004145805
000080 a8 28 3c bb 86 95 bc 3b 55 22 b3 bb 83 6f 31 ba
       -0.0028710756 0.0057551293 -0.005466739 -0.00067686307
000090 6a 37 f4 ba c8 2b 32 bb e1 b8 eb 3b f8 8c 37 bb
       -0.0018632237 -0.002718674 0.00719367 -0.0028007608
0000a0 5c 3d b4 3b 36 ff 45 3c b3 05 34 bc c2 36 6d 3c
       0.0055004787 0.012084773 -0.010987687 0.014478387
0000b0 e1 2b a5 3a 3e 85 05 3c ef 71 9d bc de 9d dd 3a
       0.0012601578 0.008149443 -0.019219367 0.001690801
0000c0 be c2 e4 3b a4 c7 cf 3c a1 2b ba ba ed 63 b0 39
       0.006981223 0.02536375 -0.0014203676 0.00033643786
0000d0 f5 a9 60 b9 3e 66 b6 bb 57 97 6e 3a 7d bc 21 3c
       -0.00021425619 -0.0055663874 0.0009101531 0.009871599
0000e0 4e 53 be bb 1e 6d 85 bb a6 ec a9 bb 04 3b 49 3c
       -0.0058082705 -0.0040718457 -0.0051856814 0.012282137
0000f0 6a 93 8b bb 99 d3 ca bb ae b2 0c 3b 26 7e 23 bc
       -0.0042595165 -0.006189775 0.0021468806 -0.009978807
000100 bc ea fc 3a 97 80 73 3a f3 0e 03 3b cf fa 93 3c
       0.001929603 0.0009288876 0.0019997924 0.01806393
000110 4f 16 d1 ba 1a 7a 42 3c 3b db 1f 3c 95 00 6f 3c
       -0.0015952083 0.011869932 0.009756858 0.014587541
000120 c5 3f 39 3b 08 87 bd bb fa 27 54 3c ad 65 4a bb
       0.002826677 -0.0057839192 0.012948984 -0.0030883357
000130 2e 03 98 bc c1 04 1d bc 81 d4 3f 3b 05 ae ad bb
       -0.018556204 -0.009583653 0.002927095 -0.0053002858
000140 eb 92 8a 3c a2 75 ba ba ed 4e 1f bb 18 50 e5 3b
       0.01691576 -0.0014225731 -0.0024308518 0.0069980733
000150 04 16 01 bc e1 52 e2 3a 31 a0 59 bb c5 10 72 3c
       -0.007878784 0.0017267131 -0.0033207054 0.014774506
000160 24 55 5d ba 08 bf 4a 3a ab 0e 63 3a 68 6d fb 3b
       -0.0008443168 0.00077341544 0.00086615485 0.0076729544
000170 5a 10 13 bc 2f b8 b5 3b 83 fe 43 b9 68 ad 35 3c
       -0.0089760665 0.005545638 -0.00018691462 0.011088707
000180 ab 99 8f 3b 7f 3e 72 3c 4b 69 ac bc 9b 16 1f bc
       0.0043823323 0.014785408 -0.021046301 -0.009709979
000190 21 8a 8b bb 34 a7 cd 3b d3 2e 19 bc 63 a0 18 3c
       -0.0042584096 0.0062760357 -0.009349543 0.009315583
0001a0 2a 5c 76 39 0e 0a ca ba 4d dd 19 3c f5 d4 7d 3b
       0.00023494722 -0.0015414373 0.009391141 0.0038731669
0001b0 c4 18 58 3c d9 31 75 3c b9 88 82 bb 6a 07 8f 3b
       0.013189498 0.014965498 -0.0039835838 0.0043648975
0001c0 34 ac e5 bc c9 8d 45 3c 21 bc c1 bc 8c d6 46 bb
       -0.028036214 0.01205773 -0.023649277 -0.0030340282
0001d0 f9 d5 8e 3b c4 5a 40 3b 91 07 4c bc 4b 63 85 bb
       0.0043590036 0.0029350976 -0.012452976 -0.0040706745
0001e0 d5 9d 5e bb 6b 70 bb 3b d8 cb 19 bc 6f b4 7d bc
       -0.0033968587 0.0057201884 -0.009386979 -0.015484913
0001f0 92 c3 2d 3a e6 b3 7a bc 76 a7 6c bb 3c 83 93 bb
       0.00066285685 -0.01530168 -0.0036110557 -0.0045017283
000200 4d c3 2e bc 62 cd 4c 38 06 65 04 3c b0 b7 39 bc
       -0.0106666805 4.8828668e-05 0.0080807265 -0.011335298
000210 05 2d 7c 3b 4f 67 45 3b 7d 6f 5d bc 52 24 2f 39
       0.0038478982 0.0030121391 -0.01351535 0.00016702831
000220 ee 1b 75 bc d3 bf 30 3c 8d 4c 96 3b a7 18 63 3b
       -0.014960272 0.010787922 0.0045867623 0.0034652145
000230 be 2c 9e bc c8 98 ad 3b 82 01 8a bc 92 f6 94 bb
       -0.019308444 0.005297754 -0.016846422 -0.004545995
000240 7c 0d 8c bc 71 c2 53 bb 26 14 cc ba ef 77 b0 3b
       -0.017096274 -0.003231194 -0.001556997 0.005385391
000250 f8 80 33 3c d5 39 bf 3b 06 f7 63 bb f0 6e fd 3b
       0.0109560415 0.0058357515 -0.0034784689 0.007734172
000260 19 79 0f 3b ea fd 82 bb 23 f6 31 3c d4 c3 ab 3b
       0.0021892248 -0.003997554 0.010861906 0.0052418504
000270 90 d2 ff bb 76 2b 5f 3a 4d ea 24 bc 41 9f bc bb
       -0.0078070834 0.0008513251 -0.010065627 -0.005756289
000280 f5 91 77 bc a6 82 d4 ba 2b 43 58 bc 61 9b d4 bb
       -0.015110482 -0.0016213253 -0.013199608 -0.006488249
000290 c8 f3 a8 bc 91 f8 36 bc 9f ff 09 3a 84 33 82 3c
       -0.020624056 -0.011167661 0.0005264226 0.015893705
0002a0 37 c2 8b bc 08 0c f8 36 40 43 a0 bc 7c 78 94 bc
       -0.017060382 7.3923766e-06 -0.019563317 -0.018123858
0002b0 e2 8c b8 3b ad c9 98 3c 92 76 f3 bb 51 fc 82 3c
       0.005632029 0.018650854 -0.007429906 0.015989454
0002c0 2b 8a 95 bc b6 31 48 bb 2c 85 9e 3b 06 80 84 3c
       -0.01825436 -0.0030547208 0.0048376527 0.016174328
0002d0 4c 4a 86 ba 19 14 90 3c 2f a0 18 3b 09 e0 81 bb
       -0.0010245531 0.017587708 0.0023288836 -0.0039634746
0002e0 9e fd a1 3b 51 50 83 3a 38 76 fe 3a 4c a8 77 3b
       0.0049435636 0.0010018443 0.0019413894 0.0037789522
0002f0 e9 88 8f 3c 62 5b d3 3b b5 17 51 bb d5 37 4d bc
       0.017521339 0.0064501027 -0.0031905 -0.012525518
000300 2e 7f f4 3c e0 75 b9 3b 92 7e d8 38 88 94 f2 36
       0.0298458 0.0056598037 0.00010323258 7.2294533e-06
000310 9e f2 ea bb 94 44 82 3b 10 ec 61 bb b1 74 36 bc
       -0.0071700355 0.0039754603 -0.003447298 -0.01113622
000320 dd 01 e7 bb 82 9f ba 3c 33 4b 60 3b 17 d0 88 3c
       -0.0070497827 0.022781137 0.003422451 0.016700787
000330 0b ba 57 3c a4 a5 28 bc a0 35 29 ba 50 70 33 b9
       0.013166915 -0.010293398 -0.0006454829 -0.0001711261
000340 f9 87 37 3c de 21 cc bb 4d 3a 94 bc 31 e6 67 bb
       0.011201852 -0.006229623 -0.018094206 -0.0035385008
000350 95 bf 92 ba c4 9e 9d 3b f1 e2 8b bb 04 99 ba 3a
       -0.0011196012 0.004810186 -0.004268997 0.0014236276
000360 6f bf a5 3b 63 00 9c 3a b3 1c 5f 3b d5 bf c8 3b
       0.005058221 0.0011901971 0.0034044206 0.006126384
000370 dc 30 a7 bc 2b 17 a4 3b ec 34 af bc 33 8c 90 bc
       -0.02040904 0.0050076446 -0.02138754 -0.017644977
000380 fb 78 c4 3a 2e e6 45 3b 4d 08 43 3c 36 2a 33 3c
       0.0014989668 0.0030197012 0.0119038345 0.010935357
000390 90 7b ab bc 48 31 1b bc f1 2f ff 3a 8d 74 65 3b
       -0.020932943 -0.009472199 0.0019469244 0.0035012097
0003a0 dd 7e 8a bc 54 1b 89 bb 13 ce 3c 3a 24 d7 b1 3c
       -0.016906196 -0.004184166 0.00072023383 0.021709032
0003b0 c0 18 b6 ba 9c bc e2 3b 8f e9 d1 bb b9 36 fa bb
       -0.0013892874 0.0069194566 -0.006406016 -0.007635918
0003c0 a4 2f 1e bc 7d bc 85 3c b0 ad fd bc d9 fc 67 bb
       -0.009654913 0.01632523 -0.03096661 -0.0035398512
0003d0 75 92 ae bb 95 fa 59 3b 94 3b ff ba 21 fe ff bb
       -0.0053275176 0.003326093 -0.0019472712 -0.007812277
0003e0 58 d1 88 3b 71 18 01 bc 71 80 32 3c e8 97 fc 3b
       0.0041753463 -0.007879362 0.010894881 0.0077085383
0003f0 f9 da 24 3b da 4d 7a bb 2c 2c 36 bc c5 bf ca 3b
       0.0025154932 -0.0038193376 -0.01111893 0.0061874115

action_model._discrete_distribution.branches.0.bias f4 [4]
000000 e6 73 47 3b bd 65 88 3b 2b ac 9d ba b2 6e f1 bb
       0.003043407 0.004162519 -0.001202946 -0.0073679322

exp_avg f4 [128, 28]
000000 8c 5b 28 39 00 00 00 00 bf 37 a8 b8 d5 17 81 b6
       0.00016055832 0.0 -8.021248e-05 -3.847274e-06
000010 00 00 00 00 05 85 81 39 a9 bc ab b5 04 6d 9b b7
       0.0 0.00024703905 -1.27954e-06 -1.8528204e-05
000020 6f 56 c9 36 36 b8 cc 37 90 45 9f b8 c6 10 0b 39
       6.000329e-06 2.4404475e-05 -7.594668e-05 0.00013262322
000030 23 b3 04 35 1c 48 2b b9 a9 59 21 38 00 00 00 00
       4.943451e-07 -0.00016334694 3.8468894e-05 0.0
000040 83 68 a3 b8 a9 a5 8e 37 64 53 f6 38 46 1e 38 39
       -7.7919125e-05 1.700486e-05 0.00011745727 0.00017558885
000050 d2 39 34 b7 6d 25 e8 b8 00 00 00 00 00 00 00 00
       -1.0742298e-05 -0.00011069593 0.0 0.0
000060 00 00 00 00 00 00 00 00 00 00 00 00 00 00 00 00
       0.0 0.0 0.0 0.0
000070 5e ea 13 b8 00 00 00 00 79 f7 14 38 f2 20 68 37
       -3.5265803e-05 0.0 3.5516427e-05 1.3835948e-05
000080 00 00 00 00 6b 0b 80 37 5a 42 55 b4 47 21 4a 38
       0.0 1.5264106e-05 -1.986131e-07 4.8191545e-05
000090 af 75 7e 36 29 a6 6f b8 88 64 bd b7 2d 03 02 b8
       3.791745e-06 -5.713679e-05 -2.257737e-05 -3.0997373e-05
0000a0 b2 66 a9 b3 3a 7e f9 37 d1 f6 20 b8 00 00 00 00
       -7.888356e-08 2.9741892e-05 -3.837684e-05 0.0
0000b0 ce a7 c0 37 01 0f ca 37 ac cd 1a 38 d2 5c 3f 37
       2.2966324e-05 2.4087263e-05 3.6908008e-05 1.1406099e-05
0000c0 83 e5 2c 38 e2 7b 4a 37 00 00 00 00 00 00 00 00
       4.1221745e-05 1.2068982e-05 0.0 0.0
0000d0 00 00 00 00 00 00 00 00 00 00 00 00 00 00 00 00
       0.0 0.0 0.0 0.0
0000e0 1a 9c 38 b7 00 00 00 00 3a a2 13 b7 58 26 45 36
       -1.10036e-05 0.0 -8.799654e-06 2.9377607e-06
0000f0 00 00 00 00 d3 72 44 b7 ac f8 f6 34 ba 94 04 b8
       0.0 -1.1709245e-05 4.6002003e-07 -3.1609765e-05
000100 58 49 7f 37 64 9c 78 38 49 4b e8 36 2d d0 b2 b7
       1.5216261e-05 5.9273458e-05 6.922903e-06 -2.1316193e-05
000110 3e 88 74 35 96 61 a4 36 07 b2 89 b7 00 00 00 00
       9.109534e-07 4.8989414e-06 -1.6414573e-05 0.0
000120 ea 5c f4 b7 1a d7 11 b8 c4 78 dc b7 39 9f f7 b7
       -2.9130333e-05 -3.4771023e-05 -2.628228e-05 -2.9518838e-05
000130 70 a5 1a 37 7c a9 33 b8 00 00 00 00 00 00 00 00
       9.217634e-06 -4.283477e-05 0.0 0.0
000140 00 00 00 00 00 00 00 00 00 00 00 00 00 00 00 00
       0.0 0.0 0.0 0.0
000150 4e e8 d5 38 00 00 00 00 9b 6e f6 b5 56 d2 06 b7
       0.000101999016 0.0 -1.8360619e-06 -8.035995e-06
000160 00 00 00 00 67 ae 70 38 6a 1e 03 b5 04 27 55 36
       0.0 5.7382884e-05 -4.884556e-07 3.1762183e-06
000170 6e c1 d1 b6 47 19 51 b8 eb 0a 82 b7 74 75 f6 38
       -6.2512036e-06 -4.9853024e-05 -1.5502292e-05 0.000117520714
000180 19 47 95 36 c4 3b ba b7 51 bb 57 38 00 00 00 00
       4.448823e-06 -2.2200758e-05 5.1434447e-05 0.0
000190 de 39 9d b7 b4 15 29 b8 b4 86 29 b7 0f 88 93 36
       -1.8742805e-05 -4.0312952e-05 -1.0104548e-05 4.3967807e-06
0001a0 e2 9d 1a b8 e4 80 22 36 00 00 00 00 00 00 00 00
       -3.68635e-05 2.4214905e-06 0.0 0.0
0001b0 00 00 00 00 00 00 00 00 00 00 00 00 00 00 00 00
       0.0 0.0 0.0 0.0
0001c0 ba 8f 12 b8 00 00 00 00 53 67 6d b8 21 eb b1 b7
       -3.494297e-05 0.0 -5.660143e-05 -2.1209535e-05
0001d0 00 00 00 00 ee 48 2a 38 45 f8 89 33 e2 89 93 38
       0.0 4.059908e-05 6.4247196e-08 7.035189e-05
0001e0 5f 3b 99 36 b3 3f d9 b7 08 3a 88 b7 a7 37 32 b8
       4.566667e-06 -2.5898078e-05 -1.6239486e-05 -4.2490337e-05
0001f0 94 ac 24 b4 74 84 15 b8 05 20 53 37 00 00 00 00
       -1.5336474e-07 -3.5647725e-05 1.2584035e-05 0.0
000200 52 71 6b b8 1a 4c ab 37 e8 83 e0 36 7c 85 ec 37
       -5.6133904e-05 2.0420226e-05 6.691076e-06 2.819555e-05
000210 30 be 91 b8 37 7d 08 38 00 00 00 00 00 00 00 00
       -6.949564e-05 3.2541542e-05 0.0 0.0
000220 00 00 00 00 00 00 00 00 00 00 00 00 00 00 00 00
       0.0 0.0 0.0 0.0
000230 a7 69 93 b6 00 00 00 00 40 d4 82 37 37 56 13 b7
       -4.393241e-06 0.0 1.5596044e-05 -8.781956e-06
000240 00 00 00 00 37 48 12 38 3a 83 bb 34 81 29 86 37
       0.0 3.4876368e-05 3.4926944e-07 1.5993372e-05
000250 5a ae 61 b8 9e 23 cd 37 a7 c4 ce b4 0f d0 61 b7
       -5.3806558e-05 2.445449e-05 -3.8513573e-07 -1.34594875e-05
000260 87 c0 3a 36 c1 8f f2 36 51 72 e2 35 00 00 00 00
       2.7828225e-06 7.228897e-06 1.6871583e-06 0.0
000270 d4 f9 54 37 60 28 57 b3 2b e2 09 37 e9 0f 49 37
       1.2694352e-05 -5.009531e-08 8.218495e-06 1.1984238e-05
000280 13 b4 d9 37 a2 09 1a 37 00 00 00 00 00 00 00 00
       2.595227e-05 9.181358e-06 0.0 0.0
000290 00 00 00 00 00 00 00 00 00 00 00 00 00 00 00 00
       0.0 0.0 0.0 0.0
0002a0 ec 31 b2 b7 00 00 00 00 a4 fe a6 b7 00 c5 3f 37
       -2.12425e-05 0.0 -1.9907318e-05 1.1430355e-05
0002b0 00 00 00 00 11 1b a3 b8 67 38 ea 33 9c 44 46 38
       0.0 -7.777487e-05 1.0906734e-07 4.7270776e-05
0002c0 e4 b3 9b b8 c1 00 ab 37 0b d8 0d 38 52 6c 07 38
       -7.424483e-05 2.038514e-05 3.3818225e-05 3.228739e-05
0002d0 f4 60 b5 b5 8b 56 00 38 6b 86 7a b7 00 00 00 00
       -1.3513768e-06 3.0598178e-05 -1.4932458e-05 0.0
0002e0 27 fe 47 38 db 2f 35 b8 df db c4 b7 9e ef 8d b8
       4.7681995e-05 -4.319833e-05 -2.3467406e-05 -6.768036e-05
0002f0 ba 49 4c b8 c6 13 4c 38 00 00 00 00 00 00 00 00
       -4.8706053e-05 4.8655806e-05 0.0 0.0
000300 00 00 00 00 00 00 00 00 00 00 00 00 00 00 00 00
       0.0 0.0 0.0 0.0
000310 2b 0f c5 37 00 00 00 00 7e 69 2f 38 95 b3 17 38
       2.3491293e-05 0.0 4.18215e-05 3.6168454e-05
000320 00 00 00 00 69 cd 2f 38 f1 3d 1b b4 42 44 14 b8
       0.0 4.1914554e-05 -1.4458034e-07 -3.534952e-05
000330 cf 37 00 b8 04 e3 66 38 ec b5 02 b8 1c fc 0d 38
       -3.0569554e-05 5.5047698e-05 -3.1163843e-05 3.3851815e-05
000340 fe c1 bd 36 f6 11 94 36 89 c4 01 37 00 00 00 00
       5.6552226e-06 4.4128346e-06 7.734759e-06 0.0
000350 cf 8f c5 b6 df ce 1a b6 a9 16 f3 37 63 cb 0d 38
       -5.887799e-06 -2.3068203e-06 2.897841e-05 3.380644e-05
000360 b0 e9 0f 38 df ae c0 b6 00 00 00 00 00 00 00 00
       3.4311495e-05 -5.7424036e-06 0.0 0.0
000370 00 00 00 00 00 00 00 00 00 00 00 00 00 00 00 00
       0.0 0.0 0.0 0.0
000380 f4 2e 55 37 00 00 00 00 00 cc f7 37 27 38 98 37
       1.27067215e-05 0.0 2.953969e-05 1.814596e-05
000390 00 00 00 00 81 08 cd b8 5d 03 20 b5 b1 88 85 b8
       0.0 -9.776746e-05 -5.960954e-07 -6.367395e-05
0003a0 de 21 2f 37 f9 ba ee 37 3c 13 f6 36 af 6d 1c 38
       1.0438698e-05 2.8458877e-05 7.3336105e-06 3.729545e-05
0003b0 4a c2 51 36 e3 c9 22 38 33 6d 12 b7 00 00 00 00
       3.1256518e-06 3.881183e-05 -8.727703e-06 0.0
0003c0 fa c3 67 38 8b d2 e2 b7 f7 f0 36 b7 8a ea 01 b8
       5.525721e-05 -2.7039341e-05 -1.0904149e-05 -3.097443e-05
0003d0 52 3b be 38 48 20 9d b7 00 00 00 00 00 00 00 00
       9.070955e-05 -1.873089e-05 0.0 0.0
0003e0 00 00 00 00 00 00 00 00 00 00 00 00 00 00 00 00
       0.0 0.0 0.0 0.0
0003f0 13 8b c8 38 00 00 00 00 cb 50 38 38 3a be bf b6
       9.562648e-05 0.0 4.3944263e-05 -5.714389e-06
