Assets/ML-Agents/results/RL_TEST/RL_Test/RL_Test-1007243.onnx (onnx, 89041 bytes, 11 tensors)

network_body.observation_encoder.processors.0.normalizer.running_mean f4 [22]
000000 08 28 7c be 00 00 00 00 35 a8 4a be 38 a7 60 3c
       -0.24624646 0.0 -0.19790728 0.013711743
000010 00 00 00 00 74 67 c3 3c 3f 68 bb 42 73 9c 26 3f
       0.0 0.023853041 93.703606 0.6508247
000020 53 77 27 3f 99 67 b8 3f 70 9c 1c 40 3d dd 25 be
       0.6541645 1.4406615 2.4470482 -0.16197677
000030 ca a4 aa 3d 7e b6 3f be 9b ec a4 3a 00 00 00 00
       0.08332212 -0.18721959 0.0012582721 0.0
000040 0b ba 6e b9 12 ca b9 42 97 2d 9a 3e f6 92 07 3f
       -0.00022766755 92.89467 0.30112907 0.5295862
000050 81 52 99 3f 96 0e f8 3f
       1.1978303 1.9379451

network_body._body_endoder.seq_layers.0.weight f4 [128, 22]
000000 94 6d a0 3d 6d 81 f4 be 71 96 ff 3e 89 7a 39 3e
       0.078334 -0.47754994 0.49919465 0.1811315
000010 04 79 98 3d 31 4a 83 be 3f cc 6f be 8c e1 c3 be
       0.07444957 -0.2564254 -0.23417757 -0.38258016
000020 82 fc d8 3d 23 4e 71 3e bd 16 60 3d 8b e1 52 bd
       0.10595037 0.23564963 0.054709185 -0.051484626
000030 28 55 84 be cf 86 84 b9 e3 59 84 be 86 15 15 be
       -0.2584622 -0.00025277442 -0.25849828 -0.14558992
000040 02 95 6d bd cf b2 7d 3d fc f3 f0 be 3c 4b a8 3e
       -0.058003433 0.061938103 -0.47061145 0.328699
000050 49 d8 67 bd 93 0d e4 3d f6 62 8b 3c c9 18 af be
       -0.05660275 0.111354016 0.017014962 -0.34198597
000060 a3 2b 18 3e 36 94 b3 3d cc 63 b9 be 99 80 06 bf
       0.14860396 0.08768503 -0.3620895 -0.52539974
000070 5c 12 be 3d de 48 97 be fc b0 b9 be be b4 6e 3e
       0.092808455 -0.2954778 -0.3626784 0.23311135
000080 96 a9 14 3e fa b9 c5 3d 5d a9 d6 be 88 70 16 be
       0.14517817 0.09654613 -0.4192609 -0.14691365
000090 35 70 ea bd 41 11 02 bf 07 30 22 3e 7a f9 a0 3d
       -0.11447183 -0.5080758 0.15838633 0.07860084
0000a0 ad 0e 17 bc 3c cd b7 3d 9c 52 e1 3d d1 53 4d 3e
       -0.009219808 0.08974692 0.110020846 0.20051505
0000b0 a5 ee 12 3f 98 a6 c4 bc 12 17 7d be 83 82 a5 be
       0.5739539 -0.02400522 -0.24715832 -0.32326135
0000c0 45 33 19 be 47 04 80 3e f2 23 07 3c 91 6a 55 3e
       -0.14960964 0.25003263 0.008248316 0.20841433
0000d0 05 e8 b9 bd b4 e5 bc bd 40 9a e7 bd 4d 67 37 3d
       -0.09077457 -0.092235 -0.11308718 0.04477625
0000e0 ec 12 35 be fe e8 18 3e e0 37 64 bd 72 ae 8a be
       -0.17683 0.1493263 -0.05571735 -0.27086216
0000f0 a3 ae c6 bd 4c 64 93 be b5 06 d9 bd 26 c7 56 3e
       -0.09701278 -0.28787458 -0.105969824 0.20974407
000100 de c9 1e 3e 83 40 a1 be e9 04 eb 3e e7 a9 94 be
       0.15506694 -0.3149453 0.45902184 -0.29035875
000110 3d 30 8b be 99 f4 44 be 3f e9 1d 3e 56 72 fc 3d
       -0.2718524 -0.19233932 0.15421008 0.12326495
000120 e3 86 30 be 0c a5 4e 3e 09 bc a7 bd ea e9 ac 3d
       -0.17238955 0.20180148 -0.08190162 0.08443053
000130 b2 05 df 3d a9 97 38 3e 5c 11 87 3e 86 1e 01 be
       0.10889758 0.18026604 0.26380432 -0.126093
000140 ef a3 3b 3d 83 69 bb be d2 86 56 be 3b 77 74 be
       0.045810636 -0.36603937 -0.20949867 -0.23873608
000150 a4 bb 24 3c da 69 1f 3e 9a e1 3a 3f 10 cc 7d 3d
       0.010054503 0.15567723 0.7300049 0.061962187
000160 8a 23 4a 3d c2 2a a5 3d 69 a2 eb 3e 51 f1 a9 3e
       0.0493503 0.08064796 0.46022347 0.33191922
000170 d4 99 46 3d d1 9d 03 be 8a ff 18 be 3a 0e 16 bd
       0.048486546 -0.12853171 -0.1494123 -0.03663466
000180 49 cc 0c be 8d 59 8d 3d 23 76 46 bb 78 06 22 3d
       -0.13749804 0.06901846 -0.0030282817 0.03955695
000190 24 ee ba 3e 5c 30 d0 3e 43 40 5e 3e bb 32 df bc
       0.36509812 0.40661895 0.21704201 -0.02724587
0001a0 9e 10 3a 3c 4d 8b bc bd c0 6d c5 bd 17 fc 1c 3e
       0.011356501 -0.09206257 -0.09640074 0.1533054
0001b0 ef db 55 be c1 9a 19 be 16 68 90 3d f8 3b 8d bd
       -0.2088468 -0.1500044 0.07051103 -0.06896204
0001c0 55 ad 77 be f0 d3 e5 3d fe 76 02 3e d3 f6 02 3c
       -0.24187215 0.112220645 0.12740704 0.007993418
0001d0 29 86 aa 3c 7b 26 09 3e 6f 9c 0c 3e 3b 52 7b be
       0.020815926 0.13393585 0.1373155 -0.24543087
0001e0 dc dd a7 be 0e f9 88 be da ef 05 3f 31 b6 8b be
       -0.32786453 -0.26752514 0.5231911 -0.2728744
0001f0 af 91 04 be 6f 7a 94 be 6e c4 fa 3d be a7 a1 3e
       -0.12946199 -0.2899966 0.12244497 0.3157329
000200 df 17 5a 3b 4f 83 97 3e c7 25 d0 3d 24 20 2f be
       0.0033278388 0.29592368 0.101634555 -0.17102104
000210 0b 6f 4b be 4c fd 23 3d 8c 18 90 bd 23 ac dd 3b
       -0.19866578 0.040036485 -0.07035932 0.006764905
000220 5b a2 1e be 28 12 b8 3e a8 73 34 bd c2 7c af 3e
       -0.15491621 0.35951352 -0.04405561 0.3427487
000230 94 cf db 3d 7b 49 be be c8 d0 34 bf 36 f4 be 3c
       0.10732952 -0.37165436 -0.70631075 0.023309808
000240 99 ae 30 3e b6 a3 68 bd 4d 49 22 3e f7 7e 28 3e
       0.17254104 -0.056796752 0.15848275 0.16454683
000250 b9 46 85 3e 93 2c 9e 3e ee 11 90 3e d4 72 85 3e
       0.2603052 0.30893382 0.2813868 0.2606417
000260 9f c6 8a ba f1 b0 69 3d 69 d8 b7 be 1f 6d e5 bc
       -0.0010587758 0.05705351 -0.35907295 -0.028006135
000270 e7 f2 a9 3d e1 83 ba bd 37 af fc bd 12 2c 1f be
       0.08298283 -0.09107185 -0.12338107 -0.15544155
000280 d2 db 78 be 21 2c 1d 3e 03 22 28 be d7 e8 77 be
       -0.24302605 0.15348865 -0.16419224 -0.24209915
000290 a3 f6 0a be 37 ea 53 bd 62 d7 86 38 0f ac cc bd
       -0.13570647 -0.051737037 6.429736e-05 -0.09993755
0002a0 f9 6d 67 be a2 ae 85 3e 78 65 f4 3c c1 62 8c 3e
       -0.22600545 0.26109797 0.02983354 0.27419093
0002b0 69 09 e4 be 90 6d c3 bd 61 14 86 3d fa 6b 77 be
       -0.4453843 -0.09542382 0.06546856 -0.24162284
0002c0 92 c9 74 be f8 20 85 bc 6e 01 85 bb 2c 3f 4d 3e
       -0.23905018 -0.016251072 -0.0040590083 0.2004363
0002d0 8c 0c 2e be 5f 63 08 3d a7 cb b9 bd 6e ee 1f be
       -0.16996974 0.033297893 -0.09072047 -0.15618297
0002e0 4d 4c da 3e 82 7c 89 bc 20 e4 6e 3e 0e 49 bd 3e
       0.42636338 -0.016783003 0.2332921 0.369698
0002f0 12 47 0b 3e 77 2a 1d be ef 15 e3 3d e7 d0 02 3d
       0.1360133 -0.1534823 0.11088168 0.031937506
000300 86 dc 4c 3e 13 95 11 3e c4 08 a6 3e f3 27 07 3e
       0.20005998 0.14217024 0.32428563 0.13198833
000310 28 92 38 3e 8d 97 84 3d 53 0c a1 bd 75 47 5d bc
       0.18024504 0.064742185 -0.07863679 -0.013505806
000320 44 bd df 3e 7e 35 a0 3e fb d5 fd bd 63 5f 25 bd
       0.43699086 0.3129081 -0.12394329 -0.04037417
000330 9f 5f b0 3c 60 4f 9d 3e ee 9d 46 3e 02 c5 c9 bd
       0.02152997 0.3072462 0.19396183 -0.098520294
000340 ba 8c 91 3d 50 06 41 be 61 d4 34 bf d2 f1 ef 3d
       0.071069196 -0.18850064 -0.70636564 0.117160454
000350 b7 26 8e 3d ac 43 6d be 48 d8 8a 3e aa ed b0 3e
       0.06940978 -0.23170346 0.27118134 0.34556323
000360 da 08 8f be 64 a7 43 3e ed bf 63 bd c2 55 00 be
       -0.2793644 0.19106823 -0.055602957 -0.12532714
000370 b5 ae 00 be 5f 28 6e bb c4 1f 93 be 7a 4e 05 3d
       -0.12566645 -0.003633998 -0.28735173 0.032545544
000380 c0 de 8c 3e 5f e6 29 bd f1 46 14 3e fc bc 83 3e
       0.27513695 -0.041479465 0.14480187 0.2573012
000390 df d5 d2 be 78 af 1a 3d e2 17 e1 bd ff a2 24 3d
       -0.41178796 0.037764996 -0.109908834 0.040194508
0003a0 b8 50 5b 3e ea 55 bb be 0c bc 97 bc 51 84 52 3e
       0.2141751 -0.36588985 -0.018522285 0.20558287
0003b0 b2 81 94 be ac 05 70 3d 49 23 d4 bd 48 d2 07 bd
       -0.290052 0.05859916 -0.103582926 -0.033159524
0003c0 14 a1 7e 3e 75 89 59 be f5 58 8e be b2 50 2b 3e
       0.24866134 -0.21243842 -0.27802244 0.16730002
0003d0 41 d3 8f bd 43 80 f9 bd b5 69 92 3c fb 70 a1 bd
       -0.07022715 -0.12182667 0.01787267 -0.078828774
0003e0 16 01 8b be e3 c0 66 3d c0 ff e7 3d 15 00 46 3e
       -0.27149266 0.056336295 0.11328077 0.19335969
0003f0 77 e2 f8 3d 89 78 88 be e7 ce aa be e0 ee 4d be
       0.1215257 -0.2665446 -0.3336098 -0.20110655

network_body._body_endoder.seq_layers.0.bias f4 [128]
000000 aa 94 94 3c 10 e4 a2 3c df 45 a4 3d 33 fb ae 3c
       0.018137295 0.01988414 0.08021139 0.021360015
000010 3b af 36 3d 6c 5b 5a 3d cf 96 6b 3d 58 4e 61 3d
       0.044600707 0.053309843 0.05751687 0.055006355
000020 2d 19 17 3b cb d2 34 3d c5 7b 73 3c 03 e4 be 3c
       0.0023055777 0.04414634 0.014861052 0.023302084
000030 70 74 2c 3c a4 ca e4 3c a2 5a a2 3c 16 6b 05 3d
       0.010525808 0.027928658 0.019818608 0.03257283
000040 63 5b 69 3c 72 c6 48 3d 02 d1 14 3d ee d4 9d 3b
       0.01424298 0.049017377 0.036332138 0.004816643
000050 dd cc 22 3c ee b3 77 3c c2 54 4b 3d 9e 85 92 bc
       0.0099365385 0.015118582 0.04964138 -0.01788598
000060 09 80 07 3c 7f e7 74 3d b8 17 3e 3c 29 df e8 bb
       0.008270272 0.059791084 0.011602335 -0.007106681
000070 92 4d 6c 3c 43 ab f8 ba ef af 14 3d a4 8a 97 3c
       0.014422791 -0.0018971938 0.036300596 0.018498726
000080 d8 fa d2 3c 52 81 c2 bc 88 c4 3e bc fc f7 c1 3c
       0.025754377 -0.023743305 -0.011643536 0.023677818
000090 00 f3 4b bc b9 c8 17 3d 75 46 a9 3c 0d ae d7 3c
       -0.012448072 0.03705666 0.02066348 0.026328111
0000a0 d6 a8 96 3c e9 3f 22 3d 50 f9 a6 3c b8 a0 12 3d
       0.018391054 0.03961173 0.020382553 0.035797805
0000b0 c0 08 26 3d 98 a9 d7 bb 10 e6 f7 bb a0 7c 3e bb
       0.04053569 -0.0065814964 -0.0075652674 -0.0029065982
0000c0 9e c4 83 3c dc a3 d6 3c 4e ac 46 3c 16 03 f7 3b
       0.016084965 0.026201181 0.012126042 0.0075382097
0000d0 f9 bb d4 3c 1e 4d c1 3b 4e d8 67 3b a7 28 be 3c
       0.025968539 0.0058990857 0.003537673 0.023212744
0000e0 a9 bb 06 3d 32 28 0e 3c d9 cb e9 ba 63 34 74 3d
       0.03289381 0.0086765755 -0.0017837241 0.059620272
0000f0 83 8a 17 3d 9d 85 5f bb d7 49 9a b9 ab b4 90 3c
       0.03699733 -0.003410674 -0.00029428184 0.017664274
000100 1e 2a 44 3d 6b e4 e9 3c 06 41 bd 3d f9 32 2f 3c
       0.04789173 0.028551301 0.09240918 0.010693305
000110 4e b6 dd 3c 30 3e 81 3b f8 dd 8d bc 96 41 20 3d
       0.027064469 0.003944181 -0.017317757 0.039125048
000120 70 c3 a3 3b bb 68 17 3d 12 ec 31 3d d3 4f 69 3b
       0.004997663 0.036965113 0.043438025 0.0035600557
000130 b2 46 29 bc aa 7f ff bb a9 89 15 3d 3a 71 8e 3c
       -0.0103317965 -0.007797201 0.036508236 0.017387975
000140 fa 05 f1 3c fe 71 9d 3d b1 b7 2f 3d 02 4e f6 3a
       0.029421795 0.07687758 0.04289979 0.0018791559
000150 2e 56 af 3c c0 20 0f 3d 98 5d 41 3d b6 5f 76 3c
       0.021403398 0.034943342 0.0472084 0.015037468
000160 aa 20 bc 3c 0d cd 09 3c 59 45 20 3b c2 e5 2e 3c
       0.022964794 0.008410704 0.0024455397 0.010674896
000170 cb 5d e5 bb d5 1a 1b 3d 08 c1 58 3c 0c b9 28 3d
       -0.0069997064 0.037867386 0.013229616 0.0411921
000180 5b 9d 0d bc 4a b5 48 3b 5e 85 c9 3c ae 3f ae 3c
       -0.0086434735 0.0030625635 0.024599727 0.0212706
000190 f6 f3 b7 bb 3e 9d f4 3c 79 1c 4c 3d 45 b1 b3 3c
       -0.005613799 0.029860135 0.04983184 0.021935115
0001a0 cc 77 b3 3c 72 8b 31 3c 24 1d 90 3d b5 82 af bc
       0.02190771 0.010836469 0.07036808 -0.02142463
0001b0 37 f2 50 3d 4e 0a ad 3c f6 7a 0b 3d 2c b6 b5 bc
       0.051012244 0.021123078 0.03405281 -0.022181593
0001c0 8d fe df bb 8a 75 48 bc 59 ce ac 3c 87 c4 dc 3c
       -0.0068357647 -0.012235055 0.021094488 0.02694918
0001d0 96 41 8a 3b c8 14 6b bc c2 e5 86 3a 27 25 63 3a
       0.0042192442 -0.014348216 0.0010291862 0.0008664899
0001e0 65 c2 dd bc b4 b1 2f 3c 8c a5 8d 3c 07 89 6d bc
       -0.027070234 0.01072352 0.017290853 -0.014498002
0001f0 22 ba 51 3d 69 4e b9 3c 21 31 db 3c 96 bd e7 3b
       0.0512029 0.022620397 0.026756825 0.007072161

network_body._body_endoder.seq_layers.2.weight f4 [128, 128]
000000 5c a8 36 bd 09 1e e8 bc ac 2f 88 3e 13 54 f7 bc
       -0.044594154 -0.028334634 0.2659887 -0.030191457
000010 a8 51 1d bd d4 94 01 3d 6e 49 02 3d 13 d0 4f 3e
       -0.03840795 0.031636074 0.03180831 0.20294218
000020 ae af b9 bd 1a 29 6c 3a bd 73 0a 3e 21 4d 37 be
       -0.09066711 0.000900881 0.13520713 -0.17900516
000030 51 c9 e1 bd a0 2b 8b bd a3 41 a9 bd b7 da d5 3c
       -0.11024726 -0.0679543 -0.08264472 0.026105268
000040 3e 4e 93 bb 42 71 08 3d 17 22 0a 3d 65 0c e6 bb
       -0.004495411 0.033311136 0.033723917 -0.0070205205
000050 65 dc 49 3d 54 17 33 bd f1 55 d1 3d 2f bd 99 3d
       0.04928245 -0.04372342 0.1022147 0.07506787
000060 61 10 02 3e 70 21 f2 3d ef 7a ef bd 86 b2 df 3d
       0.1270156 0.11822784 -0.116933696 0.109227225
000070 26 67 75 3e 2c c5 7e bc 70 b3 96 3d 9a 77 71 3d
       0.2396513 -0.015549939 0.07358444 0.05895195
000080 6a 88 f2 bc 0e 8a cb 3d a3 26 31 3c 15 95 aa bc
       -0.029606063 0.09938441 0.010812434 -0.020823041
000090 9f 65 06 3d 2b 69 e2 b9 6e 1c be 3c ee 89 7d 3c
       0.032811757 -0.00043184435 0.023206916 0.0154747795
0000a0 c2 fe cd bd 2c ce 00 be 3f c9 c6 3d b0 fe 9a bd
       -0.10058357 -0.12578648 0.097063534 -0.07568109
0000b0 ac d6 47 be 7e 02 36 3e ad 92 12 be fc 62 36 3d
       -0.19515485 0.17774388 -0.14313765 0.044527993
0000c0 9d 25 84 bd e7 90 81 bd 65 f7 c9 bd 9b 92 69 be
       -0.06452487 -0.06326466 -0.0986164 -0.22809832
0000d0 33 03 8a 3c 2c 33 dd bd d5 13 b8 bd 54 82 b5 3d
       0.016847229 -0.10800776 -0.08988158 0.08862749
0000e0 cc ec 6a 3d bf 5a 16 bd 10 84 37 bc a9 e9 48 3c
       0.057354733 -0.036707636 -0.01120092 0.01226274
0000f0 cb 09 c1 3d 4e 70 c1 bd 53 18 3d bc 2a 5f f1 bd
       0.09425696 -0.094452485 -0.011541444 -0.11785729
000100 04 61 61 bb b7 84 d0 3d eb 50 e7 3d 2f b6 fd bc
       -0.0034390101 0.10181563 0.11294731 -0.030970661
000110 b8 12 3e bd 9b e7 08 3b 61 12 c6 3d 93 98 0a 3c
       -0.04640457 0.002089 0.09671474 0.008459228
000120 ca 83 d5 3d ad 5f 0c 3e 43 b4 a4 bc f1 1f c4 bd
       0.104255274 0.13708372 -0.020105487 -0.09576405
000130 7a 09 8e 3d 5e f5 ba 3d e1 99 e1 bd f7 9d 51 bd
       0.06935401 0.09128831 -0.11015678 -0.051176038
000140 24 15 2f 3e 75 03 5d be a8 51 9a bd e4 de 79 bb
       0.17097908 -0.2158335 -0.07535106 -0.0038127238
000150 46 8c 75 3d 32 dd 21 3e 68 65 63 3d b2 7f d8 3d
       0.05994823 0.15807036 0.05551663 0.10571231
000160 ae 71 28 3b a2 34 47 bd 86 02 f2 bd 9f 29 06 bd
       0.0025702524 -0.04863418 -0.118168876 -0.032754537
000170 9f bf 6e 3d 1d fc 91 be bc 6a 1c 3d 0b b1 aa 3d
       0.058288213 -0.2851266 0.038187727 0.083345495
000180 47 dc 33 bd e2 f6 b4 3c d0 36 08 be 05 ee f5 bd
       -0.043911245 0.02209038 -0.1330216 -0.12008289
000190 dd 3e 94 bd b6 72 b2 bd 7c 25 de 3c 1c 70 15 3e
       -0.07238553 -0.087132856 0.027117483 0.14593548
0001a0 a1 31 16 3e 34 2d 29 be f3 71 42 3e 23 20 9b bd
       0.1466737 -0.1652115 0.1898878 -0.07574489
0001b0 34 ca 50 be e8 d7 80 3d b5 f0 bc bd c9 18 1e bd
       -0.20389634 0.06291181 -0.09225599 -0.038597856
0001c0 0a 7e d6 3d b4 27 f3 bb b1 e9 66 bd 9b 01 f8 3d
       0.10473259 -0.0074205045 -0.05637521 0.12109681
0001d0 1c 9c df 3d 58 96 72 3d 9e 0a b7 3d 67 72 10 3d
       0.109184474 0.05922541 0.08937572 0.035265353
0001e0 d3 e3 6a 3d 27 8a 5a bc b0 cb 84 bd 8e 28 db bd
       0.057346176 -0.013338602 -0.06484163 -0.107010946
0001f0 55 5c 72 bd 81 8c 6d bd 88 94 2d be 1c 2c 08 bd
       -0.059170086 -0.057995323 -0.16951191 -0.03324519
000200 74 8d 31 3b 8b fc bd bd 54 ea 1c 3d 09 01 cf 3d
       0.002709237 -0.092766844 0.03830941 0.10107619
000210 1b fe ad 3d 6e 5b 22 3e c7 76 94 3d 41 a7 52 3c
       0.084957324 0.1585519 0.072492175 0.012857259
000220 9a 36 da bd f0 f5 87 be f8 94 5d 3c 70 ae f1 bb
       -0.10654946 -0.26554823 0.013524286 -0.007375531
000230 10 2f b6 3d 27 5b b2 bd e5 50 87 be 46 d3 af bd
       0.08895695 -0.08708792 -0.26428905 -0.08585219
000240 ae 31 a2 bd b2 14 58 3c 51 47 16 3e 67 37 75 bd
       -0.07919632 0.013188528 0.14675643 -0.05986729
000250 af 60 36 bd d6 c5 1c bc ed a3 33 3e 58 82 75 bd
       -0.0445258 -0.009568652 0.17543001 -0.05993876
000260 00 b2 08 3e b4 66 c8 bc 26 12 af 3d 2a 0f db 3d
       0.13349152 -0.024463035 0.085483834 0.10696252
000270 a1 78 bb 3c 57 f4 e5 bc 5d 6c 9d 3d 9d 72 8b bd
       0.022884669 -0.028070612 0.07686684 -0.0680897
000280 cd a7 b5 bc d9 ca 5b bc 61 46 84 bd db d2 83 3d
       -0.02217474 -0.013415062 -0.06458736 0.06436702
000290 c0 d7 38 3d 6a d0 90 3d da cb 71 3e 56 54 e2 3d
       0.04512763 0.07071002 0.2361292 0.11051242
0002a0 6c fd 16 3d 69 c9 11 3e 08 08 84 3d be 36 6d be
       0.036862776 0.14236988 0.06446844 -0.23165414
0002b0 0e 95 51 3b f2 74 8d 3b 22 2a 07 3d 41 95 aa bc
       0.0031979713 0.0043169195 0.032999165 -0.020823123
0002c0 bd 4c 75 bd d5 a4 e2 3d d4 c1 b2 bd 79 2d 63 bd
       -0.059887636 0.110665955 -0.08728376 -0.055463288
0002d0 5b 29 6b bc a9 07 00 be e4 21 27 3e a9 c8 96 bd
       -0.014353122 -0.12502922 0.16321522 -0.07362492
0002e0 25 ec 81 bd 34 c4 3a be c4 fc f1 3c 79 4d b7 3c
       -0.06343869 -0.18238908 0.029539473 0.022375809
0002f0 07 8f cc 3c 23 0b 01 be c0 94 00 3d 5d 9b 13 be
       0.024970545 -0.12601905 0.03139186 -0.14414735
000300 33 1e b6 bd fb 94 1a bd 96 ea 8a 3d 2c 67 c8 3d
       -0.08892479 -0.037739735 0.06783025 0.097853035
000310 68 0b 01 3c 5b da 10 be e8 04 0c 3c e6 d3 01 be
       0.007876255 -0.14145796 0.008546092 -0.12678489
000320 ea f6 06 3e 34 dd 40 bd 18 e6 63 bd 8f 77 f9 bd
       0.13180128 -0.047085956 -0.055639356 -0.12181007
000330 5d e6 86 3e a8 58 cd bd 7d f8 a5 bd be b1 06 3b
       0.26347628 -0.100266755 -0.08104036 0.002055272
000340 bf ac 3b 39 8b 1f 1e bc b6 5d 43 bd 76 15 0f 3e
       0.00017898063 -0.009651075 -0.04769679 0.1397303
000350 e4 5e f5 bd ca 21 20 ba 11 14 44 3c 02 82 c5 bd
       -0.119809896 -0.00061085506 0.011967675 -0.09643938
000360 87 f0 20 3d a3 8a be bd bf 05 41 bd ce cc 62 bc
       0.039291885 -0.093037866 -0.04712462 -0.013842775
000370 6e 80 12 3e e2 eb 14 bc 8d fb 1f 3e d9 a2 2f bd
       0.14306805 -0.009089442 0.15623303 -0.042879913
000380 2e 03 f5 3c 8d e8 e3 3c b2 92 70 bd 25 2f 85 3d
       0.029908743 0.02782085 -0.05873365 0.06503133
000390 e0 e1 93 bd 0d 38 de bd ab 31 6b 3d a7 6a 17 3e
       -0.072208166 -0.108505346 0.057420414 0.14786778
0003a0 bb 4a d2 bd ae 64 ce 3d 89 fa c4 bb 4f 96 34 3d
       -0.1026816 0.10077797 -0.0060113114 0.044088658
0003b0 d0 3b c1 3d 96 a3 5b 3d a8 78 fc bd c2 c1 48 bd
       0.094352365 0.053622805 -0.12327701 -0.049012907
0003c0 93 96 dd bd f7 59 b8 bc a3 d5 74 be ad e0 85 bb
       -0.108197354 -0.022503836 -0.23909621 -0.0040856213
0003d0 f2 4e 54 3d 23 19 31 3e 05 06 94 bd d4 34 95 3c
       0.0518331 0.17294745 -0.07227711 0.018213667
0003e0 a9 15 93 3d bb b9 1e bd 13 34 ba bd 8e 9e 64 bc
       0.07181866 -0.038751345 -0.090919636 -0.013953818
0003f0 35 ee 8f 3d 00 df 95 bd 1a f1 4b 3d 05 2e bf bd
       0.07027856 -0.073179245 0.04979048 -0.093349494

network_body._body_endoder.seq_layers.2.bias f4 [128]
000000 4f 8d b7 3c 16 fe 44 3c 40 33 c9 3c c2 6c 9c 3c
       0.022406248 0.012023469 0.02456057 0.019094829
000010 ee 0e 7f 3c 9b 4e 42 3c e2 34 01 3d a7 36 aa 3b
       0.015567524 0.011859561 0.031544574 0.0051945033
000020 da 56 31 3b 13 98 07 3d 4d aa 33 3c 60 60 37 bc
       0.0027059824 0.033104014 0.010965896 -0.011192411
000030 5d fc 62 bc 7f 0e f3 3c 68 85 fd 3c f9 41 ae bb
       -0.013854113 0.029669998 0.030947402 -0.005317923
000040 bd f2 9b 3c 60 ee 38 3d f1 62 c7 3c 33 20 c0 3c
       0.019036645 0.045149207 0.024339171 0.023452854
000050 60 49 9d 3b 30 5c 60 bb 6a 43 26 bc cc 24 9f bb
       0.0048000067 -0.0034234636 -0.010147909 -0.0048566815
000060 f5 74 dc 3b d9 3d 0f bc 56 74 e8 3c 0a 13 da 3c
       0.0067278096 -0.008742773 0.028375786 0.026620407
000070 ce 0c b9 3c 35 8a e0 3c 28 5c fb 3b e4 73 9a 3c
       0.022589114 0.027409652 0.007670898 0.01885409
000080 07 11 06 3d 06 25 18 3d b3 71 1c 3d 64 e3 9f 3c
       0.032731082 0.037144683 0.03819437 0.019517608
000090 9a e3 a3 bb 60 08 19 3d ea e5 0b 3d d8 95 cc 3c
       -0.0050014975 0.037361503 0.03415481 0.024973795
0000a0 cb 75 df 3a 68 a7 d6 3c d3 47 92 bb 71 4f b4 3c
       0.0017048655 0.026202872 -0.0044641285 0.022010537
0000b0 e1 1e 01 3d b7 1f f0 3c cc 80 b5 3b b1 ed bf 3c
       0.03152359 0.029311998 0.0055390354 0.02342877
0000c0 a6 a7 14 3d d6 9e e1 3c 75 ea f3 3b ff cd f8 3c
       0.036292695 0.02754156 0.007443721 0.030371664
0000d0 59 98 a0 3c 93 e4 14 3c 50 46 30 3c c5 79 1e 3c
       0.019603895 0.009087699 0.010758951 0.009672587
0000e0 48 76 67 39 ec cf 35 3c 7d ac 70 3c 0a 45 5f 3d
       0.0002207394 0.011096936 0.014689562 0.0545092
0000f0 aa 95 58 bc 0d 05 76 3d 27 30 87 bc 29 07 c3 bb
       -0.013219276 0.06006341 -0.016502453 -0.0059517813
000100 35 6f 0a 3d 02 b3 01 3d 29 20 9c 3c c1 21 87 3c
       0.03379746 0.031664856 0.019058304 0.016495587
000110 5d 63 27 3c a8 f6 0c 3d 3d f6 9b 3c 57 f6 81 3b
       0.010216561 0.034414917 0.019038314 0.0039661336
000120 d0 14 1b 3c f9 56 93 3c b3 3e 08 3d 56 f9 fd 3b
       0.009465411 0.017985808 0.03326292 0.0077506704
000130 38 d4 72 3c 52 99 0d 3d d1 1a f7 3c 5a 27 88 bc
       0.014821105 0.034570046 0.030164154 -0.016620327
000140 ea d2 31 3d 44 3e 52 bc a5 cf 31 3c 1b 81 02 3d
       0.043414034 -0.012832228 0.010852729 0.031861406
000150 7e 4b c5 ba 83 7a 39 3c 0b 1c 83 39 17 84 ee 3c
       -0.0015052406 0.011320713 0.0002500716 0.02911572
000160 92 b6 67 3c 60 dd 61 3c 4d 42 f0 3c 69 a4 e5 3c
       0.014142649 0.01378569 0.02932849 0.028032498
000170 f3 35 7c 3c 64 3f 80 3b 4b c0 fd 39 19 c7 7f 3c
       0.015393722 0.0039138068 0.0004839919 0.015611433
000180 5c cd 18 3b 69 00 10 bc 0f b4 ef 3c fe ab d8 b7
       0.0023315763 -0.00878916 0.029260663 -2.5829297e-05
000190 17 8b 8e ba 9f f9 99 3c 67 03 66 3c a9 63 97 bc
       -0.0010875192 0.018795786 0.014038897 -0.018480139
0001a0 82 73 8f bc 76 ed b8 3c 1d b5 91 3c ef ef d0 3c
       -0.017511133 0.022574168 0.017786557 0.025505034
0001b0 a6 3a 20 bc d3 98 c8 3a 81 21 38 3d d4 3e 16 3d
       -0.009779608 0.0015304334 0.044953827 0.03668101
0001c0 f3 89 2c bc f1 8d c3 ba 66 d6 b0 3c 5e f3 0f 3d
       -0.0105309365 -0.0014919621 0.021586608 0.035144202
0001d0 51 0f e0 3c 12 c4 e3 3c 26 9a 98 bb 00 a6 8c 3c
       0.027351053 0.027803455 -0.004657048 0.017168999
0001e0 bc 6b 91 3c d0 29 61 bc bb 62 de 3c a3 07 16 3d
       0.017751567 -0.013742879 0.027146688 0.036628377
0001f0 9e a1 1e 3b cd cd f7 3b ad 9d a3 3c 9a 76 93 3c
       0.0024205218 0.007562375 0.019972647 0.01800089

action_model._continuous_distribution.log_sigma f4 [1, 2]
000000 9f 82 3a 3d 7d 93 e1 bb
       0.045534726 -0.006884037

action_model._continuous_distribution.mu.weight f4 [2, 128]
000000 5d ef 8d bd a9 b3 82 bd e3 37 27 3d 5b 15 3f 3c
       -0.069304205 -0.06381924 0.040824782 0.011662806
000010 a6 4e 44 3d 45 5d 7f ba 2a 68 96 3d 62 03 f5 3b
       0.047926567 -0.0009741376 0.073440865 0.00747721
000020 fb e5 2b bd ea 53 87 bd 80 b9 4b 3d 87 46 d0 bc
       -0.041967373 -0.06607802 0.049737453 -0.025424255
000030 9d 0d c1 ba 09 53 f5 3c 71 f3 75 bd 98 de 13 3c
       -0.0014728789 0.02994682 -0.060046617 0.009025238
000040 43 e2 25 3d 02 ca bd 3d 96 97 32 3d 7f 0b c4 3c
       0.040498983 0.092670456 0.043601595 0.023931263
000050 c7 c0 49 3d d1 3b a3 bb a8 5d a4 bb 99 71 0d 3d
       0.049256112 -0.004981496 -0.0050160475 0.034532163
000060 cc fd 06 bc 50 0f c6 3c 87 99 87 bd 05 e9 76 3d
       -0.008239221 0.024177223 -0.0662108 0.06028082
000070 a0 d8 9f bd 86 90 92 bd 2c d2 f3 bc 05 06 64 3d
       -0.0780499 -0.07156472 -0.029763304 0.055669803
000080 c5 8e ea 3c 7e 4a 6e bd 67 b7 6e bd 2c 96 44 3d
       0.028632531 -0.05817651 -0.058280375 0.047994778
000090 dd 3b d7 3b c9 4e b8 3d d5 39 10 bd c0 ca 96 3c
       0.0065684156 0.08999402 -0.035211403 0.018407226
0000a0 fc df 4d bd 39 59 b1 bd 5c 68 fb bb f4 8c 99 3d
       -0.050262436 -0.08659596 -0.0076723527 0.07497588
0000b0 75 8b b6 3d 9e 77 6d bd c6 aa 03 3d 4e 2d a8 bd
       0.08913318 -0.057975404 0.032145284 -0.08211766
0000c0 b4 5f e6 3c 9f 09 83 bd 55 21 05 3d 91 a6 96 3d
       0.028121807 -0.063983195 0.03250249 0.07355989
0000d0 a8 95 7c bd a5 b7 8d bc 34 5e d2 3c 46 24 ed 3b
       -0.06166616 -0.017299483 0.025679685 0.00723699
0000e0 b6 a2 1c bc 16 a0 f1 bc 20 ee 42 bd 20 65 39 bc
       -0.009560278 -0.02949528 -0.047590375 -0.011315614
0000f0 34 62 50 bd b0 c7 d2 bd 4d 99 e1 bc 54 77 1e 3c
       -0.050874904 -0.102919936 -0.02753892 0.009672005
000100 18 c3 12 bc c1 46 17 3d 25 49 2d 3d 40 10 24 bd
       -0.008957647 0.03693271 0.042306084 -0.04005456
000110 47 14 a2 3c be 89 96 3d a3 a5 23 3d b4 92 69 3d
       0.01978506 0.07350491 0.039952885 0.057024673
000120 97 48 57 3d e7 69 94 bb 40 3f ec 3c 31 77 87 3c
       0.05255946 -0.004529226 0.028838754 0.016536327
000130 2d 2a 01 bd ac 44 fb bb 0a ad d0 bc fc 8f 83 bc
       -0.031534363 -0.0076680984 -0.025473136 -0.016059868
000140 62 f4 86 3c 44 6e aa bc 6b 75 4e bd 9d 05 86 bd
       0.016473953 -0.020804532 -0.050404947 -0.065440394
000150 0c 1a ed 3c e8 e4 3a bd d5 78 cc bc 65 bd ef 3c
       0.028943084 -0.04562846 -0.024959961 0.029265115
000160 b9 47 d5 3c be a8 34 3b cd 2d 38 3d 0f b5 d6 3b
       0.026035177 0.0027566398 0.044965554 0.0065523456
000170 54 7f af 3c 56 9c 7a bc d9 5f 11 3d 7b 41 97 bd
       0.02142302 -0.015296062 0.035491798 -0.07385536
000180 25 62 3c bc 2e 97 8a bc 50 3a 2b bd a7 b4 e3 bc
       -0.011498009 -0.016917791 -0.041803658 -0.027796103
000190 21 c7 f8 3c 4b 36 24 3d e4 8c 4b 3d e6 f9 fb bc
       0.03036839 0.04009084 0.04969491 -0.03075881
0001a0 f9 e8 9a 3b c3 ba 2f bd 64 56 47 3d 0d da 39 3d
       0.0047274795 -0.04290272 0.048666373 0.045373965
0001b0 84 82 da 3c 6d 3a 58 bd 41 a2 2a bc c7 3a 7e bd
       0.026673563 -0.052790094 -0.010414661 -0.062067773
0001c0 47 77 c5 bb 64 5e 11 3d d0 cb 23 3d cd 8a 1e 3d
       -0.006026182 0.03549041 0.039989293 0.03870659
0001d0 b2 61 0a 3d 63 40 81 3d 62 96 d9 3c 42 9d 3a 3c
       0.033784576 0.06311109 0.026560966 0.011390032
0001e0 d1 ee 46 3d 0f a4 a4 3c fd e4 35 3c 24 88 68 bd
       0.048567597 0.02009776 0.011101958 -0.05677046
0001f0 cf f7 ad bc 86 9a 71 bc ca 38 09 3d 2c b0 90 3a
       -0.021236328 -0.014746314 0.033501424 0.0011038831
000200 29 eb 71 3d 1d 60 58 3d b8 e5 a6 bc ba 9a 7e bd
       0.059062157 0.052826036 -0.02037321 -0.062159277
000210 03 20 1a 3d 92 07 74 3c a0 c1 25 3c 93 84 dd bc
       0.037628185 0.014894383 0.010116965 -0.027040755
000220 0c f5 62 bc 9a f5 36 3d 16 68 0c bd 88 4f a1 bc
       -0.013852369 0.044667818 -0.03427895 -0.019691244
000230 a6 fc a2 3c 71 bc fb bc 44 7f de 3c 27 7b ec 39
       0.019895863 -0.030729504 0.027160294 0.00045105183
000240 5a bf 25 3d 17 e6 b9 3c 09 6a 83 3c 09 ce 49 bd
       0.04046569 0.022692723 0.016041772 -0.049268756
000250 42 86 62 b8 85 c2 49 3c f7 bd c0 3c 54 eb 53 3c
       -5.4007636e-05 0.0123144435 0.023528082 0.012934525
000260 3b a2 95 3c f5 27 8b 3d 04 88 71 bd 0a 55 b9 bb
       0.018265834 0.067947306 -0.058967605 -0.0056558894
000270 86 c0 04 3d df 81 6b 3c df 24 1c bd 5a 08 72 3d
       0.032410167 0.014374225 -0.0381211 0.059089996
000280 5b 2f f8 3c 0d 30 ce 3c 8c 3e c8 3c 42 a7 99 bc
       0.030296018 0.025169397 0.024443887 -0.018756513
000290 cf 04 dd 3a 7a 63 90 3d 1f 93 08 bc 4a b3 89 bb
       0.0016862395 0.07050224 -0.008335858 -0.004202281
0002a0 b4 01 9b bb ca 96 ca ba 23 52 1c bc ca 51 27 bc
       -0.0047304276 -0.0015456316 -0.009541067 -0.010212371
0002b0 a9 e4 c7 bc da 98 f2 bb 87 54 c2 3c f4 50 8d bd
       -0.024401026 -0.007403475 0.023721946 -0.06900206
0002c0 9c 2c 31 bd 93 68 3b bd b5 57 b9 3c 92 48 b6 bc
       -0.043255433 -0.045754027 0.02262483 -0.022251401
0002d0 e4 5e 98 bc 3e 0c 84 bc b4 53 f5 3c 62 fa 4d bd
       -0.018599935 -0.016119119 0.02994714 -0.05028761
0002e0 dc 1f d8 bb 38 a0 44 bc f4 d9 2d bd 8e 3e 7e bb
       -0.006595595 -0.01200109 -0.042444184 -0.003879461
0002f0 7d 3c 5b 39 fa 50 b6 3d 20 31 12 bc 5d 0a 73 3c
       0.00020908001 0.08902164 -0.008922845 0.014834014
000300 9b 54 81 3d c7 a1 af bc 9f 9d 66 3d 9a f3 be bc
       0.06314965 -0.021439446 0.056302663 -0.023309518
000310 cc 0a d3 3c eb 4d da bc 9f c2 2c bd 89 76 b4 3c
       0.025761984 -0.026648482 -0.042177793 0.022029178
000320 b7 3b d3 3c d2 b5 1a 3d c8 b1 0f 3d d5 d2 3b 3d
       0.02578531 0.037771054 0.035081655 0.045855362
000330 c7 bb 78 3c d5 3d 27 3c 08 0f cf bd 5a 33 43 3c
       0.015181488 0.010207613 -0.10110289 0.011914099
000340 b2 2b 87 bd 43 a4 88 3c 3c b8 b3 bc 4d 0a 55 3d
       -0.06600131 0.016679889 -0.021938436 0.052011777
000350 a3 2a cd 3c bc f5 11 bd 57 0e 8e bb d4 3c c4 bd
       0.025044745 -0.03563474 -0.0043352055 -0.095819145
000360 41 14 32 3c 39 3c d3 bc 46 7d c8 bb da 4d 5b bd
       0.010869087 -0.025785552 -0.0061184494 -0.053541042
000370 10 1b 83 3d ac 0d 2e bd 1e f0 8f bb 1c 15 8c bc
       0.06401646 -0.042493507 -0.004392638 -0.01709991
000380 08 b9 d9 3b 64 40 6f 3b 03 b1 17 bd 45 5d 95 bc
       0.006644372 0.0036506886 -0.037034046 -0.018232951
000390 11 9b 5a 3d 6f bf e5 bb 10 96 31 3c 72 42 85 3b
       0.05337054 -0.007011346 0.010839 0.004066759
0003a0 4e a7 94 bb d1 0f 7a 3d 65 50 72 3d 12 d5 68 3b
       -0.004536546 0.06105024 0.0591587 0.003552739
0003b0 c0 1e b5 3c d8 f6 89 3c 1b 5e 92 bd bb cd 87 bb
       0.02210939 0.016841337 -0.071468554 -0.004144398
0003c0 ae eb 3a 3c 77 27 99 3c 33 ee 8f 3d 26 8d 24 bd
       0.0114087295 0.018695576 0.07027855 -0.040173672
0003d0 b0 59 4e 3c 58 5e d0 bc b4 97 a2 b8 e1 f9 69 bc
       0.012594625 -0.025435612 -7.753019e-05 -0.014280767
0003e0 a3 86 14 3d 72 ae 99 bc c6 c6 aa bd 96 4c 39 3d
       0.036261212 -0.01875994 -0.08338694 0.045239054
0003f0 78 f3 26 bd 04 6b b4 3c 00 22 4b b9 f6 b6 0f bc
       -0.040759534 0.022023685 -0.00019372255 -0.008771649

action_model._continuous_distribution.mu.bias f4 [2]
000000 21 8d 45 3b 80 2b 3c bc
       0.0030143934 -0.011484981

action_model._discrete_distribution.branches.0.weight f4 [4, 128]
000000 48 43 88 3c 3d a0 76 3c 5f 5a 3d bd 8e 94 d2 bb
       0.016633645 0.015052852 -0.046228763 -0.0064264005
000010 3e 4f f9 3b c0 0c 06 3d e2 bb 6b 3c 56 d7 03 3d
       0.0076083234 0.032727003 0.0143880565 0.032187782
000020 fd 37 a0 bc e8 e6 22 3d 35 ac 7a 3d 30 19 c8 bc
       -0.019557947 0.03977099 0.061199386 -0.024426073
000030 27 a5 29 bd 4a 96 a8 bd 6b 24 d7 3c 38 66 97 38
       -0.041417267 -0.0823179 0.026262483 7.219281e-05
000040 07 38 8e 3d 56 86 55 3c aa 9f b2 3c 4e 3f 0b 3c
       0.0694428 0.013032516 0.02180465 0.00849898
000050 3f c4 b4 bc 98 c7 17 bd 84 37 20 bd 7e 48 9f 3c
       -0.022066234 -0.03705558 -0.039115444 0.019443747
000060 b8 ba c2 3c dd f6 4b bc 07 c8 80 3c 5d f2 11 3d
       0.023770675 -0.0124489935 0.01572038 0.035631526
000070 98 4b dd bc cf 80 b7 bc 91 c9 b8 b9 7f 1f 71 3c
       -0.027013585 -0.022400288 -0.00035245394 0.014716982
000080 fc 0d 9f 3d da 43 2b 3d 46 3c 3e 3d b1 0b c7 3c
       0.07766339 0.041812755 0.0464442 0.024297567
000090 47 b7 cb bc 1c a5 66 bb 9b 94 ec 3c df 9c 0e bd
       -0.024867667 -0.0035193628 0.028879454 -0.034817573
0000a0 25 a7 9f 3c e8 23 22 3d 0f 1e 08 bb 7e 64 65 bc
       0.01948888 0.039585024 -0.002076987 -0.01400101
0000b0 26 f9 4c 3d 2d 34 01 3d 32 c1 d9 ba e3 1f 87 3c
       0.050042294 0.0315439 -0.0016613363 0.016494697
0000c0 ad 18 1c 3d 19 92 65 3d ea 89 18 bd da 79 1e bb
       0.03810947 0.056047533 -0.0372409 -0.0024181516
0000d0 1a 0d 22 3d ad 8a 2a 3c a7 f3 32 3b da c8 b1 3a
       0.039563276 0.010409039 0.0027305873 0.0013563887
0000e0 97 cd cb bc 42 0c 1e 3c 2b 73 af 3c 34 44 a7 3d
       -0.024878306 0.009646477 0.021417221 0.081673056
0000f0 43 f2 5a 3c 9c 7c 4e 3c eb 1d 22 3c c9 ba 82 3c
       0.013363424 0.012602951 0.009894828 0.015958207
000100 8c c0 6a 3c 5c cf 1b 3d 05 ff 18 3c a9 a9 63 3c
       0.014328133 0.03803955 0.009338145 0.013895431
000110 ec cb 36 3d 62 46 b4 3b 7c 01 dd bc 23 fb 31 ba
       0.04462807 0.0055015543 -0.026978247 -0.00067894364
000120 81 7f 88 3d 3d 1c 85 bb 30 eb 32 3d 18 7e cb 3c
       0.066649444 -0.004062204 0.043681324 0.0248404
000130 d9 e6 9a bc a6 8e 9e 3c c6 97 8d 3c c8 e6 06 3d
       -0.018908905 0.01935513 0.017284285 0.032934934
000140 a7 f0 fe 3c 9b a2 2b 3c a3 2e b2 bc 98 e5 fd 3c
       0.031120611 0.01047578 -0.021750754 0.030993268
000150 63 58 ca bc 2b e5 f8 3c f8 5b 8c 3c 53 bb 76 3b
       -0.02470035 0.030382713 0.017133698 0.0037648275
000160 74 00 16 3d 3e 42 d2 bc 64 f4 47 bd 3c 76 94 3c
       0.036621526 -0.025666352 -0.048817053 0.018122785
000170 1d f1 bd bb 42 f4 1b bc ce e9 3b 3c 8b c7 56 bc
       -0.005796565 -0.009518685 0.011469318 -0.013109098
000180 2e b4 1d 3d 22 20 37 bc ed 76 99 3c b3 cb e7 3b
       0.03850191 -0.011177095 0.018733466 0.0070738434
000190 4e 28 b8 bc 16 2c 88 3c fb 45 fa 3b 2e 48 36 3d
       -0.022480156 0.016622584 0.007637737 0.04450243
0001a0 ed 26 b5 3b 55 6c da ba ea 90 2d 3d a2 fa 25 3c
       0.005528322 -0.0016664366 0.04237453 0.010130556
0001b0 a6 15 35 bd 7e 7f 05 ba de 39 9d 3d 38 e2 16 3d
       -0.0442101 -0.0005092545 0.07677053 0.036836833
0001c0 ff 95 5e bd aa 56 af bc b0 7a 1d bc 7b 61 cb 3b
       -0.054342266 -0.02140363 -0.0096117705 0.006206689
0001d0 4d 04 be 39 66 2d a3 bc 7e 08 f2 bc 57 4d 13 3d
       0.00036242828 -0.019919109 -0.029545065 0.03596243
0001e0 6a a4 9f 3c 9a b6 88 3b 84 ec d1 3c fe de 31 3c
       0.019487578 0.0041721584 0.025625475 0.010856388
0001f0 79 6e 9c bb 5e c9 ac bc 7a c7 2e bd ac d9 0b bc
       -0.0047739116 -0.021092113 -0.042670704 -0.008535784
000200 b9 05 ec bb 3f a7 92 bc 25 5f 2b 3b 4b 65 83 3c
       -0.0072028306 -0.017902015 0.002614924 0.016039511
000210 7e ee 4f 3d 6b f5 35 3d d2 40 1b 3c c9 1a 17 3c
       0.050764553 0.044423502 0.009475904 0.009222695
000220 45 ae bc 3c 0d f5 0e bb 2a 70 0d bd e7 4b e7 3a
       0.023032317 -0.0021813542 -0.034530796 0.0017646522
000230 e8 2f 22 3c b9 14 fc 3c f0 08 26 3c ce 06 14 bd
       0.009899117 0.0307716 0.010133967 -0.036139302
000240 8f 4c e8 bb 82 9d ad 3c 36 c5 b6 3c 35 03 e1 3c
       -0.0070892046 0.02119327 0.022310834 0.02746735
000250 75 14 7d bc fc da 69 3d a2 99 64 3c 55 f7 52 bc
       -0.015446772 0.057093605 0.013952645 -0.012876351
000260 3f 24 4c bc 26 11 67 3c 28 49 e1 bc 63 57 b9 3c
       -0.012459814 0.01410321 -0.027500704 0.022624677
000270 c9 0c 4a 3d 0b ea d4 bc 4b ed 0e 3d dd 8b aa 3c
       0.0493286 -0.025990507 0.03489427 0.020818645
000280 b6 8f 58 bb cd 58 80 bc 22 7d cd ba ac 89 9d 3c
       -0.0033044643 -0.015667344 -0.0015677551 0.019230686
000290 a8 9d 0d 3c 44 d2 d5 3c 0c a1 1e bd d3 2a 20 3d
       0.008643545 0.026101239 -0.038727805 0.03910334
0002a0 33 ed 89 3c a2 fa 54 bc 09 d8 87 3c b8 4e a9 3c
       0.016836738 -0.012999209 0.016582506 0.020667419
0002b0 10 46 a2 bc 47 b2 2d bd d1 f5 84 3b c6 14 9b 3c
       -0.019808799 -0.042406347 0.004057624 0.018930804
0002c0 4f 46 bb bc 09 d3 86 3c 6d 06 52 3c 49 29 c8 3c
       -0.022860674 0.016458051 0.012818915 0.024433749
0002d0 8d 18 19 3c a1 77 ac 3c 7d 43 0b 3c e0 1a c5 3b
       0.009344232 0.021053137 0.008499977 0.0060151666
0002e0 f9 86 e5 3c f8 5d 28 3d 77 d1 9a 3c 56 90 3b 3d
       0.028018462 0.04110524 0.018898709 0.045791946
0002f0 c5 89 19 bd 48 da 18 3c 54 24 25 bd 9d 39 f8 3b
       -0.037484903 0.009329386 -0.04031785 0.0075752274
000300 8d 1c ab 3b 40 da 30 3d a5 a7 76 3c 77 9c 0e bc
       0.0052219094 0.04317689 0.015054618 -0.008704296
000310 09 3e 81 bb 75 2f 65 3c 89 e1 30 bd 78 41 3d 3b
       -0.0039441627 0.013988365 -0.043183837 0.0028878134
000320 77 24 0b bb 53 49 a3 bb 13 cb 66 bb 1a 23 e8 bc
       -0.0021231452 -0.004983106 -0.0035216257 -0.02833705
000330 2a ba b1 3c 20 7d 07 3d 81 0a fc bc 34 ef 02 3a
       0.021695215 0.033078313 -0.030766727 0.00049947505
000340 d7 b8 20 3c a1 a4 2f bb 06 83 18 bd 7d 91 f1 bc
       0.009809694 -0.0026801007 -0.03723433 -0.02948832
000350 a2 17 95 3b 8b bb 06 bc 52 0a 09 3d b3 c7 12 3c
       0.0045499364 -0.008223425 0.033457108 0.008958745
000360 7d ab 15 3d ac 44 f8 3c af 5e 08 3d 5c c7 78 3c
       0.036540497 0.030306183 0.033293422 0.01518425
000370 7a 88 6e bc 8a 13 8f 3c ef 1d aa 3b c1 bd 38 3d
       -0.014558906 0.017465372 0.0051915566 0.04510284
000380 8c 88 76 bd 59 8f 80 3b f9 72 1f bc 8e 30 67 bd
       -0.060188815 0.0039233384 -0.009732001 -0.05644279
000390 37 f4 a5 3c 0e b6 65 3c 9e a1 a2 bc 44 4c 49 bd
       0.020258052 0.014020456 -0.019852456 -0.049145
0003a0 c4 a6 b8 ba 4c d0 eb 3c 96 d5 fa 3c 1a 79 0f bd
       -0.0014087786 0.028785847 0.030619424 -0.0350276
0003b0 a3 2c ca 3c 4b 49 78 3b 5b 69 81 bc 90 f4 b6 3c
       0.024679488 0.0037885483 -0.015797308 0.022333413
0003c0 12 44 1a 3d af a8 1a bd 1a ec 3c bb b9 20 e2 3c
       0.037662573 -0.037758525 -0.002882725 0.027603494
0003d0 02 c6 e4 3c 86 d5 45 3b fa a9 d2 b9 cb 16 43 bc
       0.027926449 0.0030187084 -0.00040180964 -0.01190729
0003e0 42 85 86 bc 71 db 7f bc 43 d5 1d 3c 9b ba f7 3c
       -0.016420964 -0.015616284 0.009633365 0.030240348
0003f0 03 a3 86 3c ab 01 62 3d cf d1 29 ba 62 7f c9 3c
       0.016435152 0.055177372 -0.00064781023 0.024596874

action_model._discrete_distribution.branches.0.bias f4 [4]
000000 7a 5c 21 bc ee 56 0e 3d c2 23 49 bb 3e 5a 99 bc
       -0.009848708 0.03475087 -0.003069148 -0.018719789

onnx::Div_70 f4 [22]
000000 99 fe 77 40 8e 99 82 3a d2 95 7d 40 be 94 37 3f
       3.8749144 0.0009963976 3.9622693 0.7171134
000010 8e 99 82 3a 31 48 32 3f 8b 83 13 41 69 2b 52 3f
       0.0009963976 0.69641405 9.219615 0.8209749
000020 1a ea 4e 3f 5c 2f d9 3f 4f 69 96 3f e7 d5 a4 40
       0.8082596 1.6967578 1.1750888 5.151111
000030 fa 24 8f 3a e9 9a a3 40 83 e0 35 3f 8e 99 82 3a
       0.0010921054 5.11266 0.710457 0.0009963976
000040 49 28 34 3f fe 51 1c 41 0c 02 26 3f a7 3a 43 3f
       0.7037397 9.770018 0.64846873 0.7626137
000050 14 61 d2 3f f5 79 a0 3f
       1.6435876 1.2537218
