Assets/ML-Agents/results/RL_TEST/RL_Test/RL_Test-499965.pt (torch, 503217 bytes, 50 tensors)

network_body.observation_encoder.processors.0.normalizer.running_mean f4 [22]
000000 ea ff a7 be 00 00 00 00 62 17 9c 3d c4 2a 31 3a
       -0.32812434 0.0 0.076216474 0.0006758387
000010 00 00 00 00 37 19 a1 3c aa ef bb 42 2d 20 26 3f
       0.0 0.019665344 93.968094 0.64892846
000020 07 2c 27 3f a0 b1 c2 3f 6d 6c 1e 40 a3 d7 71 be
       0.65301555 1.5210457 2.4753678 -0.23617415
000030 88 a5 aa 3d be b5 da 3c 70 34 13 38 00 00 00 00
       0.08332354 0.02669799 3.5096367e-05 0.0
000040 f4 d3 67 3b b1 74 bb 42 d0 a5 9e 3e 62 dd 07 3f
       0.0035374137 93.72791 0.3098588 0.5307218
000050 ba 43 9a 3f 9c 26 f9 3f
       1.2051919 1.9464908

network_body.observation_encoder.processors.0.normalizer.running_variance f4 [22]
000000 4f 22 17 4b 00 00 80 3f a3 d7 1a 4b a3 e6 75 48
       9.904719e+06 1.0 1.0147747e+07 251802.55
000010 00 00 80 3f c0 28 72 48 51 40 16 4c 8d 29 a4 48
       1.0 247971.0 3.938746e+07 336204.4
000020 da d9 9e 48 7c 62 b1 49 3e 4f 2d 49 cd 86 5d 4b
       325326.8 1.4531355e+06 709875.9 1.4517965e+07
000030 d8 fe 8f 3f f6 ef 58 4b 5e 4d 74 48 00 00 80 3f
       1.1249647 1.4217206e+07 250165.47 1.0
000040 c3 f0 73 48 20 c2 1c 4c 83 cb 50 48 21 af 8d 48
       249795.05 4.109325e+07 213806.05 290169.03
000050 eb 77 a5 49 67 5c 41 49
       1.3555174e+06 792006.44

network_body.processors.0.normalizer.running_mean f4 [22]
000000 ea ff a7 be 00 00 00 00 62 17 9c 3d c4 2a 31 3a
       -0.32812434 0.0 0.076216474 0.0006758387
000010 00 00 00 00 37 19 a1 3c aa ef bb 42 2d 20 26 3f
       0.0 0.019665344 93.968094 0.64892846
000020 07 2c 27 3f a0 b1 c2 3f 6d 6c 1e 40 a3 d7 71 be
       0.65301555 1.5210457 2.4753678 -0.23617415
000030 88 a5 aa 3d be b5 da 3c 70 34 13 38 00 00 00 00
       0.08332354 0.02669799 3.5096367e-05 0.0
000040 f4 d3 67 3b b1 74 bb 42 d0 a5 9e 3e 62 dd 07 3f
       0.0035374137 93.72791 0.3098588 0.5307218
000050 ba 43 9a 3f 9c 26 f9 3f
       1.2051919 1.9464908

network_body.processors.0.normalizer.running_variance f4 [22]
000000 4f 22 17 4b 00 00 80 3f a3 d7 1a 4b a3 e6 75 48
       9.904719e+06 1.0 1.0147747e+07 251802.55
000010 00 00 80 3f c0 28 72 48 51 40 16 4c 8d 29 a4 48
       1.0 247971.0 3.938746e+07 336204.4
000020 da d9 9e 48 7c 62 b1 49 3e 4f 2d 49 cd 86 5d 4b
       325326.8 1.4531355e+06 709875.9 1.4517965e+07
000030 d8 fe 8f 3f f6 ef 58 4b 5e 4d 74 48 00 00 80 3f
       1.1249647 1.4217206e+07 250165.47 1.0
000040 c3 f0 73 48 20 c2 1c 4c 83 cb 50 48 21 af 8d 48
       249795.05 4.109325e+07 213806.05 290169.03
000050 eb 77 a5 49 67 5c 41 49
       1.3555174e+06 792006.44

network_body._body_endoder.seq_layers.0.weight f4 [128, 22]
000000 c8 64 a6 3d 6d 81 f4 be 31 22 f1 3e 0c b0 33 3e
       0.08124691 -0.47754994 0.47096398 0.17547625
000010 04 79 98 3d bd 0f 65 be c3 c5 64 be 93 01 bf be
       0.07444957 -0.22369285 -0.22341065 -0.3730589
000020 b1 95 c3 3d ac f2 76 3e 24 9b 60 3d 49 54 2b bd
       0.09550036 0.2411601 0.054835454 -0.041828427
000030 61 be 85 be 94 c6 1f 3c dd 10 8a be 86 15 15 be
       -0.2612181 0.009751935 -0.2696599 -0.14558992
000040 11 d1 84 bd 82 1d ac 3d fa 2f eb be 5f b4 98 3e
       -0.06485189 0.08404066 -0.4593504 0.29825112
000050 b7 f9 58 bd 6d 91 0e 3e f9 1d d2 3c c9 18 af be
       -0.05297252 0.13922663 0.025649058 -0.34198597
000060 4a b3 18 3e 34 0f 4c 3d cc 63 b9 be 46 85 fd be
       0.14912143 0.049819186 -0.3620895 -0.49515742
000070 52 b6 8a 3d e1 3e 94 be 90 7c c2 be ca f1 6c 3e
       0.06773056 -0.28954223 -0.3798566 0.2313911
000080 99 3c 10 3e 78 35 e3 3d 9c bf dc be c3 9e 0f be
       0.14085616 0.11094183 -0.43114936 -0.14025407
000090 20 5a ca bd 41 11 02 bf 23 3e 0c 3e 93 e7 83 3d
       -0.09880471 -0.5080758 0.13695578 0.06440654
0000a0 2a 32 0b bd 61 12 aa 3d 4a 20 dc 3d 47 11 57 3e
       -0.033983387 0.08304287 0.10748346 0.21002685
0000b0 13 42 0e 3f 98 a6 c4 bc a5 38 60 be 20 83 95 be
       0.5556957 -0.02400522 -0.21896608 -0.29201603
0000c0 45 33 19 be 40 9b 8d 3e 1e 58 fb bb 47 35 3d 3e
       -0.14960964 0.2765751 -0.0076704165 0.18477355
0000d0 6a 36 cc bd a7 57 ab bd 75 a9 9a bd 23 4e 04 3d
       -0.09971316 -0.08366328 -0.075518526 0.03230108
0000e0 0d 6b 3a be bd 5b 03 3e 36 95 2e bd 72 ae 8a be
       -0.18204899 0.12827964 -0.042622767 -0.27086216
0000f0 b2 80 9e bd be dd 94 be c4 de 8d bd 9a a0 6a 3e
       -0.077393904 -0.29075426 -0.06927255 0.22912827
000100 89 89 13 3e 43 ec a0 be 03 54 df 3e e7 a9 94 be
       0.14407934 -0.31430253 0.43618783 -0.29035875
000110 17 7c 82 be ee a3 23 be 3f e9 1d 3e 13 9a 0f 3e
       -0.25485298 -0.15980503 0.15421008 0.14023618
000120 11 fa 3b be ea 6f 56 3e 9e ae a1 bd 31 46 a6 3d
       -0.18357112 0.2094113 -0.07894634 0.08118857
000130 55 8a 01 3e 48 d8 26 3e 31 2c 80 3e ed 08 15 be
       0.12650426 0.16293442 0.25033715 -0.14554186
000140 02 11 a0 3d 83 69 bb be 2d 26 4b be 1e 31 71 be
       0.07815744 -0.36603937 -0.19838782 -0.23553893
000150 ef e2 3a 3d 59 25 30 3e 0f cc 39 3f 04 89 60 3d
       0.045626577 0.17201747 0.72576994 0.05481817
000160 57 19 36 3d c2 2a a5 3d 0c 76 dd 3e d5 42 a2 3e
       0.04445776 0.08064796 0.43254125 0.31691614
000170 d4 99 46 3d 9a b8 ea bd f6 83 1a be 6d 87 f6 bc
       0.048486546 -0.11460991 -0.15089402 -0.030093873
000180 ce a8 0d be c7 ae 70 3d ab 1e b5 3b 91 88 42 3d
       -0.13833925 0.05876043 0.0055273375 0.04749352
000190 23 27 ae 3e 6c 43 cb 3e 75 bc 6d 3e bb 32 df bc
       0.34014234 0.39699876 0.23216422 -0.02724587
0001a0 37 92 81 bc de 75 b9 bd da fe c1 bd b6 06 17 3e
       -0.015816791 -0.090556845 -0.09472437 0.14748654
0001b0 cc e6 58 be 89 de 11 be 95 94 aa 3d f8 3b 8d bd
       -0.21181792 -0.14245047 0.08329121 -0.06896204
0001c0 da e4 6e be 3e cc 20 3e fe 76 02 3e e0 b0 71 bb
       -0.23329487 0.15702912 0.12740704 -0.0036879107
0001d0 36 10 24 3c 78 82 cb 3d 91 60 ee 3d c9 55 69 be
       0.010013631 0.09936994 0.11639512 -0.2278663
0001e0 56 25 98 be cc e7 84 be 89 78 05 3f e4 f4 93 be
       -0.29715985 -0.25958097 0.5213705 -0.28897774
0001f0 f2 52 da bd 6f 7a 94 be 7f 30 0f 3e 29 ca 9d 3e
       -0.10660352 -0.2899966 0.13983344 0.30818298
000200 62 32 0d 3d 32 4a a5 3e 2c 4f c2 3d e8 6a 4d be
       0.034471877 0.3228317 0.09487757 -0.20060313
000210 8a e6 19 be 4c fd 23 3d f3 31 b2 bd 12 11 02 3d
       -0.1502935 0.040036485 -0.08700933 0.03175456
000220 5b a2 1e be 34 ab b1 3e 44 19 45 bc 3a ca 8f 3e
       -0.15491621 0.3470093 -0.01202995 0.28083974
000230 70 6d ae 3d f2 c3 ac be ca b3 25 bf 6d 1e 28 3d
       0.08516967 -0.33743244 -0.6472746 0.04104464
000240 82 bb 1d 3e 41 fd a7 bd 70 23 0a 3e f7 7e 28 3e
       0.1540356 -0.08202601 0.13490081 0.16454683
000250 73 94 8b 3e 50 8d a5 3e d0 e2 99 3e a0 c3 9c 3e
       0.27261695 0.32334375 0.30055857 0.30618
000260 b9 ad 46 bd 93 75 16 3d 11 07 aa be 1f 6d e5 bc
       -0.04850552 0.03673322 -0.33208516 -0.028006135
000270 a9 ba 9d 3d a2 bc ae bd 37 af fc bd 7b ef 2f be
       0.07701618 -0.085320726 -0.12338107 -0.17181198
000280 99 2b 73 be 73 39 fb 3d f0 dd 3b be f2 80 6a be
       -0.237471 0.12266817 -0.18346381 -0.22900751
000290 db e0 d7 bd 7f ec 0b bd 20 d2 cc bc 8a 1d 93 bd
       -0.10540935 -0.034161087 -0.02500254 -0.071833685
0002a0 fb c4 7b be a2 ae 85 3e 78 43 c5 3c 6d 39 89 3e
       -0.24586861 0.26109797 0.024080023 0.26801625
0002b0 4e e6 d6 be 4b be b4 bd b1 d1 82 3d 13 22 83 be
       -0.41972584 -0.08825358 0.06387652 -0.25611934
0002c0 32 e5 6d be f8 20 85 bc b1 8c 0f 3b 86 a1 3a 3e
       -0.23231962 -0.016251072 0.0021903927 0.18225679
0002d0 8c 0c 2e be 2a b9 17 3d 67 95 73 bd 6c 48 24 be
       -0.16996974 0.03704182 -0.059468653 -0.16043252
0002e0 de 03 d8 3e 19 8b f3 bc 3d a0 75 3e 11 c2 c2 3e
       0.4219045 -0.029729413 0.23986907 0.38038686
0002f0 f9 75 f7 3d 8e 61 f5 bd c2 58 c6 3d e7 d0 02 3d
       0.120830484 -0.11981498 0.09684898 0.031937506
000300 52 07 51 3e fb 59 18 3e 20 b4 a0 3e 9f 1d cb 3d
       0.20412949 0.14878075 0.31387424 0.09917759
000310 3f 7b 40 3e 6a c8 74 3d f5 ad a5 bd 75 47 5d bc
       0.18797015 0.059761442 -0.0808982 -0.013505806
000320 40 67 d3 3e bb 39 90 3e fb d5 fd bd 8c 7e a8 bc
       0.4128971 0.28169045 -0.12394329 -0.020568155
000330 9e 9e be 3c 06 ec a4 3e 06 e7 35 3e 2c 7a a5 bd
       0.023268994 0.32211322 0.1776391 -0.08079943
000340 d6 4c 7b 3d 0b 2c 3a be 6b 02 34 bf 25 19 e8 3d
       0.061352573 -0.18180864 -0.7031619 0.11332921
000350 f6 3d 58 3d ac 43 6d be 19 f9 76 3e cf 60 ab 3e
       0.052793466 -0.23170346 0.2411846 0.33472297
000360 0f 8a 91 be a6 ae 4f 3e 37 c6 ac bd 4c e3 d5 bd
       -0.28425643 0.20281467 -0.08436244 -0.10443744
000370 e8 31 e5 bd 5f 28 6e bb 53 44 8f be 37 54 67 3d
       -0.111911595 -0.003633998 -0.27981815 0.056476798
000380 c0 de 8c 3e 02 cf 82 bd d3 c4 0f 3e d2 e3 5d 3e
       0.27513695 -0.0638714 0.14039926 0.21668938
000390 01 2c cd be bc 79 6b 3d cd 9c c6 bd 6a 48 3e 3d
       -0.40072635 0.05748914 -0.09697876 0.04645578
0003a0 03 44 5a 3e 6e 62 be be 42 e6 ef bc 51 84 52 3e
       0.21315007 -0.3718447 -0.0292846 0.20558287
0003b0 64 16 8d be 47 d5 81 3d f4 b1 90 bd 35 21 4e bc
       -0.27556145 0.063395076 -0.07065192 -0.012581159
0003c0 c4 3f 7d 3e 51 78 71 be 6e 70 8c be b2 50 2b 3e
       0.24731356 -0.23581053 -0.27429527 0.16730002
0003d0 86 22 98 bd 0c f1 0b be b5 69 92 3c a4 74 af bd
       -0.0742846 -0.13666171 0.01787267 -0.08567169
0003e0 cb 1f 82 be 67 99 4b 3d e8 84 d7 3d a2 bf 41 3e
       -0.2541488 0.049706843 0.10523397 0.18920758
0003f0 45 8b 08 3e 2a 87 8a be 7a 6f b1 be 8d b9 3a be
       0.13334377 -0.27056247 -0.34655362 -0.18234845

network_body._body_endoder.seq_layers.0.bias f4 [128]
000000 51 58 96 bb 3e 78 a3 3b 59 be 5f 3d 1d d4 5c 3c
       -0.004588165 0.004988699 0.05462489 0.013478306
000010 0e 01 d1 3c 9b 80 3c 3d 7f b0 b0 3c fe cd 13 3d
       0.025513198 0.046021085 0.021568535 0.03608512
000020 cc 0c f2 bb c9 0b b3 3c 69 5e 6b 3c 54 21 a0 3c
       -0.0073867794 0.021856206 0.014365771 0.019547142
000030 c6 2f 7f 3c 85 5b 21 3c 0f 3a 8b 3c 9b 6a 18 3c
       0.015575355 0.00984848 0.016995458 0.0093027605
000040 da 0c da 3b 99 17 0d 3d c6 e0 fb 3c 39 ea de bb
       0.006654364 0.034446333 0.030746829 -0.006802824
000050 83 31 d9 ba 2d a3 39 3c 1a c6 39 3d d4 bc 2a bc
       -0.0016570542 0.011330408 0.04535494 -0.010420997
000060 f5 21 af 3b 6b 9f 33 3d 91 fc 3d 3b d9 d7 dc ba
       0.005344624 0.043853205 0.0028989653 -0.0016848996
000070 2d 28 c0 3b c1 11 9a 3b 62 e4 cc 3c bf 93 94 3c
       0.0058641643 0.0047018235 0.025011245 0.018136857
000080 b0 7f b4 3c 5f 84 19 bc 40 61 3a bc 6e 51 4f 3c
       0.022033542 -0.009369939 -0.011375725 0.012653692
000090 9d 74 08 3a c9 1e 1e 3d f9 7d 7f 3c 80 6b 33 3c
       0.0005205365 0.038603578 0.015593999 0.010950923
0000a0 4c 2a f7 bb fe 7d dc 3c b8 37 60 3c 14 e4 be 3c
       -0.007542884 0.026915547 0.013685159 0.023302115
0000b0 b1 4e af 3c cd 6b 85 3b 67 71 e0 bb 3c 0d b0 3b
       0.021399828 0.0040716887 -0.006849456 0.0053726714
0000c0 81 3b 86 3b c9 24 a1 3c bd 74 e4 3a 35 06 31 3c
       0.004096449 0.01967086 0.001742981 0.0108047025
0000d0 b2 cd 86 3c b2 f1 20 ba 57 24 93 3c 86 ab 8b 3c
       0.016455505 -0.0006139531 0.017961664 0.017049562
0000e0 f5 9b 01 3d f4 0b 98 bb 13 8b e0 bb 1f 2a 62 3d
       0.031642873 -0.004640097 -0.0068525164 0.05521595
0000f0 93 c1 04 3d 80 b8 fb bb 72 df df 3b 72 41 a2 3c
       0.03241117 -0.007681906 0.0068320567 0.019806597
000100 48 c6 fd 3c 5a 92 78 3c b3 9e 89 3d ef 78 12 3c
       0.030978337 0.015171612 0.067197226 0.008939966
000110 8f d9 6a 3c eb 60 93 bb 27 24 b0 bc c1 2c c7 3c
       0.014334097 -0.0044976375 -0.021501614 0.024313333
000120 f0 b9 8d bb 3d 5b c8 3c 83 ef d7 3c 2a ea 24 3b
       -0.004325144 0.024457568 0.026359325 0.0025163987
000130 53 42 ae bb 38 92 a1 bb ea 44 a8 3c 25 2f 40 bb
       -0.005317965 -0.0049307607 0.020540673 -0.0029324975
000140 88 da 7c 3c 71 90 41 3d 50 6c 10 3c f0 aa 15 3a
       0.015432961 0.04725689 0.008814886 0.00057093706
000150 f7 89 a0 3c 40 32 fe 3c cf b7 f7 3c dc b2 5f ba
       0.019597037 0.03102982 0.030239014 -0.0008533427
000160 2f 34 e1 3c ed 45 ad 3a 3f 35 8b 3b 6d bf 27 3c
       0.027490703 0.0013219692 0.004248291 0.010238511
000170 eb 57 bc 3b 88 00 d8 3c ce 0a 26 bb d0 22 e2 3c
       0.0057477853 0.02636744 -0.002533603 0.02760449
000180 8f bc 1a bc 0b dd 81 ba 39 49 4e 3c cd 8d 89 3c
       -0.00944437 -0.0009907795 0.0125907 0.016791249
000190 68 d3 d9 bb 6a ad 9c 3c 96 0c 4a 3d 54 33 57 3c
       -0.006647516 0.019125659 0.04932841 0.013134796
0001a0 fe 20 96 3c dc 65 22 3c a0 15 52 3d ca 72 32 bc
       0.018326279 0.0099119805 0.051290154 -0.010891626
0001b0 ca 22 16 3d 08 23 42 3c 5a 41 b5 3c 7e 0a 22 bc
       0.03665427 0.011849172 0.022125889 -0.009890197
0001c0 d9 41 87 ba 03 71 59 bc 2b 47 72 3b a3 e4 43 3c
       -0.0010319307 -0.013271573 0.003696869 0.011956367
0001d0 e0 49 fc ba 9e 6c 50 bb d3 9a d7 b8 b8 ce 0a 3c
       -0.0019248091 -0.0031803022 -0.00010280837 0.008472137
0001e0 9b 0f b7 bc 42 ab ae 3b a4 59 f8 ba 32 1e d8 bb
       -0.022346308 0.005330474 -0.0018947613 -0.0065953964
0001f0 1b 56 f3 3c e0 3c cc 3c 8b ea a5 3c 15 0b 9e 3b
       0.029704144 0.024931371 0.02025344 0.0048230984

network_body._body_endoder.seq_layers.2.weight f4 [128, 128]
000000 25 7b e4 bc b3 8b 9a bb b0 f1 77 3e 00 17 44 bd
       -0.027890751 -0.0047163605 0.2421329 -0.047873497
000010 7e 00 ab bc 1d 43 f9 3c 09 4f ff 3c 0e 25 42 3e
       -0.020874258 0.03042751 0.031165617 0.18959448
000020 7a 4f 65 bd cc 54 d4 3c a2 cb 06 3e 29 0b 1a be
       -0.055983998 0.02591934 0.13163617 -0.1504332
000030 91 01 a3 bd 88 61 7f bd d8 41 90 bd 06 61 47 3d
       -0.07959283 -0.062348872 -0.07043809 0.048676513
000040 b2 40 98 3c 35 0a 05 bc 62 db 10 3d 5f 19 38 3c
       0.018585537 -0.008120109 0.03536547 0.011236518
000050 d6 d1 83 3d 54 93 79 bd ea 75 be 3d 89 cd 9a 3d
       0.064365074 -0.06093152 0.09299834 0.07558734
000060 4b 80 f3 3d a2 29 e4 3d 5f c8 c8 bd 21 51 df 3d
       0.11889704 0.11140753 -0.09803843 0.10904146
000070 d1 55 7b 3e 53 29 36 bd d3 99 93 3d c4 be 5a 3d
       0.24544455 -0.044473004 0.07207074 0.053404585
000080 aa 77 26 bd 10 9e dd 3d 83 70 3b 3c d4 71 19 bd
       -0.040641464 0.10821164 0.011440399 -0.03746207
000090 64 5d 60 3c ce d8 87 3b 8a 6e b8 3c d5 4a b8 3c
       0.013694141 0.004145718 0.022513647 0.02249662
0000a0 32 8e be bd ec 27 d3 bd 4c da f0 3d 36 70 7f bd
       -0.09304465 -0.10310349 0.11760387 -0.062362872
0000b0 d7 f0 4f be 88 13 46 3e bf 11 0a be ad de 4e 3d
       -0.20306717 0.19343388 -0.13483332 0.05050533
0000c0 a5 3c 2d bd ad 97 8d bd 83 8f d1 bd 56 f4 65 be
       -0.042294163 -0.069136955 -0.10232451 -0.22456488
0000d0 ff dd b1 3c 04 b5 b9 bd 7d 49 a0 bd 2d bd 97 3d
       0.021712301 -0.09067729 -0.07826517 0.07409129
0000e0 09 38 8a 3d d8 18 07 3b d7 62 a2 bc f2 80 d2 3c
       0.06748969 0.0020614173 -0.019822521 0.025696252
0000f0 d0 62 94 3d 7b 4e a4 bd 69 6b 42 bc e2 bf ec bd
       0.072454095 -0.080227815 -0.011866429 -0.11560036
000100 f1 b0 2a 3c cb 0c ef 3d 5f 9a ce 3d 75 e3 06 bd
       0.010418163 0.11672362 0.10088038 -0.032931764
000110 74 ed ac bc 23 c6 55 3b 56 c0 9d 3d 21 cf 6f 3c
       -0.02110932 0.003261932 0.07702701 0.014636786
000120 db af 96 3d 0a 50 1c 3e 18 7e 85 bc 25 c7 cc bd
       0.073577605 0.15264907 -0.016295478 -0.09998921
000130 ba f4 7c 3d 1b 6d c9 3d a9 5e b0 bd 34 c6 3d bd
       0.061756827 0.09835263 -0.08611805 -0.0463316
000140 99 b6 29 3e fb 7e 7f be b3 74 5d bd 3e 0b 02 3d
       0.16573562 -0.24950783 -0.05406637 0.031749003
000150 b4 20 60 3d 99 13 1c 3e 7f 90 80 3c d8 23 e8 3d
       0.054718688 0.15241851 0.015693901 0.11334962
000160 1e af cd bb 0c 4e 73 bd 02 52 de bd 32 98 49 bd
       -0.006276979 -0.059400603 -0.108554855 -0.04921741
000170 e2 ba 2f 3d c0 91 8f be 98 2d 64 3d 96 01 8f 3d
       0.042902835 -0.28040886 0.055707544 0.06982724
000180 cb af c2 bc 13 87 3a 3c 3a 87 e8 bd a5 37 f2 bd
       -0.023765465 0.011384743 -0.113539174 -0.118270196
000190 fa 4a 3a bd ae e3 ad bd 57 22 f2 3c 58 30 0c 3e
       -0.04548166 -0.08490692 0.02955739 0.13690317
0001a0 43 b1 0f 3e 9b f9 14 be ea 97 24 3e 34 ad b5 bd
       0.14032464 -0.14548342 0.16073576 -0.088709265
0001b0 f2 3c 55 be 42 10 88 3d 4e 20 bd bd 50 ff 37 bd
       -0.2082403 0.06643726 -0.09234677 -0.04492122
0001c0 06 ea e7 3d 32 b4 ca bc f6 b1 52 bd 7f be 03 3e
       0.11323933 -0.024744127 -0.051439248 0.12865637
0001d0 6d 14 f6 3d 9e 23 9f 3d b0 b6 d6 3d a8 88 58 3d
       0.12015615 0.07770465 0.104840636 0.0528647
0001e0 89 51 7d 3d 9c 54 10 bc a4 81 25 bd 32 4d c6 bd
       0.061845336 -0.008809235 -0.040406838 -0.096826926
0001f0 85 8d 8d bd 95 08 58 bd 2a d5 1f be 67 27 0e bd
       -0.06911758 -0.05274256 -0.1560866 -0.034705546
000200 fa 57 f4 3c 94 91 81 bd ba 39 ac 3b 1a 75 a4 3d
       0.029827107 -0.06326595 0.005255905 0.08030148
000210 2e 5c c7 3d 5b e2 33 3e a4 14 93 3d 37 18 8f 3c
       0.09734379 0.17566817 0.07181671 0.017467601
000220 fb be a4 bd 23 9c 67 be 64 11 91 3c 31 d6 85 3c
       -0.08044239 -0.22618155 0.017708488 0.016337486
000230 fc cf f0 3d 6b 7b c1 bd 62 b4 82 be fd f4 82 bd
       0.1175842 -0.09447368 -0.25528246 -0.06394384
000240 ec fe 4c bd ec 03 a1 bc 5a c6 11 3e 6e e6 c2 bc
       -0.0500478 -0.01965519 0.14235821 -0.023791518
000250 15 0e 2a bd f8 b4 30 bb 16 1c 2a 3e 63 97 7b bd
       -0.041517336 -0.0026963335 0.16612276 -0.06142367
000260 c0 86 01 3e 1b 27 de bc 27 84 c1 3d 11 60 e2 3d
       0.1264906 -0.027118256 0.09449034 0.110534795
000270 b2 2d 5e 3c cd 01 2b bd 37 89 9a 3d 99 ab a2 bd
       0.013560699 -0.041749764 0.07545703 -0.07942886
000280 b4 e0 14 bd b5 53 53 bb b7 12 8b bd 0c bb 2f 3d
       -0.036347106 -0.0032245938 -0.06790679 0.04290299
000290 63 87 8c 3c df d4 90 3d 33 b7 72 3e 5f 6c f4 3d
       0.017154401 0.07071852 0.23702697 0.11934733
0002a0 dd 14 65 3d 54 53 16 3e e2 d1 bf 3d a8 d5 6f be
       0.0559281 0.14680225 0.09366204 -0.23421347
0002b0 47 b4 a6 3b 94 13 25 3c 16 99 4b 3d f1 02 08 bc
       0.0050874087 0.010075469 0.04970654 -0.008301483
0002c0 dd 66 51 bd 46 8c c8 3d 0c 94 a7 bd 6c b6 30 bd
       -0.05112349 0.0979238 -0.081825346 -0.04314272
0002d0 b6 ae 77 bc ca 71 f2 bd f7 67 38 3e 97 90 8b bd
       -0.015117338 -0.1183811 0.1800841 -0.06814688
0002e0 98 bd 71 bd ab 77 12 be 0e 43 eb 39 7c 2c 29 3d
       -0.0590187 -0.14303462 0.00044872653 0.04130219
0002f0 bb ad dc 3c 81 2b be bd 3e 28 19 3d 3a 2a 20 be
       0.02693831 -0.092856415 0.037391894 -0.15641108
000300 73 88 9d bd bf 33 37 bd f9 77 52 3d 45 db cb 3d
       -0.07692041 -0.044727083 0.051383946 0.09953932
000310 b4 3d 83 3c 11 aa 29 be f6 87 47 bc 70 f7 00 be
       0.016020633 -0.16568781 -0.012178412 -0.1259439
000320 cb 3d cc 3d af 4b ef bc 64 31 33 bd a8 69 f8 bd
       0.099727236 -0.029210893 -0.043748274 -0.12129527
000330 cd 5a 85 3e 15 dd bc bd 67 69 91 bd f3 fb 4d bc
       0.26045838 -0.092218556 -0.07100182 -0.012572276
000340 56 66 98 b9 d0 e1 eb bc 47 b5 c3 bc ac 91 29 3e
       -0.00029067945 -0.0287942 -0.02389015 0.16559476
000350 df 69 0e be e4 6f 47 bb ef 63 ed bc 2d c7 a8 bd
       -0.13907574 -0.0030431682 -0.028978316 -0.08241115
000360 64 80 22 3d 5a 99 cf bd 51 d9 db bc 0f 78 4b bc
       0.039673224 -0.10136671 -0.026837023 -0.012418761
000370 90 fd 10 3e 41 62 aa bb d1 61 3b 3e 03 ca 6d bd
       0.14159226 -0.005199701 0.18299033 -0.05805398
000380 ab c6 35 3d 4e 06 fd 3c 2c f0 20 bd 8b f8 71 3d
       0.044378918 0.030886795 -0.039291546 0.05907492
000390 9d 56 1e bd bd 70 e4 bd 6b 96 8c 3d 11 f9 0f 3e
       -0.03865682 -0.111543156 0.068646275 0.14059855
0003a0 d5 b4 d9 bd a4 59 b7 3d d6 68 19 bd 9d ca 21 3d
       -0.10630194 0.089526445 -0.037453495 0.039499868
0003b0 75 e3 a0 3d b3 46 31 3d 41 14 f6 bd ff 18 7f bd
       0.07855884 0.043280315 -0.12015582 -0.062279698
0003c0 e3 97 ea bd 58 d8 4b bd b6 02 74 be 5f f9 fb 3b
       -0.11454751 -0.04976687 -0.23829159 0.0076896395
0003d0 28 f9 84 3d 2f 71 40 3e 77 3a a0 bd 2a 6f 1f 3d
       0.06492835 0.18793176 -0.07823651 0.038924374
0003e0 ff c6 a9 3d 3b e0 24 bd ef 15 8d bd 21 86 4e bc
       0.082899086 -0.040252905 -0.06888949 -0.012605221
0003f0 35 cf 89 3d 7a 04 c7 bd 59 de 90 3d e7 f8 b4 bd
       0.06728975 -0.09717651 0.070736594 -0.08836537

network_body._body_endoder.seq_layers.2.bias f4 [128]
000000 bd 05 82 3c e2 58 3f 3c c7 1f 02 3c 2a 54 4a 3c
       0.015871877 0.011678906 0.007942147 0.012349168
000010 c4 0a bd 3c f3 cc 5d ba 10 9d 8e 3c 36 ad 60 bb
       0.023076423 -0.0008461021 0.017408878 -0.003428293
000020 10 8c dc ba 30 d6 f5 3c ec d1 2a bb 33 d2 ff bb
       -0.001682641 0.03000936 -0.0026065065 -0.00780704
000030 90 1b 0f bb 47 32 51 3c 16 f7 67 3c e7 1b 8c 3a
       -0.0021836497 0.012768335 0.014158031 0.0010689468
000040 a7 59 95 3c cf 2f bc 3c d0 6c c3 3c 47 02 45 3c
       0.018231226 0.022972016 0.023855597 0.012024469
000050 7d f4 6d bb c2 2a d0 bb 29 94 9a bb 6e 18 64 bb
       -0.0036309056 -0.0063527534 -0.004717369 -0.00348046
000060 e1 c7 0c 3c 8f 5f a7 bb 7c 37 94 3c 22 67 20 3c
       0.008592577 -0.005107827 0.018092863 0.009790214
000070 18 55 3c 3c d2 8d 9f 3c 87 36 36 3b c8 3e 90 3c
       0.011494897 0.019476805 0.0027803497 0.017608061
000080 36 89 f9 3c d9 56 06 3d d0 0d 03 3d 98 ac ad 3b
       0.030460935 0.032797668 0.031995595 0.005300116
000090 1c 3e 09 3b fd b2 00 3d 4b 17 f1 3c 3b fb c6 3c
       0.002094156 0.031420697 0.029430052 0.024289718
0000a0 9c 2f a3 3b f0 51 7b 3c 59 62 2f bb 20 5e 56 3c
       0.0049800407 0.01533936 -0.00267615 0.013083965
0000b0 52 9b 7d 3c 24 aa a5 3c e2 fa ea 3b e8 3c 8d 3c
       0.015478926 0.020222731 0.007171021 0.017240956
0000c0 5e 69 81 3c 33 6c ac 3c f9 ec 32 3c f1 3c 21 3c
       0.015797313 0.021047687 0.0109207565 0.00984119
0000d0 88 70 5e 3c 9c 6b 54 3c 79 6d 94 3c 1f 9f b2 3b
       0.013576634 0.012965109 0.018118607 0.0054510976
0000e0 07 c8 74 3b 26 d4 ff b8 34 55 d2 3b 60 c1 2c 3d
       0.003735067 -0.00012198863 0.0064188484 0.042176604
0000f0 62 bc 83 bc b8 08 38 3d bf 86 45 bc 2c 5b 05 3b
       -0.016081039 0.04493019 -0.012056052 0.0020348532
000100 e6 6b 0c 3d 46 21 99 3c 1b a5 ce 3c 3b 89 87 3c
       0.034282587 0.018692624 0.025225213 0.016544929
000110 d4 17 2c 3a e2 cd ba 3c 8c 38 b9 bb 63 7f 80 bb
       0.000656483 0.02280325 -0.005652493 -0.0039214357
000120 1d 11 7d b8 12 c5 dd 3c 29 0b e4 3c 6b d1 53 3c
       -6.033584e-05 0.02707151 0.027837353 0.012928347
000130 f4 63 dc 3b a9 4c 06 3d fe f4 9f 3c 85 4e 83 bc
       0.0067257825 0.032787953 0.019526001 -0.016028652
000140 ee fd dd 3c 83 39 8d bb 14 d6 7d bb 2f 2f f2 3c
       0.027098622 -0.0043098344 -0.0038732337 0.029563515
000150 e7 59 8c ba cf 49 09 3c 90 64 81 3b db 99 89 3c
       -0.0010707945 0.008379414 0.0039487556 0.016796997
000160 cf 41 f7 3a f6 44 b5 bb 4e ce 8a 3c 2b 2a a1 3c
       0.0018864217 -0.0055319024 0.016944077 0.019673428
000170 14 c7 b8 3c f4 64 1d bc 51 70 14 bc e8 70 7a 3c
       0.022555865 -0.009606589 -0.009059981 0.015285708
000180 80 c7 b1 3b 18 a1 68 bc 2a 10 9f 3c 13 70 1f ba
       0.0054253936 -0.014198564 0.019416887 -0.0006082069
000190 2d 0b 73 3b c7 ba ea 3b 29 59 38 3c cc 6a 49 bc
       0.0037085519 0.007163379 0.011251726 -0.012293529
0001a0 51 85 08 bc e9 66 ca 3c 7c a4 94 3c 32 95 3c 3c
       -0.008332566 0.024707275 0.018144839 0.01151018
0001b0 79 74 23 bc c3 2e 94 bb 7e 3b c4 3c eb 47 04 3d
       -0.0099765 -0.004522176 0.02395415 0.03229515
0001c0 35 31 34 bb e7 32 82 bb 22 0d b2 3c 11 a3 a4 3c
       -0.002749515 -0.003973353 0.021734778 0.020097287
0001d0 53 fd 7c 3c 32 f5 6d 3c 1b 35 34 bc 1b 8d 23 3c
       0.015441257 0.014523791 -0.010998989 0.009982373
0001e0 ef 38 90 3c d1 d7 84 bc 84 83 5b 3c b9 a1 fd 3c
       0.017605273 -0.01621619 0.013398055 0.030960904
0001f0 4f 86 0a bc 5b f9 cd b9 74 9b 98 3c 91 ed 57 3c
       -0.008454873 -0.0003928643 0.018628813 0.013179199

action_model._continuous_distribution.log_sigma f4 [1, 2]
000000 c9 63 81 3c 47 d2 05 3c
       0.015794652 0.00816781

action_model._continuous_distribution.mu.weight f4 [2, 128]
000000 ce fa 1f bd 89 57 29 bd e2 24 0c 3c cc 02 ae bb
       -0.039057545 -0.041343246 0.008553715 -0.005310392
000010 d3 f4 4d 3d 66 29 8c bc d1 be 2d 3d 44 1b ca 3a
       0.05028231 -0.017109584 0.042418305 0.0015419503
000020 61 b2 f8 bc 06 dc 34 bd 24 48 f9 3c 0c 97 66 bc
       -0.030358495 -0.044155143 0.030429907 -0.014074098
000030 3c 54 ec 3c dd 4d b6 bb 61 5c 23 bd e6 f5 c8 3c
       0.02884876 -0.0055634812 -0.03988302 0.024531316
000040 81 76 0e 3d 1f ba 41 3d b4 8b ca 3c 12 38 99 3c
       0.034780983 0.04729664 0.024724819 0.018703494
000050 2b b3 fe 3c 4c 35 25 bc 6b 95 cb bb 42 c0 ff 3c
       0.031091293 -0.010083508 -0.0062128804 0.031219605
000060 d2 2e 9c bb e9 29 86 3c 18 bf 41 bd 02 c4 36 3d
       -0.0047663236 0.016377406 -0.04730138 0.04462052
000070 e4 01 51 bd 90 f9 71 bd 12 f1 2d bd 59 28 1e 3d
       -0.051027194 -0.059075892 -0.04246623 0.038612697
000080 3a 6c f5 3c 25 8e f4 bc b5 14 12 bd 4e 58 a3 3c
       0.029958833 -0.029852936 -0.03566428 0.019939568
000090 48 1c 01 3b 62 62 92 3d 64 e8 c1 bc 4a a3 8e 3b
       0.0019700695 0.07147671 -0.023670383 0.0043529617
0000a0 5b 61 15 bd 8e fd 6a bd 61 d2 b8 bb 3d ce 68 3d
       -0.0364698 -0.057370715 -0.0056403135 0.05683731
0000b0 0b 2f 8b 3d 12 55 22 bd d9 da 2d 3d c3 fe a5 bd
       0.06796082 -0.03963191 0.042445038 -0.081052326
0000c0 4d 41 62 3b a0 ef 6c bd 63 06 a9 3c 29 a6 30 3d
       0.0034523786 -0.05784571 0.020632928 0.043127213
0000d0 5a 4c 5a bd db e6 66 bc 07 aa 23 3d c0 e1 1e 3c
       -0.05329547 -0.014093126 0.039957073 0.009697378
0000e0 b6 00 7e bc 82 87 0c bc 0e 14 35 bd b0 af a7 3a
       -0.015503099 -0.008577229 -0.04420858 0.0012793448
0000f0 f6 6b 18 bd 26 c9 8f bd cc 8b e2 bc 4c 67 16 3c
       -0.037212335 -0.07020788 -0.027654551 0.009179901
000100 c2 a3 ec 3a 1e 36 f6 3c 0a e2 09 3d b0 da c6 bc
       0.0018054175 0.030055102 0.033662833 -0.0242742
000110 16 e3 2f 3b df c9 59 3d 62 5b 38 3c f4 44 18 3d
       0.0026838235 0.053171035 0.011252256 0.037175134
000120 bc 1d 13 3d d8 97 cd bc 47 fe 7b 3c cb a9 06 3c
       0.03591703 -0.025096819 0.015380449 0.008219193
000130 66 62 06 bb a1 2d df 3b 67 0e fb bc 35 40 28 bb
       -0.0020505427 0.0068108593 -0.030646516 -0.0025673036
000140 0b 35 fc 3b a9 7f f4 bc 22 28 cf bc 43 93 5f bd
       0.007696753 -0.02984603 -0.025287692 -0.0545838
000150 83 77 51 3c d7 e1 0c bd 67 d7 d7 bc c1 e6 67 3c
       0.0127848415 -0.034395065 -0.026347829 0.014154137
000160 f1 f7 b8 3c 95 63 b8 3b 6b 80 ab 3c a2 ac 2f bb
       0.022579165 0.0056271055 0.020935258 -0.0026805778
000170 c9 e2 bf 3c a2 41 4f bb ca bf ba 3b cf c4 98 bd
       0.02342357 -0.0031624814 0.0056991326 -0.07459413
000180 71 f2 7b bb c0 c0 af bc 98 84 0f bd 5d 66 cc bc
       -0.0038444067 -0.021454215 -0.03503856 -0.024951154
000190 31 3f 03 b9 83 81 b2 3c 20 21 b3 3c d3 93 dd bc
       -0.00012516674 0.021790272 0.021866381 -0.027048027
0001a0 e1 d1 07 bc 6c 07 dc bc e1 65 1b 3d 0e f3 1e 3c
       -0.008289785 -0.026859008 0.037938956 0.009701503
0001b0 32 a3 d1 3c cc e4 32 bd 76 f0 aa bb 32 cf 2d bd
       0.025590513 -0.04367523 -0.0052166535 -0.042433925
0001c0 c1 72 46 bc a5 ed 8f 3c c3 b4 c2 3c 23 da 44 3c
       -0.01211232 0.017569372 0.023767835 0.0120148985
0001d0 d4 37 cb 3c a4 de 25 3d 28 82 a4 3c bb 1d 46 bb
       0.024806894 0.04049553 0.020081595 -0.0030230123
0001e0 9e 82 22 3d 63 09 5f 3c 58 2e ae 3b f8 65 00 bd
       0.039675348 0.013613078 0.005315583 -0.031347245
0001f0 cc 64 bc bc 69 59 9b bc 42 ca b4 3c 77 d7 6e bb
       -0.022997282 -0.018963533 0.0220691 -0.0036444345
000200 35 db 2e 3d 2f 9e 6e 3d 31 42 03 bc 8b 6a 45 bd
       0.04268952 0.058256324 -0.008011387 -0.04819731
000210 4b 29 26 3d 3c b0 16 3b 8f dc 98 3c fc f3 d1 bc
       0.040566724 0.0022993227 0.018659858 -0.025629036
000220 5c 53 e8 ba c3 e0 d3 3c c9 82 ce bc b1 37 bc bc
       -0.0017725038 0.02586401 -0.025208848 -0.022975774
000230 fc ee 3b 3c c9 ad 99 bc 36 bd 9d 3a e2 f4 9a bb
       0.0114705525 -0.018759625 0.0012034539 -0.0047288993
000240 0c b1 19 3d bc 58 b4 3c d1 16 aa 3c 90 a9 35 bd
       0.03752236 0.022014968 0.020762833 -0.04435116
000250 6b 17 a0 3b f0 84 0a 3c 34 cc a5 3b 56 7d 86 3c
       0.004885604 0.008454546 0.0050597433 0.016417187
000260 66 b2 cc 3b 6d b9 5a 3d bf 1e 28 bd 5c 93 d4 bb
       0.0062468527 0.053399492 -0.041044947 -0.006487293
000270 43 73 8a 3c 2e 93 0d 3c 98 46 f4 bc 72 8e 57 3d
       0.016900664 0.008641047 -0.029818818 0.05262608
000280 53 18 ac 3c 38 6a c8 3c f5 69 97 3c 79 f9 a7 bb
       0.021007692 0.024464712 0.018483141 -0.005126175
000290 ec 44 89 bb ba d5 90 3d 33 b0 0a bc cb db a6 3b
       -0.0041891243 0.07072015 -0.008464861 0.0050921193
0002a0 b4 12 7f 3b a1 4d 9c bb b8 11 39 bc 2f c6 85 3b
       0.003892106 -0.0047699963 -0.011295728 0.004082463
0002b0 b8 36 a6 bb 9a 18 9e bb 9b e1 bd 3c d1 36 21 bd
       -0.005072441 -0.00482471 0.023178866 -0.039358918
0002c0 dd 6f c5 bc dc 74 13 bd a5 e8 ca 3c 48 6a 58 bc
       -0.024101192 -0.036000118 0.024769137 -0.013208933
0002d0 59 ee 8a bc da 91 7a bc c8 08 02 3d e6 6a 33 bd
       -0.016959356 -0.015293563 0.031746656 -0.04380312
0002e0 54 44 4d bc 06 4b 68 bc 32 ea 1c bd 37 ca 67 bc
       -0.012528498 -0.014178043 -0.038309284 -0.014147333
0002f0 12 e8 b3 bb 0f 3e 85 3d e2 ca 06 3b 70 07 82 3c
       -0.0054903114 0.06505977 0.0020567705 0.015872687
000300 41 50 43 3d ea f9 66 bc df d7 43 3d 09 98 dd bc
       0.047683958 -0.01409767 0.047813293 -0.027050035
000310 18 7d b1 3c 3d 39 ee bc 7c 9e 57 bc 26 7c 93 ba
       0.021666095 -0.029080028 -0.013160344 -0.0011252209
000320 72 c7 34 3c c4 72 34 3d 10 ea 04 3d 59 43 d7 3c
       0.01103388 0.04405476 0.032449782 0.026277231
000330 b3 4e 82 3c 20 bb 02 3c 5b 0e a1 bd c6 cf 89 3c
       0.015906667 0.007979184 -0.07864066 0.016822707
000340 ef 0b 32 bd a2 ad 00 3d d1 cb bf bc 5c 50 fb 3c
       -0.043468412 0.03141559 -0.023412617 0.030677967
000350 e2 b4 d5 3c c0 1e d4 bc 38 88 d0 bb c7 c7 9a bd
       0.026087228 -0.025893569 -0.006363895 -0.07557636
000360 66 5b 5b 3c d4 72 19 bc d3 05 5d ba 5d 48 35 bd
       0.01338849 -0.009365756 -0.0008431349 -0.044258464
000370 1c 4b 2a 3d 5b 4f 82 bc e8 d3 b5 3a 25 5e 51 bb
       0.041575536 -0.01590698 0.0013872357 -0.0031946984
000380 d3 65 d7 3c 80 bd 7c 3b 27 1e d1 bc be c6 8b bc
       0.02629367 0.00385651 -0.025527073 -0.017062541
000390 91 94 41 3d 49 aa 15 ba cb a2 f7 3b 1f e0 a5 39
       0.047260825 -0.00057092734 0.007557248 0.00031638236
0003a0 00 d9 03 3b 0a cd 3b 3d fb 22 59 3d 86 8d 24 3c
       0.0020118356 0.045849837 0.053011876 0.010043507
0003b0 86 32 88 3c 48 64 87 3c 8a a5 3c bd 58 a0 0d 3c
       0.016625654 0.01652731 -0.046056308 0.008644186
0003c0 f5 10 69 3c 0f da eb 3c f5 39 86 3d 6a 67 01 bd
       0.014225234 0.028790502 0.06554023 -0.031592764
0003d0 fa 90 b4 3c 85 12 66 bc 77 b0 bd ba d3 8b 89 bc
       0.022041786 -0.014042501 -0.0014472146 -0.016790306
0003e0 36 c2 d8 3c 5c db bc bc 0d cc 70 bd c2 f9 f2 3c
       0.026459794 -0.023053817 -0.058788348 0.02966011
0003f0 54 94 8c bc f4 bc 5b 3c db 0c b7 bb 08 5b 0d bc
       -0.017160572 0.013411749 -0.0055862493 -0.008627661

action_model._continuous_distribution.mu.bias f4 [2]
000000 be e3 ee 3a 9e f7 7b bb
       0.0018225831 -0.0038447152

action_model._discrete_distribution.branches.0.weight f4 [4, 128]
000000 e9 0e 42 bb 38 dc c2 3c 5e 44 16 bd 19 4b 98 bc
       -0.0029610938 0.02378665 -0.036686294 -0.018590497
000010 23 62 fa 3b 6e f4 94 3c b8 96 09 bc ce bc 3a 3c
       0.0076410933 0.01818296 -0.008397751 0.011397554
000020 b1 cb f8 bb 32 7c b7 3c 1f 16 ca 3c 66 68 b5 bc
       -0.0075926413 0.022398088 0.024668751 -0.022144508
000030 0a 71 1d bd ca 30 4f bd 11 a6 8a 3b 9e 7d f9 b9
       -0.03843788 -0.05058364 0.0042312224 -0.00047586573
000040 f0 1f 1c 3d a7 e9 d0 bb 50 dd 78 3c 97 f5 bf 3a
       0.038116395 -0.00637551 0.015189484 0.0014645335
000050 8c 7c f3 bc 09 b2 12 bd 57 74 fd bc f8 8a 13 bb
       -0.029722475 -0.03581432 -0.030939264 -0.0022513252
000060 bc 33 80 3b 2d 28 9f bb e6 94 a0 3c 56 49 d7 3b
       0.003912417 -0.0048570842 0.01960225 0.0065700216
000070 65 ac 13 bc ba 88 03 bd 73 38 63 3a 72 0b 80 b9
       -0.00901327 -0.032112814 0.00086677744 -0.0002442259
000080 45 fc 73 3d 31 a1 37 3d 24 66 f2 3c d7 4c 09 3b
       0.059566755 0.04483146 0.02958972 0.002095034
000090 72 95 dc bc cd 38 0b bc 10 4c d5 3a 84 ce 55 bd
       -0.02692673 -0.008497429 0.0016273279 -0.0521989
0000a0 4f cc cb 3c 1b c3 20 3d a9 fd b1 bb 71 da 62 bc
       0.024877695 0.039248567 -0.00543185 -0.013846026
0000b0 d8 11 ed 3c 25 5e f8 3b 6f 76 d5 bb 15 70 c0 3b
       0.028939173 0.0075795823 -0.0065143625 0.005872736
0000c0 49 f6 a9 3c de 72 ee 3c 88 16 4e bd c2 99 31 bc
       0.02074732 0.029107507 -0.050314456 -0.010839881
0000d0 0d c8 0d 3d 68 b3 29 bc 46 29 7e 3a 51 65 67 bc
       0.03461461 -0.010357715 0.0009695481 -0.014123277
0000e0 6d 8d 0a bd d2 2e 69 3c 5a af 6a 3b 9b cf 83 3d
       -0.03382628 0.014232354 0.0035810084 0.06436082
0000f0 8e 29 ce bb af 1d 57 3c c1 a2 54 3c 92 48 0c 3c
       -0.006291575 0.013129636 0.012978257 0.008562224
000100 6e 6b 10 bb 15 1c b3 3c d6 ce 5b bc 87 75 01 3c
       -0.002203669 0.021863976 -0.013416013 0.007901556
000110 88 1e 84 3c 76 a0 ff bb 8e b4 ce bb 46 5e 22 bc
       0.01612784 -0.007801111 -0.006308145 -0.009910172
000120 98 6b b5 3c 2d 40 ba bc 48 c5 c2 3c 05 51 fb bb
       0.022146031 -0.02273568 0.023775712 -0.0076695704
000130 e3 ff 36 bc c3 21 22 3c 18 58 97 3b 48 46 48 3c
       -0.011169407 0.009895745 0.004618656 0.012223788
000140 38 c7 fd 3c 06 75 fa 3a 5d eb 93 bc ff 55 a1 bc
       0.030978784 0.0019108362 -0.018056566 -0.019694326
000150 69 16 9e bc b6 dc d8 3c b8 b7 5f 3c 6e cb 51 3b
       -0.019297795 0.02647243 0.013654642 0.0032012123
000160 97 f5 33 3c e1 f1 52 3b fa a5 1f bd cc 85 0a bb
       0.010983846 0.0032187628 -0.038976647 -0.0021136878
000170 90 8f da bc 47 68 b6 3c 69 04 81 3a 76 32 43 bc
       -0.026679784 0.02226652 0.0009843233 -0.011913886
000180 16 19 23 3d ba bb c5 3a a3 81 f4 3b 98 54 44 bc
       0.039818846 0.0015085854 0.007461743 -0.011983059
000190 77 de 2f bd ae 8c cd 3b 6d bc 62 bb 74 83 c1 3c
       -0.04293677 0.006272874 -0.0034597174 0.023622252
0001a0 ec d4 de 3a 51 14 a6 ba 86 30 e0 3c 2d 9e 01 bc
       0.0017000712 -0.001267085 0.027366888 -0.007911247
0001b0 df c2 01 bd 4f 1c 84 3b f2 90 61 3d 65 39 21 3d
       -0.031679984 0.004031695 0.05506987 0.039361376
0001c0 3f 6e 5d bd 08 cc 34 bc 2c 87 fe bb f9 1e 1b bc
       -0.054060217 -0.011034973 -0.0077675786 -0.009467834
0001d0 c7 9b 1c bb 2b b5 c3 bc 33 c6 4d bc 1d 19 be bb
       -0.0023896561 -0.023890099 -0.012559461 -0.0058013336
0001e0 ca b6 90 3c 0b 39 2b 3a d1 bf 8b 3c 8b 81 85 3b
       0.017665286 0.00065316324 0.017059239 0.0040742806
0001f0 dc 80 48 3c 58 15 58 bc 05 67 15 bd 06 e7 44 bc
       0.012237754 -0.0131886825 -0.0364752 -0.012017971
000200 37 42 7c bc f2 d7 c3 bc a3 d3 4e 3c 19 41 38 3c
       -0.015396646 -0.023906682 0.0126237 0.011245989
000210 86 fd 05 3d e8 cb f9 3c 03 ef b3 3c 0f 06 21 ba
       0.032712482 0.030492738 0.021964556 -0.00061425654
000220 3b 02 b6 3b 6b ce ac bc ec bb ae bc e3 bd e2 bb
       0.005554465 -0.021094522 -0.021329843 -0.006919609
000230 75 a5 91 3a ea 83 ad 3c 95 e3 d0 ba 55 bb b2 bc
       0.0011111932 0.021181066 -0.0015936965 -0.021817842
000240 05 52 87 bc 3b 07 e0 3c b8 d3 74 3c 3d a7 a3 3c
       -0.016518602 0.027347198 0.014943056 0.019977206
000250 f1 9a 5b bb 58 71 10 3d af f3 38 3b 04 04 ec 3b
       -0.00335091 0.035264343 0.0028221419 0.007202627
000260 90 1b 7a bc 3d 59 f0 3c 3c cf f3 bc 8d ea 93 3c
       -0.0152653605 0.029339427 -0.029761903 0.018056178
000270 c4 a9 4f 3c 9f d3 72 bc 6d 98 b3 3c a5 ab 87 3c
       0.012674753 -0.014820962 0.021923268 0.016561339
000280 94 62 9e bc e4 d1 b2 bc 55 1e e9 bb 84 8e 62 3c
       -0.019334115 -0.0218286 -0.0071142116 0.013827924
000290 a3 5e 25 3b bd fa ea 3c 8e c8 bd bc a5 bc 3c 3d
       0.002523341 0.028684014 -0.023166921 0.046078343
0002a0 dc f9 06 3b 25 80 d9 bc df e0 58 3b 44 55 c8 3c
       0.0020595705 -0.026550362 0.0033093018 0.02445472
0002b0 8f 7e 2e 3c 7e b1 fa bc 4f 3d 5b bb bb 3d e9 3b
       0.010650291 -0.030602213 -0.003345329 0.0071179545
0002c0 0e ca 83 3b ab d8 04 3c f6 39 69 3c 50 38 b8 3c
       0.0040218895 0.008108298 0.01423501 0.02248779
0002d0 33 62 1a 3c 29 a4 1a 3c da 7a 8c 3b 16 be b2 3b
       0.009422827 0.009438553 0.004287106 0.005454789
0002e0 b2 92 89 3c d3 94 48 3c 0a 4a 88 3b cc 2d 2d 3d
       0.016793583 0.012242514 0.004159217 0.042280003
0002f0 34 5f 58 bc dc 1f 22 bb e5 be e2 bc 51 b4 17 bb
       -0.013206292 -0.0024738228 -0.027678916 -0.0023148248
000300 38 2a 41 bb 7f 5c 0a 3d 8e c6 4c 3c f9 76 b3 bc
       -0.0029474627 0.033779617 0.012498511 -0.021907317
000310 73 78 59 bc b2 8b 18 3c 51 ff 7f bc d8 19 d0 bb
       -0.013273346 0.00931065 -0.015624837 -0.006350737
000320 ec 05 2c bb e2 4e 20 3c 20 b3 80 bb 76 ba 4c bc
       -0.0026248647 0.009784432 -0.0039276034 -0.012495628
000330 69 c4 f0 3b 85 b5 a5 3c c2 4e 34 bc db 8a 1a bb
       0.0073476327 0.020228157 -0.011005105 -0.00235813
000340 0e 39 4a 3c 64 0b f8 3b 46 fb 09 bd ab 0f 83 3b
       0.012342704 0.0075697172 -0.0336869 0.0039996705
000350 5c fd ab 3a e2 ff 5c bc 40 d0 c2 3c 31 50 ac 3b
       0.0013121772 -0.013488742 0.023780942 0.005258583
000360 50 46 e1 3c 17 24 9f 3c 9b 0f 18 3d 43 01 9e 3c
       0.027499348 0.019426389 0.037124258 0.019287711
000370 9c 29 af bc aa f2 b4 3b 4c 6a 78 3c 16 e9 bb 3c
       -0.021382146 0.005522092 0.015162062 0.022938292
000380 11 93 26 bd 51 ea 50 bc 63 27 00 3c cb 3e eb bc
       -0.040667597 -0.012751178 0.0078218905 -0.028716465
000390 1d 8e 43 3c 1c 62 59 3c 48 1b 2a bb b3 5c 41 bd
       0.011935738 0.01326802 -0.0025956202 -0.047207545
0003a0 e5 37 b3 3b ef e9 50 3b c9 d0 87 3c d0 9f 1d 3b
       0.0054693096 0.0031877717 0.016579049 0.0024051555
0003b0 33 42 1d 3c 14 d9 3e bc 1c 34 04 3c 26 e5 14 3c
       0.009598303 -0.011648435 0.0080690645 0.009087836
0003c0 bc a8 e9 3c 0e 62 d4 bb 65 cb f8 ba dc aa 0b 3d
       0.028522842 -0.0064814156 -0.0018981515 0.03409849
0003d0 76 d0 bf 3c 44 62 5c 3c a5 50 36 bc 18 24 6c 3c
       0.023414832 0.013451163 -0.011127626 0.014412902
0003e0 3e f2 72 bb 8d 9b 0f bc b2 b5 87 3b b0 89 94 3c
       -0.0037070657 -0.008765114 0.004141533 0.01813206
0003f0 0e d9 ca ba 9a cf 08 3d 66 d0 b7 ba 46 2e 61 3c
       -0.0015476064 0.03340111 -0.00140239 0.013743943

action_model._discrete_distribution.branches.0.bias f4 [4]
000000 62 79 4d bc 49 09 b9 3c 88 3c e6 3b d0 f0 7f bc
       -0.012541147 0.022587435 0.007026259 -0.015621379

exp_avg f4 [128, 22]
000000 33 01 ae 37 00 00 00 00 6d f6 8e 38 e7 dd 25 38
       2.0742975e-05 0.0 6.816988e-05 3.954573e-05
000010 00 00 00 00 b2 8d 0e 38 a7 99 bd 38 b8 fa d9 37
       0.0 3.3987402e-05 9.040842e-05 2.5985166e-05
000020 1d 6e a5 37 5d f9 60 b7 01 20 09 38 32 a6 98 38
       1.9720808e-05 -1.34095e-05 3.269315e-05 7.278881e-05
000030 20 f5 ed b3 f9 8c af b8 ce c9 86 38 00 00 00 00
       -1.10807605e-07 -8.3709085e-05 6.427207e-05 0.0
000040 44 5d 68 b7 c9 85 ac 38 3b a7 d0 b6 76 73 d4 37
       -1.3849993e-05 8.2265185e-05 -6.2183512e-06 2.5326135e-05
000050 1b 44 d6 37 18 7c 7b b8 e4 60 4f 38 00 00 00 00
       2.5542502e-05 -5.9958635e-05 4.9442882e-05 0.0
000060 59 fb 26 b8 cb 47 55 38 00 00 00 00 db 10 45 b9
       -3.981157e-05 5.085002e-05 0.0 -0.00018793663
000070 68 35 05 38 7b 23 26 39 66 5a 39 b8 46 4e ec b8
       3.175941e-05 0.00015844211 -4.4191627e-05 -0.000112679365
000080 77 5e e5 b8 db 2f 90 36 09 a0 b2 35 68 1b 04 39
       -0.000109371664 4.2971055e-06 1.330861e-06 0.0001259871
000090 5f c0 39 b8 00 00 00 00 6a a3 dd 38 ea c9 b1 38
       -4.4286597e-05 0.0 0.000105685394 8.477627e-05
0000a0 9d ee 59 b8 68 f1 f4 38 ac 43 ae b8 6e 4d 0e 39
       -5.1959058e-05 0.00011679792 -8.3095714e-05 0.0001357102
0000b0 51 d3 bc b9 00 00 00 00 2d db 8b 39 a4 60 82 b9
       -0.00036015597 0.0 0.00026675445 -0.00024867535
0000c0 00 00 00 00 14 fd 6a 39 30 b4 df b9 3e 06 e9 b9
       0.0 0.00022410258 -0.00042668125 -0.00044445874
0000d0 3c db a1 38 9c 78 d8 38 83 fa 82 39 48 f6 7f 38
       7.717914e-05 0.00010322148 0.00024982178 6.1026105e-05
0000e0 ab 83 d7 b5 ab 51 b9 b9 52 30 bf b8 00 00 00 00
       -1.6057069e-06 -0.00035346797 -9.11659e-05 0.0
0000f0 29 03 a0 b9 de f3 ee b9 bd fc 2e 39 cd 61 41 38
       -0.00030519933 -0.00045576593 0.00016688085 4.610587e-05
000100 50 32 d1 39 c6 de 63 b9 e0 5a 84 b9 00 00 00 00
       0.00039901072 -0.00021731397 -0.0002524471 0.0
000110 62 1e 0f 39 35 50 67 b9 00 00 00 00 e9 7f 08 39
       0.00013648861 -0.00022059756 0.0 0.00013017621
000120 fe 93 26 b9 81 8a 38 b8 bb 74 72 b8 c1 2f 68 b6
       -0.00015886125 -4.399801e-05 -5.780601e-05 -3.459849e-06
000130 ba 39 ea b8 7a 0b fd b8 ed a3 03 b5 bf fa 4f b8
       -0.00011168742 -0.00012066118 -4.9039846e-07 -4.958617e-05
000140 0f f8 ad b8 00 00 00 00 bb 4a 96 b7 50 f8 58 b9
       -8.295487e-05 0.0 -1.7916193e-05 -0.00020691869
000150 18 39 05 39 7a fc d7 38 ed 62 89 38 61 c0 13 b9
       0.00012705137 0.00010299026 6.5510954e-05 -0.00014090679
000160 2a 18 bc 38 00 00 00 00 c2 5b 04 b9 87 e0 e5 38
       8.9690395e-05 0.0 -0.00012622683 0.000109613924
000170 00 00 00 00 7a b6 45 b9 a3 54 07 38 46 be c7 38
       0.0 -0.00018855362 3.2265332e-05 9.524501e-05
000180 e8 2f 11 b9 67 53 3d b7 83 cd c8 b8 f3 fa 0f 38
       -0.00013846124 -1.12846965e-05 -9.575023e-05 3.432757e-05
000190 84 76 42 33 5b 5e eb b8 10 b4 18 39 00 00 00 00
       4.5276934e-08 -0.00011223248 0.00014562928 0.0
0001a0 ed 50 0f b9 88 de 76 38 24 bf 5d 38 bf 96 30 37
       -0.0001366769 5.885822e-05 5.286852e-05 1.0525516e-05
0001b0 11 39 cf b8 38 5d 83 b8 15 00 19 b8 00 00 00 00
       -9.8811586e-05 -6.26393e-05 -3.647812e-05 0.0
0001c0 34 2e 56 b8 25 1a a1 b8 00 00 00 00 f3 ec 2f 37
       -5.1064606e-05 -7.681948e-05 0.0 1.0485982e-05
0001d0 42 ba 41 b8 ac 63 3d b9 7b f5 57 38 a2 06 97 38
       -4.6188252e-05 -0.00018061575 5.1488616e-05 7.2014765e-05
0001e0 48 68 60 3a ff 64 8f b8 71 02 35 b5 24 fe a1 39
       0.0008560461 -6.837583e-05 -6.7431307e-07 0.00030897663
0001f0 43 40 c3 36 00 00 00 00 5a 20 51 39 bc b4 62 b8
       5.818934e-06 0.0 0.00019943845 -5.405092e-05
000200 78 9d 23 38 d9 dc e0 b7 0b 2c 57 3a 14 7d 1f ba
       3.9008883e-05 -2.6805721e-05 0.0008208162 -0.0006084007
000210 7d 4e 56 38 00 00 00 00 22 9e 3a 38 ce b4 75 38
       5.1094674e-05 0.0 4.449313e-05 5.858094e-05
000220 00 00 00 00 7f 32 3d 38 24 5e b5 38 7a dc 5c b9
       0.0 4.510814e-05 8.6482876e-05 -0.00021062969
000230 2a 9d bb 37 dd 1c cb 38 6d 0d 70 39 d8 31 d9 38
       2.2365322e-05 9.6851705e-05 0.00022893185 0.000103566505
000240 b8 e0 05 b5 6e 36 b0 b8 1f ae 90 38 00 00 00 00
       -4.987337e-07 -8.402472e-05 6.898888e-05 0.0
000250 b1 c3 0f b9 c0 5f 03 39 12 4b 8d b6 90 ca a0 38
       -0.00013710443 0.00012528803 -4.210867e-06 7.667125e-05
000260 47 44 d8 38 df 53 12 b9 8d af e3 38 00 00 00 00
       0.000103124 -0.0001395489 0.000108569024 0.0
000270 c4 6a 84 b8 d5 44 98 38 00 00 00 00 92 93 f3 b8
       -6.314137e-05 7.260746e-05 0.0 -0.0001161463
000280 0b 28 6b 39 c2 69 d5 b7 e2 ab f1 37 23 e7 4d 38
       0.00022426264 -2.5440826e-05 2.8809478e-05 4.909107e-05
000290 86 6f ce 36 69 bf 36 37 09 10 63 34 44 2f 71 39
       6.1522614e-06 1.08926115e-05 2.1146856e-07 0.00023001159
0002a0 6a d7 76 38 00 00 00 00 b3 8a ca 38 e0 9c 28 39
       5.885159e-05 0.0 9.657945e-05 0.00016080169
0002b0 84 2d 55 b7 75 76 26 b8 67 4f 79 b9 e7 cd 1e 39
       -1.2706387e-05 -3.9687806e-05 -0.0002377607 0.00015144759
0002c0 a4 c7 be 38 00 00 00 00 64 e9 3d b8 6d 0a 00 39
       9.097092e-05 0.0 -4.5278473e-05 0.00012210915
0002d0 00 00 00 00 a9 cf b2 b8 0d bc 2d b6 60 06 b9 37
       0.0 -8.526381e-05 -2.5888469e-06 2.2056687e-05
0002e0 e8 38 3d 39 56 1e f4 b8 9e 00 e4 38 b8 0f a9 38
       0.00018045644 -0.00011640477 0.00010872002 8.061476e-05
0002f0 04 7e a1 35 cb c2 58 b6 ca 0c dc 38 00 00 00 00
       1.203211e-06 -3.2299893e-06 0.000104927996 0.0
000300 1f 60 0e 39 c1 b5 0f 39 a6 2c fe b8 2f 68 23 b7
       0.00013577983 0.00013705251 -0.0001211998 -9.739814e-06
000310 f5 a2 11 39 6c d5 f6 b8 be af 9f b8 00 00 00 00
       0.00013888984 -0.00011769947 -7.614445e-05 0.0
000320 dc b8 a1 b9 b4 1f 75 39 00 00 00 00 ed fd 7a b9
       -0.00030846044 0.00023376831 0.0 -0.00023936453
000330 39 13 0e b9 97 ae 81 39 c1 22 89 b9 a9 15 b8 b6
       -0.00013549336 0.00024734877 -0.0002615657 -5.486149e-06
000340 14 2a 1a b9 3e 52 37 b9 a1 49 09 35 e3 2f 60 b9
       -0.0001470226 -0.00017482878 5.114362e-07 -0.00021380144
000350 18 4a 19 39 00 00 00 00 58 87 2c b9 6f c9 71 b8
       0.00014618819 0.0 -0.00016453618 -5.7646477e-05
000360 aa c5 a6 b7 ff cc 2b b9 99 9f 2f b9 3b 09 8c 39
       -1.9880787e-05 -0.00016384198 -0.00016748755 0.00026709758
000370 b4 8d 3e 37 00 00 00 00 15 5a 96 b8 bb 74 56 b8
       1.1357875e-05 0.0 -7.1693365e-05 -5.113029e-05
000380 00 00 00 00 ed 9b 53 b8 7d 05 3e 38 39 b4 67 b8
       0.0 -5.0451537e-05 4.530464e-05 -5.5242537e-05
000390 f1 f9 6a b8 98 cf 91 38 4b cf 9a 39 2a df cd 36
       -5.6022724e-05 6.952806e-05 0.00029527614 6.135456e-06
0003a0 6d a8 6a b5 6b 3d 61 39 d2 a6 de b7 00 00 00 00
       -8.7416885e-07 0.00021480552 -2.6542144e-05 0.0
0003b0 ef 6d 0c 39 45 0a 28 b8 0b bf 8a 37 8c 95 03 38
       0.00013392394 -4.0063886e-05 1.6539843e-05 3.137211e-05
0003c0 71 43 1d 39 87 77 f1 b8 8a 8e d3 38 00 00 00 00
       0.0001499781 -0.00011514039 0.00010087814 0.0
0003d0 a5 eb e9 b9 75 31 c1 38 00 00 00 00 2d 9a 4f b9
       -0.00044616792 9.212169e-05 0.0 -0.00019798493
0003e0 65 cd 35 b8 22 0e 5b 39 4f 34 08 38 0e 21 51 b8
       -4.334505e-05 0.00020890732 3.2473643e-05 -4.9860268e-05
0003f0 fe bb 3b 39 ab 33 8c b9 86 d4 93 35 14 71 00 3a
       0.00017903742 -0.00026741376 1.1014206e-06 0.00048996625
