Assets/ML-Agents/results/RL_TEST/RL_Test/RL_Test-91163.pt (torch, 503138 bytes, 50 tensors)

network_body.observation_encoder.processors.0.normalizer.running_mean f4 [22]
000000 56 ee 2c bf 00 00 00 00 65 d4 1e 40 eb 21 39 3d
       -0.6755117 0.0 2.4817135 0.045198362
000010 00 00 00 00 7a 20 9d 3d 85 ec c7 42 a4 4f 56 3f
       0.0 0.0767221 99.96195 0.8371527
000020 b6 19 57 3f 91 c9 95 3f 52 b5 83 3f d7 e7 50 be
       0.84023607 1.1702138 1.028971 -0.2040094
000030 b4 9f aa 3d ed 4c 92 3f 76 0c f6 bc 00 00 00 00
       0.08331242 1.1429726 -0.030035239 0.0
000040 21 7b da 3d 3d 5e c7 42 87 ea 1d 3f 45 c1 1e 3f
       0.10668016 99.68406 0.61685985 0.62013656
000050 f8 a0 22 3f 22 a7 87 3f
       0.6352687 1.059788

network_body.observation_encoder.processors.0.normalizer.running_variance f4 [22]
000000 69 3c 06 4b 00 00 80 3f 0b 5b 1c 4b 90 ca 2f 47
       8.797289e+06 1.0 1.0246923e+07 45002.562
000010 00 00 80 3f a3 7e 31 47 46 27 ea 46 63 54 d3 46
       1.0 45438.637 29971.637 27050.193
000020 71 c2 cc 46 b0 13 d6 47 1f 87 3b 48 1a ea 89 4a
       26209.22 109607.375 192028.48 4.519181e+06
000030 e6 36 86 3f 32 5a 84 4a 31 46 32 47 00 00 80 3f
       1.0485504 4.336921e+06 45638.19 1.0
000040 f0 76 2d 47 c4 ed e6 48 8f d7 ab 46 da 01 ac 46
       44406.938 472942.12 21995.78 22016.926
000050 05 91 e2 46 12 cb 4b 46
       29000.51 13042.768

network_body.processors.0.normalizer.running_mean f4 [22]
000000 56 ee 2c bf 00 00 00 00 65 d4 1e 40 eb 21 39 3d
       -0.6755117 0.0 2.4817135 0.045198362
000010 00 00 00 00 7a 20 9d 3d 85 ec c7 42 a4 4f 56 3f
       0.0 0.0767221 99.96195 0.8371527
000020 b6 19 57 3f 91 c9 95 3f 52 b5 83 3f d7 e7 50 be
       0.84023607 1.1702138 1.028971 -0.2040094
000030 b4 9f aa 3d ed 4c 92 3f 76 0c f6 bc 00 00 00 00
       0.08331242 1.1429726 -0.030035239 0.0
000040 21 7b da 3d 3d 5e c7 42 87 ea 1d 3f 45 c1 1e 3f
       0.10668016 99.68406 0.61685985 0.62013656
000050 f8 a0 22 3f 22 a7 87 3f
       0.6352687 1.059788

network_body.processors.0.normalizer.running_variance f4 [22]
000000 69 3c 06 4b 00 00 80 3f 0b 5b 1c 4b 90 ca 2f 47
       8.797289e+06 1.0 1.0246923e+07 45002.562
000010 00 00 80 3f a3 7e 31 47 46 27 ea 46 63 54 d3 46
       1.0 45438.637 29971.637 27050.193
000020 71 c2 cc 46 b0 13 d6 47 1f 87 3b 48 1a ea 89 4a
       26209.22 109607.375 192028.48 4.519181e+06
000030 e6 36 86 3f 32 5a 84 4a 31 46 32 47 00 00 80 3f
       1.0485504 4.336921e+06 45638.19 1.0
000040 f0 76 2d 47 c4 ed e6 48 8f d7 ab 46 da 01 ac 46
       44406.938 472942.12 21995.78 22016.926
000050 05 91 e2 46 12 cb 4b 46
       29000.51 13042.768

network_body._body_endoder.seq_layers.0.weight f4 [128, 22]
000000 13 d4 43 bc b2 68 93 bd 24 a7 20 3e f7 e4 9d 3e
       -0.011952418 -0.071977034 0.15688759 0.3083875
000010 09 e8 53 be 50 23 c7 3d c8 2a 99 bb 10 a3 a9 be
       -0.20693983 0.09723532 -0.0046742894 -0.3313222
000020 b3 03 aa bd 7a d2 03 bc 3c 74 1b be 70 80 6e be
       -0.08301487 -0.008045787 -0.15181059 -0.23291183
000030 97 c9 5b be 9a 30 2c bc 0a 8e 31 3c 91 fa 3d be
       -0.21463619 -0.010509634 0.010837087 -0.18552615
000040 3d 91 b5 be 9d d9 84 bd 13 b3 b1 bc 17 b4 32 be
       -0.3546237 -0.06486819 -0.021691835 -0.17451511
000050 30 00 34 3e 8b fa f5 bd 71 b7 58 3d be 50 3e 3e
       0.17578197 -0.12010678 0.05290932 0.18585488
000060 cd 23 d6 3c 14 49 59 3e d1 10 53 bd eb 8f 86 3e
       0.026140118 0.21219283 -0.05152971 0.26281676
000070 d4 ff 2e be 6f c2 10 3e 61 2c 2c bd 4a 6d 40 be
       -0.17089778 0.1413667 -0.04203451 -0.1879169
000080 07 c4 6b be f1 c6 d0 3d 69 b7 02 3f 4c b4 8d be
       -0.23023997 0.10194195 0.5106111 -0.27676618
000090 23 64 3e be b5 cb 41 3d a3 a9 54 3c 0f f8 ed 3e
       -0.18592887 0.04731341 0.012979898 0.46478316
0000a0 f9 3a 0e 3e 36 62 3d 3e 54 b6 2a bd 87 83 a5 3c
       0.13889684 0.18494496 -0.041677788 0.020204319
0000b0 5d 37 83 3d 46 29 83 bc d0 5a 3c bd a1 71 b5 be
       0.06407044 -0.016010892 -0.045985043 -0.35438254
0000c0 7d cf f1 be 80 b6 af bd f1 9f 84 3e 54 d1 f9 3d
       -0.47228613 -0.08579731 0.25903276 0.12198129
0000d0 c2 d7 6c be 6d e5 d0 be 24 f1 0b be 48 a2 d8 be
       -0.2312918 -0.40800038 -0.13666207 -0.4231131
0000e0 b4 78 6e 3e 6c f0 87 3d 9f 1d 13 bf bd 13 72 be
       0.23288232 0.06637654 -0.57467073 -0.23640342
0000f0 85 5f 5c 3e a2 62 4d 3d b5 80 71 3e 23 fc e0 3e
       0.21520813 0.05014289 0.23584254 0.43942365
000100 23 7a 9c 3e fe 4a 83 be 15 21 d7 3e 13 a0 88 be
       0.30561933 -0.25643152 0.42017427 -0.26684627
000110 cb 26 6a bc d2 c5 87 3d c7 ed 3e be 5c 4e b6 3e
       -0.0142914755 0.06629528 -0.18645392 0.35606658
000120 ac c1 8f bd 7c 37 51 be 24 90 6f be 25 8b 12 3e
       -0.07019362 -0.20431322 -0.23394829 0.14310892
000130 5c 38 8e 3e e9 27 ba 3d 5a 8c 57 be 29 d5 fe bd
       0.27777374 0.090896435 -0.21049634 -0.12443001
000140 97 8a 3e bc 94 e0 51 be 2a cb 82 3e 02 27 18 be
       -0.011629722 -0.20495826 0.25545627 -0.1485863
000150 eb 92 b3 3e 19 92 ef bd c1 d7 be bd 22 cf 58 3d
       0.35073027 -0.11697788 -0.093184955 0.052931912
000160 de 80 55 3d ca 52 0a 3e ee 24 63 bc bb ac 69 be
       0.05212485 0.13508144 -0.013863785 -0.22819798
000170 c3 0c 5f 3d 8f f1 8f 3e 09 76 61 3e de d9 d4 bd
       0.05445553 0.28113982 0.22017683 -0.10393117
000180 c7 0b 8d be ab 2d 97 3c a4 53 49 3d b7 be 8a be
       -0.27548048 0.018454393 0.04915203 -0.2709863
000190 c2 13 3a be d6 18 15 bd b0 e6 01 3e c1 24 8e be
       -0.181716 -0.03640064 0.12685657 -0.27762416
0001a0 c3 6e 3d be aa 4b d4 3d 0a fe 4d 3e 90 b3 bd bd
       -0.18499283 0.10365994 0.2011644 -0.092627645
0001b0 82 d0 ba 3e da 38 31 3e 65 44 0e 3e 57 fc fa bc
       0.36487204 0.17306843 0.13893278 -0.030637903
0001c0 87 ca b2 3d 37 bd f6 bd 36 e5 89 3e f4 3a ac bc
       0.08730035 -0.120478086 0.26932687 -0.021024205
0001d0 84 f2 f0 3d 38 5c a5 bc b5 17 fd 3b 66 20 c5 be
       0.11765006 -0.020185575 0.0077237734 -0.3850128
0001e0 f2 6b 12 be ac b8 2b 3e 46 ef 3e 3e 0c b6 31 bd
       -0.1429899 0.16769665 0.18645963 -0.043386504
0001f0 e0 f8 1f 3e 89 68 35 bc 24 7b 6a be 79 24 5e be
       0.15622282 -0.011072286 -0.22898537 -0.216936
000200 ea b4 4e bc ae b0 bd bc 69 50 5c bd b7 fe 09 bf
       -0.012616375 -0.023155537 -0.053787623 -0.5390429
000210 e5 c9 0e 3e 55 ad c1 3c 4a 3d c1 3c 21 af 2c 3e
       0.13944204 0.023642221 0.023588795 0.16863681
000220 b2 ae 9c 3e b9 ca 4e 3e c1 cb af 3e f6 ab 9c 3e
       0.30602032 0.2019452 0.3433514 0.30599946
000230 e2 a9 e5 3e 41 00 56 be ee ae a7 3e 5e a0 85 3e
       0.44856173 -0.20898534 0.32750648 0.26098913
000240 4c 31 ad bd 8c ea 8a 3c 0f db b1 bd c4 7d aa bb
       -0.08456668 0.016957544 -0.0868436 -0.0052029807
000250 0b 2d eb 3d 97 24 0f be a3 a1 ba bd 8c 3b bc be
       0.11483201 -0.13978802 -0.09112861 -0.3676418
000260 75 00 21 3d 69 b9 76 3e 44 3a 7d bc 77 f3 92 be
       0.039307076 0.24094166 -0.015455786 -0.28701374
000270 73 fd 27 bb 66 7f b9 3b d2 68 63 be 62 55 5c 3e
       -0.0025633245 0.005660939 -0.22207955 0.21516946
000280 06 fa 09 3f 42 6e d8 be c3 f3 81 3e d8 01 64 be
       0.5389713 -0.4227162 0.25381288 -0.22266328
000290 ea 17 2c 3e 41 bf 52 3d a6 44 6d be e4 c4 ba bc
       0.16805997 0.051451925 -0.23170719 -0.022798963
0002a0 9f 33 24 3e a6 3e 83 be 82 3e ea 3b 16 e3 93 bd
       0.16035317 -0.25633734 0.007148565 -0.072210476
0002b0 17 95 16 be a5 7e a0 be bb 5a 5d bd b2 9d ed bd
       -0.14705311 -0.31346622 -0.054041605 -0.116023436
0002c0 b5 08 a9 be cb 32 58 3d 03 bc 72 bd ed 72 09 bc
       -0.33014455 0.052782815 -0.059261333 -0.008389217
0002d0 1b b8 d2 3d dd cb 22 bd 39 fc fe bd 51 a4 ae bc
       0.102890216 -0.0397452 -0.124504514 -0.021318587
0002e0 16 ee 3d 3e 7d 48 a9 3e ce 22 77 3c 34 6c e0 bc
       0.18547854 0.33063117 0.015083982 -0.027395345
0002f0 e5 98 a6 3d 71 ef 34 be 9e 50 2e bd 8d 64 cf bd
       0.08134631 -0.17669465 -0.04255735 -0.101266004
000300 f6 8a 00 3d 68 b6 df be 38 94 eb 3c 05 ea bb be
       0.031382523 -0.43693852 0.0287572 -0.3670198
000310 ff 4e 28 be 44 28 0b 3f 28 4a bb be 34 f1 38 be
       -0.16436385 0.54358315 -0.36580014 -0.18060762
000320 84 83 86 be db 9c 49 be 11 10 3b be 54 63 9a 3e
       -0.26272213 -0.19688742 -0.18267848 0.30153906
000330 67 45 2f 3e 71 b2 27 bd b2 65 8d be b6 5b 9f 3e
       0.17116319 -0.04094166 -0.2761665 0.31124657
000340 50 22 47 be 41 e1 68 be d9 31 ef bd 77 80 84 be
       -0.19446683 -0.22742178 -0.116794296 -0.2587926
000350 b8 29 0d 3d 64 5c 95 bd c7 1f 80 3e f1 e5 8b 3e
       0.034463614 -0.07293013 0.25024244 0.2732387
000360 9c c5 00 3e 56 3e 14 be c4 6a ab 3d 3c 7f 6c be
       0.12575382 -0.14476904 0.08369973 -0.23095411
000370 96 18 4b be b5 fb 96 be 93 e3 09 be 54 d6 f7 bd
       -0.19833598 -0.29488912 -0.13465719 -0.12101427
000380 c4 02 91 be af d8 be 3e 9f 9d 20 3e bb bb c5 3d
       -0.28322423 0.3727469 0.15685128 0.09654947
000390 a5 49 93 be e1 bb 07 3d 0f d7 28 3e c0 d1 9d 3e
       -0.28767124 0.03313816 0.16488288 0.3082409
0003a0 e1 ba 6d be f5 49 91 3d 8a c2 e2 be 1d d3 ae 3e
       -0.2321582 0.07094184 -0.44289047 0.34145442
0003b0 59 bb 3c be b0 ad 71 bd 29 e8 91 be c8 47 4b ba
       -0.18430842 -0.059003532 -0.28497437 -0.00077545317
0003c0 64 ca 02 be 25 c7 a5 3e 2b 9f 1b 3d 02 40 33 3d
       -0.12772518 0.32378498 0.03799359 0.043762214
0003d0 99 e5 e2 3e 27 1c 26 be 1b 74 af bc 80 c4 a9 be
       0.44315794 -0.16221677 -0.021417668 -0.3315773
0003e0 49 93 9e 3d da e8 3a 3d c0 02 21 3e 8a b7 53 be
       0.07742936 0.04563222 0.15723705 -0.20675483
0003f0 18 01 61 bc cd d0 f9 3a c5 a6 59 be f7 c0 7f be
       -0.013733171 0.001905942 -0.21255024 -0.24975954

network_body._body_endoder.seq_layers.0.bias f4 [128]
000000 c0 ff 07 3d 04 04 01 3d d4 de 8d 3c 36 b6 cf bb
       0.033202887 0.03149797 0.017318167 -0.00633886
000010 79 27 8d 3c 73 2a 10 3d 6c be 3e 39 25 52 27 bc
       0.017230736 0.035196733 0.0001819075 -0.010212456
000020 48 1d d6 b7 fb 9d 59 bc 79 73 b4 3b 44 62 c1 3c
       -2.5524423e-05 -0.013282294 0.0055069295 0.023606427
000030 ab 19 2c bc 17 35 5b 3b a1 19 2e 3b ce 70 20 3d
       -0.010504167 0.0033448392 0.002656557 0.03917008
000040 01 e8 64 bb ba 17 d7 bc 6b 1f a8 3c c7 61 3b 3c
       -0.0034928324 -0.02625643 0.020522794 0.011436886
000050 4b a2 43 3c 68 30 be 3c 3d 58 ae bb ed 4a 0d bc
       0.011940549 0.023216441 -0.0053205774 -0.008623821
000060 6b e7 03 3d 1e 51 45 3c 31 88 73 3c 4a dc d9 3c
       0.03220312 0.012043266 0.0148640135 0.0265943
000070 08 49 cd b9 9e 88 3e bc 37 d0 26 3d c8 ce 10 3c
       -0.0003915506 -0.011629252 0.040725913 0.008838363
000080 00 03 c7 3c e0 8f fc bb 5b d3 9a bc 3c 2b 0b 3c
       0.024293423 -0.007707581 -0.01889961 0.008494195
000090 8f 13 92 3c ec ab 4c 3b 50 2f 14 3d 83 55 55 3c
       0.017831592 0.0031230403 0.036177933 0.013020876
0000a0 28 5c 40 3c 3c 5b 3a bc ee e9 eb 3b d0 e0 5e 3c
       0.011740722 -0.011374291 0.0071995175 0.013603404
0000b0 d2 39 2b bb d5 a1 8a 3c 17 ac d9 3b f5 22 4f 39
       -0.0026126993 0.01692287 0.006642829 0.00019754081
0000c0 3a e6 0a bb 08 68 65 3c 1e 8c 2b 3d 0e c1 0e 3c
       -0.0021194355 0.014001854 0.041881673 0.00871302
0000d0 fa 52 bc 3c 98 54 07 3b 7f 05 f4 3b 33 79 c5 bb
       0.022988785 0.0020649787 0.0074469442 -0.006026411
0000e0 29 de a2 3c 2c 0c b8 bc ce 22 4f bc 6d 87 1d 3d
       0.019881325 -0.022466742 -0.012642575 0.03845923
0000f0 e0 a2 d6 3a ee 43 a6 3c c5 d3 3d bc bc c0 61 3c
       0.0016375445 0.020296063 -0.011586134 0.013778862
000100 8f ca 6c ba 4f 8c e7 3c 92 71 94 3c c5 8f 48 3c
       -0.0009032869 0.028265147 0.01812056 0.012241309
000110 8c 1e b5 3c 47 38 b4 ba be cc 6b bc 96 e8 1d 3d
       0.022109292 -0.0013749682 -0.014392076 0.03855189
000120 2f 78 9a bb 45 00 3c 3c 98 bc 05 bc 04 07 c7 bc
       -0.004714034 0.011474674 -0.00816264 -0.024295337
000130 15 2f dc b9 71 0d 22 3d cd 95 6e 3c 8d a0 91 3b
       -0.0004199675 0.0395636 0.0145620825 0.004444188
000140 02 1d 9c 3c 9f 2f 40 3c b3 60 e3 3c 55 f6 00 3d
       0.0190568 0.011730104 0.02775607 0.03148492
000150 ed e2 95 ba ab 20 fa 3c e7 3e 07 bb 5f 52 8a 39
       -0.0011435427 0.030533155 -0.0020636858 0.00026382782
000160 4f 9e c8 bb e4 b2 15 3d 46 3b b3 bb a0 ca d2 3c
       -0.0061223875 0.036547557 -0.0054697124 0.025731385
000170 5e c8 12 3c a8 de ce 3c 65 f5 0a 3c 37 ff 9e bc
       0.008958904 0.025252655 0.008481358 -0.019408805
000180 a4 bc ef 3c be 03 a0 bb 10 e5 6a bc e1 1d 8e 3c
       0.029264756 -0.0048832586 -0.014336839 0.017348232
000190 a5 0b 49 3b f4 2a 68 bc c2 19 95 3c 9a 00 7f 3c
       0.0030677107 -0.014170397 0.018200759 0.015564108
0001a0 25 67 0c bc 5f c1 8d 3c 54 cb b4 bc e6 bc 8b 3b
       -0.008569513 0.01730412 -0.02206961 0.004264462
0001b0 54 68 84 bc 17 72 ee 3a 07 7a 82 bc a3 74 a6 bb
       -0.016163029 0.001819196 -0.015927328 -0.005079822
0001c0 20 9b 87 3c ba e8 c4 3c 5b 55 11 3d 85 82 dc 3c
       0.016553462 0.024036754 0.035481792 0.026917705
0001d0 86 a0 48 bc 7e 1f 99 3c 33 e8 9d 3c 7e bc 00 bc
       -0.012245303 0.018691774 0.01927576 -0.00785744
0001e0 04 d3 0a 3d 1f 45 b4 bb 9a ed 33 3d c8 a3 1b bc
       0.033892646 -0.005501404 0.043927766 -0.009499498
0001f0 20 ae 1c 3d a7 b5 8b bb c2 53 02 3d f7 00 65 3c
       0.038251996 -0.004263598 0.03181816 0.013977281

network_body._body_endoder.seq_layers.2.weight f4 [128, 128]
000000 6b e2 53 3d 6b b5 8a 3d 89 0d 83 bd 64 eb e2 bc
       0.0517296 0.06772884 -0.06399066 -0.027700134
000010 f1 db 17 3e 99 01 40 3d e6 7b 82 bc 2e 2d f6 bc
       0.14829995 0.046876524 -0.01592822 -0.03005084
000020 c6 e0 7f bc 08 60 b5 3d 01 b2 9f bd 12 44 8a bd
       -0.015617555 0.08856207 -0.077976234 -0.06751265
000030 ca a8 ca 3d e9 32 e1 bd 94 4e 36 3d c0 c8 ca bd
       0.09895475 -0.109960385 0.04450853 -0.09901571
000040 dc 4e 1c be 73 a9 d0 bd 23 e3 39 be 3b 4a 4e 3d
       -0.15264457 -0.1018857 -0.18153052 0.05036376
000050 bd be 50 bd c4 76 63 3d 49 96 3e bd d8 68 06 be
       -0.050963152 0.055533186 -0.04653004 -0.13125932
000060 6e c0 91 bd 7a 6c 2b 3d 78 f4 75 3a ee 2f d6 3c
       -0.07116781 0.0418515 0.0009382437 0.026145902
000070 e7 34 7f 3d cd a2 df 3c 7b f1 30 bb 3c 1a cc 3d
       0.06230631 0.02729931 -0.0026999402 0.09965941
000080 04 25 2c be 07 26 f0 bd 8c 7e aa 3c 47 56 a9 3d
       -0.16810995 -0.11726003 0.020812295 0.08268409
000090 9a 19 00 3e ec a7 d8 bd bd 65 04 be 4f 18 d6 3a
       0.12509766 -0.105789036 -0.12929435 0.0016334149
0000a0 07 f9 97 3d dc 2b 19 3d ef 4a 37 3b cd 32 a6 3c
       0.07420545 0.037395343 0.0027968248 0.020287896
0000b0 43 84 e7 3c 67 ec ec 3d c5 1c 3b be 37 ff 52 3d
       0.02826131 0.11568528 -0.18272693 0.051512923
0000c0 5e b5 89 bd fb 56 8e 3c d0 6d 82 3c 10 b9 17 3d
       -0.06724046 0.01737546 0.015921503 0.037041724
0000d0 99 5c 1f be 8a d7 20 3e 23 71 cc bd 9a 7f 05 3e
       -0.15562667 0.15707222 -0.099825166 0.13036957
0000e0 2b 59 d0 3d 0e 7a 4d bc 39 85 7f 3d c3 6b 65 be
       0.101732574 -0.012541307 0.06238291 -0.22404389
0000f0 b2 28 e6 bd c4 a3 11 3d 85 75 c4 3d fb 6a 8a 3d
       -0.11238231 0.03555657 0.095927276 0.06758686
000100 67 46 9a 3c 31 d0 09 bc c7 a2 32 bd db 52 23 3c
       0.018832399 -0.008411453 -0.043612268 0.009968485
000110 ab ff 13 be 97 fe ec bd 5b af 0a 3e b5 06 a1 3d
       -0.14452998 -0.11571997 0.13543455 0.078626074
000120 f8 4c 68 3d 5b f6 a1 bd 13 62 6f bc 44 82 7a bd
       0.056714028 -0.07908317 -0.014610785 -0.061159387
000130 49 84 67 3c 9a 69 bd bd 8c ba d9 bc 83 87 6d bc
       0.01413066 -0.092486575 -0.02657821 -0.014497641
000140 3c 18 05 3e 1f 81 3f 3d db 95 6f 3d f7 8e 38 bd
       0.12997526 0.046754 0.058492523 -0.045058217
000150 17 fa 6f bc 53 d1 4e 3c 86 52 cf bd e6 95 1d 3c
       -0.014647028 0.012623149 -0.10123162 0.009618258
000160 e2 81 bf bd 8b f5 26 bd ed 36 f2 3c 95 c9 16 bd
       -0.09350945 -0.04076151 0.029567206 -0.036813337
000170 97 5a c1 bd f2 0e b3 3d 16 e6 a9 bb 29 84 e1 bd
       -0.09441107 0.08743085 -0.005184899 -0.11011536
000180 ae db 5d 3d 1b e3 88 bc c6 00 73 3b 6c a7 96 3c
       0.05416458 -0.016709855 0.0037079318 0.01839038
000190 0d b7 b7 3d 9f 23 8c bd 5a 84 01 3c cf c5 c7 3d
       0.08970461 -0.06842732 0.00790509 0.09754526
0001a0 72 f1 02 be 25 ce 93 bd f1 9a a5 bd cb 29 6b bd
       -0.12787417 -0.07217053 -0.08086193 -0.057412904
0001b0 fe 0f 5d bc 32 86 fc b9 aa 38 c1 3d 0d 5a 8d bd
       -0.013492582 -0.0004816517 0.09434636 -0.069019414
0001c0 54 ac af 3d 43 77 de bc f7 10 a4 3c f3 82 56 be
       0.08577791 -0.027156478 0.02002762 -0.2094839
0001d0 6c 10 0b 3b 77 d0 86 bd ac d7 03 3e 29 1c 94 3d
       0.0021219505 -0.0658273 0.12875241 0.072319336
0001e0 61 62 a7 bd 80 3c de bd 42 45 32 bd c9 4f 9c bd
       -0.08173061 -0.10851383 -0.04352308 -0.07632405
0001f0 9f 8c 45 3d 04 ea dd bd d9 af ba bc b5 d6 1d 3d
       0.04822981 -0.108356506 -0.022788929 0.03853484
000200 60 03 a2 3d 86 1b ed 3c c6 c8 88 bd b5 c3 16 bd
       0.079108 0.028943788 -0.066789195 -0.036807735
000210 fc ca 76 3c 19 bb b9 bd 11 2c 89 bd c9 15 c7 3d
       0.015063044 -0.09068889 -0.06697858 0.09720952
000220 45 53 ca bc b5 88 7b 3d f9 98 b4 bc fc 6b c7 3c
       -0.02469791 0.06140967 -0.0220456 0.024343483
000230 53 2c 93 3d a9 5e 04 3d 78 52 95 bd b9 c1 a4 3c
       0.071861885 0.032316837 -0.0729112 0.020111905
000240 04 1a 20 3d 26 2c 25 3d 01 00 08 be 1e 0f fe 3b
       0.03908731 0.040325306 -0.13281251 0.007753267
000250 aa 1a 86 bd 70 5a 9e 3d 3f c0 1d 3d a9 aa 21 bd
       -0.065480545 0.07732093 0.03851342 -0.039469395
000260 cb 38 6b bd ab 03 9d bd 15 b4 99 bd 2b 3e 14 bd
       -0.05742721 -0.07666715 -0.07505051 -0.0361921
000270 6f 97 3f be 55 0e 11 bd 85 17 d4 bd 2d 60 3a 3d
       -0.18710111 -0.03541406 -0.103560485 0.045501877
000280 e7 76 0e 3c 9d 0b d0 bc 3a cd fb 3d a7 3e d5 3c
       0.008695341 -0.025396163 0.12295003 0.026030852
000290 0a 79 a5 bd 1f 3c 64 3d 33 9a 4b bd f0 de be bd
       -0.08079727 0.0557214 -0.049707603 -0.09319866
0002a0 7d ac 39 bd 40 2d b8 bc b2 84 d8 3d ee 75 35 bd
       -0.045330513 -0.022482514 0.105721846 -0.04430192
0002b0 31 7d 2d be d3 c7 17 bd 38 a5 81 bd db d8 25 3d
       -0.16942288 -0.0370558 -0.06330341 0.040490013
0002c0 9c de a0 bc 91 d5 cc 3c 42 27 11 bd 9c 73 55 3c
       -0.019637398 0.02500418 -0.03543783 0.013028052
0002d0 f0 33 8f bc 7d b0 4e 3b fa 8c 26 bc 55 83 83 3d
       -0.01748082 0.00315383 -0.010165447 0.06421534
0002e0 36 42 d6 bc ba 88 b2 bc 72 3c 32 bd 6b 32 96 bd
       -0.026154619 -0.021793712 -0.043514676 -0.07333835
0002f0 12 0d 94 bc f1 86 ec bd e1 21 bf 3d f7 09 6c 3b
       -0.018072639 -0.115491755 0.09332634 0.0036016682
000300 de 3f 6e 3c dd ed 95 bd 2f cb 85 3d d7 07 56 3e
       0.014541594 -0.073207594 0.06532895 0.20901428
000310 2f 27 af 3d b4 1c 4f 3e f5 c0 17 3d ab ca af bd
       0.085523956 0.20225793 0.037049253 -0.08583578
000320 f6 d7 e9 bc dc d4 2e 3d de 4d 78 3b 9c 1e 6a bd
       -0.028545361 0.042683467 0.003788821 -0.057158098
000330 0e cf fd 3c 99 45 28 be 6d e6 39 be 14 16 01 3e
       0.03098252 -0.164328 -0.18154307 0.12606078
000340 30 53 2f bd 1f 0e c5 3d eb de 70 3c c7 d6 60 3d
       -0.042803943 0.09621834 0.014701585 0.054892328
000350 a9 1e d7 bc 21 03 8b bd 36 1a 75 3b 44 fb 00 bd
       -0.026259737 -0.06787706 0.0037399656 -0.031489626
000360 48 47 b5 3d f0 56 0c bd d8 10 6c bd 4c fd 30 3c
       0.088514864 -0.034262598 -0.05763325 0.010802578
000370 b4 fe 07 bd 10 b2 99 bd ab 63 9d 3d 4e 6a 07 bb
       -0.03320189 -0.07504666 0.07685026 -0.0020662728
000380 86 cd 02 3d de 54 61 3c 95 f1 e4 bd 4c 51 88 bd
       0.031934284 0.013753144 -0.111788906 -0.06656131
000390 3f 5d cb bd 69 1a cf 3c d1 88 99 3c 36 19 33 bc
       -0.09929895 0.025281148 0.018741997 -0.010931304
0003a0 5d 18 cd 3c 48 29 27 be 80 20 09 3d 25 26 1b be
       0.025036031 -0.16324341 0.03347826 -0.1515127
0003b0 71 aa d5 3d 6a e9 4e be a9 36 e3 bb ab aa b3 3d
       0.104329 -0.20206228 -0.006934006 0.08772787
0003c0 0a f4 16 3c 79 f9 54 be 11 3c 22 bd cc d2 08 be
       0.009213457 -0.20798291 -0.039608065 -0.13361663
0003d0 d2 7f b5 bb d0 60 04 3b 4d 5f 0d bd 77 27 0f 3d
       -0.005538919 0.0020199306 -0.034514714 0.034949746
0003e0 2f 54 1a be 88 ab 05 3e 48 33 ad bd 5e 7e 3e be
       -0.15071176 0.13053715 -0.08457047 -0.18602893
0003f0 26 51 1a 3d 8a 70 95 3d 18 1a 9f bd f5 6c 12 be
       0.037675045 0.07296856 -0.07768649 -0.14299376

network_body._body_endoder.seq_layers.2.bias f4 [128]
000000 6a 8e ff b9 c9 86 de bc 1b 61 4d bc 85 68 70 bc
       -0.00048743497 -0.02716388 -0.012535359 -0.014673357
000010 f9 0b 4e bc 23 2a 86 39 e4 55 69 3c 48 1d e1 3c
       -0.012576097 0.00025589866 0.014241669 0.027479783
000020 1c 36 e8 bb b9 93 85 3c db 3c f1 39 a0 a8 ff 3b
       -0.0070865285 0.016305791 0.00046012443 0.007802084
000030 0f 03 4b bc 2d ea 94 bc d7 05 f2 3b 55 d1 3d bc
       -0.012390866 -0.01817807 0.00738595 -0.011585553
000040 e4 46 43 3b ee 93 87 bc bd d9 4c 3c 65 ea 9e 3c
       0.0029796893 -0.01655003 0.012503085 0.019398877
000050 64 0b 3c bb bb fc a4 bc f4 75 b7 3c 43 b5 a4 3c
       -0.0028693313 -0.020140043 0.022395112 0.020105964
000060 4b 35 82 3c 36 89 18 3d 31 9d 68 3c 9a 8e a6 3c
       0.015894553 0.03724023 0.014197634 0.02033167
000070 f0 1e f0 3c 3c 74 8a bc 7a 17 46 3b 5a 88 db 3c
       0.029311627 -0.016901128 0.0030226395 0.026798416
000080 5f b4 68 3b e0 3c 85 bc 75 94 07 3c 6b 87 22 3b
       0.00355079 -0.016264379 0.008275141 0.0024799954
000090 5e f5 89 bc 7a 06 9a bc b5 ea d2 3c 04 c0 84 bc
       -0.016840633 -0.018801916 0.025746683 -0.016204841
0000a0 c2 1b 18 3c ec ca 9e 3b 75 66 ad 3b 2a 19 f9 3c
       0.009283962 0.0048459675 0.005291755 0.030407507
0000b0 cd 2b fd bb 5d 43 b2 bc 26 b1 6a 3b b7 65 06 bc
       -0.0077261687 -0.021760637 0.0035811155 -0.008202962
0000c0 2e 6d e7 3c f5 ba b6 bc cd 11 86 3c 9d 6e 54 bc
       0.028250303 -0.022305945 0.01636591 -0.012965825
0000d0 05 59 c6 3b de 7d 6f 3c 62 3f 2d bc d3 df 00 3b
       0.0060530924 0.014617411 -0.010574194 0.001966466
0000e0 74 01 0f 3b fd 7b ce 3c 1a fa ee 3b 2d 10 9b 3b
       0.0021820934 0.025205607 0.007292998 0.004732153
0000f0 e9 12 ba 3c 86 e7 d8 3c 3e fa 86 3c 14 db a9 bc
       0.022714095 0.026477586 0.016476747 -0.020734347
000100 c1 4f 7d bc f4 1b 01 bc 8a 71 a1 3c 7c 75 25 bc
       -0.015460909 -0.0078802 0.01970746 -0.010098811
000110 5a aa 20 3b b1 5b 9e 3b a2 36 4a 3b ba 92 bd bc
       0.00245156 0.004832708 0.0030855318 -0.023141254
000120 45 44 0d 3d 5e 20 df 3c 65 11 94 ba b4 a4 8f bc
       0.034488935 0.027237114 -0.0011296688 -0.017534591
000130 f0 fa 92 3b 38 90 56 bc 83 a5 a0 ba 02 92 e3 bb
       0.0044854805 -0.013095908 -0.0012256358 -0.0069448957
000140 01 fb 77 3c 75 1c 94 3c d7 56 85 3c 5e 39 3e 3d
       0.015135528 0.018079976 0.01627676 0.04644143
000150 e3 70 7b 3c 9d 20 bf bc c4 b3 b1 39 f4 e4 31 bb
       0.0153467385 -0.02333098 0.00033894007 -0.0027144523
000160 09 cf c6 bb bb 28 53 3c 40 6f d3 3b 21 97 4b bc
       -0.006067161 0.012888129 0.006452471 -0.012426169
000170 96 60 9d 3c 1e 08 94 bc 5a 66 b1 3c 95 76 d4 3b
       0.019211095 -0.018070277 0.02165525 0.0064838626
000180 84 8e 45 bc 10 a8 69 bc 67 ae f1 bc 76 d2 c7 bc
       -0.012057904 -0.014261261 -0.029502107 -0.024392348
000190 67 8d 82 bb 8b bf 20 3a 88 4e b7 bc 8b b2 19 bb
       -0.0039841416 0.0006132058 -0.022376314 -0.0023452367
0001a0 c4 77 db 3c 87 03 3e bc 2b 57 b6 3c f7 17 08 3d
       0.026790507 -0.011597521 0.022258362 0.03322598
0001b0 a1 86 fc bb f8 f4 2d bc 0b b2 c2 bc 91 62 38 bc
       -0.0077064787 -0.010617487 -0.023766538 -0.011253969
0001c0 d4 b1 fa ba 88 13 b9 3c 60 e4 53 bc bf 00 66 3b
       -0.0019126483 0.022592321 -0.012932867 0.003509566
0001d0 85 68 9f 3c a2 b4 25 bb d4 7f 20 3c 2c 4c ec 3c
       0.019459018 -0.0025284667 0.009796102 0.028844915
0001e0 45 34 8a bc 24 72 d7 bb 79 ff d7 bb ae 0f 89 3c
       -0.016870627 -0.006574886 -0.006591734 0.01673111
0001f0 cc a6 df 3c 73 3e 94 bc 0c f7 8e bc ab 43 29 b9
       0.027301215 -0.018096184 -0.017451786 -0.00016142304

action_model._continuous_distribution.log_sigma f4 [1, 2]
000000 5f 14 bf 3b 73 bf ee 3b
       0.005831286 0.007286006

action_model._continuous_distribution.mu.weight f4 [2, 128]
000000 4e df 71 bc 61 28 fa bc 48 79 fe bc 22 2c 87 bc
       -0.014762713 -0.030536832 -0.03106369 -0.016500536
000010 54 b8 17 3c 4f 1f 60 bd a7 e4 3f 3c a5 72 45 3d
       0.009260256 -0.05471736 0.01171223 0.048205037
000020 9b 01 89 bc 44 62 73 3a 90 e7 16 3c c9 7d 0d 3b
       -0.016724398 0.0009284357 0.009210482 0.0021589866
000030 0a 42 d5 bc 03 dd 00 3a 92 61 ae 3b 84 78 28 bc
       -0.026032466 0.0004915746 0.00532169 -0.010282639
000040 f7 dc 99 ba a8 bb 84 bc fa 69 2e bb e3 8c 4d 3d
       -0.0011738826 -0.016202763 -0.002661346 0.05018319
000050 c3 55 c7 3a b8 97 8f bc b6 34 8c 3b f8 01 5a 3a
       0.0015208054 -0.0175284 0.0042787446 0.00083163334
000060 e0 29 ff 3b 1b d6 aa 3c 4f 6c 17 bd 0d 7f 0d 3c
       0.0077869743 0.020854047 -0.036968525 0.008636248
000070 a8 7d f7 3c 99 66 3d bc 0f 89 66 3c fc 7c 3c 3c
       0.030211285 -0.011560106 0.014070763 0.011504408
000080 9c 0a 3d ba 53 96 2b bd 89 a7 58 3c 9e 83 8c ba
       -0.0007211359 -0.041891407 0.013223537 -0.0010720377
000090 0b cb 16 bd 46 06 e0 bc 1b b0 11 3d 58 ee 0b bd
       -0.03681473 -0.027346741 0.035568338 -0.03416285
0000a0 16 9c 08 bc ec 4b 3c 3c 11 94 86 3c c0 d9 ad 3c
       -0.008337995 0.011492711 0.016428025 0.021221995
0000b0 14 2d 99 bc 16 3b 41 bd 0c ec b2 3c 8b 7e c4 bc
       -0.018698253 -0.04717549 0.021841072 -0.023986122
0000c0 a0 3b 92 3b c8 c6 9f bc 42 4b c0 3c c0 44 9d bc
       0.0044626743 -0.019503966 0.023473386 -0.019197822
0000d0 fd 63 a1 3c e3 f8 dc 3c 09 35 7b bc cf 58 61 3c
       0.019700998 0.026974147 -0.015332469 0.013754084
0000e0 c2 56 82 bc b8 94 b6 3c 2c 51 a3 3c 8f f8 20 3b
       -0.01591051 0.022287712 0.019936167 0.0024562215
0000f0 ca 64 2d bc 98 64 2a 3d 89 af fe 3c 6c 1b e7 ba
       -0.010583112 0.04159984 0.031089561 -0.0017632074
000100 59 6c c2 bb 4f 86 9a bb 24 4b be 3c db b2 5a bc
       -0.005933326 -0.004715718 0.02322919 -0.0133483065
000110 65 f9 55 bc 94 bf bd 3c dc aa 1f 3c 8b 2f fd bc
       -0.013059949 0.02316264 0.009745326 -0.03090646
000120 e8 5c c8 3b fc 13 c9 3c 92 ce 0c 3b 92 a0 d6 bc
       0.006114591 0.024545662 0.002148543 -0.026199613
000130 ec c8 d0 bb ca da f8 39 6d 76 a6 3c e2 46 02 bd
       -0.006371608 0.00047465257 0.020320142 -0.03180588
000140 fd 57 77 3c 59 42 1d 3d 85 0f 52 3c e5 0a 82 3c
       0.015096662 0.038393352 0.012821083 0.015874336
000150 91 a0 01 3c d2 ba 70 ba fd ad 84 bb d2 32 72 bc
       0.007911817 -0.0009183112 -0.0040490613 -0.014782624
000160 af 67 e4 bb b7 89 28 3c 1f bd c8 bc 95 a8 9d bc
       -0.006970368 0.01028674 -0.024504242 -0.019245425
000170 92 ff 08 3d 17 f2 cb bb a2 a5 8a 3c 12 64 c7 bc
       0.033446856 -0.0062239277 0.016924683 -0.02433971
000180 b6 d1 3a bd 25 72 87 3c 66 e6 ec bb 7c ef 19 bd
       -0.045610152 0.01653392 -0.007229614 -0.037581906
000190 3b cd 5a bc 80 4f ec bc 19 8f bc bc d0 50 57 bd
       -0.013354595 -0.028846502 -0.023017453 -0.052567303
0001a0 bc fd 26 3d 1b f2 8a bc 24 29 0c 3d 52 23 dd 3c
       0.040769324 -0.016961148 0.034218922 0.026994381
0001b0 c3 19 38 bc 0a c5 86 bc 01 13 35 bc 53 7f 8a bb
       -0.011236611 -0.016451377 -0.011051894 -0.004226604
0001c0 b9 67 98 3b 2b ed 1c 3d ac 3d 39 3a f5 af 3d bc
       0.0046510366 0.03831212 0.000706638 -0.011577596
0001d0 26 93 67 bb 2d b2 d8 bc a0 2a 10 3d 97 cf d1 3c
       -0.003533551 -0.026452148 0.0351969 0.025611682
0001e0 ae c1 09 bd 6b d2 8d 3b 1a 9f 0d bd aa ee 81 3c
       -0.033631973 0.0043280623 -0.03457556 0.015860874
0001f0 c1 f6 0c 3d 08 2b eb bc 17 56 8a bb d0 67 17 bd
       0.03441501 -0.028707042 -0.0042216885 -0.036964238
000200 aa 4b 70 bc 82 4b 80 3b ca d1 7d bc e5 2c 70 bc
       -0.014666477 0.003915251 -0.015491912 -0.014659141
000210 c6 84 83 ba 9a 4a c4 3c 74 cf c0 3c 8e 97 18 3c
       -0.0010034076 0.023961354 0.023536421 0.009313477
000220 42 90 16 bd f9 1f 0d 3c 47 27 62 bb 7d 72 02 3d
       -0.03675867 0.00861358 -0.0034508274 0.031847466
000230 5d d1 1c 3d d7 ec ec bb ef 93 f8 3c 97 3c a4 3c
       0.038285602 -0.007230382 0.030343978 0.020048423
000240 d9 c4 a8 3c 0d 00 f2 3b c8 e8 ed bc 70 2b a8 ba
       0.020601677 0.00738526 -0.029041663 -0.0012830328
000250 c5 dc 86 3b d6 d7 a2 bc 30 92 bb 3b a9 22 56 3c
       0.0041156732 -0.01987831 0.005724214 0.013069787
000260 5c f9 94 3c 2a d2 f3 3c 2f a7 48 3d 0f de ab bc
       0.01818531 0.0297633 0.048987564 -0.02097991
000270 30 29 17 3d c0 69 c8 bc 24 c2 3a bc 72 95 b4 3c
       0.036904514 -0.024464488 -0.011398826 0.022043917
000280 7a b4 ad 3c ed 4c 8a ba b7 89 ed bc aa 52 97 bc
       0.021204222 -0.001055149 -0.028996332 -0.018472034
000290 e7 19 d9 bc cb af 55 b9 e9 81 95 3c 28 a6 92 3b
       -0.026501609 -0.00020378751 0.018250423 0.004475374
0002a0 d7 9b 81 bb 25 cf bd 3c 8e 69 2e bc 8c aa 38 3d
       -0.003955345 0.023170063 -0.010645283 0.04508452
0002b0 19 e1 2a bd cb a1 99 bc f6 78 db bc 33 f4 41 3c
       -0.041718576 -0.018753907 -0.026791077 0.011838007
0002c0 a4 96 0c 3d 89 53 9f bb f5 e3 d0 3b ed d8 0f bd
       0.03432335 -0.004862253 0.006374831 -0.035118986
0002d0 fb ff 74 bc e7 17 88 bc 95 02 9a bc f6 df 43 bc
       -0.014953609 -0.01661296 -0.01880006 -0.011955252
0002e0 48 58 ef 3c 0e 6a fd 3c 91 d7 90 bb 93 18 31 bd
       0.0292169 0.03093436 -0.004420229 -0.043236326
0002f0 60 16 8f 3c 33 cc 16 3d 4a 0d 0b 3c 23 dd 8a bc
       0.017466724 0.036815833 0.008487055 -0.01695115
000300 4e c6 d2 bc 62 32 90 3c 2e 30 f8 3b 85 bc b2 3c
       -0.025729325 0.01760215 0.007574103 0.021818409
000310 c3 84 ef 3c 4a 5f 61 bc 24 93 5c bc 67 e9 48 3c
       0.02923811 -0.013755629 -0.013462815 0.012262679
000320 f0 67 4a 3c bc 12 68 bc bd 70 3c bc ab 18 ea bc
       0.012353882 -0.014164623 -0.011501488 -0.028576216
000330 93 f7 d2 3c a7 8c 33 bc ad 1d 4f bc ed 6b 13 bc
       0.025752818 -0.010958827 -0.012641353 -0.0089978995
000340 3a 73 6c bc 31 cd a0 bc d7 c1 de 3c c7 b6 d3 ba
       -0.014431769 -0.019629093 0.02719204 -0.0016152494
000350 50 5d e5 3c a9 3b 09 bc 18 c0 0c 3d 64 bf 3b bd
       0.027998596 -0.0083760405 0.034362882 -0.04583682
000360 e3 1d 0a bd e2 3e 39 bd 65 e1 0a 3b 09 bf ac bb
       -0.03371991 -0.045225985 0.0021191475 -0.0052717966
000370 d5 68 db 3c ce 14 26 3b ec 35 6d 3c 58 ff 79 3d
       0.026783386 0.002534199 0.014478188 0.06103453
000380 5a f6 0c bd 52 30 b9 bc df fe 30 bc f9 bc 25 bc
       -0.034414627 -0.022606049 -0.0108029535 -0.010115855
000390 2c c6 b6 3c 0b e1 9e 3c 7a c0 98 bc f3 f5 4c 3d
       0.022311293 0.019394418 -0.018646467 0.050039243
0003a0 58 42 df bc 7c de 52 3c 7e 4b e2 3a d1 a3 ad bc
       -0.027253315 0.012870427 0.001726493 -0.021196278
0003b0 e0 dc 7a bb 01 88 07 bc 50 de 01 bc e5 09 c1 3b
       -0.0038278624 -0.008272172 -0.007926539 0.005891072
0003c0 3e c7 23 bd 8d 1a 8b 3b da ce 51 bc 7b 30 15 bc
       -0.039984934 0.0042451085 -0.012805665 -0.009105797
0003d0 e8 6d 7c 3c 03 c5 94 3c 18 2b 70 bc c8 df 32 ba
       0.015407063 0.018160349 -0.014658712 -0.0006823507
0003e0 df c5 87 bc c0 af 15 3c 82 a9 5a bd 6b 55 e9 3c
       -0.016573844 0.00913614 -0.05338431 0.028483113
0003f0 63 9b 4b 3a d9 8a 27 bc 9c 9e 2d 3c 03 8a 2f 3d
       0.000776699 -0.010225975 0.010596897 0.042856228

action_model._continuous_distribution.mu.bias f4 [2]
000000 d7 6a 9f 3c 67 c5 05 3c
       0.019460125 0.00816474

action_model._discrete_distribution.branches.0.weight f4 [4, 128]
000000 2d 2d fb 3b 94 0c f4 bc c8 fb 71 3c 99 fe d1 bc
       0.0076652975 -0.029791154 0.014769502 -0.025634097
000010 b1 64 99 3b 4c b8 14 bd 10 bf 9f ba a8 c7 1a 3d
       0.004681193 -0.03630857 -0.0012187678 0.037788063
000020 03 c2 2b 3c 6e 88 e5 bc 10 c7 29 3c b0 b6 b2 bc
       0.010483268 -0.028019156 0.010362402 -0.021815628
000030 f8 8a 9f bc ba 05 95 bc ec 43 96 bc a5 e7 db 3c
       -0.019475445 -0.018191207 -0.018342935 0.026843855
000040 00 32 0b bd aa 68 95 bc 21 64 2a bb 49 fc 31 3c
       -0.03398323 -0.018238384 -0.0025999623 0.010863372
000050 6f 17 b8 bb c0 2c 55 bc 6c 2d 4e 3c a1 3f b4 3c
       -0.005618028 -0.0130111575 0.012584072 0.022002997
000060 fa 55 a5 bb a1 8f 00 3d b5 1d 44 3d 7a ba e6 bc
       -0.0050456496 0.031386975 0.047879893 -0.02816509
000070 ac a3 1f 3d 90 53 7c bc 25 e7 b4 3b e6 59 19 3d
       0.03897445 -0.015400782 0.0055207186 0.03743925
000080 3b 86 34 bc 31 16 3f 3b 94 b3 81 3b cc 9b c0 bb
       -0.011018331 0.0029157514 0.003958175 -0.0058779474
000090 ed 03 2a bc c4 e0 ea 39 4b 99 f9 3c 05 ae a6 bc
       -0.010376913 0.0004479942 0.030468604 -0.02034665
0000a0 57 77 bc 3c 95 f8 48 3a e3 46 b7 3c bc ab 79 3c
       0.023006124 0.0007666436 0.022372669 0.015238699
0000b0 b2 73 01 bd 6e 36 70 bc cd cf b9 3c 36 f4 bc 3c
       -0.031604476 -0.014661415 0.022682095 0.023065668
0000c0 bb 29 df 3c 47 2f 0c bd b9 86 cb 3c 7c 04 a1 3b
       0.027241578 -0.034224775 0.024844514 0.0049138647
0000d0 ea 41 76 3c 3c d5 3d bc 85 c9 ab b9 98 2c 1c 3c
       0.015030364 -0.011586484 -0.00032765805 0.009532116
0000e0 82 3e e4 3b 6d b8 98 bb 0a 13 a9 bb 87 36 5d 3c
       0.0069654593 -0.004660657 -0.0051597403 0.01350177
0000f0 ce 5b 15 3d 77 67 64 bb 80 72 7e 3c 73 ac f1 bc
       0.036464505 -0.003485171 0.015530229 -0.029501176
000100 8b ae 30 3c e6 c0 91 bc 2c 58 b0 3b ec 15 77 bc
       0.010783802 -0.017792176 0.0053816047 -0.01508091
000110 5e aa aa 3b 15 be 21 bc a3 8a 15 3c bd 4b 67 bb
       0.0052082976 -0.009871979 0.009127292 -0.0035292946
000120 3b dd 36 3d fe 30 e7 3b 7b d9 65 bc 5d 7c 6e bc
       0.044644576 0.007055401 -0.014028902 -0.014556018
000130 c9 9b b2 3a c2 6c 5e bc 0b b1 b7 bb 08 f1 bd bc
       0.001362675 -0.013575735 -0.005605822 -0.023186222
000140 df 1c 35 3a 41 6e fb bc 65 88 a6 bb 0a 70 4d 3d
       0.0006908904 -0.030692222 -0.0050821775 0.050155677
000150 b2 ff c3 3b c0 0c b1 3c 9c c5 bb bb 17 f8 39 bc
       0.005981409 0.021612525 -0.005730344 -0.011350653
000160 40 b1 84 3c 06 e9 32 3c 57 5b d9 3c 37 b0 2a bd
       0.0161978 0.010919815 0.026532812 -0.041671958
000170 8d 0d c9 3b 05 bd a6 3a 82 19 46 bc 6b 06 89 bc
       0.0061356486 0.0012721127 -0.0120910425 -0.016726693
000180 34 cd 86 3b d7 2f ea bb b5 26 2a 38 35 e8 7c bc
       0.0041138176 -0.0071468162 4.0567207e-05 -0.015436222
000190 ef 61 88 bc 71 e9 fb bb e9 bb 88 bc b1 e0 a0 bc
       -0.01664826 -0.0076877405 -0.016691165 -0.019638391
0001a0 20 75 c8 3c 2d 89 c9 bc 2f 50 52 3b 14 5c 2e 3d
       0.024469912 -0.024601543 0.003209125 0.04256828
0001b0 5e c2 04 3d 64 dd 3a 3c 7e 6d dc bb 27 d4 15 3c
       0.032411925 0.011405323 -0.0067269197 0.009144819
0001c0 61 6f e8 bc 2a 5e 17 bb 24 26 1d bc 80 91 d4 3c
       -0.028373422 -0.0023096898 -0.009591613 0.025948286
0001d0 ab 87 63 3c 7e a7 8f bb c8 78 8a 3b 40 6e ba 3c
       0.013887326 -0.0043839803 0.004225824 0.02275765
0001e0 c1 e3 bb bc 81 08 85 bb 46 8f 57 bd a7 03 16 3d
       -0.02293575 -0.0040598516 -0.05262687 0.036624577
0001f0 a6 33 6d 3c 3c c6 07 3c 62 b0 b6 bb 98 df f8 bb
       0.014477646 0.008287009 -0.0055752257 -0.007595014
000200 31 8f b4 3b c5 55 05 3c 51 43 9f bb fd 2e 86 3c
       0.005510234 0.008138125 -0.0048603197 0.016379828
000210 3a 49 26 3c 35 f8 94 bc 3b 5b 65 3a 2e e9 1e 3c
       0.0101492945 -0.01818476 0.0008749251 0.009699149
000220 9b 9b 67 3b 54 53 52 3c d8 38 91 bc ad 4b d2 3c
       0.003534055 0.01283725 -0.0177273 0.02567085
000230 8e 8c 32 3a 01 50 a2 3c 6b 56 80 ba 61 c4 29 bb
       0.00068111054 0.01981354 -0.000979138 -0.0025904404
000240 21 c1 59 3b b4 ba c6 bb 3e a1 a6 ba c9 c3 b1 3b
       0.0033226686 -0.006064737 -0.0012712849 0.0054249507
000250 d6 da a7 3c 45 89 55 3b 43 ea 31 bc 7e ab f3 bb
       0.020490091 0.003258304 -0.010859075 -0.007436215
000260 05 5a c3 bb df cc 54 bc b5 7e 0f bc 61 14 48 bc
       -0.005961659 -0.012988298 -0.008758237 -0.01221189
000270 a1 e2 96 bc 7c ab 0e 3c fb 27 37 bb 51 ca d1 bc
       -0.018418612 0.008707877 -0.0027947414 -0.025609167
000280 e1 8e d0 3c 31 f3 ee bb 10 16 59 bc 94 2d 03 bd
       0.025458755 -0.0072921743 -0.013249889 -0.03202589
000290 f9 dd 02 bd ea 0b b9 3a 3a 98 95 bb 3d 60 6f 3c
       -0.03194997 0.001411793 -0.004565266 0.014610347
0002a0 ca 34 7e 3c 3a 23 b2 3b 06 c4 64 3c eb 0a 53 bc
       0.015515516 0.0054363282 0.013962751 -0.012881021
0002b0 1e ff 01 3b 79 34 4c 3c 1a a9 1a bc 36 5a 71 3b
       0.00198359 0.012463682 -0.009439731 0.0036827452
0002c0 37 fc 01 3c d7 04 67 3c 6b 5b 5e 3c 7a 3f ec 3b
       0.007933668 0.014100275 0.0135716 0.0072097154
0002d0 ca f1 74 bc 63 b1 37 bc 54 94 6c 3b 53 a7 a6 3b
       -0.014950225 -0.011211726 0.0036099153 0.0050858646
0002e0 8b 43 f7 bb 87 c0 cd 3b 09 33 8c bc 6e 3d 43 bc
       -0.0075458935 0.0062790546 -0.01711418 -0.011916501
0002f0 c6 f8 31 bc 44 96 a0 3c 4a 18 93 3c 64 92 89 b9
       -0.010862535 0.019602902 0.017955918 -0.00026239746
000300 01 a2 e3 bc e1 ea b6 3c c6 e2 85 bc ef 27 96 3c
       -0.02778721 0.022328796 -0.016343486 0.018329589
000310 c4 b1 2d bb 10 ac 86 bc bc 83 9e bc da 5b 55 bc
       -0.0026503662 -0.016439468 -0.019349925 -0.013022387
000320 87 83 c5 3b a4 bd 22 bc 6b df ba b9 3c 72 07 3d
       0.006027642 -0.009932909 -0.00035643144 0.033067927
000330 cd bd 10 bb 00 34 3e 3b b6 58 e7 3a a5 29 06 bb
       -0.0022085786 0.0029022694 0.0017650339 -0.00204716
000340 f9 fa 48 bc 02 1e 2d 3c 8e 41 e8 bb 52 82 f1 bc
       -0.012266868 0.010566236 -0.007087893 -0.029481087
000350 11 6e 84 3c 87 82 1f bc b9 30 7e 3b 44 a0 3c bc
       0.016165765 -0.00973571 0.0038786365 -0.01151282
000360 ff 3a 85 bc bc db 39 bc ae 4c cb b8 de 9e c8 3c
       -0.016263483 -0.011343893 -9.694077e-05 0.024489816
000370 05 41 15 3d 56 d2 43 3c 58 44 87 bc 1c b0 1f bb
       0.03643896 0.011952003 -0.016512081 -0.0024366444
000380 15 bd 8d 3a 9f 9b 3b bb 0a 88 a8 3b d3 4f 1a bc
       0.0010813797 -0.0028626693 0.0051431702 -0.009418446
000390 d2 58 ad 3c b3 b4 da bc 96 98 80 3c 0d 88 a8 3c
       0.021160517 -0.026697492 0.015697759 0.020572687
0003a0 3e 84 69 bc 66 0e 0e 3d 82 6c 82 3c fb 25 71 bc
       -0.01425272 0.0346817 0.015920881 -0.014718528
0003b0 2f 50 ab 3b 62 dd 78 3c 39 34 07 bd 5a 4f cc bc
       0.0052280645 0.0151895005 -0.033008788 -0.024940182
0003c0 1f 8d e5 3a 6c d6 1a 3c 4d 19 b3 3b 19 10 3d bc
       0.0017513371 0.009450536 0.0054656626 -0.0115394825
0003d0 84 d6 34 bc 50 26 fa ba a2 d8 9c bc 6a b6 7c bc
       -0.011037473 -0.0019084904 -0.019146267 -0.01542435
0003e0 d8 47 3e 3c 17 7f a9 3c 12 ff 59 3c 71 07 c4 bb
       0.011613809 0.020690484 0.013305442 -0.0059823324
0003f0 31 89 60 3c 57 fd 9a bc 53 a4 19 3b 70 b8 49 3c
       0.013704584 -0.01891963 0.0023443892 0.01231204

action_model._discrete_distribution.branches.0.bias f4 [4]
000000 12 cb 0c 3c e2 94 fc bb a6 eb a5 3c 58 10 9e bc
       0.008593338 -0.007708178 0.020253967 -0.019294903

exp_avg f4 [128, 22]
000000 66 f2 f6 b8 00 00 00 00 d4 4a f3 b7 7e e8 08 b8
       -0.00011775344 0.0 -2.9002702e-05 -3.2641452e-05
000010 00 00 00 00 93 70 a3 38 6e aa 97 36 51 cc 06 b9
       0.0 7.793414e-05 4.5199913e-06 -0.0001285535
000020 83 1b f4 38 ac 70 9e b8 92 d0 d2 38 97 c5 81 b8
       0.00011639951 -7.555014e-05 0.000100524296 -6.188003e-05
000030 4d 95 df 34 5d 34 dc 37 62 47 ac b8 00 00 00 00
       4.1645617e-07 2.6250427e-05 -8.214895e-05 0.0
000040 0f 98 f1 b7 8d f0 79 b6 6e b2 36 b9 15 1a 1c b9
       -2.8800247e-05 -3.724391e-06 -0.00017423343 -0.00014887036
000050 4e a3 13 b9 dd bf 5a 38 60 cc 39 b9 00 00 00 00
       -0.00014079848 5.2153937e-05 -0.0001771911 0.0
000060 d7 f7 92 b8 87 75 b3 36 00 00 00 00 00 e1 8a b8
       -7.007986e-05 5.3482977e-06 0.0 -6.622262e-05
000070 65 77 9f b6 c6 98 e5 b8 d1 e2 82 38 ba 6e c2 37
       -4.7524686e-06 -0.00010948027 6.241131e-05 2.3178163e-05
000080 f8 4f dd b7 19 e0 dc b8 32 15 eb b4 0f b4 44 38
       -2.6382491e-05 -0.00010532159 -4.3787583e-07 4.6897734e-05
000090 44 12 7f b8 00 00 00 00 39 a2 88 37 13 16 9e b7
       -6.081375e-05 0.0 1.6288004e-05 -1.8845347e-05
0000a0 06 fd 06 b9 a2 28 63 b9 35 aa 2d b6 82 df bd b7
       -0.00012873494 -0.00021663544 -2.5878082e-06 -2.2634635e-05
0000b0 00 6d b5 37 00 00 00 00 80 c4 3a b8 54 5e a0 38
       2.1627638e-05 0.0 -4.452886e-05 7.6469645e-05
0000c0 00 00 00 00 c3 42 0e 3a 38 ad 81 b5 b9 1e 36 38
       0.0 0.00054268184 -9.661662e-07 4.3420794e-05
0000d0 ca 6e bc b8 f1 36 fc b8 02 c7 4b 36 8e fd d9 37
       -8.985175e-05 -0.0001202653 3.0365195e-06 2.5986486e-05
0000e0 da 2a bf b3 98 1f 3f 39 69 78 75 b8 00 00 00 00
       -8.901925e-08 0.00018226949 -5.8524693e-05 0.0
0000f0 1e 63 b6 b8 4a d6 26 36 5c 6a d6 37 e5 09 0b 38
       -8.696898e-05 2.486066e-06 2.5560315e-05 3.3149397e-05
000100 90 b8 0d b9 f2 db 62 39 eb 24 03 36 00 00 00 00
       -0.00013515563 0.00021634976 1.954201e-06 0.0
000110 6b 43 86 36 c0 18 54 b8 00 00 00 00 16 0b 20 39
       4.0013597e-06 -5.056779e-05 0.0 0.00015262919
000120 13 b7 5d b6 c5 07 88 39 b9 b3 84 38 5d 19 45 b9
       -3.303813e-06 0.0002594573 6.3277264e-05 -0.00018796833
000130 6f 83 bd b8 92 eb b8 b8 ab 6c a3 b4 83 09 af b7
       -9.036704e-05 -8.817682e-05 -3.0440182e-07 -2.0866055e-05
000140 c7 76 8e b8 00 00 00 00 50 ed af b8 5c 96 d9 b7
       -6.793212e-05 0.0 -8.388853e-05 -2.5938432e-05
000150 85 25 07 39 3d 7d df 38 4e 4e 05 38 02 e4 7e 38
       0.0001288858 0.00010656796 3.1782598e-05 6.0770668e-05
000160 1c 98 93 b7 00 00 00 00 95 b0 6c b6 ff 10 8a b7
       -1.7594597e-05 0.0 -3.5269525e-06 -1.6458796e-05
000170 00 00 00 00 bd d5 1c 39 6d 84 23 36 3b 0c 2f b7
       0.0 0.00014956943 2.4365975e-06 -1.04336605e-05
000180 50 6d 24 38 b5 8d 4e 38 28 92 db b6 c2 9f 89 36
       3.9202452e-05 4.9246202e-05 -6.5437234e-06 4.1015164e-06
000190 ef 0d 71 34 12 bd b2 38 00 33 a8 b8 00 00 00 00
       2.2449943e-07 8.5229185e-05 -8.020364e-05 0.0
0001a0 7e 98 da 37 73 af 9d 37 05 8b 2f b7 1e 05 96 b8
       2.6058635e-05 1.8797558e-05 -1.0463181e-05 -7.1535105e-05
0001b0 e2 74 cb b7 a4 d3 4c 39 44 95 c6 b8 00 00 00 00
       -2.4253914e-05 0.00019533798 -9.4691786e-05 0.0
0001c0 5c 5f 8e b8 14 c1 5d 38 00 00 00 00 b5 f1 46 b8
       -6.78885e-05 5.2870324e-05 0.0 -4.7431986e-05
0001d0 21 ff 1e b6 a6 59 38 b9 0f 6e 35 39 0f 7e d2 37
       -2.369234e-06 -0.00017581004 0.00017302505 2.5092651e-05
0001e0 b4 d4 9b 37 1a 3a aa b7 dd 63 6a b4 c7 75 a5 b8
       1.8576487e-05 -2.0292635e-05 -2.1829278e-07 -7.889751e-05
0001f0 08 81 58 b8 00 00 00 00 75 4d 98 b8 95 98 e1 38
       -5.1618583e-05 0.0 -7.262352e-05 0.00010757257
000200 93 2f 02 b9 d1 45 c2 b8 60 ee 98 b8 78 34 c4 38
       -0.00012415489 -9.263645e-05 -7.2923256e-05 9.3557814e-05
000210 2c 42 42 37 00 00 00 00 f7 dd f7 38 55 cb c0 36
       1.1578708e-05 0.0 0.00011819222 5.745717e-06
000220 00 00 00 00 f3 24 65 b9 50 bf 46 b7 8b bf 78 39
       0.0 -0.00021852907 -1.1846263e-05 0.00023722478
000230 3f c4 64 b9 c2 ac f0 38 f4 87 0a b9 d6 43 20 38
       -0.00021816882 0.000114762704 -0.00013211352 3.821015e-05
000240 c1 7e 92 b5 1f f9 68 37 a1 a7 79 39 00 00 00 00
       -1.0914738e-06 1.3886281e-05 0.00023808937 0.0
000250 9c 68 b9 38 5c 59 b3 b9 33 37 37 37 2e 6b 00 39
       8.8409724e-05 -0.00034208118 1.0920502e-05 0.00012246959
000260 0e 4f fe 38 a4 a6 1e ba d2 a2 4d 38 00 00 00 00
       0.00012126389 -0.0006052053 4.9027447e-05 0.0
000270 e1 93 02 38 3f 7c 71 36 00 00 00 00 1f 56 2e b9
       3.113214e-05 3.598412e-06 0.0 -0.00016626016
000280 68 bd 8f b6 8d 9f d5 38 38 5f 14 b9 99 de ec 36
       -4.283782e-06 0.0001018635 -0.00014149852 7.059262e-06
000290 3a 4c f7 37 d7 cb 27 38 22 e6 d3 b4 39 66 40 b8
       2.948019e-05 4.0005743e-05 -3.9469256e-07 -4.587157e-05
0002a0 b4 0b cc b7 00 00 00 00 4e c5 2c 38 ca 17 de b8
       -2.4324145e-05 0.0 4.119175e-05 -0.00010590216
0002b0 cd d7 d0 b4 03 fa 8d 37 db be c3 36 13 64 f7 37
       -3.8900035e-07 1.692493e-05 5.8336714e-06 2.9491295e-05
0002c0 58 a3 27 b6 00 00 00 00 a6 28 cb 38 cc 8c 6e b8
       -2.4980018e-06 0.0 9.687366e-05 -5.687475e-05
0002d0 00 00 00 00 09 f6 20 b9 3b 01 c3 b6 c0 41 99 39
       0.0 -0.00015350444 -5.811596e-06 0.00029231422
0002e0 0b a2 75 b9 35 9a a8 37 e4 f0 c0 b7 f3 63 68 35
       -0.00023425386 2.0098969e-05 -2.3000357e-05 8.657218e-07
0002f0 90 bc 0f b5 a5 f5 2c 37 5f 3f 14 39 00 00 00 00
       -5.3546046e-07 1.03091925e-05 0.00014137987 0.0
000300 10 d1 6e 38 0f 97 8d b9 de e1 1f b7 28 44 fd 38
       5.6938326e-05 -0.00027006163 -9.529727e-06 0.00012076675
000310 4d 27 d6 38 73 ab 66 b9 d3 54 e4 37 00 00 00 00
       0.000102116355 -0.00021998379 2.7219217e-05 0.0
000320 3f 0c d3 b6 89 06 e3 b7 00 00 00 00 95 db b4 b7
       -6.2897157e-06 -2.7063552e-05 0.0 -2.1559923e-05
000330 bc c1 3c b5 54 34 07 38 11 e0 4e b7 56 37 bd 34
       -7.031738e-07 3.2235243e-05 -1.2330726e-05 3.5244256e-07
000340 1b 2d 9f b7 e5 6c 27 38 9d 21 8b b3 ee f5 44 b8
       -1.897528e-05 3.991732e-05 -6.478806e-08 -4.695908e-05
000350 8a 40 6f 38 00 00 00 00 5b fd 9b 38 fe fa 9a 36
       5.7042147e-05 0.0 7.438167e-05 4.618777e-06
000360 df ea d7 37 2c b2 38 38 30 a0 78 38 3b f3 2e b8
       2.5739368e-05 4.4034954e-05 5.9276994e-05 -4.171136e-05
000370 50 30 82 b8 00 00 00 00 5c bf 89 38 97 06 38 b8
       -6.207882e-05 0.0 6.5683125e-05 -4.3875156e-05
000380 00 00 00 00 e9 0e 47 b9 8c e9 5a b6 2f 43 f0 b7
       0.0 -0.00018983673 -3.2620474e-06 -2.8641514e-05
000390 d6 e5 b2 b7 f7 8c 4c 39 66 5e b4 b8 af 74 b8 b5
       -2.132628e-05 0.0001950747 -8.600652e-05 -1.3743028e-06
0003a0 cf 5b a1 b4 87 df 65 38 af e7 92 36 00 00 00 00
       -3.0055386e-07 5.480603e-05 4.3781106e-06 0.0
0003b0 b6 bf a2 38 b9 06 fd b8 ac f4 81 b8 4a 8a f6 b8
       7.760471e-05 -0.00012065232 -6.196773e-05 -0.000117559524
0003c0 47 bf 89 38 f9 a7 71 b9 0b c9 44 b8 00 00 00 00
       6.568297e-05 -0.00023046126 -4.6917277e-05 0.0
0003d0 bc 1a 67 37 be 1b ba 35 00 00 00 00 45 1e 01 b9
       1.37748975e-05 1.3866154e-06 0.0 -0.00012313675
0003e0 85 a3 31 35 b8 f8 f2 b8 09 5c c3 38 2f fc 39 38
       6.617559e-07 -0.00011585787 9.3154675e-05 4.43423e-05
0003f0 be 23 58 38 5e 6c da 36 c1 ef 82 33 b1 6e 8d b7
       5.15317e-05 6.509522e-06 6.097208e-08 -1.6860055e-05
