results/offense_run_4/OffensiveRL/checkpoint.pt (torch, 165749 bytes, 19 tensors)

network_body.observation_encoder.processors.0.normalizer.running_mean f4 [16]
0.50876665 0.008182029 0.073546305 0.9619218 0.85261464 1.1455181 2.4709482 0.3587307
0.008182029 -0.012481283 0.8916267 0.20253167 0.7079348 -0.111524604 0.0 -0.016597621
00000000: 883e 023f eb0d 063c 729f 963d 8240 763f
00000010: f444 5a3f 56a0 923f 0424 1e40 8dab b73e
00000020: eb0d 063c 4c7e 4cbc a641 643f 7664 4f3e
00000030: 373b 353f 0367 e4bd 0000 0000 bcf7 87bc

network_body.observation_encoder.processors.0.normalizer.running_variance f4 [16]
14911.648 1.0119325 4668.2715 179.02516 9160.058 9273.66 42207.03 10899.926
1.0119325 2432.2185 477.05408 1557.6584 5731.0684 5198.116 1.0 4318.353
00000000: 98fe 6846 0187 813f 2ce2 9145 7106 3343
00000010: 3b20 0f46 a4e6 1046 08df 2447 b44f 2a46
00000020: 0187 813f 7f03 1845 ec86 ee43 12b5 c244
00000030: 8c18 b345 ee70 a245 0000 803f d3f2 8645

network_body.processors.0.normalizer.running_mean f4 [16]
0.50876665 0.008182029 0.073546305 0.9619218 0.85261464 1.1455181 2.4709482 0.3587307
0.008182029 -0.012481283 0.8916267 0.20253167 0.7079348 -0.111524604 0.0 -0.016597621
00000000: 883e 023f eb0d 063c 729f 963d 8240 763f
00000010: f444 5a3f 56a0 923f 0424 1e40 8dab b73e
00000020: eb0d 063c 4c7e 4cbc a641 643f 7664 4f3e
00000030: 373b 353f 0367 e4bd 0000 0000 bcf7 87bc

network_body.processors.0.normalizer.running_variance f4 [16]
14911.648 1.0119325 4668.2715 179.02516 9160.058 9273.66 42207.03 10899.926
1.0119325 2432.2185 477.05408 1557.6584 5731.0684 5198.116 1.0 4318.353
00000000: 98fe 6846 0187 813f 2ce2 9145 7106 3343
00000010: 3b20 0f46 a4e6 1046 08df 2447 b44f 2a46
00000020: 0187 813f 7f03 1845 ec86 ee43 12b5 c244
00000030: 8c18 b345 ee70 a245 0000 803f d3f2 8645

network_body._body_endoder.seq_layers.0.weight f4 [128, 16]
0.13599096 0.21469015 0.03818727 0.39592075 0.19281262 0.015359426 0.009125379 -0.5029811
-0.10569039 0.20792067 -0.39266858 0.2558055 -0.024925906 0.19798104 0.33688408 -0.31786552
0.3333504 -0.24089293 -0.10820042 -0.08271475 0.19797887 0.39192504 -0.22809768 -0.27738744
-0.10654518 -0.40066668 -0.15236603 0.012092336 -0.059824497 0.21754836 0.25882405 -0.03824774
0.031718526 0.17247465 0.21165247 0.11165529 -0.51085824 0.07285539 0.083133854 -0.18085341
0.23398821 -0.44968697 -0.08173263 -0.10017047 0.1584475 -0.26534274 0.078596525 0.13198352
-0.11227961 0.31186986 0.23587875 -0.18500678 -0.02232011 0.13909689 -0.032719586 -0.14580917
-0.45001897 -0.4851551 0.2426964 -0.20986672 -0.28218967 0.48980394 -0.017832015 -0.25693247
-0.18316664 0.24816026 0.15738241 -0.093325175 -0.0071267765 -0.11321191 0.09642507 -0.18978982
-0.47909707 -0.4523791 -0.27290866 0.23504737 0.04083344 0.06273387 0.27845684 0.036970586
0.40747485 -0.15929952 -0.028869748 0.21575171 -0.067516014 0.28011772 -0.020951474 -0.016322196
-0.020244269 -0.4639383 0.22468293 -0.23875652 -0.05347587 0.058906686 0.4274038 0.029493254
0.03899581 -0.041664287 0.44416305 -0.15811573 0.48650864 -0.28477088 -0.03211033 0.046158127
-0.1675419 -0.06694205 -0.18131608 0.1702251 -0.009617889 0.0062176026 0.2986385 -0.11708123
-0.117720865 -0.19343469 -0.31861433 -0.05117349 -0.048103724 -0.13161731 -0.067600705 0.001080115
0.21639343 -0.22008345 -0.13115413 -0.062447127 -0.40621874 0.13184758 0.0045746393 -0.34047037
0.025982898 0.09436038 0.0144128995 0.20731159 0.1854226 -0.09848284 0.012521737 -0.25931662
0.20242096 -0.2308743 0.050527047 -0.18315807 0.27217788 0.17309381 -0.06962422 -0.064751744
-0.3204141 -0.31271872 0.2626133 -0.19719103 0.10485206 0.15362784 -0.005068901 0.094460435
0.10581242 0.07747633 0.2912474 -0.25608176 0.2804509 -0.21938375 0.19741623 -0.24918877
0.28337803 0.3010022 0.38282332 -0.12627171 0.22656958 0.010648867 -0.30391547 0.03884558
0.3894508 -0.4527441 0.30592522 -0.16075152 0.6405558 0.3035741 -0.32974488 0.19273704
0.21217166 0.07883407 0.023388192 0.6692182 0.29880896 0.3354467 0.08431484 0.082764946
0.099736184 0.2922748 0.03314921 0.11407179 0.11430803 0.010653495 0.2964268 0.17076991
-0.0072142133 -0.19994086 0.3133196 0.3253369 0.037214912 0.117263764 -0.43315512 0.14073229
-0.16068137 -0.20870051 -0.1903948 0.35364917 -0.6009094 -0.18774383 0.08755977 -0.047719955
0.02475409 -0.5617301 -0.20436558 -0.23621453 0.25617978 -0.12972538 -0.018787941 -0.07723263
-0.21658283 0.16609049 -0.18413948 -0.030461073 -0.13743167 -0.20784953 -0.34742132 -0.47260168
0.13747841 0.103713766 -0.22239816 0.5472992 0.0971984 0.17123675 0.5445087 -0.052027903
0.20417091 -0.18359302 -0.39871576 0.2039892 0.013965977 -0.060978655 0.103056625 -0.14203049
0.27023333 -0.011781219 -0.06323658 0.12793627 -0.09922843 -0.30948487 -0.25083077 0.16541488
0.012735855 -0.05867177 -0.13517252 0.3731581 -0.11509277 0.18954843 -0.03683645 0.005654121
00000000: 3741 0b3e bcd7 5b3e 416a 1c3d 20b6 ca3e
00000010: ac70 453e 1aa6 7b3c 9d82 153c 5fc3 00bf
00000020: 3474 d8bd 28e9 543e db0b c9be f0f8 823e
00000030: 6a31 ccbc 8bbb 4a3e 127c ac3e 45bf a2be
00000040: e7ac aa3e a3ac 76be 2f98 ddbd 5a66 a9bd
00000050: f9ba 4a3e 66aa c83e 7092 69be ba05 8ebe
00000060: 5c34 dabd 2f24 cdbe d705 1cbe ef1e 463c
00000070: 880a 75bd ffc4 5e3e 9684 843e aaa9 1cbd
00000080: 49eb 013d 329d 303e 6dbb 583e 87ab e43d
00000090: 9bc7 02bf 3535 953d 1542 aa3d a331 39be
000000a0: 9b9a 6f3e 5f3d e6be 7063 a7bd 2d26 cdbd
000000b0: 1040 223e 01db 87be 37f7 a03d b026 073e
000000c0: daf2 e5bd 68ad 9f3e 338a 713e 6b72 3dbe
000000d0: aad8 b6bc 6a6f 0e3e f904 06bd 004f 15be
000000e0: e368 e6be 4066 f8be 6885 783e 4de7 56be
000000f0: 2a7b 90be 95c7 fa3e 7214 92bc a78c 83be
00000100: 0990 3bbe b91d 7e3e db28 213e 4521 bfbd
00000110: bc87 e9bb a5db e7bd 827a c53d 4358 42be
00000120: 364c f5be 3c9e e7be afba 8bbe 42b0 703e
00000130: f740 273d 9e7a 803d e591 8e3e 786e 173d
00000140: 8ba0 d03e 6a1f 23be 4080 ecbc 04ee 5c3e
00000150: d645 8abd 976b 8f3e 6da2 abbc 20b6 85bc
00000160: 4fd7 a5bc 5289 edbe 4813 663e 977c 74be
00000170: 8409 5bbd 2348 713d acd4 da3e d69b f13c
00000180: 12ba 1f3d 2ca8 2abd 5769 e33e 17e9 21be
00000190: a917 f93e 7dcd 91be 1f86 03bd 4e10 3d3d
000001a0: 1b90 2bbe ea18 89bd ecaa 39be 7d4f 2e3e
000001b0: 5a94 1dbc 08bd cb3b 25e7 983e 49c8 efbd
000001c0: a317 f1bd be13 46be 6b21 a3be 4b9b 51bd
000001d0: 6908 45bd b0c6 06be 3d72 8abd a592 8d3a
000001e0: 3d96 5d3e 8e5d 61be 454d 06be 8fc8 7fbd
000001f0: e7fb cfbe 0d03 073e dbe6 953b 2252 aebe
00000200: 16da d43c 0440 c13d 1524 6c3c 7d49 543e
00000210: 6cdf 3d3e 5fb1 c9bd f927 4d3c 26c5 84be
00000220: 7147 4f3e 506a 6cbe 73f5 4e3d ca8d 3bbe
00000230: e65a 8b3e 813f 313e 2597 8ebd 909c 84bd
00000240: 510d a4be ab1c a0be 4075 863e 72ec 49be
00000250: adbc d63d 9e50 1d3e 0619 a6bb 7974 c13d
00000260: 2fb4 d83d e9ab 9e3d 611e 953e 261d 83be
00000270: 4397 8f3e 22a6 60be 7b27 4a3e 572b 7fbe
00000280: ed16 913e f61c 9a3e 6b01 c43e 5f4d 01be
00000290: db01 683e 9678 2e3c cf9a 9bbe 8b1c 1f3d
000002a0: 1866 c73e 13ce e7be 3ba2 9c3e 0c9c 24be
000002b0: 77fb 233f 106e 9b3e 52d4 a8be dc5c 453e
000002c0: 8743 593e c273 a13d 9898 bf3c e251 2b3f
000002d0: 7dfd 983e abbf ab3e 42ad ac3d ab80 a93d
000002e0: 7c42 cc3d 0ba5 953e 77c7 073d 789e e93d
000002f0: 541a ea3d ff8b 2e3c 41c5 973e 4fde 2e3e
00000300: 3565 ecbb 4cbd 4cbe 6d6b a03e 8f92 a63e
00000310: aa6e 183d fc27 f03d 82c6 ddbe 201c 103e
00000320: a889 24be 96b5 55be dbf6 42be 8111 b53e
00000330: 33d5 19bf eb3f 40be 8952 b33d 0076 43bd
00000340: 17c9 ca3c 8bcd 0fbf 3645 51be 39e2 71be
00000350: ff29 833e bbd6 04be 2be9 99bc 242c 9ebd
00000360: e4c7 5dbe a013 2a3e 0f8f 3cbe 8089 f9bc
00000370: e3ba 0cbe 82d6 54be 35e1 b1be d9f8 f1be
00000380: 24c7 0c3e e267 d43d 58bc 63be cd1b 0c3f
00000390: f40f c73d b058 2f3e ec64 0b3f 361b 55bd
000003a0: 2e12 513e cfff 3bbe 7924 ccbe 8be2 503e
000003b0: 8ed1 643c c1c4 79bd 5a0f d33d 7170 11be
000003c0: 065c 8a3e 0406 41bc 2e82 81bd ba01 033e
000003d0: 4638 cbbd cd74 9ebe e46c 80be 8562 293e
000003e0: 0caa 503c cf51 70bd aa6a 0abe 940e bf3e
000003f0: c2b5 ebbd fc18 423e d1e1 16bd 3446 b93b

network_body._body_endoder.seq_layers.0.bias f4 [128]
0.0 0.0 0.0 0.0 0.0 0.0 0.0 0.0
0.0 0.0 0.0 0.0 0.0 0.0 0.0 0.0
0.0 0.0 0.0 0.0 0.0 0.0 0.0 0.0
0.0 0.0 0.0 0.0 0.0 0.0 0.0 0.0
0.0 0.0 0.0 0.0 0.0 0.0 0.0 0.0
0.0 0.0 0.0 0.0 0.0 0.0 0.0 0.0
0.0 0.0 0.0 0.0 0.0 0.0 0.0 0.0
0.0 0.0 0.0 0.0 0.0 0.0 0.0 0.0
0.0 0.0 0.0 0.0 0.0 0.0 0.0 0.0
0.0 0.0 0.0 0.0 0.0 0.0 0.0 0.0
0.0 0.0 0.0 0.0 0.0 0.0 0.0 0.0
0.0 0.0 0.0 0.0 0.0 0.0 0.0 0.0
0.0 0.0 0.0 0.0 0.0 0.0 0.0 0.0
0.0 0.0 0.0 0.0 0.0 0.0 0.0 0.0
0.0 0.0 0.0 0.0 0.0 0.0 0.0 0.0
0.0 0.0 0.0 0.0 0.0 0.0 0.0 0.0
00000000: 0000 0000 0000 0000 0000 0000 0000 0000
00000010: 0000 0000 0000 0000 0000 0000 0000 0000
00000020: 0000 0000 0000 0000 0000 0000 0000 0000
00000030: 0000 0000 0000 0000 0000 0000 0000 0000
00000040: 0000 0000 0000 0000 0000 0000 0000 0000
00000050: 0000 0000 0000 0000 0000 0000 0000 0000
00000060: 0000 0000 0000 0000 0000 0000 0000 0000
00000070: 0000 0000 0000 0000 0000 0000 0000 0000
00000080: 0000 0000 0000 0000 0000 0000 0000 0000
00000090: 0000 0000 0000 0000 0000 0000 0000 0000
000000a0: 0000 0000 0000 0000 0000 0000 0000 0000
000000b0: 0000 0000 0000 0000 0000 0000 0000 0000
000000c0: 0000 0000 0000 0000 0000 0000 0000 0000
000000d0: 0000 0000 0000 0000 0000 0000 0000 0000
000000e0: 0000 0000 0000 0000 0000 0000 0000 0000
000000f0: 0000 0000 0000 0000 0000 0000 0000 0000
00000100: 0000 0000 0000 0000 0000 0000 0000 0000
00000110: 0000 0000 0000 0000 0000 0000 0000 0000
00000120: 0000 0000 0000 0000 0000 0000 0000 0000
00000130: 0000 0000 0000 0000 0000 0000 0000 0000
00000140: 0000 0000 0000 0000 0000 0000 0000 0000
00000150: 0000 0000 0000 0000 0000 0000 0000 0000
00000160: 0000 0000 0000 0000 0000 0000 0000 0000
00000170: 0000 0000 0000 0000 0000 0000 0000 0000
00000180: 0000 0000 0000 0000 0000 0000 0000 0000
00000190: 0000 0000 0000 0000 0000 0000 0000 0000
000001a0: 0000 0000 0000 0000 0000 0000 0000 0000
000001b0: 0000 0000 0000 0000 0000 0000 0000 0000
000001c0: 0000 0000 0000 0000 0000 0000 0000 0000
000001d0: 0000 0000 0000 0000 0000 0000 0000 0000
000001e0: 0000 0000 0000 0000 0000 0000 0000 0000
000001f0: 0000 0000 0000 0000 0000 0000 0000 0000

network_body._body_endoder.seq_layers.2.weight f4 [128, 128]
0.18938494 -0.035077706 0.118108325 -0.004355458 0.09323124 -0.15525135 -0.090086706 -0.058344107
0.06477593 0.046845935 -0.005036715 0.052899253 -0.076666266 -0.14620654 -0.096499495 0.16265397
-0.11549275 -0.04800526 0.14456095 -0.08462854 -0.06554792 0.012525317 0.0659786 0.04336813
-0.056678575 -0.05606514 -0.08032346 -0.12927258 0.062439937 0.09075506 0.05264603 0.09972898
0.08093263 -0.019843502 -0.028276345 -0.10442985 -0.07860987 0.11769504 -0.03548638 -0.076557875
-0.061122086 0.062046856 0.0386476 -0.12472754 -0.05833341 0.13535023 0.008408538 -0.040176764
-0.012720225 0.16322544 -0.12502794 -0.012294121 -0.10525912 0.108954266 -0.0065955142 0.04342714
-0.058522828 -0.07466157 0.04413801 0.029095784 0.040458925 0.10210577 -0.04263865 0.050090935
0.034679156 0.09290691 -0.13295373 -0.08395163 -0.09557523 0.09170326 0.08707442 -0.054493286
-0.11909502 0.043860704 -0.03279775 -0.13362332 0.14772141 0.081924714 -0.012915528 -0.17290384
-0.11740468 -0.10351576 0.047693867 0.019606002 -0.019820068 -0.020129774 0.13444412 -0.049283937
0.10141477 -0.064163044 -0.09642537 0.056944747 -0.112843156 0.045629725 0.0048957556 -0.22666903
0.04416761 0.053215142 -0.012320004 -0.020158764 0.096570335 0.03469378 -0.04562489 0.043982472
-0.06474291 0.045367613 0.10487128 -0.085867785 -0.19749048 0.050441336 0.15436381 -0.065413326
-0.007949609 -0.11274076 -0.04357009 -0.18049288 -0.001372371 0.025647165 -0.024989888 -0.03759404
0.044248547 0.12759687 -0.07838844 0.04425249 0.12637812 -0.05072504 -0.021357052 0.08529855
0.053648286 -0.25628743 0.032987673 0.0063391854 -0.005064633 0.10005846 0.022004157 -0.016639888
0.09283275 -0.027507609 -0.0070516923 0.052384585 0.029530926 0.052104294 -0.036243178 -0.029302739
-0.030193947 -0.0663717 0.120674156 0.04555032 0.153559 0.16929531 0.08783003 0.1164988
-0.09387459 -0.09455688 0.009527903 -0.041006252 0.12406445 0.13241762 0.032724183 0.08053894
-0.17276056 -0.06290198 0.019487232 -0.18237093 0.092017904 0.011340503 -0.0143762855 -0.021894414
0.09022716 -0.022522263 0.047376264 -0.0042278282 -0.06630991 0.049574852 0.015891181 -0.00017201083
0.059287686 -0.021587014 -0.17664097 0.05486924 -0.021483893 -0.15477306 -0.044559624 -0.017663324
0.073742524 -0.15186302 -0.04677659 -0.1363993 0.17559442 -0.0639578 -0.06950451 -0.022490498
0.1668829 0.014951843 0.041051436 -0.06761329 0.033010952 0.025807455 0.06258551 0.18694432
0.042972006 -0.035726357 -0.0027326348 -0.13162886 0.03186432 0.19712937 0.06974774 0.09939623
0.0659691 0.05200873 0.06021024 0.017847823 0.015348142 -0.10294457 -0.038504474 0.0829908
0.0358597 -0.05882505 -0.052762117 0.092332624 0.07316526 -0.022322401 -0.069227144 -0.08542617
0.059404753 -0.004903242 -0.103076145 -0.019260727 0.03021375 0.09167797 0.03451062 0.12001352
0.010479048 -0.11305303 -0.047383152 -0.031640865 -0.13517635 0.08360606 0.072829634 0.19038428
-0.036777835 -0.091502935 -0.04382704 0.009624088 0.048073042 -0.027279584 0.068189114 0.019306742
0.016206082 0.00962754 0.012002706 0.097668216 -0.011525264 0.19082797 0.04020991 0.107201785
00000000: 20ee 413e a4ad 0fbd c7e2 f13d 3bb8 8ebb
00000010: 05f0 be3d 36fa 1ebe 617f b8bd 3bfa 6ebd
00000020: 3ea9 843d 86e1 3f3d 070b a5bb e3ac 583d
00000030: 3403 9dbd 2bb7 15be 87a1 c5bd c38e 263e
00000040: 7787 ecbd 2aa1 44bd c907 143e ba51 adbd
00000050: fd3d 86bd fd36 4d3c ca1f 873d c8a2 313d
00000060: cb27 68bd 8fa4 65bd a080 a4bd 0860 04be
00000070: 05c1 7f3d cadd b93d 5da3 573d b53e cc3d
00000080: 02c0 a53d d78e a2bc cba3 e7bc 51df d5bd
00000090: 36fe a0bd 190a f13d 2b5a 11bd 60ca 9cbd
000000a0: 275b 7abd d824 7e3d f24c 1e3d 2771 ffbd
000000b0: 04ef 6ebd 4099 0a3e f7c3 093c 6490 24bd
000000c0: 7e68 50bc 9224 273e 5307 00be 486d 49bc
000000d0: 1892 d7bd 6a23 df3d 2f1f d8bb a8e0 313d
000000e0: a2b5 6fbd 2ae8 98bd 0fca 343d 485a ee3c
000000f0: 42b8 253d d41c d13d dda5 2ebd 272c 4d3d
00000100: bb0b 0e3d fa45 be3d 0625 08be d5ee abbd
00000110: f2bc c3bd ebce bb3d 1354 b23d 5a34 5fbd
00000120: 17e8 f3bd 48a7 333d ef56 06bd 8dd4 08be
00000130: 4844 173e 25c8 a73d a79b 53bc b40d 31be
00000140: dd71 f0bd 1200 d4bd a55a 433d c49c a03c
00000150: b25d a2bc 32e7 a4bc b8ab 093e f4dd 49bd
00000160: 8cb2 cf3d ea67 83bd aa7a c5bd e53e 693d
00000170: 501a e7bd 3ce6 3a3d 936c a03b ed1b 68be
00000180: 19e9 343d 1ff8 593d d8d9 49bc fe23 a5bc
00000190: abc6 c53d 111b 0e3d 2ae1 3abd f726 343d
000001a0: ee97 84bd 64d3 393d c1c6 d63d 73db afbd
000001b0: f23a 4abe 939b 4e3d 8c11 1e3e 6cf7 85bd
000001c0: 143f 02bc a1e4 e6bd 8d76 32bd 20d3 38be
000001d0: 21e1 b3ba 011a d23c 98b7 ccbc 35fc 19bd
000001e0: f73d 353d c1a8 023e 1e8a a0bd 1942 353d
000001f0: 4469 013e 0fc5 4fbd fcf4 aebc 02b1 ae3d
00000200: 4ebe 5b3d 1b38 83be 151e 073d f1b8 cf3b
00000210: 39f5 a5bb 73eb cc3d 1042 b43c 6050 88bc
00000220: 191f be3d a357 e1bc e211 e7bb 3891 563d
00000230: d7ea f13c 506b 553d ba73 14bd 4c0c f0bc
00000240: 4c59 f7bc e3ed 87bd 0324 f73d f992 3a3d
00000250: 923e 1d3e c05b 2d3e 3be0 b33d ec96 ee3d
00000260: 5241 c0bd 0aa7 c1bd ec1a 1c3c 2cf6 27bd
00000270: 8115 fe3d 7c98 073e cb09 063d 9af1 a43d
00000280: 25e8 30be c1d2 80bd b0a3 9f3c 72bf 3abe
00000290: e273 bc3d 84cd 393c 838a 6bbc ea5b b3bc
000002a0: 04c9 b83d 9c80 b8bc 9d0d 423d 9889 8abb
000002b0: 7dcd 87bd 000f 4b3d 392e 823c ce5d 34b9
000002c0: a5d7 723d 40d7 b0bc 5fe1 34be 91be 603d
000002d0: fdfe afbc d47c 1ebe 2784 36bd adb2 90bc
000002e0: 5206 973d fb81 1bbe cf98 3fbd 42ac 0bbe
000002f0: 06cf 333e 4ffc 82bd 6158 8ebd fe3d b8bc
00000300: 5ae3 2a3e 93f8 743c 8d25 283d d678 8abd
00000310: 7e36 073d 286a d33c d52c 803d 556e 3f3e
00000320: 6a03 303d cd55 12bd 0116 33bb b7c9 06be
00000330: 2984 023d 48dc 493e e7d7 8e3d 4090 cb3d
00000340: cf1a 873d 1b07 553d 039f 763d 9935 923c
00000350: c676 7b3c 9ad4 d2bd deb6 1dbd 15f7 a93d
00000360: 9fe1 123d 89f2 70bd 171d 58bd e318 bd3d
00000370: abd7 953d 78dd b6bc f6c6 8dbd eaf3 aebd
00000380: 6652 733d 60ab a0bb 9619 d3bd acc8 9dbc
00000390: d482 f73c a9c1 bb3d 025b 0d3d a6c9 f53d
000003a0: 50b0 2b3c 5988 e7bd d614 42bd da99 01bd
000003b0: ab6b 0abe a739 ab3d b427 953d 19f4 423e
000003c0: 5ba4 16bd e465 bbbd fb83 33bd 5aae 1d3c
000003d0: 3de8 443d 6f79 dfbc bca6 8b3d 2c29 9e3c
000003e0: 9ec2 843c d4bc 1d3c ffa6 443c 4606 c83d
000003f0: 76d4 3cbc 6868 433e 26b3 243d 9c8c db3d

network_body._body_endoder.seq_layers.2.bias f4 [128]
0.0 0.0 0.0 0.0 0.0 0.0 0.0 0.0
0.0 0.0 0.0 0.0 0.0 0.0 0.0 0.0
0.0 0.0 0.0 0.0 0.0 0.0 0.0 0.0
0.0 0.0 0.0 0.0 0.0 0.0 0.0 0.0
0.0 0.0 0.0 0.0 0.0 0.0 0.0 0.0
0.0 0.0 0.0 0.0 0.0 0.0 0.0 0.0
0.0 0.0 0.0 0.0 0.0 0.0 0.0 0.0
0.0 0.0 0.0 0.0 0.0 0.0 0.0 0.0
0.0 0.0 0.0 0.0 0.0 0.0 0.0 0.0
0.0 0.0 0.0 0.0 0.0 0.0 0.0 0.0
0.0 0.0 0.0 0.0 0.0 0.0 0.0 0.0
0.0 0.0 0.0 0.0 0.0 0.0 0.0 0.0
0.0 0.0 0.0 0.0 0.0 0.0 0.0 0.0
0.0 0.0 0.0 0.0 0.0 0.0 0.0 0.0
0.0 0.0 0.0 0.0 0.0 0.0 0.0 0.0
0.0 0.0 0.0 0.0 0.0 0.0 0.0 0.0
00000000: 0000 0000 0000 0000 0000 0000 0000 0000
00000010: 0000 0000 0000 0000 0000 0000 0000 0000
00000020: 0000 0000 0000 0000 0000 0000 0000 0000
00000030: 0000 0000 0000 0000 0000 0000 0000 0000
00000040: 0000 0000 0000 0000 0000 0000 0000 0000
00000050: 0000 0000 0000 0000 0000 0000 0000 0000
00000060: 0000 0000 0000 0000 0000 0000 0000 0000
00000070: 0000 0000 0000 0000 0000 0000 0000 0000
00000080: 0000 0000 0000 0000 0000 0000 0000 0000
00000090: 0000 0000 0000 0000 0000 0000 0000 0000
000000a0: 0000 0000 0000 0000 0000 0000 0000 0000
000000b0: 0000 0000 0000 0000 0000 0000 0000 0000
000000c0: 0000 0000 0000 0000 0000 0000 0000 0000
000000d0: 0000 0000 0000 0000 0000 0000 0000 0000
000000e0: 0000 0000 0000 0000 0000 0000 0000 0000
000000f0: 0000 0000 0000 0000 0000 0000 0000 0000
00000100: 0000 0000 0000 0000 0000 0000 0000 0000
00000110: 0000 0000 0000 0000 0000 0000 0000 0000
00000120: 0000 0000 0000 0000 0000 0000 0000 0000
00000130: 0000 0000 0000 0000 0000 0000 0000 0000
00000140: 0000 0000 0000 0000 0000 0000 0000 0000
00000150: 0000 0000 0000 0000 0000 0000 0000 0000
00000160: 0000 0000 0000 0000 0000 0000 0000 0000
00000170: 0000 0000 0000 0000 0000 0000 0000 0000
00000180: 0000 0000 0000 0000 0000 0000 0000 0000
00000190: 0000 0000 0000 0000 0000 0000 0000 0000
000001a0: 0000 0000 0000 0000 0000 0000 0000 0000
000001b0: 0000 0000 0000 0000 0000 0000 0000 0000
000001c0: 0000 0000 0000 0000 0000 0000 0000 0000
000001d0: 0000 0000 0000 0000 0000 0000 0000 0000
000001e0: 0000 0000 0000 0000 0000 0000 0000 0000
000001f0: 0000 0000 0000 0000 0000 0000 0000 0000

action_model._discrete_distribution.branches.0.weight f4 [7, 128]
-0.001140795 0.0005140651 -0.012059817 -0.00097328844 -0.0073719467 4.590001e-05 -0.002668921 -0.009869299
-0.014427095 -0.0032985513 -0.00022563082 -0.0029644712 -0.006235778 -0.003700237 -0.002621492 -0.0047916025
0.0034751396 -0.0036428252 0.0045700464 0.006435156 0.012996423 0.0018387794 0.01047692 -0.0036132932
-0.003396028 0.0019000642 0.00446544 0.0048807464 -0.0010920332 0.000350695 0.008061261 -0.0023248028
-0.00876012 0.0035432184 0.003461726 -0.0044098157 0.010828744 -0.0087282825 -0.009027057 0.0012268157
-0.0036520753 -0.0019335954 -0.0034711522 -0.009308957 -0.0069577023 0.0031129878 -0.005382476 0.018043121
-0.0014339918 0.0043099574 -0.0044814716 -0.008490163 0.0024620136 -0.0071008387 -0.0010535995 0.010572876
0.012907212 -0.0062593776 -0.008083861 0.0040656705 0.013781703 -0.008311344 0.011857659 0.0031897381
-0.0064805397 -0.021322275 0.003942767 -0.006587231 -0.009968702 0.01193849 -0.0045681093 -0.024180604
0.0072874925 0.0012944374 0.01442895 -0.0077759544 0.017897835 0.0019438925 0.0108833555 0.004764325
-0.0035753802 0.0073937 0.012924443 -0.0019058491 -0.0033583455 -0.00014854313 0.0038722425 0.0004769818
0.0013965714 0.0034660634 0.004003754 -0.014728072 0.012618092 -0.0069120266 -0.00027763747 0.0054387203
-0.012589581 -0.005954593 -0.0034659354 0.0048477123 -0.0014026196 -0.0018787555 0.0043301634 0.0062123626
0.0070253606 0.009874511 0.00897032 -0.009733086 -0.0025743681 -0.0019485288 0.012109186 0.009617923
-0.0058812075 -0.0034538729 0.0016233791 0.0006249092 0.004793624 0.0020348644 0.008533478 -0.008121525
0.0052127265 0.010792206 0.009150438 0.01871298 -0.013128445 0.0025846644 -0.010764332 0.011415258
-0.011406231 0.016362352 -0.0058686193 -0.010033474 0.010121822 -0.0031091801 0.0071260803 -0.0047377762
-0.011983844 -0.014637065 -0.00174281 0.0015428007 0.0037372496 -0.0044354894 0.0014042975 0.015551092
-0.025049364 -0.004597947 0.013882557 0.0053859334 -0.0093733175 0.017397191 -0.004389648 -0.010592245
-0.0032722007 -0.013294461 -0.00016461783 -0.0040457696 0.0041227764 0.0010743594 0.0065651843 -0.0053135003
0.008245401 0.009156841 0.0045073037 0.00039373184 0.0029302156 -0.0010070915 0.0017968093 -0.007090039
-0.016206337 0.015151234 -0.012676343 -0.00919404 -0.011139716 -0.0023842703 -0.005452555 0.008409168
0.006634717 0.008037156 0.013096315 -0.009639012 0.0025411115 0.00010347304 6.036181e-05 -0.011039107
-0.012812232 0.008935603 0.0015604373 0.012735948 0.00046569944 0.004859868 0.0147478925 0.023845607
-0.004330504 -0.003788735 0.0064086556 -0.0028994617 0.0056021437 -0.0018375382 -0.0035990686 -0.020012693
-0.0020807076 -0.011752439 -0.014512287 -0.0084989425 0.00024719213 -0.0053849067 -0.0013817347 0.006589575
-0.0102073895 0.0023648753 -0.0035306395 0.0074598775 -0.00051547255 0.0030876568 -0.004007305 0.0014073787
0.008190995 0.006694483 -0.016853847 -0.0021882867 0.0043188212 -0.008409419 -0.0017066699 0.017890595
-0.001983915 -0.009432024 -0.0037805326 -0.0030994506 -0.0070976927 0.0050979345 0.0020013375 0.016472457
0.006986735 0.0045543895 -0.00030589366 -0.0009176542 0.0019972138 0.0015949843 -0.0011859679 -0.0058413856
0.0013348045 0.017353244 -0.0005260407 0.011735685 0.013374077 0.01734135 0.02535142 0.011604728
-0.012502122 0.007243579 0.00011067486 -0.013149634 0.009131254 -0.012518398 0.0006503968 0.0011887132
00000000: ba86 95ba 53c2 063a 8a96 45bc 4824 7fba
00000010: 5f90 f1bb c384 4038 10e9 2ebb d7b2 21bc
00000020: 9f5f 6cbc 822c 58bb 5097 6cb9 9347 42bb
00000030: 7f55 ccbb ad7f 72bb 56cd 2bbb e002 9dbb
00000040: 2bbf 633b 77bc 6ebb 54c0 953b 00de d23b
00000050: f3ee 543c 3303 f13a 63a7 2b3c 00cd 6cbb
00000060: e58f 5ebb 930b f93a d352 923b abee 9f3b
00000070: 8e22 8fba 7cdd b739 6113 043c b85b 18bb
00000080: 9b86 0fbc 5735 683b 20de 623b 3780 90bb
00000090: 0b6b 313c 1201 0fbc 39e6 13bc 1bcd a03a
000000a0: a857 6fbb b270 fdba 457c 63bb 9884 18bc
000000b0: 70fd e3bb 4503 4c3b 7b5f b0bb 2bcf 933c
000000c0: c8f4 bbba 8b3a 8d3b 4fd9 92bb 531a 0bbc
000000d0: bc59 213b 27ae e8bb ef18 8aba db39 2d3c
000000e0: c578 533c 771b cdbb 2c72 04bc 5139 853b
000000f0: a7cc 613c 4e2c 08bc a046 423c ed0a 513b
00000100: b55a d4bb 0dac aebc 5432 813b b3d9 d7bb
00000110: c453 23bc a899 433c 14b0 95bb 6716 c6bc
00000120: ebcb ee3b 1daa a93a 6767 6c3c 6fcd febb
00000130: 7b9e 923c 35ca fe3a 1a50 323c 0e1e 9c3b
00000140: ed50 6abb da46 f23b 0bc1 533c afcd f9ba
00000150: b017 5cbb 3ec2 1bb9 73c5 7d3b 6a13 fa39
00000160: 290d b73a e526 633b ec31 833b 034e 71bc
00000170: 1dbc 4e3c 487e e2bb df8f 91b9 4b37 b23b
00000180: 8844 4ebc bf1e c3bb bf24 63bb 8fd9 9e3b
00000190: 1bd8 b7ba 9340 f6ba 0be4 8d3b 1391 cb3b
000001a0: ff34 e63b b3c8 213c 40f8 123c 8677 1fbc
000001b0: bbb6 28bb c765 ffba 9b65 463c 7e94 1d3c
000001c0: 25b7 c0bb 5f5a 62bb 90c7 d43a f2d0 233a
000001d0: d513 9d3b 5c5b 053b 00d0 0b3c 2510 05bc
000001e0: 85cf aa3b cbd1 303c b8eb 153c f74b 993c
000001f0: b018 57bc 7963 293b e15c 30bc 1007 3b3c
00000200: 33e1 3abc 570a 863c 8c4d c0bb 7163 24bc
00000210: 00d6 253c 63c3 4bbb e581 e93b 593f 9bbb
00000220: e357 44bc 4dd0 6fbc 006f e4ba cd37 ca3a
00000230: a5ec 743b 9557 91bb 6810 b83a 02ca 7e3c
00000240: 5334 cdbc 60aa 96bb aa73 633c 7c7c b03b
00000250: 8b92 19bc 8e84 8e3c 09d7 8fbb 188b 2dbc
00000260: 6b72 56bb 03d1 59bc 439d 2cb9 6092 84bb
00000270: 5b18 873b 85d1 8c3a c220 d73b df1c aebb
00000280: b817 073c 9306 163c 01b2 933b cb6d ce39
00000290: dc08 403b 6200 84ba ea82 eb3a 8f53 e8bb
000002a0: 27c3 84bc e23c 783c 70b0 4fbc 99a2 16bc
000002b0: 5b83 36bc 6b41 1cbb 59ab b2bb 9bc6 093c
000002c0: 0a68 d93b 47ae 033c ed91 563c f2ec 1dbc
000002d0: c788 263b aaff d838 002d 7d38 5fdd 34bc
000002e0: 65ea 51bc a366 123c 9687 cc3a 70aa 503c
000002f0: 1f29 f439 873f 9f3b 25a1 713c dd57 c33c
00000300: e7e6 8dbb 6d4c 78bb b3ff d13b e504 3ebb
00000310: 3092 b73b 8dd9 f0ba 5ade 6bbb a9f1 a3bc
00000320: 7b5c 08bb 4d8d 40bc f2c4 6dbc 263f 0bbc
00000330: 9199 8139 df73 b0bb 531b b5ba 5ded d73b
00000340: e53c 27bc 06fc 1a3b 4d62 67bb fd71 f43b
00000350: c720 07ba 495a 4a3b b64f 83bb cb77 b83a
00000360: 8633 063c 655d db3b 1411 8abc 5c69 0fbb
00000370: e684 8d3b a9c7 09bc 57b2 dfba 4c8f 923c
00000380: 9204 02bb c788 1abc d0c2 77bb 2720 4bbb
00000390: c393 e8bb 930c a73b df28 033b 3ff1 863c
000003a0: fbf0 e43b fd3c 953b 5a60 a0b9 bb8e 70ba
000003b0: b0e3 023b cb0e d13a 7b72 9bba 1869 bfbb
000003c0: 9bf4 ae3a 6428 8e3c fee5 09ba 0847 403c
000003d0: f21e 5b3c 720f 8e3c c8ad cf3c c221 3e3c
000003e0: b3d5 4cbc 8b5b ed3b 1d1a e838 9071 57bc
000003f0: 419b 153c f819 4dbc 647f 2a3a 99ce 9b3a

action_model._discrete_distribution.branches.0.bias f4 [7]
0.0 0.0 0.0 0.0 0.0 0.0 0.0
00000000: 0000 0000 0000 0000 0000 0000 0000 0000
00000010: 0000 0000 0000 0000 0000 0000

network_body.observation_encoder.processors.0.normalizer.running_mean f4 [16]
0.50876665 0.008182029 0.073546305 0.9619218 0.85261464 1.1455181 2.4709482 0.3587307
0.008182029 -0.012481283 0.8916267 0.20253167 0.7079348 -0.111524604 0.0 -0.016597621
00000000: 883e 023f eb0d 063c 729f 963d 8240 763f
00000010: f444 5a3f 56a0 923f 0424 1e40 8dab b73e
00000020: eb0d 063c 4c7e 4cbc a641 643f 7664 4f3e
00000030: 373b 353f 0367 e4bd 0000 0000 bcf7 87bc

network_body.observation_encoder.processors.0.normalizer.running_variance f4 [16]
14911.648 1.0119325 4668.2715 179.02516 9160.058 9273.66 42207.03 10899.926
1.0119325 2432.2185 477.05408 1557.6584 5731.0684 5198.116 1.0 4318.353
00000000: 98fe 6846 0187 813f 2ce2 9145 7106 3343
00000010: 3b20 0f46 a4e6 1046 08df 2447 b44f 2a46
00000020: 0187 813f 7f03 1845 ec86 ee43 12b5 c244
00000030: 8c18 b345 ee70 a245 0000 803f d3f2 8645

network_body.processors.0.normalizer.running_mean f4 [16]
0.50876665 0.008182029 0.073546305 0.9619218 0.85261464 1.1455181 2.4709482 0.3587307
0.008182029 -0.012481283 0.8916267 0.20253167 0.7079348 -0.111524604 0.0 -0.016597621
00000000: 883e 023f eb0d 063c 729f 963d 8240 763f
00000010: f444 5a3f 56a0 923f 0424 1e40 8dab b73e
00000020: eb0d 063c 4c7e 4cbc a641 643f 7664 4f3e
00000030: 373b 353f 0367 e4bd 0000 0000 bcf7 87bc

network_body.processors.0.normalizer.running_variance f4 [16]
14911.648 1.0119325 4668.2715 179.02516 9160.058 9273.66 42207.03 10899.926
1.0119325 2432.2185 477.05408 1557.6584 5731.0684 5198.116 1.0 4318.353
00000000: 98fe 6846 0187 813f 2ce2 9145 7106 3343
00000010: 3b20 0f46 a4e6 1046 08df 2447 b44f 2a46
00000020: 0187 813f 7f03 1845 ec86 ee43 12b5 c244
00000030: 8c18 b345 ee70 a245 0000 803f d3f2 8645

network_body._body_endoder.seq_layers.0.weight f4 [128, 16]
0.17185147 0.21098763 -0.17620014 0.28367117 -0.34595448 0.2447865 0.036545265 0.07110921
-0.13172363 -0.00025268737 0.16158146 0.33303708 0.12542027 0.15719295 -0.21314397 0.043141328
-0.32681397 0.06939658 0.21552071 0.13003685 -0.26371527 0.042132612 -0.05308546 0.402029
0.11866459 -0.0111951865 0.37144822 0.33913678 0.08719574 0.09141003 -0.18397537 0.22187936
-0.08233456 0.39704162 -0.08812861 0.33301538 -0.43370396 -0.0046052067 0.25350404 -0.08860463
0.60877246 0.12978092 0.4027414 0.15155534 0.31113896 0.62784994 0.15035644 0.16990493
0.07950784 0.53736234 -0.21831074 0.30288476 -0.4144724 -0.47079659 -0.13951325 0.2263823
0.116191 -0.106372625 -0.12541835 -0.118961625 0.011139127 -0.13078238 -0.13868791 -0.063994884
-0.20481376 -0.34052134 0.30510426 0.20921314 -0.16351645 0.17237127 0.056528885 0.29444423
-0.14856538 0.36432883 -0.3889806 -0.06598088 -0.019277455 -0.16947304 0.40329587 -0.29757702
-0.2132111 -0.28545806 -0.022789707 -0.18756032 0.050754834 0.39205018 0.62842965 0.56067854
-0.26441255 -0.33627504 0.21761051 0.2869836 -0.18329199 0.026016075 0.15179327 -0.5548191
-0.1887165 -0.26679376 0.097767085 -0.011991907 0.18590097 -0.31065786 0.19227026 -0.15557127
0.032566205 0.16905159 0.038687386 0.38326153 -0.29475358 0.43890253 -0.33992696 0.09624624
0.2665683 -0.4385699 -0.01164217 -0.33605328 0.11573123 0.27951849 0.14143147 0.016729834
0.47120467 0.27060214 -0.34950647 -0.408945 -0.08690738 -0.16858508 -0.31224683 0.18065616
-0.082544215 0.2756447 0.2687848 0.47869277 0.29710785 0.013797803 0.016498204 -0.12717046
0.098806925 0.22537157 -0.26937222 -0.21793252 0.096224226 -0.028294325 0.20387433 0.10339083
0.4030611 -0.12552372 -0.11425547 -0.1109216 0.23851243 0.10738127 -0.043113004 -0.0047213812
-0.2441166 0.12910575 -0.18468815 -0.16123544 -0.055430297 -0.16932508 -0.1538811 0.20240214
-0.048527732 0.2871392 0.025784671 -0.19783413 -0.09946907 0.3690448 -0.05565957 0.10078814
-0.05523866 -0.17625837 0.22391187 0.4367751 -0.3933956 -0.026100008 -0.5777527 0.11110136
0.13562907 -0.26554483 -0.033378772 0.00055951084 0.16675223 0.04852241 -0.04687954 -0.16275893
-0.19028816 0.15080324 0.15269738 -0.10564199 0.40004456 -0.014582512 -0.56535524 -0.21842805
0.05712938 -0.3640363 0.07990689 -0.04953914 -0.8764029 -0.0107046 -0.054643895 -0.125526
-0.28481942 -0.13711685 -0.09369442 0.038779974 0.23112655 0.14146967 0.2872314 0.23879038
0.0023812961 -0.13626641 -0.014341295 -0.11697728 -0.49196765 0.3781998 0.007821049 -0.024450928
0.36937848 0.006296761 0.43996602 -0.042235553 0.27474254 -0.2589031 0.06191917 0.39441127
-0.39612165 0.20125835 0.25367546 -0.1823046 -0.09913003 0.21121347 0.20997122 0.040355816
0.23058943 -0.062524214 -0.028788999 0.05036887 0.0074057006 0.23754093 -0.007882771 0.3259615
-0.39242157 -0.18151398 -0.21493563 -0.11040604 0.08769432 -0.035707645 -0.2041446 0.0038328136
0.2111828 0.24399906 -0.21370372 0.10716893 0.132882 -0.018537655 0.102531 0.11292055
00000000: d5f9 2f3e 240d 583e cf6d 34be 593d 913e
00000010: f220 b1be 50a9 7a3e 7db0 153d b5a1 913d
00000020: 8fe2 06be 207b 84b9 9c75 253e d683 aa3e
00000030: 2c6e 003e 30f7 203e 6a42 5abe f6b4 303d
00000040: 2954 a7be cb1f 8e3d 76b1 5c3e 6128 053e
00000050: b005 87be 3f93 2c3d 2470 59bd bfd6 cd3e
00000060: 6c06 f33d 046c 37bc 762e be3e 56a3 ad3e
00000070: ae93 b23d 2f35 bb3d 0a64 3cbe 5834 633e
00000080: 069f a8bd 0a49 cb3e c67c b4bd fe80 aa3e
00000090: 720e debe 46e7 96bb 48cb 813e 5876 b5bd
000000a0: 83d8 1b3f 4ae5 043e 1f34 ce3e 5331 1b3e
000000b0: 9b4d 9f3e c6ba 203f 0af7 193e 8ffb 2d3e
000000c0: 02d5 a23d 9490 093f da8c 5fbe b613 9b3e
000000d0: ba35 d4be 400c f1be 90dc 0ebe c3d0 673e
000000e0: 8cf5 ed3d e4d9 d9bd ab6d 00be 27a2 f3bd
000000f0: e380 363c d1eb 05be 3404 0ebe c00f 83bd
00000100: b3ba 51be d058 aebe a036 9c3e f83b 563e
00000110: db70 27be 1882 303e d58a 673d 65c1 963e
00000120: 8621 18be 4f89 ba3e 7728 c7be fc20 87bd
00000130: c1eb 9dbc 578a 2dbe cc7c ce3e 045c 98be
00000140: 0354 5abe 8f27 92be 7bb1 babc d00f 40be
00000150: 4de4 4f3d cdba c83e c4e0 203f a188 0f3f
00000160: 1561 87be 3e2c acbe 4ad5 5e3e 84ef 923e
00000170: e5b0 3bbe aa1f d53c b26f 1b3e a008 0ebf
00000180: e63e 41be 3199 88be 1c3a c83d b479 44bc
00000190: d35c 3e3e 8c0e 9fbe 7fe2 443e 134e 1fbe
000001a0: 2464 053d dc1b 2d3e aa76 1e3d db3a c43e
000001b0: f1e9 96be d5b7 e03e e80a aebe c01c c53d
000001c0: a47b 883e 3c8c e0be cdbe 3ebc 2d0f acbe
000001d0: 7f04 ed3d 0c1d 8f3e 69d3 103e 010d 893c
000001e0: bd41 f13e 5d8c 8a3e 83f2 b2be 3d61 d1be
000001f0: 7ffc b1bd 91a1 2cbe d1de 9fbe eefd 383e
00000200: f10c a9bd 4d21 8d3e 299e 893e 3817 f53e
00000210: 851e 983e 2e10 623c 3e27 873c f938 02be
00000220: 495b ca3d cec7 663e 28eb 89be b429 5fbe
00000230: 3511 c53d 80c9 e7bc 6fc4 503e 92be d33d
00000240: 065e ce3e 4a89 00be c6fe e9bd dd2a e3bd
00000250: 9a3c 743e b6ea db3d 4397 30bd d1b5 9abb
00000260: b4f9 79be 4c34 043e e41e 3dbe e71a 25be
00000270: e10a 63bd 8e63 2dbe 0293 1dbe 8242 4f3e
00000280: 04c5 46bd e903 933e 603a d33c 0895 4abe
00000290: 71b6 cbbd 71f3 bc3e 4afb 63bd 036a ce3d
000002a0: ef41 62bd 137d 34be 2749 653e fca0 df3e
000002b0: 266b c9be afcf d5bc 9ae7 13bf 1c89 e33d
000002c0: 59e2 0a3e 7ef5 87be 2eb8 08bd 23ac 123a
000002d0: 19c1 2a3e 6fbf 463d c304 40bd 47aa 26be
000002e0: e6da 42be 2a6c 1a3e b45c 1c3e d45a d8bd
000002f0: a4d2 cc3e 7deb 6ebc 1fbb 10bf 9aab 5fbe
00000300: 7f00 6a3d f762 babe 39a6 a33d 8ee9 4abd
00000310: f15b 60bf 5962 2fbc 47d2 5fbd e389 00be
00000320: dad3 91be 5c68 0cbe dce2 bfbd c0d7 1e3d
00000330: 70ac 6c3e 6ddd 103e fe0f 933e 7785 743e
00000340: 850f 1c3b 6c89 0bbe c0f7 6abc c991 efbd
00000350: 2fe3 fbbe 67a3 c13e db23 003c 504d c8bc
00000360: 2d1f bd3e 0f55 ce3b 3a43 e13e 30ff 2cbd
00000370: 0eab 8c3e f28e 84be f59e 7d3d 46f0 c93e
00000380: 75d0 cabe ab16 4e3e c0e1 813e 0fae 3abe
00000390: af04 cbbd 5848 583e b202 573e 244c 253d
000003a0: a31f 6c3e b20c 80bd e8d6 ebbc 974f 4e3d
000003b0: 85ab f23b ee3d 733e bd26 01bc 6de4 a63e
000003c0: 7beb c8be cdde 39be 1618 5cbe 901c e2bd
000003d0: 1499 b33d 2e42 12bd 480b 51be f12f 7b3b
000003e0: 4e40 583e e4da 793e 26d5 5abe 627b db3d
000003f0: 3812 083e 48dc 97bc c6fb d13d e442 e73d

network_body._body_endoder.seq_layers.0.bias f4 [128]
0.0 0.0 0.0 0.0 0.0 0.0 0.0 0.0
0.0 0.0 0.0 0.0 0.0 0.0 0.0 0.0
0.0 0.0 0.0 0.0 0.0 0.0 0.0 0.0
0.0 0.0 0.0 0.0 0.0 0.0 0.0 0.0
0.0 0.0 0.0 0.0 0.0 0.0 0.0 0.0
0.0 0.0 0.0 0.0 0.0 0.0 0.0 0.0
0.0 0.0 0.0 0.0 0.0 0.0 0.0 0.0
0.0 0.0 0.0 0.0 0.0 0.0 0.0 0.0
0.0 0.0 0.0 0.0 0.0 0.0 0.0 0.0
0.0 0.0 0.0 0.0 0.0 0.0 0.0 0.0
0.0 0.0 0.0 0.0 0.0 0.0 0.0 0.0
0.0 0.0 0.0 0.0 0.0 0.0 0.0 0.0
0.0 0.0 0.0 0.0 0.0 0.0 0.0 0.0
0.0 0.0 0.0 0.0 0.0 0.0 0.0 0.0
0.0 0.0 0.0 0.0 0.0 0.0 0.0 0.0
0.0 0.0 0.0 0.0 0.0 0.0 0.0 0.0
00000000: 0000 0000 0000 0000 0000 0000 0000 0000
00000010: 0000 0000 0000 0000 0000 0000 0000 0000
00000020: 0000 0000 0000 0000 0000 0000 0000 0000
00000030: 0000 0000 0000 0000 0000 0000 0000 0000
00000040: 0000 0000 0000 0000 0000 0000 0000 0000
00000050: 0000 0000 0000 0000 0000 0000 0000 0000
00000060: 0000 0000 0000 0000 0000 0000 0000 0000
00000070: 0000 0000 0000 0000 0000 0000 0000 0000
00000080: 0000 0000 0000 0000 0000 0000 0000 0000
00000090: 0000 0000 0000 0000 0000 0000 0000 0000
000000a0: 0000 0000 0000 0000 0000 0000 0000 0000
000000b0: 0000 0000 0000 0000 0000 0000 0000 0000
000000c0: 0000 0000 0000 0000 0000 0000 0000 0000
000000d0: 0000 0000 0000 0000 0000 0000 0000 0000
000000e0: 0000 0000 0000 0000 0000 0000 0000 0000
000000f0: 0000 0000 0000 0000 0000 0000 0000 0000
00000100: 0000 0000 0000 0000 0000 0000 0000 0000
00000110: 0000 0000 0000 0000 0000 0000 0000 0000
00000120: 0000 0000 0000 0000 0000 0000 0000 0000
00000130: 0000 0000 0000 0000 0000 0000 0000 0000
00000140: 0000 0000 0000 0000 0000 0000 0000 0000
00000150: 0000 0000 0000 0000 0000 0000 0000 0000
00000160: 0000 0000 0000 0000 0000 0000 0000 0000
00000170: 0000 0000 0000 0000 0000 0000 0000 0000
00000180: 0000 0000 0000 0000 0000 0000 0000 0000
00000190: 0000 0000 0000 0000 0000 0000 0000 0000
000001a0: 0000 0000 0000 0000 0000 0000 0000 0000
000001b0: 0000 0000 0000 0000 0000 0000 0000 0000
000001c0: 0000 0000 0000 0000 0000 0000 0000 0000
000001d0: 0000 0000 0000 0000 0000 0000 0000 0000
000001e0: 0000 0000 0000 0000 0000 0000 0000 0000
000001f0: 0000 0000 0000 0000 0000 0000 0000 0000

network_body._body_endoder.seq_layers.2.weight f4 [128, 128]
-0.26012483 0.014036705 -0.04263476 -0.023982428 -0.087327234 -0.060476247 -0.09261413 0.16230813
0.001769891 0.3120802 -0.062296182 0.04886262 0.15888302 -0.06491635 -0.06091935 0.1553044
0.016336456 -0.13333291 0.106248334 0.085896835 -0.06639309 -0.09889533 0.02785761 0.14099285
0.029966427 -0.10460735 -0.09369665 -0.23840524 0.008933014 -0.02045203 -0.09359345 -0.20556666
-0.09041126 0.005554594 0.0154643385 0.033197246 0.0055611995 -0.050583668 -0.11625247 0.07571837
0.016502224 0.0356197 -0.04023896 -0.11107191 0.105345786 -0.04549466 0.23464459 0.09376382
0.12238172 -0.1928459 0.09716042 -0.06743572 0.041525565 -0.092615336 -0.050258014 0.06508895
0.035811696 0.035881627 -0.09845196 -0.02673857 -0.02523643 0.0016138507 0.0041210423 0.08949488
0.03702787 0.10242114 0.124545544 0.1051142 -0.003237983 -0.102152094 0.072599456 0.08250052
0.02122318 0.106219605 0.07368805 0.039784636 -0.0077146376 0.108898565 0.045659225 0.03182822
0.067418315 -0.015763808 -0.057226326 0.07494902 -0.016662218 -0.04532932 -0.115584664 -0.05038592
-0.043243818 -0.13309526 -0.027673991 0.16197234 -0.15574604 -0.051680677 -0.037940387 0.09988072
-0.015473294 -0.12652946 0.05406252 -0.073388845 -0.12559594 -0.18313172 -0.028963298 0.02165934
0.044271044 0.115089215 0.10279668 0.05084257 -0.07945936 0.038790774 0.10834236 -0.034031924
-0.05455075 0.16694677 0.16921982 0.11588023 0.007458114 0.0149582485 -0.060641345 0.072526574
-0.051705394 -0.027374968 0.02137896 0.025492258 -0.069712274 -0.006875706 -0.076432794 -0.041657045
0.04158665 0.11600158 0.080918916 -0.040775307 -0.12064975 0.12704556 -0.0027262908 0.095669
0.044036664 0.08305298 -0.05323404 0.039811593 0.026109511 0.10160441 -0.10860578 0.05568535
0.08651869 -0.123092316 0.085087314 -0.05432057 -0.19776446 -0.052426655 0.020780971 -0.020529393
0.040119644 -0.050578892 -0.0988945 -0.15468651 0.07712619 -0.050306816 0.07200066 0.09640646
0.018228622 0.06773539 -0.088421725 -0.08853646 0.04601411 -0.003982106 -0.11636289 -0.17367193
-0.020630507 0.15262294 -0.04753545 0.077873856 0.1002382 0.05166959 0.037527047 -0.10926056
-0.021463178 -0.022502339 0.12542848 -0.06458071 -0.16365469 -0.047476828 0.029850658 -0.10818769
0.05022165 0.10572837 -0.11929397 0.16889305 -0.16929913 -0.07087693 -0.008584272 -0.12833641
0.0012121918 -0.023117347 -0.08991249 0.102761246 0.017769689 0.029391086 0.05388893 0.0402564
-0.013429669 -0.16741122 -0.027154328 -0.014886784 -0.010643001 0.01791833 -0.0022483019 -0.030888999
-0.01244162 -0.06889914 -0.03827243 0.00055135106 0.12703332 0.04858447 -0.098811746 0.029204456
-0.033741068 0.074262366 0.037282713 0.013648147 0.060717393 -0.056688663 0.07523876 0.07898342
-0.12997745 -0.05425349 -0.11148931 0.07349514 0.058848415 0.10567792 0.036616206 -0.00077373174
0.011481369 0.13389274 0.031010576 -0.030153133 -0.0017868528 0.028302245 -0.0009298319 0.18035473
0.11146093 0.010376361 -0.022395562 -0.06809371 0.13063034 0.14078908 -0.0367335 -0.12037332
0.06801393 -0.106375396 0.07885215 0.004218424 0.07049241 0.14890796 0.07257831 -0.12403709
00000000: 152f 85be 35fa 653c c9a1 2ebd cc76 c4bc
00000010: 9fd8 b2bd f1b5 77bd 7aac bdbd 1a34 263e
00000020: b0fb e73a fac8 9f3e 482a 7fbd 2c24 483d
00000030: 3bb2 223e ddf2 84bd 9186 79bd 1e08 1f3e
00000040: 08d4 853c 6c88 08be ba98 d93d aeea af3d
00000050: 1af9 87bd a389 cabd a435 e43c 6e60 103e
00000060: 277c f53c 613c d6bd 07e4 bfbd 8120 74be
00000070: c75b 123c 048b a7bc ecad bfbd 1180 52be
00000080: 8a29 b9bd 5003 b63b 235e 7d3c d6f9 073d
00000090: b93a b63b d230 4fbd c615 eebd 3c12 9b3d
000000a0: ac2f 873c f6e5 113d 9cd1 24bd ab79 e3bd
000000b0: 88bf d73d 9c58 3abd ac46 703e 3f07 c03d
000000c0: 44a3 fa3d 6579 45be 0bfc c63d bd1b 8abd
000000d0: b616 2a3d 1cad bdbd 59db 4dbd 5b4d 853d
000000e0: 49af 123d 9df8 123d 2ea1 c9bd d80a dbbc
000000f0: a1bc cebc d887 d33a cf09 873b 1749 b73d
00000100: 89aa 173d 2dc2 d13d bc11 ff3d 1d46 d73d
00000110: 5734 54bb 1e35 d1bd 06af 943d 08f6 a83d
00000120: 3cdc ad3c aa89 d93d c3e9 963d 37f5 223d
00000130: 12cb fcbb 3606 df3d 2b05 3b3d 4f5e 023d
00000140: 9d12 8a3d 1a23 81bc 2766 6abd df7e 993d
00000150: 347f 88bc 3dab 39bd a7b7 ecbd 7761 4ebd
00000160: 6e20 31bd 204a 08be 91b4 e2bc 14dc 253e
00000170: e47b 1fbe 1eaf 53bd 6167 1bbd 438e cc3d
00000180: b383 7dbc f090 01be a970 5d3d e44c 96bd
00000190: 399c 00be e286 3bbe 7044 edbc ee6e b13c
000001a0: 8e55 353d e5b3 eb3d 1187 d23d 4c40 503d
000001b0: 97bb a2bd 13e3 1e3d 99e2 dd3d 0f65 0bbd
000001c0: 9b70 5fbd 18f4 2a3e f647 2d3e 9d52 ed3d
000001d0: 3263 f43b 7113 753c 0f63 78bd d088 943d
000001e0: 09c9 53bd 7841 e0bc ee22 af3c 24d5 d03c
000001f0: 4fc5 8ebd 9a4d e1bb cc88 9cbd 94a0 2abd
00000200: c356 2a3d 3d92 ed3d d1b8 a53d 0204 27bd
00000210: 3717 f7bd 3b18 023e 92ab 32bb 1cee c33d
00000220: ca5f 343d ae17 aa3d f00b 5abd 7b11 233d
00000230: 9de3 d53c f915 d03d b56c debd 5216 643d
00000240: b630 b13d d317 fcbd 4242 ae3d 3f7f 5ebd
00000250: c482 4abe 55bd 56bd db3c aa3c 422d a8bc
00000260: 7f54 243d d02b 4fbd 3389 cabd 2466 1ebe
00000270: 56f4 9d3d 850e 4ebd 1575 933d c070 c53d
00000280: 3154 953c dab8 8a3d 7316 b5bd 9b52 b5bd
00000290: 4b79 3c3d 547c 82bb ab4f eebd 0ed7 31be
000002a0: 4f01 a9bc 3049 1c3e 88b4 42bd 547c 9f3d
000002b0: af49 cd3d 7ea3 533d f6b5 193d 00c4 dfbd
000002c0: 8cd3 afbc d356 b8bc 5370 003e e442 84bd
000002d0: 1895 27be 1077 42bd 5e89 f43c 8291 ddbd
000002e0: 38b5 4d3d 1e88 d83d 6650 f4bd 4df2 2c3e
000002f0: c05c 2dbe ed27 91bd 0ca5 0cbc 9f6a 03be
00000300: 68e2 9e3a 9760 bdbc 0a24 b8bd 7d74 d23d
00000310: bd91 913c 93c5 f03c a3ba 5c3d e5e3 243d
00000320: 1d08 5cbc d96d 2bbe c172 debc b3e7 73bc
00000330: fb5f 2ebc 76c9 923c 3f58 13bb ed0a fdbc
00000340: f0d7 4bbc fe1a 8dbd 8dc3 1cbd 8b88 103a
00000350: 0615 023e 8200 473d d05d cabd 2f3e ef3c
00000360: 1334 0abd de16 983d c2b5 183d 7a9c 5f3c
00000370: cdb2 783d 5f32 68bd c716 9a3d 0fc2 a13d
00000380: cf18 05be e838 5ebd 8254 e4bd 9f84 963d
00000390: 090b 713d aa6d d83d e0fa 153d 42d4 4aba
000003a0: 5a1c 3c3c 2e1b 093e e409 fe3c b403 f7bc
000003b0: d534 eaba 1cda e73c f6bf 73ba e9ae 383e
000003c0: a145 e43d 9d01 2a3c e676 b7bc b774 8bbd
000003d0: f6c3 053e 032b 103e de75 16bd 4a86 f6bd
000003e0: e34a 8b3d 58db d9bd 3c7d a13d b53a 8a3b
000003f0: 535e 903d 547b 183e f0a3 943d 2807 febd

network_body._body_endoder.seq_layers.2.bias f4 [128]
0.0 0.0 0.0 0.0 0.0 0.0 0.0 0.0
0.0 0.0 0.0 0.0 0.0 0.0 0.0 0.0
0.0 0.0 0.0 0.0 0.0 0.0 0.0 0.0
0.0 0.0 0.0 0.0 0.0 0.0 0.0 0.0
0.0 0.0 0.0 0.0 0.0 0.0 0.0 0.0
0.0 0.0 0.0 0.0 0.0 0.0 0.0 0.0
0.0 0.0 0.0 0.0 0.0 0.0 0.0 0.0
0.0 0.0 0.0 0.0 0.0 0.0 0.0 0.0
0.0 0.0 0.0 0.0 0.0 0.0 0.0 0.0
0.0 0.0 0.0 0.0 0.0 0.0 0.0 0.0
0.0 0.0 0.0 0.0 0.0 0.0 0.0 0.0
0.0 0.0 0.0 0.0 0.0 0.0 0.0 0.0
0.0 0.0 0.0 0.0 0.0 0.0 0.0 0.0
0.0 0.0 0.0 0.0 0.0 0.0 0.0 0.0
0.0 0.0 0.0 0.0 0.0 0.0 0.0 0.0
0.0 0.0 0.0 0.0 0.0 0.0 0.0 0.0
00000000: 0000 0000 0000 0000 0000 0000 0000 0000
00000010: 0000 0000 0000 0000 0000 0000 0000 0000
00000020: 0000 0000 0000 0000 0000 0000 0000 0000
00000030: 0000 0000 0000 0000 0000 0000 0000 0000
00000040: 0000 0000 0000 0000 0000 0000 0000 0000
00000050: 0000 0000 0000 0000 0000 0000 0000 0000
00000060: 0000 0000 0000 0000 0000 0000 0000 0000
00000070: 0000 0000 0000 0000 0000 0000 0000 0000
00000080: 0000 0000 0000 0000 0000 0000 0000 0000
00000090: 0000 0000 0000 0000 0000 0000 0000 0000
000000a0: 0000 0000 0000 0000 0000 0000 0000 0000
000000b0: 0000 0000 0000 0000 0000 0000 0000 0000
000000c0: 0000 0000 0000 0000 0000 0000 0000 0000
000000d0: 0000 0000 0000 0000 0000 0000 0000 0000
000000e0: 0000 0000 0000 0000 0000 0000 0000 0000
000000f0: 0000 0000 0000 0000 0000 0000 0000 0000
00000100: 0000 0000 0000 0000 0000 0000 0000 0000
00000110: 0000 0000 0000 0000 0000 0000 0000 0000
00000120: 0000 0000 0000 0000 0000 0000 0000 0000
00000130: 0000 0000 0000 0000 0000 0000 0000 0000
00000140: 0000 0000 0000 0000 0000 0000 0000 0000
00000150: 0000 0000 0000 0000 0000 0000 0000 0000
00000160: 0000 0000 0000 0000 0000 0000 0000 0000
00000170: 0000 0000 0000 0000 0000 0000 0000 0000
00000180: 0000 0000 0000 0000 0000 0000 0000 0000
00000190: 0000 0000 0000 0000 0000 0000 0000 0000
000001a0: 0000 0000 0000 0000 0000 0000 0000 0000
000001b0: 0000 0000 0000 0000 0000 0000 0000 0000
000001c0: 0000 0000 0000 0000 0000 0000 0000 0000
000001d0: 0000 0000 0000 0000 0000 0000 0000 0000
000001e0: 0000 0000 0000 0000 0000 0000 0000 0000
000001f0: 0000 0000 0000 0000 0000 0000 0000 0000

value_heads.value_heads.extrinsic.weight f4 [1, 128]
-0.13245733 0.21533677 0.07308969 -0.20168476 0.04163152 -0.09503413 -0.1412427 -0.15017825
0.20855564 0.1377725 0.021787256 0.09221727 0.20926058 -0.11263409 -0.14649661 -0.2065436
-0.16320297 0.20466498 0.042363614 -0.1417609 -0.17088243 -0.12634833 -0.038992584 0.00094904006
0.09307858 0.013751313 -0.060939774 0.05851841 -0.0076566488 -0.17423818 -0.13602522 -0.13540794
0.19399628 0.04602492 -0.10632608 -0.21264666 -0.17320074 0.10139105 -0.047905564 0.13053572
-0.18045688 -0.17548165 0.07888794 -0.041627064 0.21134001 -0.18005505 0.015092045 0.08347598
0.21127948 0.0036932677 0.2139504 0.055854052 -0.16849357 -0.004697174 -0.039837748 0.018049985
0.1933836 -0.044300556 0.10471979 0.07202694 0.10662967 -0.12365808 0.07146701 -0.19907771
0.09955531 -0.15347749 0.10760829 0.003326252 -0.15481746 0.12300998 -0.13556688 -0.0046292245
0.01012598 -0.11806977 -0.029364198 -0.02111362 -0.18032992 0.20196399 0.04234591 0.13938844
0.15054515 -0.06640999 0.07585734 -0.11647595 -0.037113488 -0.20922045 -0.12262765 -0.2148692
-0.13017033 -0.13582376 -0.19726151 -0.054395303 0.08516005 -0.21482565 -0.18016681 -0.0021940619
0.13191137 0.11515179 0.16558653 -0.15022442 0.11149514 -0.054885834 0.111290574 0.105223805
-0.040678337 0.16915947 0.10219464 -0.08421266 0.12225428 -0.078417 -0.07231733 0.07296044
-0.18825032 -0.14150807 -0.028889716 -0.024447829 0.07196075 0.1086019 0.17544803 0.059213936
0.14894423 -0.10562781 0.1787971 -0.16182308 0.039877772 -0.19054115 -0.10164557 -0.15768485
00000000: e5a2 07be 3e81 5c3e 0cb0 953d 7386 4ebe
00000010: d085 2a3d 41a1 c2bd eda1 10be 54c8 19be
00000020: 9c8f 553e 3c14 0d3e 307b b23c 68dc bc3d
00000030: 6848 563e b4ac e6bd 3503 16be 2a80 53be
00000040: ae1e 27be b293 513e 7885 2d3d c529 11be
00000050: cefb 2ebe 7561 01be b0b6 1fbd 00c9 783a
00000060: fc9f be3d 304d 613c fc9b 79bd 00b1 6f3d
00000070: a0e4 fabb 7e6b 32be 324a 0bbe 61a8 0abe
00000080: f6a6 463e a084 3c3d 7dc1 d9bd 0cc0 59be
00000090: 895b 31be 1ca6 cf3d a038 44bd 28ab 053e
000000a0: b0c9 38be 76b1 33be 0090 a13d 2481 2abd
000000b0: 8469 583e 5a60 38be a044 773c 74f5 aa3d
000000c0: a659 583e c00a 723b d015 5b3e 38c7 643d
000000d0: 9489 2cbe c0ea 99bb e82c 23bd 90dd 933c
000000e0: 5a06 463e 8074 35bd 5477 d63d dc82 933d
000000f0: a860 da3d 7340 fdbd 4c5d 923d 07db 4bbe
00000100: a8e3 cb3d 3429 1dbe bc61 dc3d 40fd 593b
00000110: 7888 1ebe a8ec fb3d 0bd2 0abe c0b0 97bb
00000120: 70e7 253c 90ce f1bd 308d f0bc 78f6 acbc
00000130: 68a8 38be a6cf 4e3e e872 2d3d d8bb 0e3e
00000140: 8228 1a3e f601 88bd 185b 9b3d f18a eebd
00000150: 5004 18bd e33d 56be 3524 fbbd ac06 5cbe
00000160: 5f4b 05be 6215 0bbe ecfe 49be 9ccd 5ebd
00000170: 6468 ae3d 41fb 5bbe a67d 38be 40ca 0fbb
00000180: c613 073e b4d4 eb3d 848f 293e 6ed4 19be
00000190: 9057 e43d f8cf 60bd 50ec e33d 947f d73d
000001a0: 549e 26bd 2438 2d3e 6c4b d13d b077 acbd
000001b0: 7460 fa3d 1899 a0bd 1c1b 94bd 486c 953d
000001c0: b1c4 40be 7ee7 10be 20aa ecbc d046 c8bc
000001d0: 2860 933d ac6a de3d a6a8 333e 508a 723d
000001e0: d684 183e 6553 d8bd 9616 373e f3b4 25be
000001f0: e056 233d 381d 43be 8d2b d0bd 2378 21be
