Assets/ML-Agents/results/SW_RL_TEST/OffensiveAgentPolicy/OffensiveAgentPolicy-24787.pt (torch, 515941 bytes, 41 tensors)

network_body.observation_encoder.processors.0.normalizer.running_mean f4 [26]
00000000: cd34 7a3f d68f 5a3e 3d3d 653e fe60 923e
00000010: 12df c83e 0000 0000 b7d5 623e e8c3 523e
00000020: a39d 383e 0000 0000 9ac8 c03e cbcd 463d
00000030: 587c 023f 57fd 7f3f 57fd 7f3f 57fd 7f3f
00000040: 57fd 7f3f 0000 0000 0000 0000 0000 0000
00000050: 0000 0000 0000 0000 0000 0000 57fd 7f3f
00000060: 57fd 7f3f 2b1c 1c3f
0.9773682 0.21343932 0.22386642 0.28589624 0.3923269 0.0 0.22151838 0.20582545
0.18028884 0.0 0.37653047 0.048536103 0.50970984 0.9999594 0.9999594 0.9999594
0.9999594 0.0 0.0 0.0 0.0 0.0 0.0 0.9999594
0.9999594 0.6098048

network_body.observation_encoder.processors.0.normalizer.running_variance f4 [26]
00000000: 67c4 d242 e345 1345 1eab 1545 3bf6 2f45
00000010: f1b4 b845 0000 803f 229d 8545 104e 7d45
00000020: 9c04 6545 0000 803f ace5 9b45 dce5 a845
00000030: 7502 0345 85fe ff3f 85fe ff3f 85fe ff3f
00000040: 85fe ff3f 0000 803f 0000 803f 0000 803f
00000050: 0000 803f 0000 803f 0000 803f 85fe ff3f
00000060: 85fe ff3f 45c6 0446
105.3836 2356.368 2394.6948 2815.3894 5910.6177 1.0 4275.6416 4052.879
3664.288 1.0 4988.709 5404.7324 2096.1536 1.9999548 1.9999548 1.9999548
1.9999548 1.0 1.0 1.0 1.0 1.0 1.0 1.9999548
1.9999548 8497.567

network_body.processors.0.normalizer.running_mean f4 [26]
00000000: cd34 7a3f d68f 5a3e 3d3d 653e fe60 923e
00000010: 12df c83e 0000 0000 b7d5 623e e8c3 523e
00000020: a39d 383e 0000 0000 9ac8 c03e cbcd 463d
00000030: 587c 023f 57fd 7f3f 57fd 7f3f 57fd 7f3f
00000040: 57fd 7f3f 0000 0000 0000 0000 0000 0000
00000050: 0000 0000 0000 0000 0000 0000 57fd 7f3f
00000060: 57fd 7f3f 2b1c 1c3f
0.9773682 0.21343932 0.22386642 0.28589624 0.3923269 0.0 0.22151838 0.20582545
0.18028884 0.0 0.37653047 0.048536103 0.50970984 0.9999594 0.9999594 0.9999594
0.9999594 0.0 0.0 0.0 0.0 0.0 0.0 0.9999594
0.9999594 0.6098048

network_body.processors.0.normalizer.running_variance f4 [26]
00000000: 67c4 d242 e345 1345 1eab 1545 3bf6 2f45
00000010: f1b4 b845 0000 803f 229d 8545 104e 7d45
00000020: 9c04 6545 0000 803f ace5 9b45 dce5 a845
00000030: 7502 0345 85fe ff3f 85fe ff3f 85fe ff3f
00000040: 85fe ff3f 0000 803f 0000 803f 0000 803f
00000050: 0000 803f 0000 803f 0000 803f 85fe ff3f
00000060: 85fe ff3f 45c6 0446
105.3836 2356.368 2394.6948 2815.3894 5910.6177 1.0 4275.6416 4052.879
3664.288 1.0 4988.709 5404.7324 2096.1536 1.9999548 1.9999548 1.9999548
1.9999548 1.0 1.0 1.0 1.0 1.0 1.0 1.9999548
1.9999548 8497.567

network_body._body_endoder.seq_layers.0.weight f4 [128, 26]
00000000: 6d5b adbd add8 093d 9503 503e 52d7 93be
00000010: 12a9 acbe d53a 25bd 3531 e23e 8d55 b2be
00000020: 2e3d 943e 4824 ccbd d4fd 793c 91d6 af3d
00000030: 9ce3 dabe 0635 1f3e 6c35 b43e fec6 873c
00000040: 1225 33bd a087 263e 04d7 7abc c14c 3bbe
00000050: a0bd 803c fc2c ae3e d03c 9e3c 1e58 1a3d
00000060: 9e9e 51bd 256c a03d 7082 2abd adf6 9b3d
00000070: 9ce5 233e 004e aebe 6016 c13d de07 d2bd
00000080: 6ecf 623e e177 ec3d e343 3e3e 3887 9ebd
00000090: dc3d bf3d a492 07bd 385e 71bd c45a 45bd
000000a0: 2b39 a1bd ac42 233e f04b 513e 9890 42be
000000b0: 56dc 333d cacf bcbd b26d 233e aaf5 153e
000000c0: a146 f73c 1a6d 05be 7ce7 193e e9cb 293c
000000d0: 19b9 833e 5c30 153c 53f1 c83d 89f2 593e
000000e0: 547e 21be 771e 853b 8e7b edbd 445e 7c3e
000000f0: 19d8 02bd f641 69be 9a4d e93d 80ac e23d
00000100: 5089 f43d dce8 5b3d e412 43be e624 9e3e
00000110: 0796 1cbe 8668 82bd 1a07 383e 197a 343e
00000120: d089 afbe 57be 60be 1b4c dcbb 78c2 1b3e
00000130: 0a50 073e 3741 66be 2153 1bbe 2cb1 b93d
00000140: 0c64 c33e 84c7 2bbd 7e94 b33d cefe 253e
00000150: c2b1 703d 7cb6 953d 1fcc 79bd 7000 8a3d
00000160: 4c62 cbbe 59c1 6cbe d09e 373e 93f3 c33e
00000170: a44e 46be a988 8d3d fcc3 23be 6684 d5bc
00000180: 3ae4 37be 103a 2fbb 58f9 54bd 8b28 50bd
00000190: 058b 883e e9a8 803e 93e2 d93d 3953 0abc
000001a0: 549d bbbc ce1d 053e 0a30 72be 5281 b8be
000001b0: 40e7 8a3d 20cc cd3e e848 5abe abe5 85be
000001c0: 1b27 11be 1e72 15bd 8e65 86be 4a6f 793d
000001d0: 8b13 573c 4940 613d a4a5 783d 7b12 4d3d
000001e0: 2e88 91bc 71ac f53e 1ff4 d2bd bf67 1a3d
000001f0: 1a95 1e3e 6b20 c83d faea 5dbd 9fc8 ac3d
00000200: 3519 0f3e fe2c 9dbd 16ae 063d e065 f83d
00000210: 3141 833e b0d1 873d aa98 efbd 6f95 cdbd
00000220: 6589 f33c e5bb e53c 1826 1abe e013 74be
00000230: 1a69 523e c3a0 673d dfab e8bc 22e9 57bd
00000240: 3dfe 2abd f2bb 1dbe f3c9 09be c8fa 043d
00000250: 7c8c 203d e717 8abe 0fb9 8abb 1a09 2a3d
00000260: 2fc9 023e c85f 3bbe 9e96 8bbe 36ec bbbd
00000270: 1796 ba3d 16be 26be 7e6d 19be 6b58 23bd
00000280: 5577 2fbe 413c 3ebe e906 11be 9796 44be
00000290: ac28 ef3d a409 783e 115d f8bc 463e 483e
000002a0: 1117 33bd 7fcd f23d 52fa 1dbd 2ea0 62be
000002b0: 5b0b e1bd e24d c83a a4d9 07bd 1560 f13d
000002c0: 748a 67be e097 17be 9260 e53b 86ec 183d
000002d0: b537 ecbe b297 8cbd 66c5 b83e 1a3c 3d3e
000002e0: 2fe5 2a3e 1f6a 28be d13f e9bc 713d 6dbe
000002f0: bc0d 56bd 958e 8dbe 2c6f e93c e4e7 943d
00000300: 7dbf 2e3e 732d 663d bd0c 30bd 4bfe 94be
00000310: f02e 4f3e 1d3f d9bd 0698 a23e eeb4 793e
00000320: 1562 a6bc 5f20 6dbb 31be 603e e1f6 91bc
00000330: 36f1 cb3d 7d1a 88be 302d 49bd 155e 65be
00000340: 1947 c8bd 2675 833d 6cbc 103e 1dce 68be
00000350: 9c24 ae3d 2754 c3bd d207 07be 4683 4d3e
00000360: f965 25bc 9a44 753d bf78 f9bd 815d 2e3f
00000370: 0a3c c73e c749 b23d b21b c3be 71ad 7a3e
00000380: cd2b 3d3e 2b7d 1c3b 6af5 ab3d b0ff d4be
00000390: f1cf 7c3e 08f1 6abd d1d2 333d 4e5e 943d
000003a0: 2b76 053d e79c 29be 20ff 51be 0305 9fbe
000003b0: 4e05 5f3e ecd9 af3e 3982 a13e ec17 b6bd
000003c0: 0c65 d7bd b7f5 06be 4ac3 8e3d 4e24 a33e
000003d0: 897c 5bbe 7e46 903c 1224 653e e792 433e
000003e0: f9d8 34bd 4f00 0b3e 8195 6d3e bc59 3fbe
000003f0: 7684 31be d342 1a3b 39c4 eabd b191 7dbe
-0.08464704 0.033653904 0.20313866 -0.28875214 -0.3372274 -0.04033931 0.44178167 -0.34830895
0.28952926 -0.099678576 0.015258271 0.08585847 -0.42751777 0.1554757 0.35197008 0.016574379
-0.043736525 0.16262674 -0.015310053 -0.18290998 0.01571542 0.34018695 0.019316107 0.03768169
-0.05117666 0.07833127 -0.0416283 0.07615409 0.16005558 -0.34043884 0.09428096 -0.10255407
0.2214944 0.115463026 0.18580584 -0.07740635 0.093379706 -0.03309883 -0.058927745 -0.048182264
-0.07872232 0.15943402 0.20439124 -0.1900047 0.0439113 -0.0921932 0.15959814 0.14644495
0.030185046 -0.130299 0.1502971 0.010363557 0.25727156 0.009105768 0.09811654 0.21283926
-0.15770847 0.0040624696 -0.11595832 0.24645334 -0.031944368 -0.22779068 0.113917544 0.11068058
0.11940253 0.05368887 -0.19050175 0.30887526 -0.15291606 -0.063675925 0.17971459 0.17624702
-0.3428483 -0.21947609 -0.0067229397 0.15210903 0.13214126 -0.22485815 -0.1516843 0.09066996
0.38162267 -0.04193832 0.08768557 0.16210482 0.058763273 0.07310197 -0.06098568 0.06738365
-0.39723432 -0.23120631 0.17931676 0.3827177 -0.19365937 0.069108315 -0.15992731 -0.026064109
-0.17958155 -0.0026737489 -0.051995605 -0.050819915 0.26668563 0.25128868 0.10638919 -0.008442693
-0.022902168 0.12999651 -0.23651138 -0.36036164 0.06782389 0.40194798 -0.21316874 -0.26151785
-0.14175074 -0.036485784 -0.26249355 0.06089715 0.013127218 0.054992948 0.060704842 0.050066452
-0.01776513 0.47983125 -0.10300469 0.037696596 0.15486565 0.09771808 -0.05417917 0.08436703
0.1397446 -0.07674597 0.032880865 0.12128806 0.25635675 0.066317916 -0.1169904 -0.10038268
0.0297286 0.028043697 -0.15053594 -0.23835707 0.20547906 0.0565498 -0.028402267 -0.052712567
-0.041746367 -0.15403727 -0.13455944 0.032465726 0.039196476 -0.2697136 -0.0042334865 0.041512586
0.12772058 -0.18298256 -0.2726335 -0.09175913 0.091106586 -0.1628345 -0.14983174 -0.039879244
-0.17135365 -0.18577673 -0.14162792 -0.1919807 0.116776794 0.24222428 -0.030317815 0.19555005
-0.04372317 0.118556015 -0.038568802 -0.22131416 -0.10988494 0.0015282 -0.033166543 0.11785904
-0.2261141 -0.1480403 0.0070000375 0.03733494 -0.4613625 -0.06864871 0.36088103 0.18479958
0.16688989 -0.16446732 -0.028472813 -0.2316797 -0.052259192 -0.27647844 0.028495394 0.07270792
0.17065234 0.056195688 -0.0429809 -0.2910026 0.20232749 -0.10607741 0.3175661 0.24385425
-0.020310441 -0.0036182625 0.21947552 -0.017817916 0.09958117 -0.2658271 -0.04911536 -0.2239917
-0.09779186 0.06418829 0.14134377 -0.22734876 0.085030764 -0.09537535 -0.13186577 0.20069608
-0.010095113 0.059879877 -0.121812336 0.68111426 0.38912994 0.08705478 -0.38107067 0.24480225
0.1847374 0.0023878317 0.083964184 -0.41601324 0.24688698 -0.05735877 0.043902222 0.0724455
0.032583397 -0.1656376 -0.20507479 -0.3105851 0.21779367 0.3434595 0.31544665 -0.088912815
-0.1051732 -0.1317967 0.06970842 0.31863636 -0.21434225 0.017611738 0.22377041 0.19099008
-0.044152234 0.13574336 0.23201562 -0.18686575 -0.17335686 0.0023538365 -0.11463208 -0.24762608

network_body._body_endoder.seq_layers.0.bias f4 [128]
00000000: d57f 143d 3e5a 8b3b ba77 cc3c 8cff 233d
00000010: 7cd2 083d a0de ef3c 09e0 19bd fc87 5b3c
00000020: 3f15 2d3d e404 363d 0038 d53c b5c1 833c
00000030: 9988 1b3d f712 443d cd67 133d 5206 0e3d
00000040: 56cb f53c 983b 2b3d a71b 3a3d 38e9 ad3c
00000050: 245d 0bbd 3123 333d 4876 e93c 46bb cb3c
00000060: efa1 b03c 5165 cc3c 87e7 edbc 3ba6 053c
00000070: 562d 453d 4c74 023c 04a1 c83c 749f 053d
00000080: bca0 113d a717 3e3d 9c26 a03c 1183 2fbc
00000090: a730 2f3d 6d82 483d e4b6 0b3d 61af 133d
000000a0: e52e 163d 6225 3e3d ef1b 003d a13e 2a3d
000000b0: 35ca 2e3d b156 d23c fced ce3c a2b4 083d
000000c0: 0e35 333c 2b91 1cbc 788e d03c 1888 2a3d
000000d0: efb1 df3c b589 933c c736 b43c f12f 453d
000000e0: c708 093d 4c2d f23c f52a 2c3d 1aee b8bc
000000f0: 481e 123d beec 2e38 949a 313d f450 513d
00000100: cfa5 1a3d 00c9 203c 8a31 1a3d fb72 193d
00000110: fd3a 3d3d e172 2b3d 66ee 303d 5436 373d
00000120: 4c01 3e3d f655 3f3d 740a 33bb be38 353d
00000130: 99b5 2a3d db78 8b3c acc5 063d fbde a23b
00000140: efdf 2c3d 5f9a e23c 50eb 4d3d 31c3 c63c
00000150: 7f58 253d d248 323d 24ee f13c 9fbb 413d
00000160: 4b99 273d 4000 033d 26e5 2e3d a921 e83c
00000170: 46a6 c53c bed4 2a3d 90ad 163d b5c6 1b3d
00000180: 1c0f 2e3d 10cd ecbc abf0 243d cbb3 173d
00000190: 17b3 f63c b2ab 313d 186b 3d3d 209e 933c
000001a0: ce8c 2f3d ab4c 483d 2667 1a3d 5c69 0b3d
000001b0: c314 233d 03e3 133d 207f 2c3d f85b 9e3c
000001c0: 5e38 c83c 7a77 6fbb 54ab 333d d56f 943c
000001d0: f559 0bbd 7e8d cd3c 41de 263d bb32 1a3d
000001e0: 89b6 5c3d 104c adbb 1425 2d3d 2eb4 96bc
000001f0: d494 353d f888 29bc 54c0 2a3d 1860 0e3d
0.036254723 0.004252701 0.024959434 0.04003863 0.03340386 0.02928096 -0.037567172 0.01339912
0.04225659 0.044438258 0.02602768 0.016083578 0.037972067 0.04786965 0.035987664 0.034673996
0.030004185 0.04180488 0.045436528 0.021229371 -0.034024373 0.043734733 0.028498784 0.024869572
0.021561591 0.024950655 -0.029041065 0.008157308 0.04813894 0.007962298 0.02449084 0.03262277
0.03555368 0.046409275 0.01954966 -0.010712401 0.042771008 0.04895251 0.034109965 0.036055926
0.036665816 0.04642237 0.03127664 0.041563634 0.04267331 0.025676103 0.025259964 0.03337539
0.010937942 -0.009556095 0.02545856 0.041633695 0.027306525 0.01801 0.021998776 0.048141424
0.033455636 0.029562615 0.042033155 -0.022574473 0.03567341 4.1705316e-05 0.043360308 0.051102594
0.037755784 0.009813547 0.0376449 0.03746317 0.046198834 0.041857604 0.043196104 0.044729546
0.046387956 0.046712838 -0.0027319463 0.044243567 0.04167709 0.017025402 0.03290336 0.004970429
0.042205747 0.0276615 0.05027324 0.024262996 0.0403676 0.043526478 0.0295325 0.04729807
0.040917676 0.03198266 0.042699 0.028336363 0.024127137 0.041706793 0.036786616 0.0380313
0.04249488 -0.028906375 0.04026858 0.0370367 0.030114694 0.043376632 0.04624471 0.018019736
0.04285889 0.04890124 0.037696026 0.034036025 0.03981472 0.036105167 0.042113423 0.019330963
0.02444094 -0.003653972 0.043864563 0.018119732 -0.034021337 0.025091883 0.0407393 0.037646037
0.053885017 -0.0052886084 0.04227169 -0.018396463 0.044331387 -0.010347597 0.041687325 0.03475961

network_body._body_endoder.seq_layers.2.weight f4 [128, 128]
00000000: 2e2c 003e 4657 22bb d4ed 7d3d 5567 69bd
00000010: a560 3dbd f359 b9bd cc2b 863d 80d6 633c
00000020: eb34 e13b b393 353e 5eac 0a3d 4794 123e
00000030: b33a 4c3d 3f58 84bd 38be 863c ee22 813d
00000040: 4e51 0bbc de4d fb3d 1550 313d 002f 813e
00000050: b518 793d fd95 8bbc 77d0 2e3d 3a8a 923d
00000060: a331 4f3d f7d5 613e b9db 6b3e 8c19 bdbc
00000070: ff35 6dbd 8bd4 1a3d 091f 2b3d 2523 27be
00000080: 257d c2bd 91ee 9e3c d1a1 be3c b4a7 5e3d
00000090: 4188 c93d aa5d 553d fd7d a5bd d0a5 413a
000000a0: 07da fe3c fb1f 9fbc cd44 3e3e 7852 6f3c
000000b0: 1ca7 53bd c3f2 393c 520b 53bd 5a55 2c3e
000000c0: 82c4 b03c 30d2 173e 2eea e7bd dd64 aabd
000000d0: 31bc 3c3d 6ff9 653c 65d4 a53c 8125 b9bd
000000e0: 3185 b3bd 08b0 f73d ffa3 a13d 801a bfbd
000000f0: ae27 b03b aa62 e03d 14db a13d ac83 363e
00000100: e9ba 7e3d d4d5 013d a8f9 7cbc 263e 823d
00000110: 5322 1b3b 1aa4 aebc 7b27 483d 10bd 223e
00000120: 61b1 1a3d cde1 293e 6fbb 04be d06a 85bd
00000130: 2385 26be 9370 c5bb 1db0 a33d 5709 c1bd
00000140: 2ad4 59bd 8c28 ac3c 06ff 6d3b 76d3 bbbd
00000150: e401 1abc b23b 1f3c e83f 803d 8a53 e03d
00000160: fc91 06bb bf37 20be 3890 413e 5a32 f6bd
00000170: d1e0 f3bd 22db 043e 2971 283e e4b6 14bc
00000180: 9f78 543e dc15 153e a414 48bd a770 4fbd
00000190: 5d6c 12be e5a6 913d 9a71 f43d 07ea 51bd
000001a0: aff6 873d 7253 82bd 1f0f cbbd c1e8 843d
000001b0: 8213 6d3c a50a 4bbe 5ad0 203d 675c 0dbd
000001c0: 49fd b8bd 6eab e43c 9a88 d8bc c0bf 023c
000001d0: bc07 5e3d ca57 613d 735a f1bd e9a3 ee3d
000001e0: 749e 88bb 5517 853d a731 de3c 93a6 31be
000001f0: f89e 133e 6d07 26be ec3d c03d 4944 283d
00000200: 794e 1e3e cccd 9c39 e743 37bd 8aae 9abd
00000210: 337e cf3b cb82 163e c9d0 873c 751a 5e3a
00000220: 2697 5fbd e890 56bd 9167 d63c 8404 0dbd
00000230: 8e31 bf3b bff0 943d c16e 91bc a928 c33d
00000240: 393e 2f3e 40f0 ba3d 1f6a 243d 8900 fcbb
00000250: 0ca0 2bbe bae5 85bd df80 2fbd c21c 38be
00000260: d8b5 38be 93f9 dd3c 6a70 24be 44e2 ca3d
00000270: 231a 5b3d 9b31 0f3e 8ce8 c6bc a60f e8bd
00000280: 6790 813d 74c5 2abe d1b8 4c3e 3381 0bbe
00000290: c80c 603d 247c 30bd 57f6 24bd edfe 8fbd
000002a0: 7c87 8f3d 9bf0 c53c 6093 95bd f8b0 0fbe
000002b0: 8d08 d83d 0f5e 20be b0a7 ffbd d98c 9ebd
000002c0: 4385 53ba 4de6 dcbd 5531 a9bd 6214 283d
000002d0: a30d 24bd 5c19 6d3e 8a64 8b3c 5e8d 373c
000002e0: 279f f3bb 2ae1 d3bd 2edb b73d dee3 26bd
000002f0: b71c bf3c 6f52 263e ef8d 03bd 3829 99bd
00000300: 2ed2 9cbd dd46 31be 878d 73be 30f7 03be
00000310: 6d0f edbc c06e 603d c77b 583d 2dd6 023d
00000320: 45d5 2dbd ce91 81bd b667 c93d ae3f c5bc
00000330: 305e 843a ae45 21be 035c d9bd 0c16 20bc
00000340: 436a 8ebd 3f0a 813d 4388 b0bd 45fd 0abd
00000350: eb36 a13c f9db f6bd 62bc 3d3d e3f8 18bd
00000360: 4828 56be b4c8 b23c 8d22 c4bc 5b86 3c3c
00000370: 3283 eebd 750b f7bc 3a5e 0bbd bbaf 543d
00000380: ffe3 32be 6b95 e83d f888 f7bc a19b a7bd
00000390: 20cc 82bc f875 8ebd 4fca 5c3c d231 97bd
000003a0: 9198 b43d 096e c5bd 1322 243e 07e8 613d
000003b0: 4a11 87bd 6dd4 30bd c1c5 20bd e023 81bd
000003c0: 79e2 5bbd c6c6 e6bd 65ec c83b df38 b53d
000003d0: 5d27 ee3c bbf6 ea3d bbd0 3ebd 1886 9f3c
000003e0: eff9 cbbb ab85 8fbd 218b 1b3d 3036 6b3b
000003f0: d78a 06bc e0e9 a0bd a4c9 bc3c bf10 d33b
0.12516853 -0.0024771257 0.06199439 -0.05698331 -0.046234746 -0.090503596 0.06551322 0.013906121
0.0068727634 0.17732124 0.03385579 0.14314376 0.049860667 -0.06462144 0.016448125 0.063054904
-0.008503271 0.12270711 0.043289263 0.2523117 0.060814578 -0.017039293 0.042679276 0.07155271
0.050584447 0.22054277 0.23033036 -0.02308347 -0.057912823 0.037800353 0.041777644 -0.16322
-0.09496526 0.019400867 0.02327052 0.054359153 0.098404415 0.052091278 -0.08080671 0.0007387074
0.031109823 -0.01942443 0.18580933 0.014607064 -0.05167304 0.011349383 -0.051524468 0.16829434
0.021578077 0.14826274 -0.11323963 -0.083200194 0.04607791 0.01403652 0.02024288 -0.090403564
-0.087656386 0.12094122 0.07892608 -0.09331226 0.005375824 0.10956319 0.07903114 0.17823666
0.06218997 0.031698063 -0.015440382 0.0635951 0.0023671582 -0.021318484 0.048865777 0.15892434
0.037766818 0.16590042 -0.12962125 -0.065145135 -0.16261725 -0.006025383 0.07992575 -0.094256096
-0.05318085 0.021015428 0.0036315336 -0.09171192 -0.009399865 0.009718822 0.06262189 0.10953434
-0.002053379 -0.15646265 0.18902671 -0.120213225 -0.11908115 0.12974218 0.16449417 -0.009076808
0.20749138 0.1455912 -0.04884781 -0.050644543 -0.1429915 0.07111911 0.1193573 -0.051248576
0.06638848 -0.06363572 -0.099149935 0.06489707 0.014469983 -0.1982828 0.0392612 -0.03451195
-0.09032685 0.027913775 -0.026432324 0.007980287 0.054206595 0.055015363 -0.1178483 0.11652357
-0.0041692797 0.06498591 0.027123285 -0.173487 0.1441611 -0.1621377 0.09386811 0.041080747
0.15459622 0.0002990797 -0.04474249 -0.07552822 0.006332183 0.14698331 0.016579049 0.00084725703
-0.054587506 -0.052384287 0.026172431 -0.034428135 0.005834765 0.07272481 -0.017753007 0.0952924
0.1711358 0.09127855 0.040140267 -0.0076904935 -0.16760272 -0.065379575 -0.04284751 -0.1797972
-0.18038118 0.027096545 -0.16058508 0.09906438 0.053491723 0.13983767 -0.024280809 -0.1133111
0.06326371 -0.16676885 0.19992377 -0.13623504 0.05469969 -0.04308714 -0.04027399 -0.07031045
0.070082635 0.024162581 -0.073035 -0.14032352 0.10548506 -0.1566088 -0.12483156 -0.07741708
-0.0008068869 -0.10786114 -0.082613625 0.041035064 -0.040052067 0.23154205 0.017015714 0.011203138
-0.007434744 -0.10345681 0.08977352 -0.040744655 0.023329122 0.16242383 -0.03211778 -0.07478565
-0.07657276 -0.17312188 -0.23784457 -0.12887263 -0.02893802 0.05479312 0.05285242 0.031942535
-0.042439718 -0.06326638 0.098342344 -0.024078216 0.0010098871 -0.15749237 -0.10613253 -0.009770881
-0.069538616 0.063007824 -0.0861974 -0.033932943 0.019679507 -0.12053675 0.046322234 -0.037346732
-0.20913804 0.021824218 -0.023942256 0.011506642 -0.11646117 -0.03015683 -0.03402541 0.051925402
-0.17469786 0.11356624 -0.030216679 -0.08183981 -0.015966475 -0.069560945 0.0134759685 -0.07382549
0.08818162 -0.09640128 0.16028623 0.05515292 -0.065950945 -0.043171335 -0.039251093 -0.06305671
-0.053682778 -0.11268382 0.006131696 0.08848738 0.029071504 0.11472841 -0.04658578 0.01947312
-0.0062248628 -0.07007917 0.03797448 0.0035890453 -0.008211813 -0.07857108 0.023045368 0.0064412053

network_body._body_endoder.seq_layers.2.bias f4 [128]
00000000: fce6 123d 5936 cdbc 05aa 053b 5baf 16bd
00000010: 54c5 133d 5c8d b2bc 7523 133d 0c84 303d
00000020: 38c9 0abd 239f 013d 932a 213d 999e 393c
00000030: a0ac 093d 6cb0 2e3d 1ba0 173d 0c1e 1b3d
00000040: 42ff ffbc a9f3 34bd fbd4 383d daf1 b0bc
00000050: 662e 343d f444 fd3c b53e 383d 5c8e 9a3c
00000060: 1cb5 07bd a720 05bd 325d 813b 40b5 3d3c
00000070: 75dd cdbc f9af d23c 5629 34bd 73e1 01bd
00000080: 9179 f53c a38d 983b cbb4 3a3c ed1d 253d
00000090: 26ea 3f3d 75f7 35bd 7230 05bd e088 ca3c
000000a0: bbc1 21bd 25f9 85bc 86e5 3c3d afeb 8abc
000000b0: 68d2 91bb e8b5 433d d2c5 103d 7949 193d
000000c0: 45b2 09bc 3816 363d a4ab 94bc 1a77 2fbd
000000d0: 4ef0 263d 5586 02bd 6bcf 1a3d 6ebe 223d
000000e0: 9f90 113d e1e4 1ebd a5cb c73c fd3b 48bc
000000f0: c26f 263d 7dcc ddbc 5b39 0a3d e1ba 353d
00000100: 21a7 e73c daac 473c 9b08 223c 80b0 133d
00000110: 9205 d9bc 26b4 393d 177f 66bc 4b95 033d
00000120: 6696 d83b 9c87 2b3d 909e 153d 8bb0 ad3c
00000130: 6db4 29bd e60e beb9 09d5 e7bc 412f 39bd
00000140: 83b8 cbbc c730 043d 7c06 fc3c c934 00bd
00000150: e18e 92bc 8186 a63c aa19 753c 5ff1 3b3d
00000160: 547b 2c3d e1c5 293c a840 9a3c 4258 083d
00000170: b747 d4bc 9aa0 df3c 6345 663c da09 f43b
00000180: 4c03 33bd 9a04 66bc 4ab6 533c 3783 e83c
00000190: 3db5 0d3d 28ef 183d 9876 1c3d d998 05bd
000001a0: b5d6 2f3d 85f4 943c 53a3 403d 2548 0b3b
000001b0: 8357 ae3c 6af4 eb3c 6305 e5bc f68a 363d
000001c0: f4ac 19bd c09d 9b3c b10f bdbc 04d7 3b3d
000001d0: 5610 363d befb 34bd c3c2 3dbd b65a 293d
000001e0: 9f46 e23b 7b52 083d be3d 563c 494e 263d
000001f0: ddf6 003b 4e24 13bd 77b3 2b3d f259 1b3d
0.035864815 -0.025050329 0.002039553 -0.036788326 0.03607686 -0.021795921 0.035922486 0.04309468
-0.033883303 0.031645905 0.039347243 0.0113293165 0.033611894 0.042648718 0.037017923 0.03787045
-0.031249646 -0.044177685 0.04512499 -0.021599699 0.04398956 0.030916668 0.044981677 0.01886671
-0.033131704 -0.032501843 0.0039478773 0.011578858 -0.025130013 0.025718676 -0.043984734 -0.031709146
0.029965194 0.0046555563 0.011395643 0.040311743 0.04685416 -0.044425447 -0.032516904 0.02472347
-0.039491396 -0.016354153 0.046117328 -0.016958086 -0.004450131 0.0477809 0.035344906 0.037423585
-0.008404319 0.044454783 -0.01814825 -0.042838193 0.040756516 -0.03186639 0.037795465 0.03973239
0.035538312 -0.038792495 0.024389097 -0.012221334 0.040633924 -0.027075047 0.033746105 0.044367675
0.028277935 0.012187207 0.009889747 0.036056995 -0.026491914 0.04533782 -0.0140683865 0.0321248
0.0066097258 0.041877374 0.03652817 0.021202346 -0.041431833 -0.00036250724 -0.028299825 -0.04521108
-0.024868255 0.03227308 0.03076481 -0.03130034 -0.017890396 0.020327808 0.014959732 0.045884486
0.042109802 0.010362119 0.018829659 0.033287294 -0.025913103 0.02729826 0.014054629 0.0074474635
-0.043704316 -0.014039183 0.012921879 0.02838288 0.03459667 0.037337452 0.038199037 -0.03261647
0.04292937 0.018183002 0.047030758 0.0021252718 0.021281963 0.02880307 -0.02795667 0.044566117
-0.037518457 0.01899612 -0.023078771 0.04585935 0.044449173 -0.044185393 -0.046328317 0.041346274
0.0069053913 0.033281785 0.013076244 0.040602002 0.0019678392 -0.035923295 0.041919198 0.037927575

action_model._discrete_distribution.branches.0.weight f4 [8, 128]
00000000: bba8 1a3d b05a 92bb c2f8 b83b 1bd4 13ba
00000010: de2b e33c 3b2d dd3b 7ceb 80bc a41a 1e3c
00000020: 9757 193b e146 a73a 0c12 ad3c 84bc ac3c
00000030: 1410 f73b 3f84 903c 80f3 1d3b 4eb1 723c
00000040: c5ce 8aba 75d1 cebc 1bf4 813c eaf4 afbb
00000050: 9208 2a3c f045 5a3c 9d6f f13c 123e aa3c
00000060: 3cf2 bfbc 308d b8ba 60bf a73a 6287 3bbc
00000070: c089 b7bb 2b8b 6bbc 5c04 a7bc 2ccd 15bb
00000080: 8941 b93c e620 34bc 87e6 c93c 3ef2 d33b
00000090: f29d 513c b051 3ebc 1c4d 723c 351f 5a3c
000000a0: 238a ccbc 27fd e439 e25b bc3c 550b abbb
000000b0: ea50 9fba 38b6 5d3c 2623 6a3c c21b 243b
000000c0: 2271 9fbb 31a8 153c 70b9 7bbc 2274 b33a
000000d0: bd74 a63c d45f 4aba e97b 673c b5d4 d93c
000000e0: 75a1 35bb 2f61 03bd cee0 ee3b 4cd9 f6bb
000000f0: 35ce da3c e6a5 7c3c 6c28 d23b f4e2 863c
00000100: cb22 e3bb 2ecc c93b 437a 803c 79a8 873c
00000110: 5deb 9b3b 944d 963c 5a97 dfb8 08ea 3f3c
00000120: d262 903c 738d cc3a 7892 653c 6c33 273c
00000130: 96ca bdbc 4b9b 733c 9566 86bc fcc9 92bc
00000140: 37ce 53bc 2107 083d 9bca 933c 5d31 003c
00000150: efd6 dcbb 300d 053c 7146 b8bb 5405 2a3c
00000160: 7cfe 893c 4482 7a3c 2ff2 d5bb 28c5 d53c
00000170: 5701 64bc 9d03 64bc 7a70 8b3c 1a4b 8abb
00000180: eb4c f5bc 1ea1 c3bc 88a9 7e3c 6ffd 0c3b
00000190: 3290 853c 7075 0e3c f3ac c53c 32c9 77bc
000001a0: bde5 423c 5bd8 223c cb8c c03c 8eec f9ba
000001b0: 4980 0e3b 86ae 113c b1e4 90bc 3fb5 f23c
000001c0: 2267 72bb 4c8d 1d3c 1c4a 5bbc d34f a63c
000001d0: 6843 083b 9c1d fbbc 70b6 bdbc 1307 b33c
000001e0: d902 8039 4e77 183c aad0 963b 600e b33c
000001f0: 89bb 80bb 7d75 a3bc f50c d13c 682a 8b3c
00000200: e36a 743c 015c 5bbc 2627 e7bb 6d40 ae3c
00000210: 3a4f a03c 08ec a9bb ea21 a43a ac21 913c
00000220: bf76 093b 7e5a 803c 0f19 243c c951 9d3c
00000230: 81d1 e33b fbfa ed39 4ad0 c83c 6733 dd3b
00000240: 66a3 d9bb 89e5 8fbb b670 ae3a 340c fd3c
00000250: d9a9 213c 149d 52bc c384 523c cccc 1c3c
00000260: b6ca efbb 0e37 8bbc 4951 4a3c 902e b238
00000270: f195 5cbc dd9e 2fbc 898b 1dba b222 8cbb
00000280: 3aa0 dd3c a29f 583c 5e52 9abc aade c2ba
00000290: 669a ef3b c08f 5c3b 8086 66bb 1a37 b83c
000002a0: bfd1 25bc 10dc be3b e08c 2abb 5520 613c
000002b0: ae2a f7bb f6e0 b23b fe0c c93c 0859 2dbc
000002c0: 998c 1f3c 36d0 20bb 03f6 49bb 01d2 a73b
000002d0: 383b 563c 8120 24bb c458 d53b e996 4c3c
000002e0: 40bd d93b f609 6f3b 3d95 bdba d2de 50bc
000002f0: e689 b2bb e128 28bb 2ac0 4e3c 2da5 a93c
00000300: aa31 2b3c ab1a a0bb 2c3f 0dbc 120f d53b
00000310: 1a94 343c 0204 9cba f2de b0bb 2fcc 163c
00000320: adb4 6b39 9d4b 5a3b 54c8 903c 9286 0abc
00000330: 01d9 3ebc 841f b9bc 772c aa3b 22ec 9ebc
00000340: 9cd1 9dba eaae 253c b474 083c 7b97 ea3b
00000350: 9ff2 bfbb 9554 263a 88bb d13c 0450 af3b
00000360: 5e2b 8b3c 229b 29bc 23c7 393c 2b12 5dbc
00000370: be34 a2bb 0929 013c e250 f6bb 516c 723c
00000380: ca0d 55bb 0cf7 2abc 081e 95bc 7040 78bc
00000390: b22f ab3c db8c 083c 1efa 27bc 821b 523c
000003a0: ec3b e6bb 53de 253c f0bb 4d3c 264d 093c
000003b0: 02c2 873c c845 ac3b 7f97 e53b 00f1 0e3c
000003c0: 0be7 afbc 58d0 603c 6d23 5dbc 604f 9d3c
000003d0: f08b 85bb f3a8 d8bb 2207 ddbb abd1 a73c
000003e0: 3025 853c e9b5 22bb fddd 05bc b2fa 5d3c
000003f0: e9d4 e73c 5714 8f3c 0637 423c 2be6 0b3b
0.03775857 -0.004466377 0.0056448886 -0.0005639211 0.027730878 0.0067497767 -0.015737288 0.009649906
0.0023398155 0.0012762212 0.02112677 0.021085985 0.0075397585 0.017641185 0.0024101436 0.014812781
-0.0010590187 -0.025246361 0.015863469 -0.005369772 0.01037802 0.013322338 0.029472167 0.02078155
-0.023430936 -0.0014080163 0.0012798123 -0.011445852 -0.005601138 -0.014376442 -0.02038782 -0.0022857888
0.022614257 -0.010994172 0.024646057 0.0064680865 0.012794005 -0.0116161555 0.014788892 0.013313104
-0.024968212 0.00043676162 0.022993032 -0.0052198567 -0.0012154852 0.013532214 0.014290607 0.002504096
-0.0048657814 0.009134338 -0.015364036 0.0013691226 0.020319337 -0.0007719968 0.014128664 0.026590684
-0.0027714644 -0.032075103 0.0072899824 -0.007533228 0.026709655 0.015420413 0.00641351 0.016465642
-0.006931638 0.0061583733 0.015683299 0.016559826 0.004758282 0.018347539 -0.0001066166 0.011713512
0.017625246 0.001560612 0.014011972 0.010205131 -0.02316789 0.014868568 -0.016406337 -0.01791858
-0.012927583 0.033209924 0.018040946 0.007824269 -0.0067394893 0.00812082 -0.0056236316 0.010377247
0.01684498 0.015289847 -0.0065291147 0.026094988 -0.013916335 -0.013916877 0.017021406 -0.0042203786
-0.029943904 -0.023880538 0.015543349 0.0021513363 0.01630411 0.0086949915 0.02413032 -0.015123652
0.011895594 0.0099392785 0.023504635 -0.0019067691 0.0021743944 0.008891707 -0.017687174 0.02962744
-0.0036987741 0.009616207 -0.013384368 0.020301735 0.002079213 -0.030653767 -0.023158282 0.02185396
0.00024416184 0.009305788 0.0046025114 0.02185744 -0.003928606 -0.019953484 0.025518874 0.016987994
0.014918062 -0.013388635 -0.0070542274 0.021270955 0.019569028 -0.005185608 0.0012522314 0.017716251
0.002097532 0.01566815 0.01001574 0.019204037 0.006952465 0.00045391158 0.024513382 0.0067505124
-0.006641793 -0.0043913764 0.0013308737 0.030889608 0.009867155 -0.012854833 0.012849036 0.009570312
-0.007317866 -0.016994026 0.012348481 8.496374e-05 -0.013463483 -0.010719028 -0.0006009867 -0.004276597
0.027053941 0.013221653 -0.018838104 -0.0014867384 0.007312107 0.0033655018 -0.0035175383 0.022487212
-0.010120808 0.0058245733 -0.002602391 0.013740619 -0.0075429296 0.0054589463 0.024542328 -0.010580309
0.009738111 -0.0024538166 -0.00308168 0.00512147 0.013075642 -0.0025043788 0.006510826 0.012487152
0.006644875 0.0036474443 -0.0014464032 -0.012748437 -0.0054485677 -0.0025659131 0.012619058 0.020708645
0.010448853 -0.0048859916 -0.008621018 0.0065020407 0.011021638 -0.001190305 -0.005397671 0.009203955
0.00022478653 0.003330923 0.017673649 -0.008454936 -0.011648417 -0.022598036 0.005193289 -0.019399706
-0.0012040618 0.010112504 0.008328605 0.007159171 -0.00585778 0.0006345001 0.025602117 0.005350115
0.016988453 -0.010351928 0.011338982 -0.013493101 -0.004950135 0.007883319 -0.007516966 0.014796332
-0.003250944 -0.010434877 -0.018202797 -0.015152082 0.020896766 0.008334364 -0.010252504 0.012823941
-0.007026186 0.010123807 0.012557015 0.00838021 0.016572002 0.005257342 0.007006585 0.008724451
-0.021472475 0.013721548 -0.013497216 0.019202888 -0.0040755197 -0.006611937 -0.006745235 0.02048572
0.016253084 -0.0024827665 -0.008170602 0.01354854 0.028299766 0.017465753 0.011853939 0.0021346908

action_model._discrete_distribution.branches.0.bias f4 [8]
00000000: ae8f c73c 373e 753c 5078 c23c 4404 ca3c
00000010: 2fa0 e9bc f87d efbc c219 fcbc 002e c93c
0.024360504 0.014968446 0.02373901 0.024660237 -0.028518764 -0.029234871 -0.030774001 0.024558067

exp_avg f4 [128, 26]
00000000: 62e7 1e38 04a4 6a37 f64f 24b9 2edc c0b8
00000010: 5db6 a2b8 0000 0000 a81a cbb7 eece 9f37
00000020: adc4 da38 0000 0000 7290 f737 b443 5239
00000030: 959c 01b9 8179 6db2 8179 6db2 8179 6db2
00000040: 8179 6db2 0000 0000 0000 0000 0000 0000
00000050: 0000 0000 0000 0000 0000 0000 8179 6db2
00000060: 8179 6db2 3fec f037 9c27 d3b7 f48b ff37
00000070: b9ac 75b8 a46d fcb6 16ff eab7 0000 0000
00000080: b011 14b7 ec44 2c37 7f65 0f38 0000 0000
00000090: a460 cbb5 c74a 9d36 983f 08b8 7e5c c333
000000a0: 7e5c c333 7e5c c333 7e5c c333 0000 0000
000000b0: 0000 0000 0000 0000 0000 0000 0000 0000
000000c0: 0000 0000 7e5c c333 7e5c c333 b16c 6e38
000000d0: b6f6 d4b5 31e6 3639 4189 94b7 e40e 9bb8
000000e0: 9a40 6a37 0000 0000 4e6d 0fb9 3092 9738
000000f0: 323e 6538 0000 0000 05c9 ebb7 44ba eab8
00000100: aee8 1339 02dc ac33 02dc ac33 02dc ac33
00000110: 02dc ac33 0000 0000 0000 0000 0000 0000
00000120: 0000 0000 0000 0000 0000 0000 02dc ac33
00000130: 02dc ac33 dc99 7337 bc2c b938 2b30 3939
00000140: 4492 1db9 0d1b 3038 6148 62b6 0000 0000
00000150: dff9 abb8 c5e5 c738 eaa7 efb6 0000 0000
00000160: d052 cab8 afdf c437 0338 f9b8 bf4b afb4
00000170: bf4b afb4 bf4b afb4 bf4b afb4 0000 0000
00000180: 0000 0000 0000 0000 0000 0000 0000 0000
00000190: 0000 0000 bf4b afb4 bf4b afb4 0d0c 08b9
000001a0: 094a 6c38 233d 6a38 0364 cab8 8ef3 8c38
000001b0: c765 36b8 0000 0000 d9e2 0f38 acc6 6d37
000001c0: 8e47 3e36 0000 0000 845f afb8 bd84 5038
000001d0: 6b87 43b9 9cc6 18b4 9cc6 18b4 9cc6 18b4
000001e0: 9cc6 18b4 0000 0000 0000 0000 0000 0000
000001f0: 0000 0000 0000 0000 0000 0000 9cc6 18b4
00000200: 9cc6 18b4 1c78 b1b8 9a76 a3b7 e264 4938
00000210: d31e e9b8 5cab 4838 b4b4 b8b8 0000 0000
00000220: 7fd8 f637 1bf8 7838 38f1 8d37 0000 0000
00000230: e607 26b8 9a3a d338 419d 24b8 aff2 89b4
00000240: aff2 89b4 aff2 89b4 aff2 89b4 0000 0000
00000250: 0000 0000 0000 0000 0000 0000 0000 0000
00000260: 0000 0000 aff2 89b4 aff2 89b4 466a 0c38
00000270: ed20 e2b7 2148 6db8 9d9a 6c37 8399 a7b7
00000280: 785b c4b5 0000 0000 09e9 a3b7 28b9 b3b8
00000290: bf9e ed38 0000 0000 b273 4836 cae8 6ab8
000002a0: ff25 0238 ea0a 4834 ea0a 4834 ea0a 4834
000002b0: ea0a 4834 0000 0000 0000 0000 0000 0000
000002c0: 0000 0000 0000 0000 0000 0000 ea0a 4834
000002d0: ea0a 4834 8414 8738 20c4 fdb7 3e1d b038
000002e0: 4974 48b9 ec6b 1d38 260f 1bb9 0000 0000
000002f0: a31e 1d38 5333 0938 bfa0 ea38 0000 0000
00000300: de70 edb8 0f4a c838 2b16 52b7 6202 deb4
00000310: 6202 deb4 6202 deb4 6202 deb4 0000 0000
00000320: 0000 0000 0000 0000 0000 0000 0000 0000
00000330: 0000 0000 6202 deb4 6202 deb4 49af e038
00000340: f0b6 8db7 700c 3838 23f7 92b7 80bd 1438
00000350: f7ea 1ab8 0000 0000 666d 3038 90e0 f0b7
00000360: bb3e 0338 0000 0000 325d 85b8 9524 0639
00000370: 621d 7ab8 a86a c3b4 a86a c3b4 a86a c3b4
00000380: a86a c3b4 0000 0000 0000 0000 0000 0000
00000390: 0000 0000 0000 0000 0000 0000 a86a c3b4
000003a0: a86a c3b4 0481 6d38 e5b1 32b7 44f5 e738
000003b0: 6d49 77b9 7b63 5838 c5f5 12b9 0000 0000
000003c0: 41ea fab8 5c6d 1339 abae 2639 0000 0000
000003d0: 0856 3db9 4b0f 6338 b811 ce38 8966 61b5
000003e0: 8966 61b5 8966 61b5 8966 61b5 0000 0000
000003f0: 0000 0000 0000 0000 0000 0000 0000 0000
3.7885628e-05 1.3985675e-05 -0.00015670047 -9.196285e-05 -7.75873e-05 0.0 -2.4211899e-05 1.9050636e-05
0.00010431684 0.0 2.9511957e-05 0.00020052382 -0.0001236073 -1.3822842e-08 -1.3822842e-08 -1.3822842e-08
-1.3822842e-08 0.0 0.0 0.0 0.0 0.0 0.0 -1.3822842e-08
-1.3822842e-08 2.872024e-05 -2.5171605e-05 3.046354e-05 -5.8573412e-05 -7.522949e-06 -2.8013757e-05 0.0
-8.825606e-06 1.0268046e-05 3.4188382e-05 0.0 -1.5152805e-06 4.68767e-06 -3.2484153e-05 9.097219e-08
9.097219e-08 9.097219e-08 9.097219e-08 0.0 0.0 0.0 0.0 0.0
0.0 9.097219e-08 9.097219e-08 5.684485e-05 -1.5867033e-06 0.00017442626 -1.7706889e-05 -7.3937495e-05
1.3962528e-05 0.0 -0.00013678262 7.2274706e-05 5.465578e-05 0.0 -2.810779e-05 -0.00011192684
0.00014105692 8.049393e-08 8.049393e-08 8.049393e-08 8.049393e-08 0.0 0.0 0.0
0.0 0.0 0.0 8.049393e-08 8.049393e-08 1.4519752e-05 8.82982e-05 0.00017660919
-0.00015027175 4.1986863e-05 -3.3718754e-06 0.0 -8.2004575e-05 9.531857e-05 -7.142303e-06 0.0
-9.6475356e-05 2.3469182e-05 -0.00011883678 -3.2651403e-07 -3.2651403e-07 -3.2651403e-07 -3.2651403e-07 0.0
0.0 0.0 0.0 0.0 0.0 -3.2651403e-07 -3.2651403e-07 -0.0001297446
5.6335735e-05 5.5846886e-05 -9.650739e-05 6.721086e-05 -4.348697e-05 0.0 3.4305125e-05 1.4172558e-05
2.8353857e-06 0.0 -8.3624414e-05 4.9714687e-05 -0.00018647096 -1.4228357e-07 -1.4228357e-07 -1.4228357e-07
-1.4228357e-07 0.0 0.0 0.0 0.0 0.0 0.0 -1.4228357e-07
-1.4228357e-07 -8.46239e-05 -1.9486342e-05 4.801609e-05 -0.00011116047 4.7843307e-05 -8.807462e-05 0.0
2.9426299e-05 5.9358874e-05 1.6920836e-05 0.0 -3.958484e-05 0.000100721794 -3.92471e-05 -2.5694814e-07
-2.5694814e-07 -2.5694814e-07 -2.5694814e-07 0.0 0.0 0.0 0.0 0.0
0.0 -2.5694814e-07 -2.5694814e-07 3.3477576e-05 -2.6956632e-05 -5.657238e-05 1.4102695e-05 -1.9979436e-05
-1.4629759e-06 0.0 -1.953963e-05 -8.569873e-05 0.000113306094 0.0 2.9869666e-06 -5.600675e-05
3.1029802e-05 1.8630422e-07 1.8630422e-07 1.8630422e-07 1.8630422e-07 0.0 0.0 0.0
0.0 0.0 0.0 1.8630422e-07 1.8630422e-07 6.441123e-05 -3.0251278e-05 8.397781e-05
-0.00019116806 3.7532227e-05 -0.00014787595 0.0 3.746025e-05 3.2711145e-05 0.00011187931 0.0
-0.00011322064 9.550538e-05 -1.2522137e-05 -4.1352456e-07 -4.1352456e-07 -4.1352456e-07 -4.1352456e-07 0.0
0.0 0.0 0.0 0.0 0.0 -4.1352456e-07 -4.1352456e-07 0.00010713802
-1.6893697e-05 4.3880602e-05 -1.7519638e-05 3.5462435e-05 -3.693529e-05 0.0 4.2063555e-05 -2.87148e-05
3.1291256e-05 0.0 -6.359293e-05 0.00012792864 -5.963201e-05 -3.6399183e-07 -3.6399183e-07 -3.6399183e-07
-3.6399183e-07 0.0 0.0 0.0 0.0 0.0 0.0 -3.6399183e-07
-3.6399183e-07 5.662536e-05 -1.0651046e-05 0.00011060623 -0.00023583109 5.159106e-05 -0.00014015201 0.0
-0.00011964562 0.00014059752 0.00015896063 0.0 -0.00018056494 5.413526e-05 9.826146e-05 -8.396824e-07
-8.396824e-07 -8.396824e-07 -8.396824e-07 0.0 0.0 0.0 0.0 0.0

exp_avg_sq f4 [128, 26]
00000000: c7c3 c132 5075 e732 33d3 0033 a65d 1d33
00000010: cdaa 1633 0000 0000 36ef c033 361a b032
00000020: 1a5b a733 0000 0000 1f5e 1033 f04d 2a33
00000030: b221 1433 a35d 352c a35d 352c a35d 352c
00000040: a35d 352c 0000 0000 0000 0000 0000 0000
00000050: 0000 0000 0000 0000 0000 0000 a35d 352c
00000060: a35d 352c 832a 2633 9176 3e31 51a2 2931
00000070: a1b6 3d31 fae9 d930 35cf 2f31 0000 0000
00000080: 1490 6731 11eb f730 6136 8531 0000 0000
00000090: 3ad7 3231 3da0 3631 0528 3e31 0888 002a
000000a0: 0888 002a 0888 002a 0888 002a 0000 0000
000000b0: 0000 0000 0000 0000 0000 0000 0000 0000
000000c0: 0000 0000 0888 002a 0888 002a 0cc3 a531
000000d0: 3c7e c631 509a ee32 c3bf c432 b175 c532
000000e0: 27a3 a732 0000 0000 6e28 b432 ae36 2633
000000f0: d120 6832 0000 0000 d95e 8432 d284 ba32
00000100: 2669 d632 9d1a 8a2b 9d1a 8a2b 9d1a 8a2b
00000110: 9d1a 8a2b 0000 0000 0000 0000 0000 0000
00000120: 0000 0000 0000 0000 0000 0000 9d1a 8a2b
00000130: 9d1a 8a2b 3052 3f32 1db8 ea32 d61c b832
00000140: e4b5 4433 c937 c532 00f1 1f33 0000 0000
00000150: bbd8 ee32 51f4 be32 87be a632 0000 0000
00000160: 0a6b 3b33 4a5f 0133 1a06 0633 a0c1 f82b
00000170: a0c1 f82b a0c1 f82b a0c1 f82b 0000 0000
00000180: 0000 0000 0000 0000 0000 0000 0000 0000
00000190: 0000 0000 a0c1 f82b a0c1 f82b 9fce 0933
000001a0: 5a0a 5732 c600 2d33 b607 7232 8300 9f32
000001b0: ebb4 0733 0000 0000 c5d5 7f32 3f44 9032
000001c0: 5800 b432 0000 0000 e8be a932 d19d db32
000001d0: 571d c632 54f3 c82b 54f3 c82b 54f3 c82b
000001e0: 54f3 c82b 0000 0000 0000 0000 0000 0000
000001f0: 0000 0000 0000 0000 0000 0000 54f3 c82b
00000200: 54f3 c82b 8615 9632 e93e 6731 9398 3f32
00000210: 90f8 5232 9f42 2832 7b73 5f32 0000 0000
00000220: f656 3932 1e2c 4832 2958 c531 0000 0000
00000230: 8764 3032 99dd 7732 3584 4732 a56f 192b
00000240: a56f 192b a56f 192b a56f 192b 0000 0000
00000250: 0000 0000 0000 0000 0000 0000 0000 0000
00000260: 0000 0000 a56f 192b a56f 192b d2b4 ec31
00000270: 758c dd31 6530 1d32 52fc 1732 8d29 4d32
00000280: 01f0 6432 0000 0000 4a27 7332 9f10 3932
00000290: d255 be32 0000 0000 e70f 5532 fd4c 8632
000002a0: 5be4 6632 721f a12b 721f a12b 721f a12b
000002b0: 721f a12b 0000 0000 0000 0000 0000 0000
000002c0: 0000 0000 0000 0000 0000 0000 721f a12b
000002d0: 721f a12b 3a34 3f32 e0a8 e231 27e3 b732
000002e0: e920 a032 1994 7332 053c da32 0000 0000
000002f0: 2ac0 9332 804f 2f32 6134 dd32 0000 0000
00000300: 5094 7f32 4432 d132 737b b532 8af6 902b
00000310: 8af6 902b 8af6 902b 8af6 902b 0000 0000
00000320: 0000 0000 0000 0000 0000 0000 0000 0000
00000330: 0000 0000 8af6 902b 8af6 902b 4811 1e32
00000340: 8b90 5232 25ca b732 fe00 a132 1bec 8532
00000350: 83b4 df32 0000 0000 4c9d b432 6a49 df32
00000360: 6167 a532 0000 0000 9184 9732 1f98 4533
00000370: 75d3 0d33 ab9a 022c ab9a 022c ab9a 022c
00000380: ab9a 022c 0000 0000 0000 0000 0000 0000
00000390: 0000 0000 0000 0000 0000 0000 ab9a 022c
000003a0: ab9a 022c 0f68 6932 b7ac 7733 7aa8 5233
000003b0: ebc6 c933 bc00 c633 55e2 e533 0000 0000
000003c0: 2286 5933 2b96 4333 6fff 4433 0000 0000
000003d0: 2345 bb33 ebb7 a133 2ce9 9d33 28e0 af2c
000003e0: 28e0 af2c 28e0 af2c 28e0 af2c 0000 0000
000003f0: 0000 0000 0000 0000 0000 0000 0000 0000
2.2557186e-08 2.6945287e-08 2.9994407e-08 3.6639584e-08 3.507994e-08 0.0 8.984209e-08 2.0501016e-08
7.793115e-08 0.0 3.3613215e-08 3.9652093e-08 3.448958e-08 2.5773626e-12 2.5773626e-12 2.5773626e-12
2.5773626e-12 0.0 0.0 0.0 0.0 0.0 0.0 2.5773626e-12
2.5773626e-12 3.868855e-08 2.7716036e-09 2.4685003e-09 2.7606932e-09 1.5855328e-09 2.5583635e-09 0.0
3.3696823e-09 1.8038425e-09 3.8769916e-09 0.0 2.6024751e-09 2.657557e-09 2.7671387e-09 1.1415879e-13
1.1415879e-13 1.1415879e-13 1.1415879e-13 0.0 0.0 0.0 0.0 0.0
0.0 1.1415879e-13 1.1415879e-13 4.8243063e-09 5.7769096e-09 2.777702e-08 2.2904606e-08 2.2987338e-08
1.9515552e-08 0.0 2.0973143e-08 3.8699618e-08 1.3511639e-08 0.0 1.5409954e-08 2.171365e-08
2.4960695e-08 9.812876e-13 9.812876e-13 9.812876e-13 9.812876e-13 0.0 0.0 0.0
0.0 0.0 0.0 9.812876e-13 9.812876e-13 1.11363505e-08 2.732491e-08 2.1433532e-08
4.5800235e-08 2.2959187e-08 3.723926e-08 0.0 2.7805404e-08 2.2230013e-08 1.9411585e-08 0.0
4.3636682e-08 3.0121818e-08 3.1204856e-08 1.7675202e-12 1.7675202e-12 1.7675202e-12 1.7675202e-12 0.0
0.0 0.0 0.0 0.0 0.0 1.7675202e-12 1.7675202e-12 3.208572e-08
1.2517001e-08 4.0280405e-08 1.4088007e-08 1.8510269e-08 3.159668e-08 0.0 1.4891559e-08 1.6794841e-08
2.0954914e-08 0.0 1.9761004e-08 2.5566722e-08 2.3063576e-08 1.4278392e-12 1.4278392e-12 1.4278392e-12
1.4278392e-12 0.0 0.0 0.0 0.0 0.0 0.0 1.4278392e-12
1.4278392e-12 1.7472086e-08 3.3650684e-09 1.1152355e-08 1.2280125e-08 9.794035e-09 1.3006566e-08 0.0
1.078819e-08 1.1651563e-08 5.7434772e-09 0.0 1.0267406e-08 1.4427678e-08 1.1613385e-08 5.4511457e-13
5.4511457e-13 5.4511457e-13 5.4511457e-13 0.0 0.0 0.0 0.0 0.0
0.0 5.4511457e-13 5.4511457e-13 6.889061e-09 6.4479146e-09 9.149606e-09 8.846728e-09 1.1942018e-08
1.3325917e-08 0.0 1.4153395e-08 1.07721965e-08 2.2157938e-08 0.0 1.24018475e-08 1.5634663e-08
1.3439684e-08 1.1448466e-12 1.1448466e-12 1.1448466e-12 1.1448466e-12 0.0 0.0 0.0
0.0 0.0 0.0 1.1448466e-12 1.1448466e-12 1.1129538e-08 6.5966645e-09 2.14073e-08
1.8641417e-08 1.4178135e-08 2.5405834e-08 0.0 1.7200438e-08 1.0204417e-08 2.5751605e-08 0.0
1.4876676e-08 2.435366e-08 2.1127311e-08 1.0300244e-12 1.0300244e-12 1.0300244e-12 1.0300244e-12 0.0
0.0 0.0 0.0 0.0 0.0 1.0300244e-12 1.0300244e-12 9.20074e-09
1.2256474e-08 2.1395929e-08 1.8743318e-08 1.5590606e-08 2.6042704e-08 0.0 2.1026288e-08 2.5994002e-08
1.925554e-08 0.0 1.7638998e-08 4.600599e-08 3.302144e-08 1.855997e-12 1.855997e-12 1.855997e-12
1.855997e-12 0.0 0.0 0.0 0.0 0.0 0.0 1.855997e-12
1.855997e-12 1.3586045e-08 5.7666252e-08 4.9047664e-08 9.395975e-08 9.220227e-08 1.0704813e-07 0.0
5.0646243e-08 4.5538552e-08 4.586712e-08 0.0 8.720442e-08 7.530601e-08 7.353296e-08 4.9986855e-12
4.9986855e-12 4.9986855e-12 4.9986855e-12 0.0 0.0 0.0 0.0 0.0

exp_avg f4 [128]
00000000: 2839 3cb6 ebdc 9a37 e406 8937 ddf4 8ab8
00000010: 9235 f2b7 d2b3 5ab8 b692 1e38 82fc afb8
00000020: f2e7 9ab8 b1ac 32b9 84c4 0eb7 f99e 6bb8
00000030: dd31 5637 ff0b ccb8 9e1d 78b8 d8fe 3038
00000040: 216a 7bb8 fc22 96b8 c4cc a0b8 1574 3338
00000050: 525e 5c38 207b 4ab8 2ac7 46b6 df10 57b8
00000060: 36f0 e3b7 ddc3 90b8 cf88 fb37 ff78 4638
00000070: 6edc c8b6 f342 8b36 6115 63b8 a595 1fb8
00000080: 0a91 50b8 bdb6 c538 b40f c3b7 dc56 91b8
00000090: a4b8 dbb8 dcf8 4fb8 f942 7bb8 ff6e 73b8
000000a0: 48d2 10b7 1a49 3bb9 9530 f8b7 e880 2e37
000000b0: 221d 0eb9 5adf 53b6 9e36 7cb8 9349 5e36
000000c0: fbc0 fbb7 7ae2 4537 e73b 6437 ff17 49b6
000000d0: e44c 5eb6 6468 8138 8c53 f037 ffd5 50b8
000000e0: f1bc f736 dcb7 4fb7 4a46 3eb9 440e 0cb8
000000f0: 862f 98b8 c2bc 5db8 9a1b 27b9 b440 91b8
00000100: 0514 c5b8 7618 68b8 9851 dbb8 cddd d0b8
00000110: a837 fd37 9f92 0c38 939a ebb8 10c8 f3b7
00000120: 3c96 1a36 52fb 8d37 54c4 25b8 3134 afb8
00000130: 162c 1fb9 04c4 c437 e108 49b8 93d3 6cb7
00000140: 237b 55b8 cc8d 21b8 0d6a 6ab9 fe7d 5038
00000150: 5b34 8738 3688 90b8 30a0 03b8 578b 06b9
00000160: dd20 b5b7 7d5f 98b8 b4a7 0eb8 ede6 a737
00000170: 6dbb fb36 283b 75b9 d1e0 d0b6 572b fe36
00000180: 3d74 22b8 b5cc cab7 2872 9ab8 f126 3cb6
00000190: 8754 6838 de05 1ab8 5e1e 37b9 60c7 88b7
000001a0: 76e5 3bb7 efda 1bb8 2647 68b7 2939 54b8
000001b0: 934a cb38 321c f5b7 7b87 62b9 ce4f 8d35
000001c0: e254 a4b7 f8a8 90b8 68a3 10b9 f31f 99b7
000001d0: e47b 8ab6 7e86 94b8 7ad3 1db8 d27c 81b8
000001e0: 392b 0db9 9263 8637 606c 52b9 5b5f dab6
000001f0: 1aaf 02b9 76ee 8438 506d 64b8 d7c2 e4b7
-2.8047452e-06 1.8461104e-05 1.6334881e-05 -6.625962e-05 -2.8873594e-05 -5.214272e-05 3.780677e-05 -8.3916835e-05
-7.3864954e-05 -0.00017039735 -8.509614e-06 -5.617642e-05 1.2767004e-05 -9.7297125e-05 -5.915539e-05 4.219901e-05
-5.9941904e-05 -7.159074e-05 -7.667535e-05 4.2785035e-05 5.253993e-05 -4.8275222e-05 -2.9620228e-06 -5.1275707e-05
-2.7172366e-05 -6.9029375e-05 2.9985238e-05 4.7319565e-05 -5.986126e-06 4.1503167e-06 -5.4140928e-05 -3.804792e-05
-4.9726143e-05 9.42773e-05 -2.3253124e-05 -6.9303176e-05 -0.00010477126 -4.9584414e-05 -5.9905437e-05 -5.8039088e-05
-8.632029e-06 -0.00017860942 -2.9586527e-05 1.04012215e-05 -0.00013553028 -3.1571458e-06 -6.0132348e-05 3.3123404e-06
-3.0011395e-05 1.1794846e-05 1.3603806e-05 -2.9965302e-06 -3.3125334e-06 6.1706436e-05 2.8649134e-05 -4.9790364e-05
7.3831693e-06 -1.238097e-05 -0.00018145997 -3.3391887e-05 -7.256777e-05 -5.28663e-05 -0.00015936643 -6.926191e-05
-9.397421e-05 -5.533589e-05 -0.00010457932 -9.9595265e-05 3.0185867e-05 3.3515153e-05 -0.00011234465 -2.9061019e-05
2.3035236e-06 1.692554e-05 -3.952191e-05 -8.354372e-05 -0.00015179845 2.3456298e-05 -4.7930404e-05 -1.4115957e-05
-5.0897837e-05 -3.851745e-05 -0.00022355486 4.9708404e-05 6.4470536e-05 -6.891826e-05 -3.138202e-05 -0.00012831144
-2.1592185e-05 -7.265711e-05 -3.4011624e-05 2.0015485e-05 7.502202e-06 -0.00023387058 -6.225055e-06 7.5748353e-06
-3.8732065e-05 -2.41756e-05 -7.3645555e-05 -2.803685e-06 5.5391833e-05 -3.6721925e-05 -0.00017463553 -1.6305305e-05
-1.1199494e-05 -3.7158778e-05 -1.3844843e-05 -5.0597973e-05 9.693685e-05 -2.9219405e-05 -0.0002160351 1.0528545e-06
-1.958985e-05 -6.897928e-05 -0.00013793784 -1.8253899e-05 -4.1271433e-06 -7.082241e-05 -3.762867e-05 -6.174449e-05
-0.0001346291 1.602041e-05 -0.00020067533 -6.508007e-06 -0.00012462997 6.338667e-05 -5.446124e-05 -2.7270447e-05

exp_avg_sq f4 [128]
00000000: 4d87 bc33 4418 6631 373c 0633 1226 7f33
00000010: 63da 6d33 c901 9f32 1aaa 1033 5a18 2633
00000020: d9ad 9233 1054 3b34 1514 5d32 f099 4833
00000030: 89e3 f633 2b11 6434 8d04 d033 0293 0333
00000040: ddeb 8e33 6752 a933 6085 4734 a6a1 9a33
00000050: f1e6 a732 5035 a933 cea7 f832 bd67 6033
00000060: ef0f 4033 2ae9 1833 f653 9632 6a93 e431
00000070: 4946 2034 4449 7632 5419 8733 af3f 2a33
00000080: e4f3 bf32 7de1 7534 777a d032 95c7 4532
00000090: 2ba4 aa34 3147 5834 664c 2533 21b2 b233
000000a0: 6fe1 6133 05e8 8634 b3ea 4f33 d8f1 9033
000000b0: b54c a933 d472 be32 b247 dc32 c7f9 5533
000000c0: 7f4b e432 cc46 6f31 127a 7333 139e 9d33
000000d0: 7627 3f33 36f6 0e33 e3ff c132 572a 4d34
000000e0: 9088 7733 0109 f132 930c 8a33 4f92 3c32
000000f0: fd6f 1733 03a8 b732 9e42 4534 288b b034
00000100: cdf9 0733 561d 5533 c51c 1534 9372 6333
00000110: ed90 9734 777d 2734 4d95 7334 709b 9f34
00000120: 1130 3434 c88e 2034 4dcc 4832 24fe 2234
00000130: 6c55 2034 0f96 c132 170b 0e34 72e8 4832
00000140: 4bd6 4234 967e 9e33 df6d 0035 4686 ee32
00000150: f3b7 a633 a89c 0c34 edf8 7832 2bad 6734
00000160: f7bb e633 7ab3 ed33 036b ff33 c324 0333
00000170: c2c1 a531 fba2 ce33 192d e333 cea1 a133
00000180: 3c03 6133 35fc 7532 4e8a ee33 48b9 cf33
00000190: f848 1433 2787 2534 ecb5 4c34 1f6d b032
000001a0: e046 2133 89b6 3a34 955c 8333 376d 5133
000001b0: d6f2 c633 9410 2e33 31b9 e933 c26b 6431
000001c0: f7d9 3932 80a4 9c32 ad33 4f34 9f81 0233
000001d0: ed0a ca32 b151 1b33 b26d 0533 aa6c dd33
000001e0: 0df6 9b34 2725 9f31 6c18 2f34 00e8 8d31
000001f0: 867b 9f34 890c a032 3607 0534 70f7 8633
8.779043e-08 3.3483198e-09 3.125407e-08 5.940644e-08 5.5379484e-08 1.8510848e-08 3.368232e-08 3.8672034e-08
6.8302775e-08 1.7446314e-07 1.2868459e-08 4.6706134e-08 1.1496656e-07 2.12404e-07 9.6865826e-08 3.0634517e-08
6.6552936e-08 7.884665e-08 1.8581841e-07 7.2005875e-08 1.9546379e-08 7.879373e-08 2.8947309e-08 5.2248414e-08
4.4717975e-08 3.560232e-08 1.750048e-08 6.6524324e-09 1.4926731e-07 1.4335743e-08 6.2910345e-08 3.963913e-08
2.2346235e-08 2.2899435e-07 2.4270078e-08 1.1512289e-08 3.1784415e-07 2.0142467e-07 3.848654e-08 8.3211724e-08
5.2591925e-08 2.5128261e-07 4.84094e-08 6.749514e-08 7.883629e-08 2.2171129e-08 2.5643974e-08 4.98201e-08
2.6577025e-08 3.481932e-09 5.668887e-08 7.339636e-08 4.4506542e-08 3.328588e-08 2.2584521e-08 1.9107516e-07
5.7633372e-08 2.8060187e-08 6.428413e-08 1.0976307e-08 3.525928e-08 2.1380407e-08 1.837129e-07 3.2883804e-07
3.165933e-08 4.9619608e-08 1.3887173e-07 5.295676e-08 2.823139e-07 1.5598731e-07 2.2685454e-07 2.9729154e-07
1.6781293e-07 1.4953105e-07 1.1687985e-08 1.5179882e-07 1.4932237e-07 2.2536396e-08 1.3228815e-07 1.1694384e-08
1.8145617e-07 7.380474e-08 4.78436e-07 2.7767907e-08 7.7634375e-08 1.3095507e-07 1.4492099e-08 2.157655e-07
1.07444e-07 1.1068819e-07 1.1893828e-07 3.053425e-08 4.8241597e-09 9.6222685e-08 1.05787144e-07 7.526579e-08
5.2389836e-08 1.4318222e-08 1.1107896e-07 9.672891e-08 3.45253e-08 1.541599e-07 1.9065163e-07 2.053872e-08
3.7550194e-08 1.7389006e-07 6.1170034e-08 4.8760935e-08 9.264265e-08 4.052761e-08 1.0883594e-07 3.323962e-09
1.0817977e-08 1.8235596e-08 1.9297177e-07 3.0385873e-08 2.3520863e-08 3.6163048e-08 3.1066243e-08 1.031088e-07
2.9050025e-07 4.6317328e-09 1.630703e-07 4.1300154e-09 2.9705933e-07 1.8632152e-08 1.2389214e-07 6.28487e-08
