Assets/ML-Agents/results/SW_RL_TEST/OffensiveAgentPolicy/OffensiveAgentPolicy-499939.pt (torch, 516008 bytes, 41 tensors)

network_body.observation_encoder.processors.0.normalizer.running_mean f4 [26]
0	0x3f70b4e3	0.9402601
1	0x3d0ec833	0.034858894
2	0x3e776319	0.24158897
3	0x3dce1e58	0.10064381
4	0x3f25eed7	0.64817566
5	0x00000000	0.0
6	0x3d12300e	0.03569036
7	0x3e7dd7d8	0.24789369
8	0x3d8bc070	0.06823814
9	0x00000000	0.0
10	0x3e95badf	0.29244134
11	0x3e5b773b	0.21432202
12	0x3f0178dc	0.5057504
13	0x3f7ea014	0.9946301
14	0x3e8d99ba	0.27656347
15	0x3d06643c	0.032810435
16	0x3d202155	0.039094288
17	0x3d85b9b9	0.065295644
18	0x3f17ac57	0.59247345
19	0x3e92fa6e	0.28706688
20	0x3cf61e13	0.030043637
21	0x3ccdc66f	0.025119035
22	0x00000000	0.0
23	0xbd6b869b	-0.057501417
24	0xbce93d8b	-0.028471729
25	0x42097b42	34.37037

network_body.observation_encoder.processors.0.normalizer.running_variance f4 [26]
0	0x455d1427	3537.2595
1	0x46267bc9	10654.946
2	0x473c7472	48244.445
3	0x46e508ee	29316.465
4	0x47deac9c	114009.22
5	0x3f800000	1.0
6	0x46866e4e	17207.152
7	0x47b60d85	93211.04
8	0x46f8581f	31788.06
9	0x3f800000	1.0
10	0x47dd5481	113321.01
11	0x47e5b2ff	117605.99
12	0x472b9c3b	43932.23
13	0x43b18b4a	355.0882
14	0x475f5fc5	57183.77
15	0x461a70b2	9884.174
16	0x46449ad4	12582.707
17	0x46ee62cb	30513.396
18	0x47ebc377	120710.93
19	0x47c7d70b	102318.086
20	0x4663a6fb	14569.745
21	0x463f4e1e	12243.529
22	0x3f800000	1.0
23	0x479f14b4	81449.41
24	0x477940b0	63808.688
25	0x4e995e06	1.286538e+09

network_body.processors.0.normalizer.running_mean f4 [26]
0	0x3f70b4e3	0.9402601
1	0x3d0ec833	0.034858894
2	0x3e776319	0.24158897
3	0x3dce1e58	0.10064381
4	0x3f25eed7	0.64817566
5	0x00000000	0.0
6	0x3d12300e	0.03569036
7	0x3e7dd7d8	0.24789369
8	0x3d8bc070	0.06823814
9	0x00000000	0.0
10	0x3e95badf	0.29244134
11	0x3e5b773b	0.21432202
12	0x3f0178dc	0.5057504
13	0x3f7ea014	0.9946301
14	0x3e8d99ba	0.27656347
15	0x3d06643c	0.032810435
16	0x3d202155	0.039094288
17	0x3d85b9b9	0.065295644
18	0x3f17ac57	0.59247345
19	0x3e92fa6e	0.28706688
20	0x3cf61e13	0.030043637
21	0x3ccdc66f	0.025119035
22	0x00000000	0.0
23	0xbd6b869b	-0.057501417
24	0xbce93d8b	-0.028471729
25	0x42097b42	34.37037

network_body.processors.0.normalizer.running_variance f4 [26]
0	0x455d1427	3537.2595
1	0x46267bc9	10654.946
2	0x473c7472	48244.445
3	0x46e508ee	29316.465
4	0x47deac9c	114009.22
5	0x3f800000	1.0
6	0x46866e4e	17207.152
7	0x47b60d85	93211.04
8	0x46f8581f	31788.06
9	0x3f800000	1.0
10	0x47dd5481	113321.01
11	0x47e5b2ff	117605.99
12	0x472b9c3b	43932.23
13	0x43b18b4a	355.0882
14	0x475f5fc5	57183.77
15	0x461a70b2	9884.174
16	0x46449ad4	12582.707
17	0x46ee62cb	30513.396
18	0x47ebc377	120710.93
19	0x47c7d70b	102318.086
20	0x4663a6fb	14569.745
21	0x463f4e1e	12243.529
22	0x3f800000	1.0
23	0x479f14b4	81449.41
24	0x477940b0	63808.688
25	0x4e995e06	1.286538e+09

network_body._body_endoder.seq_layers.0.weight f4 [128, 26]
0	0xb9ccfb7e	-0.00039097288
1	0xbe82d15a	-0.25550348
2	0xbe7cdbc3	-0.24693207
3	0x3dfde362	0.123968855
4	0x3edccdef	0.43125865
5	0xbd89ac55	-0.06722323
6	0x3da34c82	0.07973577
7	0xbe122225	-0.14270838
8	0xbd2f94f3	-0.04286666
9	0x3d8a469c	0.06751749
10	0xbdfcb919	-0.12339992
11	0x3df33c93	0.11876788
12	0x3da55d00	0.08074379
13	0xbe3e7558	-0.1859945
14	0xbec1efa2	-0.37878138
15	0xbe3b64c8	-0.18300164
16	0x3b15cd78	0.0022858065
17	0x3e4ea2ac	0.20179242
18	0xbd53c13e	-0.051697962
19	0x3f062dba	0.52413523
20	0xbdfc5cb6	-0.12322371
21	0xbe64a610	-0.22328973
22	0x3d57e9c0	0.052713156
23	0x3e6fbb06	0.23411188
24	0xbe71dee9	-0.2362019
25	0xbd947260	-0.07248378
26	0xbe863082	-0.26208884
27	0x3e348f7e	0.17632863
28	0xbd806fb2	-0.06271304
29	0x3e89d63b	0.26921257
30	0xbeca134a	-0.3946784
31	0x3e66ca15	0.22538026
32	0xbe562185	-0.20911224
33	0x3d999c48	0.075005114
34	0xbe617d53	-0.22020464
35	0xbe9a9900	-0.30194855
36	0xbc492cae	-0.012278719
37	0x3cd3bcc1	0.02584684
38	0x3ce5ea9f	0.028065978
39	0xbdcf0df5	-0.10110084
40	0x3e69645b	0.22792189
41	0xbd29865c	-0.0413879
42	0xbdc97b57	-0.09837978
43	0xbe3b8319	-0.18311729
44	0x3cfe45c3	0.031039124
45	0xbd95c56e	-0.07313047
46	0x3a7ee2e8	0.0009723143
47	0xbec00675	-0.37504926
48	0xbc1342f3	-0.00898813
49	0x3e17cfb7	0.1482533
50	0xbd892e21	-0.066982515
51	0xbdc44c7d	-0.095849015
52	0x3d9dfb5f	0.07713961
53	0x3d030cfa	0.031994797
54	0x3e0c9231	0.13727643
55	0xbd9bbbaf	-0.07604157
56	0x3e46c3bf	0.19410609
57	0xbd660078	-0.05615279
58	0xbc0b309c	-0.008495476
59	0x3d90945d	0.07059548
60	0xbf125b1f	-0.5717029
61	0x3d692c2e	0.0569269
62	0xbf00b938	-0.5028262
63	0x3ebf4d8f	0.3736386
64	0xbe903e2b	-0.2817243
65	0x3e6d3e97	0.23168407
66	0xbe4b6350	-0.19862103
67	0x3d1b1b91	0.037868086
68	0xbe10da8a	-0.14145866
69	0xbebd780c	-0.3700565
70	0xbe536306	-0.20643243
71	0x3c7510d4	0.014957625
72	0xbedb235d	-0.42800418
73	0xbd5cc075	-0.05389448
74	0x3e28d3a7	0.16486989
75	0x3dc17cd2	0.09447636
76	0x3df26c0c	0.118370146
77	0x3e364428	0.17799437
78	0x3ec8b914	0.39203703
79	0x3dda04e1	0.10645462
80	0xbe45f8b2	-0.19333151
81	0x3e055718	0.13021505
82	0xbd868c74	-0.06569758
83	0xbb8d4eb6	-0.0043123616
84	0x3f5952d4	0.8489201
85	0xbc15be0b	-0.009139548
86	0x3ec64435	0.38723913
87	0xbdea8701	-0.11451531
88	0xbe3f14cb	-0.18660276
89	0xbd4241b8	-0.047425956
90	0xbe1c5ba2	-0.1526933
91	0x3e95452c	0.29154336
92	0xbd923288	-0.07138544
93	0x3e07bc41	0.13255407
94	0xbe01f707	-0.1269189
95	0x3db05fab	0.08611997
96	0x3dc7e4d2	0.09760441
97	0x3d157168	0.036485106
98	0xbe80f809	-0.25189236
99	0x3e8ea70a	0.27861816
100	0x3bf88b00	0.0075849295
101	0xbdd8cb9e	-0.10585712
102	0xbea076d6	-0.31340665
103	0xbd98adc9	-0.07455022
104	0xbce90664	-0.02844543
105	0xbec399b0	-0.38203192
106	0x3c200f30	0.009769246
107	0xbd46263b	-0.048376303
108	0xbe4f2a1e	-0.2023091
109	0x3e349ac1	0.17637159
110	0xbe2e6c76	-0.17033562
111	0xbd9091fd	-0.07059095
112	0x3dbc4988	0.091937125
113	0x3d210fbc	0.039321646
114	0x3f07b274	0.5300667
115	0xbd8309df	-0.06398367
116	0xbe121953	-0.14267473
117	0x3d903bde	0.07042669
118	0x3ea03412	0.31289726
119	0xbe307e14	-0.17235595
120	0xbdc42c21	-0.095787294
121	0xbea183f9	-0.31546
122	0xbe620e69	-0.2207581
123	0x3baefbce	0.005340076
124	0xbe6e4f8c	-0.23272532
125	0xbd3185f1	-0.043340627
126	0x3d3a3561	0.045461062
127	0x3e3ece96	0.18633494
128	0x3e2ef025	0.17083795
129	0xbee9d408	-0.4566958
130	0xbc98f833	-0.018673038
131	0xbe365699	-0.17806472
132	0xbd451a99	-0.04812107
133	0x3d0f9e29	0.035062943
134	0xbe06671a	-0.13125268
135	0xbe0a3d41	-0.13499929
136	0x3ead7107	0.33875296
137	0x3ebc4e47	0.3677847
138	0xbee7a39b	-0.4524201
139	0xbe1a986b	-0.15097205
140	0xbc9edf14	-0.019393481
141	0x3e62a866	0.22134551
142	0x3dc3983d	0.095505215
143	0x3e65fbef	0.22459386
144	0x3dfd19ba	0.123584226
145	0xbe2e17e1	-0.17001297
146	0x3e933b7d	0.28756323
147	0x3da4eef2	0.08053388
148	0xbcfd4052	-0.03091446
149	0x3e0e3502	0.13887408
150	0xbeab8e4e	-0.33507007
151	0xbe1afeb8	-0.1513623
152	0xbe48d744	-0.19613367
153	0x3d9df559	0.07712812
154	0xbeb8ab1d	-0.3606805
155	0xbe9f0c9c	-0.31064308
156	0x3d8f8bf8	0.07009119
157	0x3e873070	0.26404142
158	0xbede267a	-0.4338873
159	0x3c27acfb	0.010234113
160	0xbaac3639	-0.0013138718
161	0x3e41ef51	0.18938948
162	0xbe6aa9d6	-0.2291635
163	0x3e2c3771	0.16818024
164	0x3da51a18	0.080616176
165	0x3ec97e92	0.39354378
166	0xbe91b7fd	-0.28460684
167	0xbe089403	-0.13337712
168	0xbc0f45c6	-0.008744663
169	0xbe487294	-0.19574958
170	0x3eca8147	0.39551756
171	0x3e217616	0.15767702
172	0xbeca04b3	-0.3945671
173	0xbe8b02bf	-0.27150533
174	0x3e902540	0.2815342
175	0x3d903637	0.07041591
176	0x3b33103e	0.0027322914
177	0xbc972788	-0.018451467
178	0xbe07dfa5	-0.13268907
179	0x3e822300	0.25417328
180	0xbe03f5b4	-0.12886697
181	0xbe04e0e2	-0.12976411
182	0x3e9621ef	0.29322764
183	0xbe0c2de2	-0.13689378
184	0x3da61af6	0.08110611
185	0xbe7634a0	-0.24043512
186	0xbea629a5	-0.32453647
187	0x3e821aab	0.2541097
188	0x3ee4bbfb	0.44674668
189	0xbe8f928c	-0.28041494
190	0x3edeb50b	0.434975
191	0xbe840c16	-0.2579047
192	0xbd850aaf	-0.06496178
193	0xbcb44bcb	-0.022008797
194	0x3e102713	0.14077406
195	0xbc8f26e5	-0.017474601
196	0x3eb462e3	0.35231695
197	0xbdc1e680	-0.094677925
198	0x3e6e66f0	0.23281455
199	0xbdf98a9c	-0.12184641
200	0xbd1bdfc7	-0.038055208
201	0xbc1f1c9f	-0.009711414
202	0x3dc28282	0.09497549
203	0x3e462ae2	0.19352296
204	0xbdcbb9f6	-0.099475786
205	0xbe911320	-0.28334904
206	0x3e1414bf	0.14461039
207	0xbd7d96c6	-0.061911367
208	0x3caf57f5	0.021404246
209	0xbea45c63	-0.32101735
210	0x3d6ded51	0.05808765
211	0xbded10d5	-0.11575476
212	0x3e1288ca	0.14309993
213	0x3d0f8ed5	0.035048325
214	0xbe10b0aa	-0.14129892
215	0xbe9df580	-0.30851364
216	0xbe3d9d7c	-0.18517107
217	0x3c07567c	0.008260366
218	0x3e80b608	0.2513888
219	0xbb212ea1	-0.0024594443
220	0xbea19667	-0.3156006
221	0xbe133161	-0.14374305
222	0x3ef943a3	0.48684415
223	0xbdc8c1ba	-0.098025754
224	0xbe34a54c	-0.17641181
225	0xbeb31c5b	-0.3498257
226	0xbd74f90f	-0.059807833
227	0xbe0bb2ae	-0.1364238
228	0xbdf5a138	-0.11993641
229	0x3e8b0460	0.27151775
230	0x3de07636	0.10960047
231	0x3e1a968a	0.15096489
232	0x3e274d20	0.16338015
233	0x3877d158	5.9084356e-05
234	0xbded15cd	-0.11576424
235	0x3e1d1ff4	0.1534422
236	0x3e38fc8e	0.18065092
237	0xbd0f6426	-0.03500762
238	0xbec98c53	-0.3936487
239	0xbdad8363	-0.08472326
240	0x3e1ec455	0.15504582
241	0xbd644391	-0.0557285
242	0x3e12ce42	0.14336494
243	0x3eb2724a	0.3485282
244	0xbd0e7de4	-0.034788027
245	0xbdb7f5c7	-0.08982425
246	0xbe70e503	-0.23524861
247	0xbcd224a3	-0.025652235
248	0xbd7c64a6	-0.061619423
249	0x3d3c7cbd	0.046017397
250	0xbbcb3d72	-0.006202393
251	0xbd2a41d2	-0.041566677
252	0xbd7ff689	-0.062490974
253	0x3e6390f4	0.22223264
254	0x3e4d4a95	0.20047982
255	0xbd8ee64d	-0.0697752

network_body._body_endoder.seq_layers.0.bias f4 [128]
0	0xbc9884bb	-0.018617978
1	0x3d9e2a1f	0.07722878
2	0x3e159d6f	0.14610837
3	0x3d65ed57	0.056134548
4	0x3dac7529	0.08420784
5	0x3db5c44e	0.08875333
6	0x3db91f92	0.09039225
7	0x3cd0e0df	0.025497852
8	0x3e1d678c	0.15371531
9	0x3c247a21	0.010038883
10	0x3dcab990	0.098986745
11	0x3cea9308	0.028634563
12	0x3d8c0952	0.06837715
13	0x3bfbc797	0.007683705
14	0x3dc8cecf	0.098050706
15	0x3df1fa4f	0.11815321
16	0x3db7cbe0	0.08974433
17	0x3df6f2c0	0.1205802
18	0x3df8745a	0.12131567
19	0x3dc24da0	0.09487462
20	0x3d81c8b4	0.06337109
21	0x3dd88d47	0.105738215
22	0x3d85e8e2	0.065385595
23	0x3de204b1	0.11036051
24	0x3dda8ab0	0.10670984
25	0x3db7548f	0.08951675
26	0x3d6da8a6	0.058022164
27	0x3dab9a52	0.08379044
28	0x3d3538af	0.04424351
29	0x3d9b6ea2	0.07589461
30	0x3df1fc03	0.118156455
31	0xbc0d350b	-0.008618603
32	0x3e1b0f54	0.15142566
33	0x3dc1dfbf	0.09466504
34	0x3dc9dfe2	0.098571554
35	0x3dbf7cdf	0.09349989
36	0x3e259317	0.16169392
37	0x3dc8bb0a	0.098013
38	0x3d9d0856	0.076676056
39	0x3de39e4d	0.11114178
40	0xbc30bf52	-0.010787802
41	0x3df86a25	0.121296205
42	0x3d0848db	0.033272605
43	0x3dc93453	0.09824433
44	0x3df18491	0.11792863
45	0x3c82aba3	0.015950983
46	0x3de98661	0.11402584
47	0x3d69a63f	0.05704331
48	0x3d5e631a	0.05429373
49	0x3df88050	0.12133849
50	0x3e070a2a	0.13187471
51	0x3e21059b	0.15724795
52	0x3d91d253	0.07120194
53	0x3e00c39a	0.12574616
54	0x3d911cb7	0.07085555
55	0x3dd14b12	0.10219397
56	0x3de0f5af	0.109843604
57	0x3d0cc8a2	0.034371026
58	0x3ddff03c	0.10934493
59	0x3e000398	0.12501371
60	0x3deef85b	0.11668464
61	0x3d2fced5	0.04292186
62	0x3e072630	0.13198161
63	0x3db56018	0.08856219
64	0x3dc2efde	0.09518407
65	0x3df250eb	0.1183184
66	0x3e0ba147	0.13635741
67	0x3de53c47	0.111931376
68	0x3db73056	0.08944766
69	0x3d976a45	0.07393316
70	0x3e37d57b	0.1795253
71	0x3dbaedcf	0.0912739
72	0x3d8ed8ec	0.06974968
73	0x3dded0e6	0.10879688
74	0x3e04ae66	0.12957153
75	0x3db2c14d	0.087282754
76	0x3dc2bbe2	0.09508492
77	0xbc96f0d0	-0.018425375
78	0x3e014365	0.12623365
79	0x3da453ca	0.08023794
80	0xbcb710f3	-0.02234695
81	0x3e0c2155	0.1368459
82	0x3e3c32af	0.1837871
83	0xbe06b15d	-0.13153596
84	0x3d8e756c	0.0695599
85	0x3d5ec204	0.054384246
86	0x3df631e7	0.12021237
87	0x3dc654dc	0.096841544
88	0x3db9d08d	0.09072981
89	0x3e0876ed	0.13326617
90	0x3e15d2f5	0.14631255
91	0x3d9fa375	0.07794849
92	0x3c4801ba	0.012207443
93	0x3e006021	0.1253667
94	0x3acc9773	0.00156091
95	0xbd4d6eb3	-0.0501544
96	0x3d9f425e	0.077763304
97	0xbd44cb82	-0.048045643
98	0x3cf7bdff	0.030241964
99	0x3e000308	0.12501156
100	0x3d8a1b16	0.067434475
101	0x3cf1afa6	0.029502701
102	0xbd1ccc40	-0.038280725
103	0x3dc10fe4	0.09426859
104	0x3dfc6dd9	0.12325639
105	0x3e333e5b	0.17504255
106	0x3d9d8ac2	0.076924816
107	0x3e057b01	0.13035204
108	0x3dfeaa32	0.12434806
109	0x3db7594b	0.08952578
110	0x3db7442c	0.0894855
111	0x3d8a4ce8	0.0675295
112	0x3d8bbfb5	0.068236746
113	0x3dd77568	0.1052044
114	0x3d9ce533	0.07660904
115	0x3d591f68	0.053008467
116	0x3dcb1258	0.09915608
117	0x3dca5db1	0.098811515
118	0x3d7f59d1	0.062341515
119	0x3dd66afb	0.10469624
120	0x3d5755e3	0.052572142
121	0x3e0416a1	0.12899257
122	0x3df54d92	0.11977686
123	0x3e0cf4df	0.13765286
124	0x3dcd2384	0.1001654
125	0x3daf4efc	0.08559987
126	0x3dcf3574	0.10117617
127	0x3de7cc3c	0.113182515

network_body._body_endoder.seq_layers.2.weight f4 [128, 128]
0	0x3de22042	0.11041309
1	0x3e5471ee	0.20746586
2	0xbb996f6e	-0.004682473
3	0x3d94091a	0.072282985
4	0x3e7be345	0.24598415
5	0x3da6525d	0.08121178
6	0x3d178a0c	0.036996886
7	0xba8fbad6	-0.0010965716
8	0x3df59d1d	0.119928576
9	0x3cd7896c	0.026310645
10	0xbbeef2cb	-0.007292127
11	0x3c7ab03e	0.0153008085
12	0xbdc08d7e	-0.094019875
13	0x3d535c3c	0.051601633
14	0x3af88d9c	0.0018963101
15	0x3e05a021	0.13049366
16	0x3cb15633	0.021647548
17	0xbdb2bae8	-0.08727056
18	0xbb77bb50	-0.0037800856
19	0x3d68ded7	0.05685314
20	0x3e5dbdff	0.21654509
21	0x3d556cfc	0.05210589
22	0xbe13c6df	-0.14431332
23	0x3d678374	0.056521848
24	0x3e335e20	0.17516375
25	0x3e08f6ad	0.1337535
26	0xbd91507e	-0.07095431
27	0xbd12f8af	-0.035881694
28	0xb99e18b4	-0.00030154514
29	0x3da8149d	0.08207057
30	0x3c7519e2	0.014959784
31	0xbd946e9f	-0.07247662
32	0x3e08d331	0.13361813
33	0x3cf2db82	0.029645685
34	0x3dd58b26	0.10426931
35	0x3e021a99	0.12705459
36	0x3e44641a	0.1917881
37	0x3ce9f543	0.028559333
38	0xbcb07bf1	-0.021543475
39	0x3ddee1a9	0.10882885
40	0xbe6a124b	-0.2285854
41	0xbdaa9ea2	-0.08331038
42	0x3d262b40	0.04056859
43	0x3e303f18	0.17211568
44	0x3da8128d	0.08206663
45	0x3d2f3212	0.04277236
46	0x3deff5fc	0.1171684
47	0x3dbeaa40	0.09309816
48	0x3b091ed1	0.002092291
49	0x3e2c29e4	0.16812855
50	0x3d6cac14	0.057781294
51	0x3e85f865	0.26166072
52	0xbde16697	-0.110058956
53	0x3e459431	0.19294812
54	0x3de41484	0.111367255
55	0x3e01ad06	0.1266366
56	0x3d9623c6	0.07331042
57	0x3d187444	0.037220255
58	0x3d916a0b	0.07100304
59	0xbcf41443	-0.029794818
60	0x3dd106ce	0.10206376
61	0x3d4b5884	0.049644962
62	0x3d9cebdb	0.07662173
63	0x3d9f66e2	0.07783295
64	0xbdb277c7	-0.08714252
65	0x3cf17228	0.02947338
66	0x3d670598	0.05640182
67	0x3d26f8e7	0.040764716
68	0x3d74a134	0.059724048
69	0x3da784a0	0.08179593
70	0x3dcf23ae	0.10114227
71	0x3e3a60bf	0.18200968
72	0xbde1870e	-0.11012088
73	0x3d648b5a	0.05579696
74	0xbcd09795	-0.025462905
75	0x3e555af2	0.20835474
76	0xbc20735f	-0.009793132
77	0xbd48d49e	-0.049030893
78	0x3e180fd3	0.14849786
79	0x3d4f3992	0.050592013
80	0xbda583a5	-0.0808175
81	0xbd024603	-0.03180505
82	0x3df01dea	0.11724456
83	0xbd7b4439	-0.06134436
84	0x3d249273	0.040178727
85	0xbcb6a4d5	-0.022295395
86	0x3d22f5cb	0.039785188
87	0x3ce123d7	0.02748291
88	0x3c3e4d97	0.011615179
89	0x3d83e589	0.06440265
90	0x3e0965eb	0.13417785
91	0x3dc8e4e9	0.09809286
92	0x3ded1357	0.115759544
93	0x3de3d288	0.1112414
94	0xbd929fc5	-0.0715938
95	0x3cb0c618	0.021578833
96	0xbd17677e	-0.036963932
97	0xbd6626a3	-0.05618919
98	0xbd5b4431	-0.05353183
99	0x3e478f44	0.19488245
100	0x3d18449b	0.037174802
101	0xbc84f25f	-0.016228853
102	0x3da2a1f5	0.07941047
103	0x3da00928	0.078142464
104	0xbd35a500	-0.04434681
105	0x3da162a0	0.07880139
106	0xbbc863e7	-0.006115425
107	0xbd312384	-0.04324676
108	0x3cd7c707	0.02634002
109	0x3e0bfcf2	0.1367071
110	0x3de1905a	0.11013861
111	0xbdb35200	-0.08755875
112	0x3da9ee1b	0.08297368
113	0xbc4cf273	-0.012508976
114	0xbd5283bc	-0.051395163
115	0xbdc63001	-0.09677125
116	0xbbde85ae	-0.006790838
117	0xbe032eab	-0.12810771
118	0x3d8354df	0.06412672
119	0x3e06193b	0.13095562
120	0x3ccdb0aa	0.025108654
121	0xbd02fccb	-0.031979363
122	0x3e17e8a1	0.14834835
123	0x3cd1fdb5	0.025633672
124	0x3cc576a7	0.02410443
125	0x3e66cfdc	0.2254023
126	0xba20f7c8	-0.0006140438
127	0x3e06c543	0.13161187
128	0xbdd92348	-0.106024325
129	0x3e2e6858	0.17031991
130	0x3d38d7a8	0.04512754
131	0xbdf66c13	-0.12032332
132	0xbdce3d80	-0.10070324
133	0x3ca29019	0.019844102
134	0x3e0e9fd8	0.13928163
135	0x3cc9020d	0.02453711
136	0x3e222977	0.1583613
137	0xbdb3b72a	-0.0877517
138	0xbd3c96dd	-0.046042312
139	0x3d06fc61	0.03295553
140	0x3c4a6b6b	0.012354712
141	0x3d2a2b5a	0.04154525
142	0xbd0f6322	-0.03500665
143	0xbe4722ed	-0.19446917
144	0x3d02c851	0.031929318
145	0xbd8cbd57	-0.06872051
146	0x3e022efb	0.12713234
147	0x3d1a5699	0.037680242
148	0xbcc14284	-0.023591287
149	0x3c6d9410	0.014500633
150	0x3dea2bd5	0.114341415
151	0x3b2f883e	0.0026784088
152	0x3de3d697	0.11124914
153	0xbdc5b906	-0.09654431
154	0x3d01e1fa	0.03170965
155	0x3d897951	0.067125924
156	0xbc4739f6	-0.012159815
157	0x3d3d1984	0.04616691
158	0xbe35d35f	-0.17756413
159	0x3dafef07	0.08590513
160	0xbb4ed404	-0.0031559477
161	0xbca3207f	-0.019912956
162	0x3d8e86f2	0.069593325
163	0x3de6fda3	0.11278846
164	0x3e6d0375	0.2314585
165	0x3d87390a	0.06602676
166	0xbccf8cff	-0.025335787
167	0xbdb182f9	-0.08667559
168	0xbe08aaa1	-0.1334634
169	0xbbf32406	-0.007420066
170	0x3e305de5	0.17223318
171	0xbdb5d1c6	-0.08877902
172	0x3e097575	0.13423713
173	0x3e019fcf	0.12658618
174	0x3e1267fe	0.14297482
175	0xbe2a00fa	-0.16601935
176	0xbafa58f7	-0.00191
177	0x3e31372f	0.17306207
178	0x3d358fd5	0.044326622
179	0x3e2036a7	0.15645848
180	0x3db214ec	0.08695397
181	0xbb296966	-0.0025850176
182	0x3e04eb9c	0.12980503
183	0x3dcfecf8	0.1015262
184	0x3d463719	0.04839239
185	0x3d041d18	0.03225431
186	0x3cf043d4	0.029329218
187	0x3d99b962	0.07506062
188	0x3d104eb0	0.035231292
189	0x3d70a85e	0.058754317
190	0xb9ff4e13	-0.0004869556
191	0x3e6acf49	0.22930636
192	0xbbda854a	-0.0066687213
193	0xbd3ff526	-0.04686465
194	0x3dd1a132	0.10235824
195	0x3d8f3d70	0.0699414
196	0xbdb999e7	-0.09062558
197	0xbddd8899	-0.108170696
198	0x3dbe12a5	0.092809
199	0x3963eed5	0.00021737379
200	0xbe0eba46	-0.13938245
201	0xbdbf887d	-0.09352205
202	0x3e77b47e	0.24189946
203	0x3e04c2e5	0.12964971
204	0x3df8943f	0.12137651
205	0xbc81b8f2	-0.01583526
206	0x3dba46fe	0.09095572
207	0x3da3b4c0	0.0799346
208	0x3d03ed14	0.032208517
209	0x3e2f4968	0.17117846
210	0xbd634910	-0.0554896
211	0x3c9f0081	0.01940942
212	0xbd291652	-0.041281052
213	0x3b78ce7c	0.003796487
214	0xbcd3938d	-0.025827194
215	0x3e7835e4	0.24239308
216	0xbdfe0069	-0.12402422
217	0x3cd36553	0.025805151
218	0x3d29da47	0.04146793
219	0xbc9b9e47	-0.018996371
220	0x3dca7695	0.09885899
221	0x3d8bc24d	0.06824169
222	0xbd40e904	-0.04709722
223	0x3d376b0d	0.044779826
224	0xbd868681	-0.06568623
225	0x3bb77d15	0.0055996277
226	0xbe04e9c0	-0.12979794
227	0xbd3551b5	-0.044267375
228	0x3e5d41bb	0.21607105
229	0x3d371a3d	0.044702757
230	0x3d5250ed	0.051346708
231	0xba4ab1e3	-0.00077321957
232	0x3b1cec8e	0.0023944709
233	0x3e397603	0.18111424
234	0x3e048ac2	0.12943557
235	0x3e29244d	0.16517754
236	0x3e1acbc7	0.15116797
237	0x3d99dbc8	0.07512623
238	0x3c926ee3	0.01787514
239	0xbb577507	-0.003287615
240	0x3e229620	0.1587758
241	0xbdb07aba	-0.08617158
242	0x3d72f3c7	0.059314515
243	0x3d4ed327	0.05049434
244	0xbde69a54	-0.112599045
245	0x3e0924fa	0.13393012
246	0xbcc5def4	-0.024154164
247	0x3e0607f0	0.13088965
248	0xbc024dae	-0.007953091
249	0xbdcddf40	-0.10052347
250	0x3e069cb7	0.1314572
251	0x3e45578b	0.19271676
252	0xbd530108	-0.051514655
253	0x3e7accea	0.24492231
254	0x3d1a35b0	0.037648857
255	0xbd677ba5	-0.0565144

network_body._body_endoder.seq_layers.2.bias f4 [128]
0	0x3df53bf8	0.11974329
1	0x3dd63f0a	0.104612425
2	0x3d5a3f7e	0.053283207
3	0x3d7c8f93	0.06166036
4	0x3d98cb69	0.074606724
5	0x3d2c247f	0.042026993
6	0x3d9c53c8	0.076331675
7	0x3d99bba1	0.075064905
8	0xbd019790	-0.031638682
9	0xbcf97b9d	-0.030454451
10	0x3d54c586	0.051946186
11	0x3c8bd079	0.017067181
12	0x3d9e557d	0.07731149
13	0x3d888f06	0.066679046
14	0x3d8d8cc8	0.069116175
15	0x3dc73557	0.09726971
16	0x3df11ac8	0.11772686
17	0x3c92c261	0.017914953
18	0x3e04e4cb	0.12977903
19	0x3ad3f394	0.0016170614
20	0xbc982e9a	-0.018576909
21	0x3df9f701	0.122053154
22	0x3ced1ced	0.028944457
23	0xbd5bc46e	-0.053654127
24	0xbdb7f0f1	-0.08981503
25	0xbc9ca47e	-0.019121405
26	0xbca5d503	-0.020243173
27	0x3d55b1a5	0.05217137
28	0x3d54ab57	0.051921215
29	0x3dccb530	0.09995496
30	0x3ca6e1c0	0.020371318
31	0x3d53c15d	0.051698077
32	0x3df2414f	0.11828863
33	0x3d68898d	0.056771804
34	0x3dcf0c1d	0.10109732
35	0x3dbe4b9a	0.092917636
36	0xbb94de95	-0.0045431354
37	0x3dc28e66	0.094998166
38	0xbd6b08d1	-0.057381455
39	0xbd69380a	-0.05693821
40	0x3d6d8c95	0.057995398
41	0x3dad3d15	0.08458916
42	0x3d2bd2a9	0.041948948
43	0x3ddb0fdc	0.10696384
44	0xbcbd8927	-0.023136688
45	0x3c0bee30	0.008540675
46	0xbb9e55f4	-0.0048320238
47	0xbd1829e8	-0.03714934
48	0x3d39a4d1	0.045323197
49	0x3debcc97	0.11513632
50	0x3dfd6932	0.1237358
51	0x3dc63169	0.09677393
52	0x3da77e47	0.08178382
53	0x3db9765c	0.090557784
54	0x3e06c3d4	0.1316064
55	0x3df38c92	0.11892046
56	0xbb4516c0	-0.0030073375
57	0x3de66183	0.11249068
58	0x3d165084	0.03669788
59	0x3df81807	0.12113958
60	0x3df54bff	0.11977386
61	0xbd3a3d11	-0.045468394
62	0x3ceece24	0.02915103
63	0x3dae7e3e	0.085201725
64	0x3de719e5	0.11284236
65	0x3dd2fb57	0.103018455
66	0x3d577fc7	0.052612092
67	0x3c2946dd	0.0103318365
68	0x3d9ac4a1	0.07557035
69	0x3db2ed29	0.08736641
70	0x39a382ec	0.00031187327
71	0x3dab0d82	0.08352186
72	0xbcdd9014	-0.02704624
73	0x3d5509e7	0.052011397
74	0x3cdf6c60	0.027273357
75	0x3d3bf485	0.04588749
76	0x3db20aad	0.086934425
77	0xbd0c5ef5	-0.034270246
78	0x3d11af68	0.03556767
79	0xbbc9191d	-0.006137027
80	0xbcd406c8	-0.02588214
81	0x3cff680b	0.031177541
82	0x3b84adb7	0.0040490287
83	0x3d9d1a3f	0.07671022
84	0x3d261ce6	0.040554903
85	0x3d1c8e43	0.03822161
86	0x3d9cac17	0.07650011
87	0xbd9aef41	-0.07565165
88	0x3d164ca4	0.036694184
89	0x3da3c0b0	0.079957366
90	0x3c9f6821	0.019458832
91	0x3cf04ad7	0.029332561
92	0xbd9a2ef7	-0.07528489
93	0xbd204aa7	-0.039133694
94	0xbcd5a7b9	-0.026080953
95	0xbb2b3c3a	-0.0026128427
96	0x3d508844	0.050911203
97	0x3d5c951e	0.053853147
98	0x3d81d6bd	0.06339786
99	0xbc6da22d	-0.014503998
100	0xbbef1ccd	-0.0072971345
101	0x3de7b66f	0.11314093
102	0x3db4bba7	0.08824854
103	0x3dc4451b	0.09583493
104	0xbd75b82d	-0.059990097
105	0x3d2fb0aa	0.04289309
106	0xbce40ece	-0.02783909
107	0x3dd57421	0.104225405
108	0x3dcfeb14	0.101522595
109	0x3d610273	0.054933976
110	0xbd64cbec	-0.055858538
111	0x3db8b231	0.09018362
112	0x3b06835f	0.002052508
113	0xbd1c3fe1	-0.038146857
114	0x3d76727b	0.06016777
115	0x3de2ef31	0.110807784
116	0x3d85d2ee	0.06534372
117	0x3cd09455	0.025461355
118	0x3ca72806	0.020404827
119	0x3b2719a7	0.0025497468
120	0x3dc15f48	0.094420016
121	0xbc498f9a	-0.012302304
122	0x3d631c7d	0.05544709
123	0xbcbc1c2f	-0.022962658
124	0xbd7e560e	-0.062093787
125	0xbd46d1fd	-0.048540104
126	0x3dba3464	0.09092024
127	0xbbd383aa	-0.0064549046

action_model._discrete_distribution.branches.0.weight f4 [8, 128]
0	0x3c1ea961	0.009683938
1	0x3c87d981	0.016583206
2	0x3cfc6d80	0.030813932
3	0x3bf641da	0.0075151743
4	0x3c061883	0.008184555
5	0xbb23e4d9	-0.002500823
6	0x3b18d2fa	0.0023319111
7	0x3c9b4d6c	0.018957816
8	0x3c8b073b	0.016971221
9	0xbd4549bf	-0.048166033
10	0x3c52ab0e	0.012858165
11	0xbb3bc2e4	-0.00286501
12	0x3ab25ba4	0.0013607633
13	0xbb7be1f5	-0.0038434241
14	0x3c9f9666	0.019480895
15	0x3ce0543e	0.02738392
16	0x3ce0e897	0.027454657
17	0xbd00d5e1	-0.03145397
18	0x3d2e2b78	0.042521924
19	0xbbd27a87	-0.006423298
20	0xbc9368af	-0.017994253
21	0x3ca5a0e2	0.020218316
22	0x3c8db87c	0.017299883
23	0x3bd414b2	0.0064721936
24	0xbb39b6ab	-0.0028337638
25	0xbc6e8926	-0.014559066
26	0xbba0ee40	-0.004911214
27	0x3c60f256	0.013729652
28	0x3ca31f2e	0.019912329
29	0xbb8c5f5f	-0.00428383
30	0xbc0e2675	-0.008676161
31	0x3d1d3527	0.03838077
32	0x3cbd6b37	0.023122413
33	0x3d2846ee	0.04108327
34	0xbbfa1e87	-0.0076330337
35	0xbc43d5eb	-0.0119528575
36	0xbc9c92f7	-0.019113047
37	0x3c4a65f8	0.012353413
38	0xbca3e811	-0.020008119
39	0xbca1ffe1	-0.019775333
40	0x3c3f6e1e	0.011683969
41	0x3c8f067c	0.017459147
42	0x3c258d53	0.010104495
43	0x3d03733a	0.03209231
44	0x3babdc8a	0.005244796
45	0xbbb7bd5e	-0.005607291
46	0x3c8d7001	0.017265322
47	0xbce594ad	-0.028024996
48	0x3b07b3e7	0.0020706595
49	0x3c78610e	0.015159858
50	0x3d3f2878	0.046669453
51	0xbc617174	-0.0137599595
52	0x3d27186f	0.040794786
53	0x3d1f3d24	0.038876668
54	0x3cb6cb9d	0.022313887
55	0x3cafaf25	0.02144582
56	0x3c6f3d19	0.014601969
57	0x3ce04bec	0.027379952
58	0x3c115368	0.008869983
59	0x3a5109f7	0.0007974202
60	0x3cfa77e7	0.030574752
61	0xbc12d1d1	-0.008961157
62	0xbc10c7ee	-0.008836729
63	0x3d27f1e4	0.04100217
64	0x3cdde955	0.0270888
65	0x3c839ee6	0.01606698
66	0x3d08705a	0.03331027
67	0x3c1954a8	0.0093585625
68	0x3cff1676	0.03113864
69	0x3d1314af	0.035908397
70	0x3b89af44	0.0042018015
71	0xbb7704e7	-0.003769213
72	0xbca37e23	-0.019957608
73	0x3c992a54	0.018696941
74	0x3bd7b71a	0.0065831067
75	0x3ca0a293	0.019608771
76	0x3c39d70e	0.011342777
77	0x3c907840	0.017635465
78	0xbc2f94f8	-0.010716669
79	0xbc1471e9	-0.009060361
80	0xbc93cb5d	-0.018041307
81	0x3bb50801	0.005524636
82	0x3cbf3520	0.023340762
83	0x3ca46816	0.020069163
84	0x3d345ec6	0.044035695
85	0xbd00b338	-0.031420916
86	0xbc66108b	-0.01404203
87	0xbbee8e65	-0.0072801583
88	0x3ca6af97	0.0203474
89	0x3cbed6f3	0.023295855
90	0xbce5403d	-0.027984733
91	0x3c8f536e	0.017495837
92	0xbc01d8d2	-0.007925229
93	0x3c08df49	0.008354017
94	0xbcf8b7ab	-0.030361017
95	0x3cdd099c	0.026982121
96	0xbb133a88	-0.0022465307
97	0x3cd5fa9a	0.026120473
98	0x3c899dcf	0.016798882
99	0x3cb60bdd	0.022222454
100	0xbc9803fb	-0.018556586
101	0x3c44c415	0.01200964
102	0x3d1207d4	0.035651997
103	0x3c1ff35d	0.009762612
104	0xbca54e75	-0.020179013
105	0xbafea7f7	-0.001942872
106	0xbcfa28b1	-0.030536981
107	0xbbdab160	-0.006673977
108	0x3c854c54	0.016271748
109	0xbbd6156b	-0.006533315
110	0xbc8a27b6	-0.016864639
111	0xbcbc6f85	-0.023002395
112	0xbbf3fbc9	-0.0074457866
113	0xbd06ed57	-0.03294119
114	0x3b91a9ab	0.004445275
115	0x3d0bc1d4	0.034120396
116	0x3cb94498	0.022615716
117	0xbb985922	-0.0046492973
118	0xbc09aa46	-0.008402413
119	0xbd32f594	-0.043691233
120	0x3c0e2a0b	0.008677016
121	0xbbfc8d74	-0.007707292
122	0x3c7b515d	0.015339223
123	0xbd1361b0	-0.035981834
124	0x3b89b1fb	0.004202125
125	0xbc44cbb9	-0.012011462
126	0xba8ad89f	-0.0010593123
127	0xbcc8349f	-0.024439154
128	0x3bf2311b	0.0073911077
129	0xbc96173f	-0.018321631
130	0x3b46fdc1	0.0030363651
131	0x3c10edb9	0.00884574
132	0x3c0ecb11	0.008715407
133	0xbb0b291b	-0.0021234218
134	0x3c01a350	0.007912472
135	0x3c64899a	0.013948822
136	0xbcd33e69	-0.025786595
137	0xbca25ca9	-0.019819574
138	0x3af88721	0.001896117
139	0xbcb3f158	-0.021965668
140	0x3bf3c124	0.0074387956
141	0x3c9b776b	0.018977841
142	0x3c001aa1	0.007818849
143	0xbbf39195	-0.007433126
144	0xbcbb0803	-0.022830969
145	0xbc7f8874	-0.015596498
146	0x3d1cb2c6	0.03825643
147	0xbbb33347	-0.005468759
148	0x3d09d968	0.0336546
149	0x3cfc373a	0.030788053
150	0x3ca4a827	0.020099713
151	0x3bb4004f	0.005493201
152	0xbc9c83c3	-0.019105798
153	0x3bb764ef	0.005596749
154	0xbd089c43	-0.033352148
155	0x3c8447a6	0.016147446
156	0x3c033fac	0.008010786
157	0x3c00c2ec	0.007858973
158	0xbd4e4e37	-0.05036756
159	0x3d007fb6	0.031371795
160	0x3c970af7	0.018437846
161	0xbbc42ede	-0.0059870323
162	0x3ce07227	0.027398182
163	0xbc2435a9	-0.010022559
164	0x3ca2978c	0.019847654
165	0x3d11307f	0.03544664
166	0xbb8554b7	-0.0040689367
167	0xbca9ae04	-0.02071286
168	0x3d357547	0.044301298
169	0x3b988e8e	0.0046556657
170	0xbb91639a	-0.0044369223
171	0x3d1d7368	0.038440138
172	0xbd540c4d	-0.051769543
173	0x3d5c7aef	0.053828176
174	0xb82ad39e	-4.0728242e-05
175	0xbbc1e881	-0.005917609
176	0x3c8fb52c	0.017542444
177	0x3c2e0d06	0.010623222
178	0x3c4899d1	0.012243704
179	0xbbb21eeb	-0.0054358146
180	0x3ab00915	0.0013430441
181	0x3b9661cd	0.0045892955
182	0x3c6500ae	0.013977213
183	0x3c00d951	0.007864312
184	0x3c89eeb7	0.01683746
185	0x3cda231f	0.026628075
186	0x3c507686	0.012723571
187	0x3ce86246	0.028367173
188	0x3ca29709	0.01984741
189	0xba06d7ae	-0.0005143833
190	0x3c929446	0.017892968
191	0x3d2bfa0e	0.041986518
192	0x3cb1be2f	0.021697132
193	0x3c3247c4	0.010881368
194	0xbb46dcc0	-0.003034398
195	0xbca67dc1	-0.020323636
196	0x3cd0b05c	0.02547472
197	0x3c4fee9f	0.012691169
198	0xbd404a2e	-0.046945743
199	0xbb0621a2	-0.0020466824
200	0x3cbd6fa6	0.023124527
201	0x3cf57b2e	0.029965963
202	0x3d045cf5	0.032315213
203	0xbcb895d6	-0.022532385
204	0x3bde9ea0	0.006793812
205	0x3bb44435	0.005501295
206	0x3c9c8efe	0.019111153
207	0xbb0dedad	-0.0021656558
208	0x39809196	0.00024522532
209	0x3cbbb4cf	0.022913365
210	0xbc902f29	-0.017600613
211	0x3cb4e13d	0.022080058
212	0xbd5099c3	-0.05092789
213	0x3d1344db	0.035954338
214	0xbafcdcee	-0.0019291916
215	0x3c7dfcb1	0.015502141
216	0xbd3155a1	-0.043294553
217	0xbca7c957	-0.020481749
218	0x3b94d533	0.004542017
219	0x3c2dc5d1	0.010606245
220	0x3b507022	0.0031805118
221	0x3a510cf3	0.0007974647
222	0xbcae071d	-0.021243626
223	0x3bb3bf2a	0.005485435
224	0x3ba1e3cf	0.004940487
225	0x3b110db9	0.0022133423
226	0x3ab4f581	0.0013806076
227	0xbaddc974	-0.0016921
228	0x3c0716d1	0.008245186
229	0xbc286348	-0.010277577
230	0xbbb2be9a	-0.0054548504
231	0xbb91157c	-0.00442761
232	0xbbb8add5	-0.005635957
233	0xbba942c8	-0.0051654316
234	0xb90c140f	-0.00013358913
235	0x3c830196	0.015991967
236	0x3d01cbf2	0.031688638
237	0x3cc76044	0.024337895
238	0xbd34020d	-0.04394727
239	0x3c838bd5	0.016057888
240	0x3c927594	0.017878331
241	0xbcd5d6d5	-0.026103416
242	0x3d7f64b8	0.062351912
243	0x3ce7ae49	0.028281348
244	0x3c90440d	0.017610574
245	0xbce17ba6	-0.02752478
246	0xbc296cbf	-0.0103408685
247	0x3cce7ec3	0.02520693
248	0x3c8c610a	0.017136116
249	0xbbbea0f9	-0.0058175293
250	0x3c4a37f7	0.012342445
251	0xbce14c05	-0.02750207
252	0x3c14ab04	0.009073976
253	0xbcaee5cf	-0.021349816
254	0xbc107df2	-0.00881909
255	0xbd2bf28e	-0.041979365

action_model._discrete_distribution.branches.0.bias f4 [8]
0	0x3c98c6bc	0.018649451
1	0x3c68aac0	0.014200866
2	0x3d166761	0.036719684
3	0x3d36460c	0.044500396
4	0xbdadc74f	-0.08485281
5	0xbd3c5c00	-0.045986176
6	0xbd7ec3a6	-0.062198304
7	0x3cdd65ba	0.027026046

exp_avg f4 [128, 26]
0	0xb932511d	-0.0001700562
1	0xb8b1b72b	-8.4741354e-05
2	0xb9b9c2b5	-0.00035431018
3	0xb91ac7fe	-0.00014761087
4	0xb929f987	-0.00016210052
5	0x00000000	0.0
6	0xb88f296a	-6.826485e-05
7	0x398b2b1a	0.0002654426
8	0xb8c96e9f	-9.605032e-05
9	0x00000000	0.0
10	0xba178906	-0.0005780611
11	0x3a112ca5	0.00055379636
12	0xb9c4531c	-0.00037445955
13	0x3895fff9	7.152552e-05
14	0xb96ca516	-0.00022568213
15	0xb8adab3f	-8.28118e-05
16	0xb8b76918	-8.745695e-05
17	0xb8beb81c	-9.094199e-05
18	0xb9944b7a	-0.00028284994
19	0x39d217e5	0.00040072124
20	0xb882f5db	-6.244677e-05
21	0xb86ee107	-5.6953195e-05
22	0x00000000	0.0
23	0x382ec071	4.1664058e-05
24	0xb8ab9ddd	-8.18332e-05
25	0x3a9207af	0.0011141206
26	0xb5b1bd6e	-1.3242659e-06
27	0xb531246b	-6.5990633e-07
28	0xb7b3535e	-2.1377284e-05
29	0xb59a48e9	-1.1495114e-06
30	0xb874e169	-5.8384063e-05
31	0x00000000	0.0
32	0xb50eb2de	-5.315941e-07
33	0x3888f5f0	6.530795e-05
34	0xb548c897	-7.47977e-07
35	0x00000000	0.0
36	0x3830a326	4.2113614e-05
37	0x389b9efe	7.4205906e-05
38	0xb99ba171	-0.00029684187
39	0x35158450	5.5699365e-07
40	0xb813544f	-3.512605e-05
41	0xb52d1c14	-6.448838e-07
42	0xb536d24e	-6.8106317e-07
43	0x375b2e33	1.3064174e-05
44	0xb8009bcf	-3.0662686e-05
45	0x37de7423	2.6518543e-05
46	0xb50289d5	-4.8629346e-07
47	0xb4ee1c47	-4.435153e-07
48	0x00000000	0.0
49	0xb7f764c7	-2.9491623e-05
50	0xb8a3a9d5	-7.804079e-05
51	0x374367ee	1.1647104e-05
52	0xb7883f80	-1.6242033e-05
53	0xb707c9d4	-8.093619e-06
54	0xb71eb2a0	-9.459123e-06
55	0xb76c8773	-1.4098233e-05
56	0xb9bcca99	-0.000360091
57	0x00000000	0.0
58	0xb6dac5d0	-6.5199347e-06
59	0x39d55231	0.00040687763
60	0xb719e8fc	-9.173757e-06
61	0x00000000	0.0
62	0x39035034	0.00012523012
63	0x3925ca73	0.00015811044
64	0xb9fb3afc	-0.00047918397
65	0x36e53908	6.831371e-06
66	0xb8ee87d5	-0.00011374025
67	0xb704b25e	-7.9093425e-06
68	0xb70c23be	-8.352972e-06
69	0x3893202a	7.015497e-05
70	0xb9c6702c	-0.00037849077
71	0x39c5bb9a	0.00037714542
72	0xb6c820b7	-5.964273e-06
73	0xb6b685b5	-5.439588e-06
74	0x00000000	0.0
75	0xb93e4cda	-0.00018148441
76	0x386cfe58	5.650366e-05
77	0x393a33d7	0.00017757654
78	0x3798fad2	1.823661e-05
79	0x371876cc	9.087566e-06
80	0x37fd5e9c	3.0204006e-05
81	0x3784c9de	1.5829628e-05
82	0x389d2337	7.492903e-05
83	0x00000000	0.0
84	0x36f5a3d3	7.3206406e-06
85	0xb8c14e8d	-9.2175884e-05
86	0x372ccf99	1.0300334e-05
87	0x00000000	0.0
88	0xb6f1bc7e	-7.204303e-06
89	0xb8f57298	-0.00011703855
90	0x3995331e	0.0002845758
91	0xb700afbe	-7.670313e-06
92	0x38319354	4.23373e-05
93	0x3714fe12	8.880643e-06
94	0x371d598e	9.37878e-06
95	0xb788d5c2	-1.6312002e-05
96	0x38bc2261	8.970942e-05
97	0xb8c38e8d	-9.324877e-05
98	0x36e0b45a	6.696716e-06
99	0x36ccefd2	6.1075925e-06
100	0x00000000	0.0
101	0x387cfa9a	6.0314873e-05
102	0xb8216e88	-3.848833e-05
103	0xb8f92273	-0.00011879662
104	0xb739a303	-1.1064813e-05
105	0xb6b902cb	-5.513755e-06
106	0xb7a2580f	-1.935291e-05
107	0xb7212295	-9.6044e-06
108	0x368638b1	4.000111e-06
109	0x00000000	0.0
110	0xb69509e4	-4.4416975e-06
111	0x359c6ec8	1.1655147e-06
112	0xb6d1b375	-6.249577e-06
113	0x00000000	0.0
114	0xb842cf32	-4.644617e-05
115	0x37d028e3	2.4814572e-05
116	0xb71853f4	-9.079453e-06
117	0x369c284d	4.653854e-06
118	0xb709fdd2	-8.2249335e-06
119	0xb6b4cc4f	-5.3882027e-06
120	0xb6bef08a	-5.6904437e-06
121	0xb70df0bd	-8.460306e-06
122	0x36f6f8ab	7.36032e-06
123	0xb5103a84	-5.372933e-07
124	0xb6885619	-4.063139e-06
125	0xb678af66	-3.7056975e-06
126	0x00000000	0.0
127	0x36d17541	6.2423355e-06
128	0xb7a5c4ac	-1.9761115e-05
129	0x389ea84e	7.565376e-05
130	0x38056d71	3.1811596e-05
131	0x3784fa3f	1.5852156e-05
132	0x388119ef	6.15603e-05
133	0x37e7a23d	2.7612894e-05
134	0x383b4893	4.4651864e-05
135	0x00000000	0.0
136	0x37563eae	1.2769988e-05
137	0xb8896704	-6.551857e-05
138	0x3796b945	1.7967666e-05
139	0x00000000	0.0
140	0x3936c5b1	0.00017430518
141	0xb6aa7d0a	-5.0809513e-06
142	0xb9ffd39c	-0.0004879505
143	0xb7607a65	-1.3379938e-05
144	0x3872883b	5.782417e-05
145	0x3781f327	1.5491225e-05
146	0x37893d28	1.636015e-05
147	0x383694c0	4.3530716e-05
148	0x384539ef	4.7022415e-05
149	0xb8ae3428	-8.3066814e-05
150	0x3743fc27	1.16816145e-05
151	0x3732be7e	1.0653979e-05
152	0x00000000	0.0
153	0x38880ecd	6.487742e-05
154	0xb7959b21	-1.7834422e-05
155	0xb9703706	-0.00022908681
156	0x382d2476	4.128037e-05
157	0x37ac8f00	2.0570587e-05
158	0x38090721	3.2669985e-05
159	0x38164a33	3.583189e-05
160	0xb8a6a4d3	-7.946198e-05
161	0x00000000	0.0
162	0x378b01ef	1.6570992e-05
163	0x388cba2b	6.710397e-05
164	0x37c3964b	2.3315797e-05
165	0x00000000	0.0
166	0x39536cc9	0.00020163054
167	0xb8b24f57	-8.5024796e-05
168	0xb88bc4f8	-6.664725e-05
169	0xb791a5ae	-1.7362498e-05
170	0x3804c948	3.165871e-05
171	0x37a8a121	2.0102192e-05
172	0x37b2169a	2.1229778e-05
173	0x37aea17c	2.0817613e-05
174	0xb74e09ff	-1.2280884e-05
175	0xb71085ff	-8.614267e-06
176	0x377e51fa	1.5158666e-05
177	0x3767f285	1.3825139e-05
178	0x00000000	0.0
179	0xb8880522	-6.4859414e-05
180	0x3852fb05	5.030168e-05
181	0xb98f6a76	-0.00027354405
182	0xb885991f	-6.370455e-05
183	0xb80525cc	-3.1744872e-05
184	0xb8b25156	-8.5028514e-05
185	0xb867ee05	-5.5296365e-05
186	0xb913299c	-0.00014034513
187	0x00000000	0.0
188	0xb7d684c8	-2.5572619e-05
189	0x3944b31f	0.00018758744
190	0xb816eaa3	-3.598131e-05
191	0x00000000	0.0
192	0xb9931263	-0.00028051724
193	0x38ff8ce5	0.00012185591
194	0x39a43a2a	0.00031323853
195	0x37e0c3de	2.6794089e-05
196	0xb85242f4	-5.0130257e-05
197	0xb8021da8	-3.1022035e-05
198	0xb8096a19	-3.2762156e-05
199	0xb8a727b4	-7.970576e-05
200	0xb8971555	-7.2042145e-05
201	0x3910ee60	0.00013821712
202	0xb7c43c59	-2.3393122e-05
203	0xb7b2f8f5	-2.1335183e-05
204	0x00000000	0.0
205	0x37d36956	2.5202211e-05
206	0x388c087b	6.6773e-05
207	0x39de1a4c	0.00042362732
208	0x38eb296d	0.000112133894
209	0x386a5e6d	5.587789e-05
210	0x38e57bde	0.00010942643
211	0x38cc1f95	9.733361e-05
212	0xb916e894	-0.00014391757
213	0x00000000	0.0
214	0x383cccbf	4.5013378e-05
215	0x38d741ac	0.00010264231
216	0x3884d2b0	6.333494e-05
217	0x00000000	0.0
218	0x39d810ed	0.0004121134
219	0xb978ae35	-0.0002371602
220	0xb784ee13	-1.5846488e-05
221	0xb845d158	-4.7163427e-05
222	0xb8148848	-3.541287e-05
223	0x3865083f	5.4605534e-05
224	0x3871e119	5.7668516e-05
225	0x391bec12	0.00014869895
226	0xb94be195	-0.00019443624
227	0x38d45a53	0.00010125772
228	0x382cb572	4.117698e-05
229	0x381d83e7	3.755456e-05
230	0x00000000	0.0
231	0xb9814b40	-0.00024660863
232	0x3927a7f4	0.00015988928
233	0xba3c9741	-0.00071941694
234	0xb7d62af7	-2.5530795e-05
235	0xb7557213	-1.2722349e-05
236	0xb85b3388	-5.226166e-05
237	0xb7b9e67d	-2.2161048e-05
238	0xb9081562	-0.00012977936
239	0x00000000	0.0
240	0xb72bf1d8	-1.0248703e-05
241	0x3924324b	0.00015658994
242	0xb771ee31	-1.4420178e-05
243	0x00000000	0.0
244	0xb8a5e325	-7.910122e-05
245	0x37079ec4	8.083593e-06
246	0x3944edc5	0.00018780593
247	0x37342860	1.0738237e-05
248	0xb8124400	-3.4872442e-05
249	0xb75095d8	-1.2432654e-05
250	0xb75c4918	-1.313004e-05
251	0xb865c4a8	-5.4781005e-05
252	0xb85b8afc	-5.2343108e-05
253	0x38c3dce5	9.3394694e-05
254	0xb71d4a42	-9.375219e-06
255	0xb70f73ff	-8.550472e-06

exp_avg_sq f4 [128, 26]
0	0x35c634a0	1.4767465e-06
1	0x34876e15	2.5225805e-07
2	0x360ed986	2.1286264e-06
3	0x35806ebb	9.56897e-07
4	0x3684ab68	3.953861e-06
5	0x00000000	0.0
6	0x3431b299	1.6549383e-07
7	0x36d00c03	6.2002814e-06
8	0x3552c80d	7.852221e-07
9	0x00000000	0.0
10	0x3641c5c3	2.8874354e-06
11	0x367a0569	3.7256052e-06
12	0x3688ae35	4.073396e-06
13	0x345c6894	2.0527142e-07
14	0x36051c17	1.9834895e-06
15	0x34806425	2.3914723e-07
16	0x34d6b041	3.9988848e-07
17	0x348ad075	2.5856176e-07
18	0x36916ce8	4.334015e-06
19	0x3704f13c	7.92398e-06
20	0x3411ffde	1.3597261e-07
21	0x33eefb74	1.1128478e-07
22	0x00000000	0.0
23	0x34df15ae	4.155276e-07
24	0x34a9c9d9	3.1625567e-07
25	0x373b6df4	1.1171669e-05
26	0x34d52dce	3.970767e-07
27	0x338a9016	6.452335e-08
28	0x34dc2bf1	4.1010165e-07
29	0x346e9f52	2.2223438e-07
30	0x35810e2f	9.615377e-07
31	0x00000000	0.0
32	0x33290046	3.9348627e-08
33	0x35dc4b78	1.6413242e-06
34	0x34a565cd	3.0807715e-07
35	0x00000000	0.0
36	0x352fad45	6.544472e-07
37	0x353c40df	7.012986e-07
38	0x353bbcea	6.9937835e-07
39	0x3339f0b6	4.3292594e-08
40	0x34ef0511	4.4520905e-07
41	0x337c3fd5	5.8731377e-08
42	0x338e323a	6.6215264e-08
43	0x338ef1ee	6.656397e-08
44	0x355d988e	8.255091e-07
45	0x35c0a88f	1.4354172e-06
46	0x33247753	3.829275e-08
47	0x32c24cbb	2.2619465e-08
48	0x00000000	0.0
49	0x34370a81	1.7047024e-07
50	0x3429fa64	1.5830443e-07
51	0x3629363e	2.5214536e-06
52	0x358767fc	1.0088547e-06
53	0x345738b0	2.0044058e-07
54	0x36086e82	2.0329903e-06
55	0x35287505	6.2755163e-07
56	0x36805249	3.8242765e-06
57	0x00000000	0.0
58	0x340df5a5	1.3221013e-07
59	0x36dbb28d	6.5474946e-06
60	0x349212af	2.7208213e-07
61	0x00000000	0.0
62	0x3633fe1c	2.682099e-06
63	0x36409796	2.8698464e-06
64	0x3618ed4e	2.2787895e-06
65	0x3406e6ce	1.2563689e-07
66	0x35e097e2	1.6733504e-06
67	0x34509614	1.9426108e-07
68	0x3473189f	2.2640096e-07
69	0x349037c3	2.6862662e-07
70	0x365de149	3.30627e-06
71	0x36c0fab1	5.75123e-06
72	0x33cc4359	9.511741e-08
73	0x33c6b04d	9.2521624e-08
74	0x00000000	0.0
75	0x35001811	4.7718737e-07
76	0x34d50ce7	3.968373e-07
77	0x373198d4	1.0585605e-05
78	0x33f96067	1.16125015e-07
79	0x33b96fd5	8.635076e-08
80	0x34828ca8	2.4316728e-07
81	0x33fb60c3	1.1705699e-07
82	0x350161e6	4.8198706e-07
83	0x00000000	0.0
84	0x33378213	4.272631e-08
85	0x352eb9f8	6.509067e-07
86	0x3508e84c	5.1001985e-07
87	0x00000000	0.0
88	0x35123a56	5.447413e-07
89	0x34d418e7	3.9506196e-07
90	0x34da1e21	4.0627586e-07
91	0x32ae9530	2.0324109e-08
92	0x3484762f	2.4672906e-07
93	0x33c2553a	9.0493316e-08
94	0x33220b18	3.7728654e-08
95	0x3402c638	1.2179305e-07
96	0x34d52a5b	3.970516e-07
97	0x3520058d	5.961272e-07
98	0x33080877	3.1672666e-08
99	0x33a00758	7.4519164e-08
100	0x00000000	0.0
101	0x346f43d0	2.228328e-07
102	0x3445a2f7	1.8406341e-07
103	0x35b27a3a	1.3297606e-06
104	0x34e60ab5	4.284863e-07
105	0x33d0c974	9.722399e-08
106	0x35bb1050	1.3937333e-06
107	0x34b69761	3.4010284e-07
108	0x35eba25a	1.7556115e-06
109	0x00000000	0.0
110	0x33acf31b	8.053595e-08
111	0x36356070	2.7027236e-06
112	0x36163bb0	2.2386484e-06
113	0x00000000	0.0
114	0x3586015e	9.984176e-07
115	0x35a22f9e	1.2083799e-06
116	0x35b43973	1.3427765e-06
117	0x33989cc3	7.1065664e-08
118	0x359b73a2	1.1582054e-06
119	0x33c76b55	9.286183e-08
120	0x341ff0b1	1.4895592e-07
121	0x3503f332	4.91552e-07
122	0x35d83da1	1.611119e-06
123	0x362a8dff	2.5414627e-06
124	0x336e5d3d	5.5498493e-08
125	0x33471950	4.635632e-08
126	0x00000000	0.0
127	0x34b333f8	3.337916e-07
128	0x3506fdc1	5.028815e-07
129	0x3571caea	9.0074775e-07
130	0x357a5e95	9.326989e-07
131	0x342f6d00	1.6337799e-07
132	0x35c30d82	1.4532563e-06
133	0x3523c9c7	6.1015857e-07
134	0x36737b20	3.628149e-06
135	0x00000000	0.0
136	0x340aa5bc	1.2912545e-07
137	0x36dc572d	6.5666595e-06
138	0x346a4ed5	2.1821627e-07
139	0x00000000	0.0
140	0x3604c946	1.978669e-06
141	0x361f93d0	2.3778884e-06
142	0x360bd307	2.0835448e-06
143	0x33fc4d67	1.1748744e-07
144	0x35c1b12d	1.4431185e-06
145	0x3427ec59	1.563907e-07
146	0x34bc3cb4	3.5061896e-07
147	0x348bf1eb	2.6066786e-07
148	0x364b11e2	3.0259766e-06
149	0x36b9ee55	5.541175e-06
150	0x33c1c320	9.022756e-08
151	0x339adc4c	7.2112556e-08
152	0x00000000	0.0
153	0x3488f75f	2.551196e-07
154	0x34698189	2.174694e-07
155	0x36cc994a	6.097519e-06
156	0x34600c1e	2.0866034e-07
157	0x33b9eb9e	8.657592e-08
158	0x34ad8a2c	3.2324294e-07
159	0x3445f674	1.8436714e-07
160	0x354e92f4	7.6954825e-07
161	0x00000000	0.0
162	0x32fc2a6e	2.9355956e-08
163	0x35b0133c	1.311862e-06
164	0x34809d31	2.395623e-07
165	0x00000000	0.0
166	0x351d2f65	5.8556026e-07
167	0x35108061	5.3830996e-07
168	0x350bb5e6	5.204623e-07
169	0x33308b3d	4.110483e-08
170	0x34bc5c37	3.5084824e-07
171	0x33b80f56	8.570957e-08
172	0x3353a7a1	4.9279723e-08
173	0x33436c9c	4.5500755e-08
174	0x35382791	6.860292e-07
175	0x359eb634	1.1824945e-06
176	0x33005534	2.9879814e-08
177	0x33352da7	4.2183867e-08
178	0x00000000	0.0
179	0x34197366	1.4291217e-07
180	0x34241f32	1.5285039e-07
181	0x35c0428e	1.4324485e-06
182	0x347d4079	2.3585916e-07
183	0x3362b9e2	5.2788785e-08
184	0x34fe24af	4.7337878e-07
185	0x340c95ef	1.3093062e-07
186	0x352a1243	6.335651e-07
187	0x00000000	0.0
188	0x33ee2d65	1.1090996e-07
189	0x352b6458	6.3848483e-07
190	0x35c75054	1.4850034e-06
191	0x00000000	0.0
192	0x35234d4c	6.0834714e-07
193	0x351ded88	5.883271e-07
194	0x35273957	6.229579e-07
195	0x33025cd9	3.0352428e-08
196	0x350f2730	5.3328677e-07
197	0x3360db35	5.2353432e-08
198	0x340bc521	1.3017099e-07
199	0x3498a694	2.8433408e-07
200	0x3505fb38	4.991193e-07
201	0x35280b34	6.260118e-07
202	0x338144ce	6.019546e-08
203	0x3311982b	3.389884e-08
204	0x00000000	0.0
205	0x34fefb71	4.7494134e-07
206	0x34c1db66	3.6108685e-07
207	0x35a8a917	1.2566187e-06
208	0x354ba1fd	7.5859117e-07
209	0x3434362b	1.6783513e-07
210	0x3668e887	3.4706043e-06
211	0x350539e6	4.9630614e-07
212	0x35ea6c84	1.7465941e-06
213	0x00000000	0.0
214	0x34093616	1.2778796e-07
215	0x35cd0ef8	1.5278047e-06
216	0x36371ae2	2.7284773e-06
217	0x00000000	0.0
218	0x35f2ad98	1.8080927e-06
219	0x361b0485	2.309943e-06
220	0x3610c37c	2.157146e-06
221	0x33f9e670	1.16368824e-07
222	0x36028663	1.9449733e-06
223	0x342f1c3c	1.6308417e-07
224	0x345b6a13	2.0434554e-07
225	0x356f8713	8.9230997e-07
226	0x360bafcd	2.0814944e-06
227	0x362e95af	2.6015148e-06
228	0x33c96bcd	9.379401e-08
229	0x341d403c	1.4645133e-07
230	0x00000000	0.0
231	0x35825893	9.711533e-07
232	0x35b8a040	1.3755707e-06
233	0x368d5f25	4.2132037e-06
234	0x34820a1e	2.4221748e-07
235	0x3344117f	4.565072e-08
236	0x349da8d2	2.9366362e-07
237	0x33e9b6c9	1.08831564e-07
238	0x352f154b	6.5223566e-07
239	0x00000000	0.0
240	0x3302cd9a	3.0454977e-08
241	0x359139af	1.082013e-06
242	0x3488cbd8	2.548029e-07
243	0x00000000	0.0
244	0x351a4bf6	5.748001e-07
245	0x34fd2f32	4.715926e-07
246	0x34ffd1f0	4.76502e-07
247	0x32c4310a	2.2839703e-08
248	0x349e1a89	2.94491e-07
249	0x3325fc11	3.864631e-08
250	0x333bf351	4.3760625e-08
251	0x338c4cea	6.5332486e-08
252	0x35158a40	5.5708006e-07
253	0x3583f76b	9.832269e-07
254	0x3307eebf	3.1649275e-08
255	0x328e1db8	1.654449e-08

exp_avg f4 [128]
0	0x39b8ca76	0.0003524606
1	0x3638315e	2.7446872e-06
2	0x380d31d6	3.3663433e-05
3	0xb81e88ae	-3.779743e-05
4	0x37c06067	2.2933074e-05
5	0xb88a4596	-6.593314e-05
6	0xb8b36db9	-8.5558226e-05
7	0x390a72d5	0.00013203484
8	0xb973b31a	-0.00023241006
9	0x385df17b	5.2915402e-05
10	0xb8c8a192	-9.566838e-05
11	0xb8d8b2c3	-0.000103329796
12	0xb8b47d03	-8.606354e-05
13	0x3614b56d	2.2159322e-06
14	0xb8f343d5	-0.00011599778
15	0xb9024482	-0.00012423287
16	0x390d3554	0.00013466674
17	0xb8d138c8	-9.976473e-05
18	0xb8e6055a	-0.000109682514
19	0xb883275c	-6.253898e-05
20	0x39436f81	0.00018638188
21	0xb88da2ee	-6.753752e-05
22	0xb91b79d1	-0.00014827332
23	0xb9ee08ce	-0.00045401457
24	0xb8c996ca	-9.6125135e-05
25	0xb93525e0	-0.00017275615
26	0xb99ee69d	-0.0003030793
27	0x37ae40a3	2.0772515e-05
28	0xb8ceb424	-9.856399e-05
29	0x38df628a	0.00010651823
30	0xb94c13c7	-0.00019462324
31	0x392a8786	0.0001626295
32	0xb9b632d9	-0.0003475163
33	0x38b04a38	8.406158e-05
34	0xb88e1db5	-6.776621e-05
35	0xb71aba4a	-9.222489e-06
36	0xba037c43	-0.000501577
37	0x3888b448	6.518565e-05
38	0xb98cfe14	-0.00026892184
39	0x39387865	0.00017592458
40	0x398a6a23	0.0002640049
41	0xb9c34cdb	-0.0003725056
42	0xb79f014e	-1.8954885e-05
43	0xb9393ebd	-0.00017666347
44	0xb8241ea6	-3.912919e-05
45	0xb7017695	-7.716609e-06
46	0x3685c7dc	3.9869756e-06
47	0xb9014bae	-0.00012330592
48	0xb830c6a5	-4.2146672e-05
49	0xb934793f	-0.00017211305
50	0xb962f991	-0.0002164601
51	0xb9167e94	-0.00014352269
52	0x3795b0c7	1.7844503e-05
53	0xb9939996	-0.00028152455
54	0x3911ae13	0.00013893125
55	0xb930bd37	-0.00016855156
56	0xb9176e49	-0.00014441567
57	0x3832b901	4.2610805e-05
58	0x38982ae8	7.255917e-05
59	0xb90b7959	-0.00013301279
60	0xb94f9daa	-0.00019799793
61	0xb62e8105	-2.600312e-06
62	0xb8a75670	-7.979281e-05
63	0xb98fe33b	-0.00027444385
64	0xb7b57701	-2.1632297e-05
65	0xb930f358	-0.0001687532
66	0x390fff50	0.00013732654
67	0x37e2480d	2.697485e-05
68	0xb90bf99a	-0.00013349057
69	0x3971c422	0.00023056616
70	0xb9a85017	-0.0003210313
71	0x3908dda8	0.00013052544
72	0x368694b7	4.010824e-06
73	0xb9a5c7bc	-0.00031620066
74	0x3978c757	0.00023725383
75	0xb7a1f3cd	-1.9306224e-05
76	0xb97d40ac	-0.00024152052
77	0xb792a0ae	-1.7479379e-05
78	0xb9463a2b	-0.0001890442
79	0x381511fa	3.554111e-05
80	0x38b9b379	8.854917e-05
81	0xb9944751	-0.00028281895
82	0xb97ce2b1	-0.00024117042
83	0xb8b06b6d	-8.4123436e-05
84	0xb942b14b	-0.00018567329
85	0x399ad630	0.0002953275
86	0xb93edb26	-0.00018201451
87	0xb7a0ad20	-1.9154104e-05
88	0x3935474d	0.00017288067
89	0xb90acd01	-0.00013237075
90	0xb7d0b8ff	-2.4881678e-05
91	0x374e654b	1.2302141e-05
92	0xb8d623c9	-0.00010210981
93	0x3925cb2d	0.00015811315
94	0xb7d14a2b	-2.4949279e-05
95	0x391e36fd	0.00015088539
96	0xb9331d8a	-0.00017081774
97	0xb87d918e	-6.045546e-05
98	0x39307a57	0.00016830243
99	0xb97946f5	-0.00023772924
100	0x3970e3b0	0.00022973004
101	0x3983d8cd	0.00025147796
102	0x396e8cb5	0.00022749866
103	0xb8d2f138	-0.00010058511
104	0x372b5ec3	1.0214458e-05
105	0xb9924caa	-0.0002790441
106	0xb886da3c	-6.430267e-05
107	0x37fcb74b	3.0126093e-05
108	0xb921232e	-0.00015367262
109	0xb93f1683	-0.00018223566
110	0xb84fe7ab	-4.9568403e-05
111	0x387a48f9	5.9672606e-05
112	0xb9f679ac	-0.0004701143
113	0xb8a8a617	-8.041801e-05
114	0x39b28ca0	0.0003405558
115	0x3930b1ba	0.00016850876
116	0xb8b05c17	-8.409487e-05
117	0xb85276df	-5.017861e-05
118	0x3893b50b	7.043228e-05
119	0xb87dce32	-6.0511935e-05
120	0xb81d9c32	-3.7577185e-05
121	0xb902ee01	-0.0001248643
122	0xb8873739	-6.447588e-05
123	0xb9623431	-0.00021572482
124	0xb8d2b5f0	-0.00010047469
125	0x39286400	0.00016058981
126	0x378c7dc3	1.6747863e-05
127	0xb9a6d56d	-0.00031821002
