Assets/ML-Agents/results/SW_RL_TEST/OffensiveAgentPolicy/OffensiveAgentPolicy-24787.onnx (onnx, 90010 bytes, 8 tensors)

network_body.observation_encoder.processors.0.normalizer.running_mean f4 [26]
00000000: cd34 7a3f d68f 5a3e 3d3d 653e fe60 923e
00000010: 12df c83e 0000 0000 b7d5 623e e8c3 523e
00000020: a39d 383e 0000 0000 9ac8 c03e cbcd 463d
00000030: 587c 023f 57fd 7f3f 57fd 7f3f 57fd 7f3f
00000040: 57fd 7f3f 0000 0000 0000 0000 0000 0000
00000050: 0000 0000 0000 0000 0000 0000 57fd 7f3f
00000060: 57fd 7f3f 2b1c 1c3f
0.9773682 0.21343932 0.22386642 0.28589624 0.3923269 0.0 0.22151838 0.20582545
0.18028884 0.0 0.37653047 0.048536103 0.50970984 0.9999594 0.9999594 0.9999594
0.9999594 0.0 0.0 0.0 0.0 0.0 0.0 0.9999594
0.9999594 0.6098048

network_body._body_endoder.seq_layers.0.weight f4 [128, 26]
00000000: 6d5b adbd add8 093d 9503 503e 52d7 93be
00000010: 12a9 acbe d53a 25bd 3531 e23e 8d55 b2be
00000020: 2e3d 943e 4824 ccbd d4fd 793c 91d6 af3d
00000030: 9ce3 dabe 0635 1f3e 6c35 b43e fec6 873c
00000040: 1225 33bd a087 263e 04d7 7abc c14c 3bbe
00000050: a0bd 803c fc2c ae3e d03c 9e3c 1e58 1a3d
00000060: 9e9e 51bd 256c a03d 7082 2abd adf6 9b3d
00000070: 9ce5 233e 004e aebe 6016 c13d de07 d2bd
00000080: 6ecf 623e e177 ec3d e343 3e3e 3887 9ebd
00000090: dc3d bf3d a492 07bd 385e 71bd c45a 45bd
000000a0: 2b39 a1bd ac42 233e f04b 513e 9890 42be
000000b0: 56dc 333d cacf bcbd b26d 233e aaf5 153e
000000c0: a146 f73c 1a6d 05be 7ce7 193e e9cb 293c
000000d0: 19b9 833e 5c30 153c 53f1 c83d 89f2 593e
000000e0: 547e 21be 771e 853b 8e7b edbd 445e 7c3e
000000f0: 19d8 02bd f641 69be 9a4d e93d 80ac e23d
00000100: 5089 f43d dce8 5b3d e412 43be e624 9e3e
00000110: 0796 1cbe 8668 82bd 1a07 383e 197a 343e
00000120: d089 afbe 57be 60be 1b4c dcbb 78c2 1b3e
00000130: 0a50 073e 3741 66be 2153 1bbe 2cb1 b93d
00000140: 0c64 c33e 84c7 2bbd 7e94 b33d cefe 253e
00000150: c2b1 703d 7cb6 953d 1fcc 79bd 7000 8a3d
00000160: 4c62 cbbe 59c1 6cbe d09e 373e 93f3 c33e
00000170: a44e 46be a988 8d3d fcc3 23be 6684 d5bc
00000180: 3ae4 37be 103a 2fbb 58f9 54bd 8b28 50bd
00000190: 058b 883e e9a8 803e 93e2 d93d 3953 0abc
000001a0: 549d bbbc ce1d 053e 0a30 72be 5281 b8be
000001b0: 40e7 8a3d 20cc cd3e e848 5abe abe5 85be
000001c0: 1b27 11be 1e72 15bd 8e65 86be 4a6f 793d
000001d0: 8b13 573c 4940 613d a4a5 783d 7b12 4d3d
000001e0: 2e88 91bc 71ac f53e 1ff4 d2bd bf67 1a3d
000001f0: 1a95 1e3e 6b20 c83d faea 5dbd 9fc8 ac3d
00000200: 3519 0f3e fe2c 9dbd 16ae 063d e065 f83d
00000210: 3141 833e b0d1 873d aa98 efbd 6f95 cdbd
00000220: 6589 f33c e5bb e53c 1826 1abe e013 74be
00000230: 1a69 523e c3a0 673d dfab e8bc 22e9 57bd
00000240: 3dfe 2abd f2bb 1dbe f3c9 09be c8fa 043d
00000250: 7c8c 203d e717 8abe 0fb9 8abb 1a09 2a3d
00000260: 2fc9 023e c85f 3bbe 9e96 8bbe 36ec bbbd
00000270: 1796 ba3d 16be 26be 7e6d 19be 6b58 23bd
00000280: 5577 2fbe 413c 3ebe e906 11be 9796 44be
00000290: ac28 ef3d a409 783e 115d f8bc 463e 483e
000002a0: 1117 33bd 7fcd f23d 52fa 1dbd 2ea0 62be
000002b0: 5b0b e1bd e24d c83a a4d9 07bd 1560 f13d
000002c0: 748a 67be e097 17be 9260 e53b 86ec 183d
000002d0: b537 ecbe b297 8cbd 66c5 b83e 1a3c 3d3e
000002e0: 2fe5 2a3e 1f6a 28be d13f e9bc 713d 6dbe
000002f0: bc0d 56bd 958e 8dbe 2c6f e93c e4e7 943d
00000300: 7dbf 2e3e 732d 663d bd0c 30bd 4bfe 94be
00000310: f02e 4f3e 1d3f d9bd 0698 a23e eeb4 793e
00000320: 1562 a6bc 5f20 6dbb 31be 603e e1f6 91bc
00000330: 36f1 cb3d 7d1a 88be 302d 49bd 155e 65be
00000340: 1947 c8bd 2675 833d 6cbc 103e 1dce 68be
00000350: 9c24 ae3d 2754 c3bd d207 07be 4683 4d3e
00000360: f965 25bc 9a44 753d bf78 f9bd 815d 2e3f
00000370: 0a3c c73e c749 b23d b21b c3be 71ad 7a3e
00000380: cd2b 3d3e 2b7d 1c3b 6af5 ab3d b0ff d4be
00000390: f1cf 7c3e 08f1 6abd d1d2 333d 4e5e 943d
000003a0: 2b76 053d e79c 29be 20ff 51be 0305 9fbe
000003b0: 4e05 5f3e ecd9 af3e 3982 a13e ec17 b6bd
000003c0: 0c65 d7bd b7f5 06be 4ac3 8e3d 4e24 a33e
000003d0: 897c 5bbe 7e46 903c 1224 653e e792 433e
000003e0: f9d8 34bd 4f00 0b3e 8195 6d3e bc59 3fbe
000003f0: 7684 31be d342 1a3b 39c4 eabd b191 7dbe
-0.08464704 0.033653904 0.20313866 -0.28875214 -0.3372274 -0.04033931 0.44178167 -0.34830895
0.28952926 -0.099678576 0.015258271 0.08585847 -0.42751777 0.1554757 0.35197008 0.016574379
-0.043736525 0.16262674 -0.015310053 -0.18290998 0.01571542 0.34018695 0.019316107 0.03768169
-0.05117666 0.07833127 -0.0416283 0.07615409 0.16005558 -0.34043884 0.09428096 -0.10255407
0.2214944 0.115463026 0.18580584 -0.07740635 0.093379706 -0.03309883 -0.058927745 -0.048182264
-0.07872232 0.15943402 0.20439124 -0.1900047 0.0439113 -0.0921932 0.15959814 0.14644495
0.030185046 -0.130299 0.1502971 0.010363557 0.25727156 0.009105768 0.09811654 0.21283926
-0.15770847 0.0040624696 -0.11595832 0.24645334 -0.031944368 -0.22779068 0.113917544 0.11068058
0.11940253 0.05368887 -0.19050175 0.30887526 -0.15291606 -0.063675925 0.17971459 0.17624702
-0.3428483 -0.21947609 -0.0067229397 0.15210903 0.13214126 -0.22485815 -0.1516843 0.09066996
0.38162267 -0.04193832 0.08768557 0.16210482 0.058763273 0.07310197 -0.06098568 0.06738365
-0.39723432 -0.23120631 0.17931676 0.3827177 -0.19365937 0.069108315 -0.15992731 -0.026064109
-0.17958155 -0.0026737489 -0.051995605 -0.050819915 0.26668563 0.25128868 0.10638919 -0.008442693
-0.022902168 0.12999651 -0.23651138 -0.36036164 0.06782389 0.40194798 -0.21316874 -0.26151785
-0.14175074 -0.036485784 -0.26249355 0.06089715 0.013127218 0.054992948 0.060704842 0.050066452
-0.01776513 0.47983125 -0.10300469 0.037696596 0.15486565 0.09771808 -0.05417917 0.08436703
0.1397446 -0.07674597 0.032880865 0.12128806 0.25635675 0.066317916 -0.1169904 -0.10038268
0.0297286 0.028043697 -0.15053594 -0.23835707 0.20547906 0.0565498 -0.028402267 -0.052712567
-0.041746367 -0.15403727 -0.13455944 0.032465726 0.039196476 -0.2697136 -0.0042334865 0.041512586
0.12772058 -0.18298256 -0.2726335 -0.09175913 0.091106586 -0.1628345 -0.14983174 -0.039879244
-0.17135365 -0.18577673 -0.14162792 -0.1919807 0.116776794 0.24222428 -0.030317815 0.19555005
-0.04372317 0.118556015 -0.038568802 -0.22131416 -0.10988494 0.0015282 -0.033166543 0.11785904
-0.2261141 -0.1480403 0.0070000375 0.03733494 -0.4613625 -0.06864871 0.36088103 0.18479958
0.16688989 -0.16446732 -0.028472813 -0.2316797 -0.052259192 -0.27647844 0.028495394 0.07270792
0.17065234 0.056195688 -0.0429809 -0.2910026 0.20232749 -0.10607741 0.3175661 0.24385425
-0.020310441 -0.0036182625 0.21947552 -0.017817916 0.09958117 -0.2658271 -0.04911536 -0.2239917
-0.09779186 0.06418829 0.14134377 -0.22734876 0.085030764 -0.09537535 -0.13186577 0.20069608
-0.010095113 0.059879877 -0.121812336 0.68111426 0.38912994 0.08705478 -0.38107067 0.24480225
0.1847374 0.0023878317 0.083964184 -0.41601324 0.24688698 -0.05735877 0.043902222 0.0724455
0.032583397 -0.1656376 -0.20507479 -0.3105851 0.21779367 0.3434595 0.31544665 -0.088912815
-0.1051732 -0.1317967 0.06970842 0.31863636 -0.21434225 0.017611738 0.22377041 0.19099008
-0.044152234 0.13574336 0.23201562 -0.18686575 -0.17335686 0.0023538365 -0.11463208 -0.24762608

network_body._body_endoder.seq_layers.0.bias f4 [128]
00000000: d57f 143d 3e5a 8b3b ba77 cc3c 8cff 233d
00000010: 7cd2 083d a0de ef3c 09e0 19bd fc87 5b3c
00000020: 3f15 2d3d e404 363d 0038 d53c b5c1 833c
00000030: 9988 1b3d f712 443d cd67 133d 5206 0e3d
00000040: 56cb f53c 983b 2b3d a71b 3a3d 38e9 ad3c
00000050: 245d 0bbd 3123 333d 4876 e93c 46bb cb3c
00000060: efa1 b03c 5165 cc3c 87e7 edbc 3ba6 053c
00000070: 562d 453d 4c74 023c 04a1 c83c 749f 053d
00000080: bca0 113d a717 3e3d 9c26 a03c 1183 2fbc
00000090: a730 2f3d 6d82 483d e4b6 0b3d 61af 133d
000000a0: e52e 163d 6225 3e3d ef1b 003d a13e 2a3d
000000b0: 35ca 2e3d b156 d23c fced ce3c a2b4 083d
000000c0: 0e35 333c 2b91 1cbc 788e d03c 1888 2a3d
000000d0: efb1 df3c b589 933c c736 b43c f12f 453d
000000e0: c708 093d 4c2d f23c f52a 2c3d 1aee b8bc
000000f0: 481e 123d beec 2e38 949a 313d f450 513d
00000100: cfa5 1a3d 00c9 203c 8a31 1a3d fb72 193d
00000110: fd3a 3d3d e172 2b3d 66ee 303d 5436 373d
00000120: 4c01 3e3d f655 3f3d 740a 33bb be38 353d
00000130: 99b5 2a3d db78 8b3c acc5 063d fbde a23b
00000140: efdf 2c3d 5f9a e23c 50eb 4d3d 31c3 c63c
00000150: 7f58 253d d248 323d 24ee f13c 9fbb 413d
00000160: 4b99 273d 4000 033d 26e5 2e3d a921 e83c
00000170: 46a6 c53c bed4 2a3d 90ad 163d b5c6 1b3d
00000180: 1c0f 2e3d 10cd ecbc abf0 243d cbb3 173d
00000190: 17b3 f63c b2ab 313d 186b 3d3d 209e 933c
000001a0: ce8c 2f3d ab4c 483d 2667 1a3d 5c69 0b3d
000001b0: c314 233d 03e3 133d 207f 2c3d f85b 9e3c
000001c0: 5e38 c83c 7a77 6fbb 54ab 333d d56f 943c
000001d0: f559 0bbd 7e8d cd3c 41de 263d bb32 1a3d
000001e0: 89b6 5c3d 104c adbb 1425 2d3d 2eb4 96bc
000001f0: d494 353d f888 29bc 54c0 2a3d 1860 0e3d
0.036254723 0.004252701 0.024959434 0.04003863 0.03340386 0.02928096 -0.037567172 0.01339912
0.04225659 0.044438258 0.02602768 0.016083578 0.037972067 0.04786965 0.035987664 0.034673996
0.030004185 0.04180488 0.045436528 0.021229371 -0.034024373 0.043734733 0.028498784 0.024869572
0.021561591 0.024950655 -0.029041065 0.008157308 0.04813894 0.007962298 0.02449084 0.03262277
0.03555368 0.046409275 0.01954966 -0.010712401 0.042771008 0.04895251 0.034109965 0.036055926
0.036665816 0.04642237 0.03127664 0.041563634 0.04267331 0.025676103 0.025259964 0.03337539
0.010937942 -0.009556095 0.02545856 0.041633695 0.027306525 0.01801 0.021998776 0.048141424
0.033455636 0.029562615 0.042033155 -0.022574473 0.03567341 4.1705316e-05 0.043360308 0.051102594
0.037755784 0.009813547 0.0376449 0.03746317 0.046198834 0.041857604 0.043196104 0.044729546
0.046387956 0.046712838 -0.0027319463 0.044243567 0.04167709 0.017025402 0.03290336 0.004970429
0.042205747 0.0276615 0.05027324 0.024262996 0.0403676 0.043526478 0.0295325 0.04729807
0.040917676 0.03198266 0.042699 0.028336363 0.024127137 0.041706793 0.036786616 0.0380313
0.04249488 -0.028906375 0.04026858 0.0370367 0.030114694 0.043376632 0.04624471 0.018019736
0.04285889 0.04890124 0.037696026 0.034036025 0.03981472 0.036105167 0.042113423 0.019330963
0.02444094 -0.003653972 0.043864563 0.018119732 -0.034021337 0.025091883 0.0407393 0.037646037
0.053885017 -0.0052886084 0.04227169 -0.018396463 0.044331387 -0.010347597 0.041687325 0.03475961

network_body._body_endoder.seq_layers.2.weight f4 [128, 128]
00000000: 2e2c 003e 4657 22bb d4ed 7d3d 5567 69bd
00000010: a560 3dbd f359 b9bd cc2b 863d 80d6 633c
00000020: eb34 e13b b393 353e 5eac 0a3d 4794 123e
00000030: b33a 4c3d 3f58 84bd 38be 863c ee22 813d
00000040: 4e51 0bbc de4d fb3d 1550 313d 002f 813e
00000050: b518 793d fd95 8bbc 77d0 2e3d 3a8a 923d
00000060: a331 4f3d f7d5 613e b9db 6b3e 8c19 bdbc
00000070: ff35 6dbd 8bd4 1a3d 091f 2b3d 2523 27be
00000080: 257d c2bd 91ee 9e3c d1a1 be3c b4a7 5e3d
00000090: 4188 c93d aa5d 553d fd7d a5bd d0a5 413a
000000a0: 07da fe3c fb1f 9fbc cd44 3e3e 7852 6f3c
000000b0: 1ca7 53bd c3f2 393c 520b 53bd 5a55 2c3e
000000c0: 82c4 b03c 30d2 173e 2eea e7bd dd64 aabd
000000d0: 31bc 3c3d 6ff9 653c 65d4 a53c 8125 b9bd
000000e0: 3185 b3bd 08b0 f73d ffa3 a13d 801a bfbd
000000f0: ae27 b03b aa62 e03d 14db a13d ac83 363e
00000100: e9ba 7e3d d4d5 013d a8f9 7cbc 263e 823d
00000110: 5322 1b3b 1aa4 aebc 7b27 483d 10bd 223e
00000120: 61b1 1a3d cde1 293e 6fbb 04be d06a 85bd
00000130: 2385 26be 9370 c5bb 1db0 a33d 5709 c1bd
00000140: 2ad4 59bd 8c28 ac3c 06ff 6d3b 76d3 bbbd
00000150: e401 1abc b23b 1f3c e83f 803d 8a53 e03d
00000160: fc91 06bb bf37 20be 3890 413e 5a32 f6bd
00000170: d1e0 f3bd 22db 043e 2971 283e e4b6 14bc
00000180: 9f78 543e dc15 153e a414 48bd a770 4fbd
00000190: 5d6c 12be e5a6 913d 9a71 f43d 07ea 51bd
000001a0: aff6 873d 7253 82bd 1f0f cbbd c1e8 843d
000001b0: 8213 6d3c a50a 4bbe 5ad0 203d 675c 0dbd
000001c0: 49fd b8bd 6eab e43c 9a88 d8bc c0bf 023c
000001d0: bc07 5e3d ca57 613d 735a f1bd e9a3 ee3d
000001e0: 749e 88bb 5517 853d a731 de3c 93a6 31be
000001f0: f89e 133e 6d07 26be ec3d c03d 4944 283d
00000200: 794e 1e3e cccd 9c39 e743 37bd 8aae 9abd
00000210: 337e cf3b cb82 163e c9d0 873c 751a 5e3a
00000220: 2697 5fbd e890 56bd 9167 d63c 8404 0dbd
00000230: 8e31 bf3b bff0 943d c16e 91bc a928 c33d
00000240: 393e 2f3e 40f0 ba3d 1f6a 243d 8900 fcbb
00000250: 0ca0 2bbe bae5 85bd df80 2fbd c21c 38be
00000260: d8b5 38be 93f9 dd3c 6a70 24be 44e2 ca3d
00000270: 231a 5b3d 9b31 0f3e 8ce8 c6bc a60f e8bd
00000280: 6790 813d 74c5 2abe d1b8 4c3e 3381 0bbe
00000290: c80c 603d 247c 30bd 57f6 24bd edfe 8fbd
000002a0: 7c87 8f3d 9bf0 c53c 6093 95bd f8b0 0fbe
000002b0: 8d08 d83d 0f5e 20be b0a7 ffbd d98c 9ebd
000002c0: 4385 53ba 4de6 dcbd 5531 a9bd 6214 283d
000002d0: a30d 24bd 5c19 6d3e 8a64 8b3c 5e8d 373c
000002e0: 279f f3bb 2ae1 d3bd 2edb b73d dee3 26bd
000002f0: b71c bf3c 6f52 263e ef8d 03bd 3829 99bd
00000300: 2ed2 9cbd dd46 31be 878d 73be 30f7 03be
00000310: 6d0f edbc c06e 603d c77b 583d 2dd6 023d
00000320: 45d5 2dbd ce91 81bd b667 c93d ae3f c5bc
00000330: 305e 843a ae45 21be 035c d9bd 0c16 20bc
00000340: 436a 8ebd 3f0a 813d 4388 b0bd 45fd 0abd
00000350: eb36 a13c f9db f6bd 62bc 3d3d e3f8 18bd
00000360: 4828 56be b4c8 b23c 8d22 c4bc 5b86 3c3c
00000370: 3283 eebd 750b f7bc 3a5e 0bbd bbaf 543d
00000380: ffe3 32be 6b95 e83d f888 f7bc a19b a7bd
00000390: 20cc 82bc f875 8ebd 4fca 5c3c d231 97bd
000003a0: 9198 b43d 096e c5bd 1322 243e 07e8 613d
000003b0: 4a11 87bd 6dd4 30bd c1c5 20bd e023 81bd
000003c0: 79e2 5bbd c6c6 e6bd 65ec c83b df38 b53d
000003d0: 5d27 ee3c bbf6 ea3d bbd0 3ebd 1886 9f3c
000003e0: eff9 cbbb ab85 8fbd 218b 1b3d 3036 6b3b
000003f0: d78a 06bc e0e9 a0bd a4c9 bc3c bf10 d33b
0.12516853 -0.0024771257 0.06199439 -0.05698331 -0.046234746 -0.090503596 0.06551322 0.013906121
0.0068727634 0.17732124 0.03385579 0.14314376 0.049860667 -0.06462144 0.016448125 0.063054904
-0.008503271 0.12270711 0.043289263 0.2523117 0.060814578 -0.017039293 0.042679276 0.07155271
0.050584447 0.22054277 0.23033036 -0.02308347 -0.057912823 0.037800353 0.041777644 -0.16322
-0.09496526 0.019400867 0.02327052 0.054359153 0.098404415 0.052091278 -0.08080671 0.0007387074
0.031109823 -0.01942443 0.18580933 0.014607064 -0.05167304 0.011349383 -0.051524468 0.16829434
0.021578077 0.14826274 -0.11323963 -0.083200194 0.04607791 0.01403652 0.02024288 -0.090403564
-0.087656386 0.12094122 0.07892608 -0.09331226 0.005375824 0.10956319 0.07903114 0.17823666
0.06218997 0.031698063 -0.015440382 0.0635951 0.0023671582 -0.021318484 0.048865777 0.15892434
0.037766818 0.16590042 -0.12962125 -0.065145135 -0.16261725 -0.006025383 0.07992575 -0.094256096
-0.05318085 0.021015428 0.0036315336 -0.09171192 -0.009399865 0.009718822 0.06262189 0.10953434
-0.002053379 -0.15646265 0.18902671 -0.120213225 -0.11908115 0.12974218 0.16449417 -0.009076808
0.20749138 0.1455912 -0.04884781 -0.050644543 -0.1429915 0.07111911 0.1193573 -0.051248576
0.06638848 -0.06363572 -0.099149935 0.06489707 0.014469983 -0.1982828 0.0392612 -0.03451195
-0.09032685 0.027913775 -0.026432324 0.007980287 0.054206595 0.055015363 -0.1178483 0.11652357
-0.0041692797 0.06498591 0.027123285 -0.173487 0.1441611 -0.1621377 0.09386811 0.041080747
0.15459622 0.0002990797 -0.04474249 -0.07552822 0.006332183 0.14698331 0.016579049 0.00084725703
-0.054587506 -0.052384287 0.026172431 -0.034428135 0.005834765 0.07272481 -0.017753007 0.0952924
0.1711358 0.09127855 0.040140267 -0.0076904935 -0.16760272 -0.065379575 -0.04284751 -0.1797972
-0.18038118 0.027096545 -0.16058508 0.09906438 0.053491723 0.13983767 -0.024280809 -0.1133111
0.06326371 -0.16676885 0.19992377 -0.13623504 0.05469969 -0.04308714 -0.04027399 -0.07031045
0.070082635 0.024162581 -0.073035 -0.14032352 0.10548506 -0.1566088 -0.12483156 -0.07741708
-0.0008068869 -0.10786114 -0.082613625 0.041035064 -0.040052067 0.23154205 0.017015714 0.011203138
-0.007434744 -0.10345681 0.08977352 -0.040744655 0.023329122 0.16242383 -0.03211778 -0.07478565
-0.07657276 -0.17312188 -0.23784457 -0.12887263 -0.02893802 0.05479312 0.05285242 0.031942535
-0.042439718 -0.06326638 0.098342344 -0.024078216 0.0010098871 -0.15749237 -0.10613253 -0.009770881
-0.069538616 0.063007824 -0.0861974 -0.033932943 0.019679507 -0.12053675 0.046322234 -0.037346732
-0.20913804 0.021824218 -0.023942256 0.011506642 -0.11646117 -0.03015683 -0.03402541 0.051925402
-0.17469786 0.11356624 -0.030216679 -0.08183981 -0.015966475 -0.069560945 0.0134759685 -0.07382549
0.08818162 -0.09640128 0.16028623 0.05515292 -0.065950945 -0.043171335 -0.039251093 -0.06305671
-0.053682778 -0.11268382 0.006131696 0.08848738 0.029071504 0.11472841 -0.04658578 0.01947312
-0.0062248628 -0.07007917 0.03797448 0.0035890453 -0.008211813 -0.07857108 0.023045368 0.0064412053

network_body._body_endoder.seq_layers.2.bias f4 [128]
00000000: fce6 123d 5936 cdbc 05aa 053b 5baf 16bd
00000010: 54c5 133d 5c8d b2bc 7523 133d 0c84 303d
00000020: 38c9 0abd 239f 013d 932a 213d 999e 393c
00000030: a0ac 093d 6cb0 2e3d 1ba0 173d 0c1e 1b3d
00000040: 42ff ffbc a9f3 34bd fbd4 383d daf1 b0bc
00000050: 662e 343d f444 fd3c b53e 383d 5c8e 9a3c
00000060: 1cb5 07bd a720 05bd 325d 813b 40b5 3d3c
00000070: 75dd cdbc f9af d23c 5629 34bd 73e1 01bd
00000080: 9179 f53c a38d 983b cbb4 3a3c ed1d 253d
00000090: 26ea 3f3d 75f7 35bd 7230 05bd e088 ca3c
000000a0: bbc1 21bd 25f9 85bc 86e5 3c3d afeb 8abc
000000b0: 68d2 91bb e8b5 433d d2c5 103d 7949 193d
000000c0: 45b2 09bc 3816 363d a4ab 94bc 1a77 2fbd
000000d0: 4ef0 263d 5586 02bd 6bcf 1a3d 6ebe 223d
000000e0: 9f90 113d e1e4 1ebd a5cb c73c fd3b 48bc
000000f0: c26f 263d 7dcc ddbc 5b39 0a3d e1ba 353d
00000100: 21a7 e73c daac 473c 9b08 223c 80b0 133d
00000110: 9205 d9bc 26b4 393d 177f 66bc 4b95 033d
00000120: 6696 d83b 9c87 2b3d 909e 153d 8bb0 ad3c
00000130: 6db4 29bd e60e beb9 09d5 e7bc 412f 39bd
00000140: 83b8 cbbc c730 043d 7c06 fc3c c934 00bd
00000150: e18e 92bc 8186 a63c aa19 753c 5ff1 3b3d
00000160: 547b 2c3d e1c5 293c a840 9a3c 4258 083d
00000170: b747 d4bc 9aa0 df3c 6345 663c da09 f43b
00000180: 4c03 33bd 9a04 66bc 4ab6 533c 3783 e83c
00000190: 3db5 0d3d 28ef 183d 9876 1c3d d998 05bd
000001a0: b5d6 2f3d 85f4 943c 53a3 403d 2548 0b3b
000001b0: 8357 ae3c 6af4 eb3c 6305 e5bc f68a 363d
000001c0: f4ac 19bd c09d 9b3c b10f bdbc 04d7 3b3d
000001d0: 5610 363d befb 34bd c3c2 3dbd b65a 293d
000001e0: 9f46 e23b 7b52 083d be3d 563c 494e 263d
000001f0: ddf6 003b 4e24 13bd 77b3 2b3d f259 1b3d
0.035864815 -0.025050329 0.002039553 -0.036788326 0.03607686 -0.021795921 0.035922486 0.04309468
-0.033883303 0.031645905 0.039347243 0.0113293165 0.033611894 0.042648718 0.037017923 0.03787045
-0.031249646 -0.044177685 0.04512499 -0.021599699 0.04398956 0.030916668 0.044981677 0.01886671
-0.033131704 -0.032501843 0.0039478773 0.011578858 -0.025130013 0.025718676 -0.043984734 -0.031709146
0.029965194 0.0046555563 0.011395643 0.040311743 0.04685416 -0.044425447 -0.032516904 0.02472347
-0.039491396 -0.016354153 0.046117328 -0.016958086 -0.004450131 0.0477809 0.035344906 0.037423585
-0.008404319 0.044454783 -0.01814825 -0.042838193 0.040756516 -0.03186639 0.037795465 0.03973239
0.035538312 -0.038792495 0.024389097 -0.012221334 0.040633924 -0.027075047 0.033746105 0.044367675
0.028277935 0.012187207 0.009889747 0.036056995 -0.026491914 0.04533782 -0.0140683865 0.0321248
0.0066097258 0.041877374 0.03652817 0.021202346 -0.041431833 -0.00036250724 -0.028299825 -0.04521108
-0.024868255 0.03227308 0.03076481 -0.03130034 -0.017890396 0.020327808 0.014959732 0.045884486
0.042109802 0.010362119 0.018829659 0.033287294 -0.025913103 0.02729826 0.014054629 0.0074474635
-0.043704316 -0.014039183 0.012921879 0.02838288 0.03459667 0.037337452 0.038199037 -0.03261647
0.04292937 0.018183002 0.047030758 0.0021252718 0.021281963 0.02880307 -0.02795667 0.044566117
-0.037518457 0.01899612 -0.023078771 0.04585935 0.044449173 -0.044185393 -0.046328317 0.041346274
0.0069053913 0.033281785 0.013076244 0.040602002 0.0019678392 -0.035923295 0.041919198 0.037927575

action_model._discrete_distribution.branches.0.weight f4 [8, 128]
00000000: bba8 1a3d b05a 92bb c2f8 b83b 1bd4 13ba
00000010: de2b e33c 3b2d dd3b 7ceb 80bc a41a 1e3c
00000020: 9757 193b e146 a73a 0c12 ad3c 84bc ac3c
00000030: 1410 f73b 3f84 903c 80f3 1d3b 4eb1 723c
00000040: c5ce 8aba 75d1 cebc 1bf4 813c eaf4 afbb
00000050: 9208 2a3c f045 5a3c 9d6f f13c 123e aa3c
00000060: 3cf2 bfbc 308d b8ba 60bf a73a 6287 3bbc
00000070: c089 b7bb 2b8b 6bbc 5c04 a7bc 2ccd 15bb
00000080: 8941 b93c e620 34bc 87e6 c93c 3ef2 d33b
00000090: f29d 513c b051 3ebc 1c4d 723c 351f 5a3c
000000a0: 238a ccbc 27fd e439 e25b bc3c 550b abbb
000000b0: ea50 9fba 38b6 5d3c 2623 6a3c c21b 243b
000000c0: 2271 9fbb 31a8 153c 70b9 7bbc 2274 b33a
000000d0: bd74 a63c d45f 4aba e97b 673c b5d4 d93c
000000e0: 75a1 35bb 2f61 03bd cee0 ee3b 4cd9 f6bb
000000f0: 35ce da3c e6a5 7c3c 6c28 d23b f4e2 863c
00000100: cb22 e3bb 2ecc c93b 437a 803c 79a8 873c
00000110: 5deb 9b3b 944d 963c 5a97 dfb8 08ea 3f3c
00000120: d262 903c 738d cc3a 7892 653c 6c33 273c
00000130: 96ca bdbc 4b9b 733c 9566 86bc fcc9 92bc
00000140: 37ce 53bc 2107 083d 9bca 933c 5d31 003c
00000150: efd6 dcbb 300d 053c 7146 b8bb 5405 2a3c
00000160: 7cfe 893c 4482 7a3c 2ff2 d5bb 28c5 d53c
00000170: 5701 64bc 9d03 64bc 7a70 8b3c 1a4b 8abb
00000180: eb4c f5bc 1ea1 c3bc 88a9 7e3c 6ffd 0c3b
00000190: 3290 853c 7075 0e3c f3ac c53c 32c9 77bc
000001a0: bde5 423c 5bd8 223c cb8c c03c 8eec f9ba
000001b0: 4980 0e3b 86ae 113c b1e4 90bc 3fb5 f23c
000001c0: 2267 72bb 4c8d 1d3c 1c4a 5bbc d34f a63c
000001d0: 6843 083b 9c1d fbbc 70b6 bdbc 1307 b33c
000001e0: d902 8039 4e77 183c aad0 963b 600e b33c
000001f0: 89bb 80bb 7d75 a3bc f50c d13c 682a 8b3c
00000200: e36a 743c 015c 5bbc 2627 e7bb 6d40 ae3c
00000210: 3a4f a03c 08ec a9bb ea21 a43a ac21 913c
00000220: bf76 093b 7e5a 803c 0f19 243c c951 9d3c
00000230: 81d1 e33b fbfa ed39 4ad0 c83c 6733 dd3b
00000240: 66a3 d9bb 89e5 8fbb b670 ae3a 340c fd3c
00000250: d9a9 213c 149d 52bc c384 523c cccc 1c3c
00000260: b6ca efbb 0e37 8bbc 4951 4a3c 902e b238
00000270: f195 5cbc dd9e 2fbc 898b 1dba b222 8cbb
00000280: 3aa0 dd3c a29f 583c 5e52 9abc aade c2ba
00000290: 669a ef3b c08f 5c3b 8086 66bb 1a37 b83c
000002a0: bfd1 25bc 10dc be3b e08c 2abb 5520 613c
000002b0: ae2a f7bb f6e0 b23b fe0c c93c 0859 2dbc
000002c0: 998c 1f3c 36d0 20bb 03f6 49bb 01d2 a73b
000002d0: 383b 563c 8120 24bb c458 d53b e996 4c3c
000002e0: 40bd d93b f609 6f3b 3d95 bdba d2de 50bc
000002f0: e689 b2bb e128 28bb 2ac0 4e3c 2da5 a93c
00000300: aa31 2b3c ab1a a0bb 2c3f 0dbc 120f d53b
00000310: 1a94 343c 0204 9cba f2de b0bb 2fcc 163c
00000320: adb4 6b39 9d4b 5a3b 54c8 903c 9286 0abc
00000330: 01d9 3ebc 841f b9bc 772c aa3b 22ec 9ebc
00000340: 9cd1 9dba eaae 253c b474 083c 7b97 ea3b
00000350: 9ff2 bfbb 9554 263a 88bb d13c 0450 af3b
00000360: 5e2b 8b3c 229b 29bc 23c7 393c 2b12 5dbc
00000370: be34 a2bb 0929 013c e250 f6bb 516c 723c
00000380: ca0d 55bb 0cf7 2abc 081e 95bc 7040 78bc
00000390: b22f ab3c db8c 083c 1efa 27bc 821b 523c
000003a0: ec3b e6bb 53de 253c f0bb 4d3c 264d 093c
000003b0: 02c2 873c c845 ac3b 7f97 e53b 00f1 0e3c
000003c0: 0be7 afbc 58d0 603c 6d23 5dbc 604f 9d3c
000003d0: f08b 85bb f3a8 d8bb 2207 ddbb abd1 a73c
000003e0: 3025 853c e9b5 22bb fddd 05bc b2fa 5d3c
000003f0: e9d4 e73c 5714 8f3c 0637 423c 2be6 0b3b
0.03775857 -0.004466377 0.0056448886 -0.0005639211 0.027730878 0.0067497767 -0.015737288 0.009649906
0.0023398155 0.0012762212 0.02112677 0.021085985 0.0075397585 0.017641185 0.0024101436 0.014812781
-0.0010590187 -0.025246361 0.015863469 -0.005369772 0.01037802 0.013322338 0.029472167 0.02078155
-0.023430936 -0.0014080163 0.0012798123 -0.011445852 -0.005601138 -0.014376442 -0.02038782 -0.0022857888
0.022614257 -0.010994172 0.024646057 0.0064680865 0.012794005 -0.0116161555 0.014788892 0.013313104
-0.024968212 0.00043676162 0.022993032 -0.0052198567 -0.0012154852 0.013532214 0.014290607 0.002504096
-0.0048657814 0.009134338 -0.015364036 0.0013691226 0.020319337 -0.0007719968 0.014128664 0.026590684
-0.0027714644 -0.032075103 0.0072899824 -0.007533228 0.026709655 0.015420413 0.00641351 0.016465642
-0.006931638 0.0061583733 0.015683299 0.016559826 0.004758282 0.018347539 -0.0001066166 0.011713512
0.017625246 0.001560612 0.014011972 0.010205131 -0.02316789 0.014868568 -0.016406337 -0.01791858
-0.012927583 0.033209924 0.018040946 0.007824269 -0.0067394893 0.00812082 -0.0056236316 0.010377247
0.01684498 0.015289847 -0.0065291147 0.026094988 -0.013916335 -0.013916877 0.017021406 -0.0042203786
-0.029943904 -0.023880538 0.015543349 0.0021513363 0.01630411 0.0086949915 0.02413032 -0.015123652
0.011895594 0.0099392785 0.023504635 -0.0019067691 0.0021743944 0.008891707 -0.017687174 0.02962744
-0.0036987741 0.009616207 -0.013384368 0.020301735 0.002079213 -0.030653767 -0.023158282 0.02185396
0.00024416184 0.009305788 0.0046025114 0.02185744 -0.003928606 -0.019953484 0.025518874 0.016987994
0.014918062 -0.013388635 -0.0070542274 0.021270955 0.019569028 -0.005185608 0.0012522314 0.017716251
0.002097532 0.01566815 0.01001574 0.019204037 0.006952465 0.00045391158 0.024513382 0.0067505124
-0.006641793 -0.0043913764 0.0013308737 0.030889608 0.009867155 -0.012854833 0.012849036 0.009570312
-0.007317866 -0.016994026 0.012348481 8.496374e-05 -0.013463483 -0.010719028 -0.0006009867 -0.004276597
0.027053941 0.013221653 -0.018838104 -0.0014867384 0.007312107 0.0033655018 -0.0035175383 0.022487212
-0.010120808 0.0058245733 -0.002602391 0.013740619 -0.0075429296 0.0054589463 0.024542328 -0.010580309
0.009738111 -0.0024538166 -0.00308168 0.00512147 0.013075642 -0.0025043788 0.006510826 0.012487152
0.006644875 0.0036474443 -0.0014464032 -0.012748437 -0.0054485677 -0.0025659131 0.012619058 0.020708645
0.010448853 -0.0048859916 -0.008621018 0.0065020407 0.011021638 -0.001190305 -0.005397671 0.009203955
0.00022478653 0.003330923 0.017673649 -0.008454936 -0.011648417 -0.022598036 0.005193289 -0.019399706
-0.0012040618 0.010112504 0.008328605 0.007159171 -0.00585778 0.0006345001 0.025602117 0.005350115
0.016988453 -0.010351928 0.011338982 -0.013493101 -0.004950135 0.007883319 -0.007516966 0.014796332
-0.003250944 -0.010434877 -0.018202797 -0.015152082 0.020896766 0.008334364 -0.010252504 0.012823941
-0.007026186 0.010123807 0.012557015 0.00838021 0.016572002 0.005257342 0.007006585 0.008724451
-0.021472475 0.013721548 -0.013497216 0.019202888 -0.0040755197 -0.006611937 -0.006745235 0.02048572
0.016253084 -0.0024827665 -0.008170602 0.01354854 0.028299766 0.017465753 0.011853939 0.0021346908

action_model._discrete_distribution.branches.0.bias f4 [8]
00000000: ae8f c73c 373e 753c 5078 c23c 4404 ca3c
00000010: 2fa0 e9bc f87d efbc c219 fcbc 002e c93c
0.024360504 0.014968446 0.02373901 0.024660237 -0.028518764 -0.029234871 -0.030774001 0.024558067

onnx::Div_52 f4 [26]
00000000: 0289 853d 09dc 9d3e 5e23 9f3e 288d ac3e
00000010: c803 fa3e 9b20 d03b 74a4 d43e 6807 cf3e
00000020: 99da c43e 9b20 d03b ceb0 e53e 8113 ef3e
00000030: 6ce3 943e a72a 133c a72a 133c a72a 133c
00000040: a72a 133c 9b20 d03b 9b20 d03b 9b20 d03b
00000050: 9b20 d03b 9b20 d03b 9b20 d03b a72a 133c
00000060: a72a 133c 4ce3 153f
0.06520273 0.30831936 0.3108167 0.33701444 0.4883101 0.006351543 0.41531718 0.40435338
0.38448027 0.006351543 0.44861454 0.46694568 0.2907976 0.008982337 0.008982337 0.008982337
0.008982337 0.006351543 0.006351543 0.006351543 0.006351543 0.006351543 0.006351543 0.008982337
0.008982337 0.5854995
