Assets/ML-Agents/results/RL_BASIC_1/RL_Basic/checkpoint.pt (torch, 168418 bytes, 22 tensors)

network_body.observation_encoder.processors.0.normalizer.running_mean f4 [18]
000000 74 8d c0 40 ec c9 91 3f ff 9f b7 bc 9e f9 99 bc
       6.017267 1.1389747 -0.02241516 -0.018795785
000010 8d f2 7f 3f d8 47 81 3e 3a f7 87 3e 96 cd 9e 3e
       0.9997948 0.25250125 0.26555806 0.31016225
000020 b1 6a 1e 40 f6 63 6d 3f f9 2d a4 40 31 a8 ad 3b
       2.475262 0.92730653 5.130612 0.005299591
000030 5e 08 45 3f 8d f2 7f 3f a7 e8 47 3d d3 68 f9 3c
       0.7696589 0.9997948 0.04880586 0.030445492
000040 f1 e1 e3 3e 1c 93 a7 3f
       0.44508317 1.3091769

network_body.observation_encoder.processors.0.normalizer.running_variance f4 [18]
000000 40 7d b1 47 a9 9d 24 48 f3 7b 0b 45 5c c1 24 45
       90874.5 168566.64 2231.7468 2636.085
000010 48 f9 ff 3f 00 84 02 44 13 39 00 44 98 bf 10 44
       1.999795 522.0625 512.8918 578.99365
000020 27 de db 45 d9 68 f0 46 fb f8 c4 47 3b b0 34 44
       7035.769 30772.424 100849.96 722.7536
000030 d7 f4 9d 44 48 f9 ff 3f ef 2d 14 43 3f 38 30 42
       1263.6512 1.999795 148.17943 44.054928
000040 08 a4 cb 45 12 b6 63 45
       6516.504 3643.3794

network_body.processors.0.normalizer.running_mean f4 [18]
000000 74 8d c0 40 ec c9 91 3f ff 9f b7 bc 9e f9 99 bc
       6.017267 1.1389747 -0.02241516 -0.018795785
000010 8d f2 7f 3f d8 47 81 3e 3a f7 87 3e 96 cd 9e 3e
       0.9997948 0.25250125 0.26555806 0.31016225
000020 b1 6a 1e 40 f6 63 6d 3f f9 2d a4 40 31 a8 ad 3b
       2.475262 0.92730653 5.130612 0.005299591
000030 5e 08 45 3f 8d f2 7f 3f a7 e8 47 3d d3 68 f9 3c
       0.7696589 0.9997948 0.04880586 0.030445492
000040 f1 e1 e3 3e 1c 93 a7 3f
       0.44508317 1.3091769

network_body.processors.0.normalizer.running_variance f4 [18]
000000 40 7d b1 47 a9 9d 24 48 f3 7b 0b 45 5c c1 24 45
       90874.5 168566.64 2231.7468 2636.085
000010 48 f9 ff 3f 00 84 02 44 13 39 00 44 98 bf 10 44
       1.999795 522.0625 512.8918 578.99365
000020 27 de db 45 d9 68 f0 46 fb f8 c4 47 3b b0 34 44
       7035.769 30772.424 100849.96 722.7536
000030 d7 f4 9d 44 48 f9 ff 3f ef 2d 14 43 3f 38 30 42
       1263.6512 1.999795 148.17943 44.054928
000040 08 a4 cb 45 12 b6 63 45
       6516.504 3643.3794

network_body._body_endoder.seq_layers.0.weight f4 [128, 18]
000000 96 cc 75 bd a9 ee d7 3e 65 31 93 be 21 53 53 be
       -0.06000956 0.4217427 -0.28748623 -0.2063718
000010 47 e0 1d be b7 15 04 bf 9d 4e 91 be ca 69 1d be
       -0.15417586 -0.51595634 -0.2838029 -0.15372387
000020 eb 73 02 3f 40 11 5d 3e cb 5d 9b bd 36 42 eb be
       0.50958127 0.21588612 -0.07586249 -0.45948952
000030 8a 6b 15 bf d8 43 23 3e a6 d7 9d 3e 81 50 13 3e
       -0.58367217 0.15943849 0.3082859 0.14386179
000040 75 c5 af be 0f 2d 8b 3e fe af 14 3d cf c0 8f be
       -0.34330335 0.27182814 0.03630065 -0.2807679
000050 7a dc 38 3e 67 f0 0d be a7 4c 84 3d a8 20 14 be
       0.18052855 -0.13861237 0.06459933 -0.14465582
000060 92 3e c3 3e 8b b6 67 bd 7a 4c 76 3e f3 88 dd bd
       0.38133675 -0.05657057 0.24052611 -0.108171366
000070 29 62 11 bd fc 93 43 3e ec b9 e2 bd b7 fe c6 bd
       -0.035494003 0.1909942 -0.11070618 -0.09716552
000080 23 41 35 be 97 a4 e1 3e 06 82 d6 3e 52 6f 78 3e
       -0.17700629 0.44070885 0.41896075 0.24261215
000090 87 3e 48 3e f9 be b5 3e 61 4b 2e 3e 84 6b b0 be
       0.19555102 0.35497263 0.17020942 -0.34457028
0000a0 d5 b6 2b 3e 23 08 32 3e fd 9c c9 3e 29 63 0d ba
       0.16768964 0.17385916 0.39377585 -0.0005393499
0000b0 8b 85 b4 3d b5 19 f4 bd a8 e8 91 bd 42 c8 77 be
       0.08814534 -0.11918966 -0.07124454 -0.24197486
0000c0 d5 74 58 bd 41 0f 0a be c6 bf 73 3e 3f cb 24 be
       -0.052845795 -0.13482381 0.23803625 -0.16093157
0000d0 77 ff c5 bd 44 ab ae 3d f3 7f 67 bd a4 c7 b1 3e
       -0.09667867 0.0852876 -0.056518506 0.34722626
0000e0 91 be b4 be 06 0f 5d 3e c4 8b c9 3e 0c c8 82 be
       -0.3530164 0.21587762 0.39364445 -0.2554325
0000f0 d6 37 80 3d 58 33 69 be 27 52 7b 3e e4 80 3a 3e
       0.0626065 -0.22773492 0.24543057 0.1821323
000100 1d 52 62 bd e9 70 0a 3d b4 71 e1 bd aa 86 67 be
       -0.05525409 0.033799086 -0.11008015 -0.22609964
000110 9f 84 59 3d 54 aa 4a bd 8a 1e 05 3d ca a8 86 3e
       0.053104993 -0.049478844 0.032499827 0.2630065
000120 23 a9 97 3e 69 9c 8d be 73 e6 a9 be 0a 03 a0 bb
       0.2962123 -0.27658394 -0.3318363 -0.004883175
000130 a9 36 a2 bd 72 9c bb be 18 3c 91 bd 91 5d fb 3e
       -0.07920582 -0.36642796 -0.0709154 0.49094823
000140 74 2c 57 3e 9e 6f 85 3e 05 cf 68 3d 14 a9 56 3e
       0.21013051 0.2606172 0.056838054 0.20962936
000150 ad 0e 47 bd 46 1a 47 be fb 18 95 3d d8 35 9f 3e
       -0.04859798 -0.19443616 0.07280155 0.31095767
000160 68 cf e5 3e 10 8e c2 3e c0 87 c4 be a4 f5 ec 3e
       0.448848 0.3799901 -0.3838482 0.4628116
000170 a6 dc 18 be 8a 3f 1e bd 44 5e 04 be 6a df 6e be
       -0.1492792 -0.038634814 -0.12926584 -0.23327413
000180 f0 58 e2 bc a2 7f 03 3d f2 cc 30 bd cf c0 3c be
       -0.0276303 0.032104142 -0.0431642 -0.18432926
000190 bf c8 dd bd 4e 9a 9b be d2 ff 49 3e fc 35 41 3e
       -0.10829305 -0.30391163 0.19726494 0.1886825
0001a0 eb 36 bb be e9 68 10 bf 0d 70 e3 3d ce 77 52 3e
       -0.36565337 -0.5641008 0.11105356 0.20553514
0001b0 34 b5 9d 3d ca 8b 02 bd 2e ef 65 bd 30 1a 15 3e
       0.077005774 -0.031871594 -0.056136303 0.14560771
0001c0 ca a5 52 be a7 2e 0b be 00 1f 54 3f b2 f5 ec 3e
       -0.20571056 -0.13592015 0.828598 0.462812
0001d0 cb 9d 8c be 27 81 6b 3e c7 72 43 3e f6 a2 25 3e
       -0.27464136 0.22998486 0.19086753 0.16175446
0001e0 36 61 dc 3d a8 84 9a be c1 3a 75 bd d9 2c 76 3e
       0.10760729 -0.30179334 -0.059870485 0.24040546
0001f0 76 9a e7 3c 64 11 64 bd ef 43 0c bc e7 ed d1 be
       0.028271895 -0.055680647 -0.0085611185 -0.41001818
000200 b5 3a 83 3d 3a f5 11 bd 66 e7 9e 3c 7b 24 9c 3d
       0.06407682 -0.035634257 0.019397449 0.076241456
000210 1e eb 18 3d 53 ae 14 be e2 77 dc be 9e 05 93 3e
       0.0373336 -0.14519624 -0.43060213 0.28715223
000220 09 3f 3b 3e 44 43 fe 3c d3 dd c4 3e 58 6f 3a be
       0.18285765 0.031037934 0.38450488 -0.18206537
000230 a8 28 e2 be c8 95 40 3e 7c 89 10 3d fc bf 72 be
       -0.44171643 0.18807137 0.035287365 -0.23706049
000240 23 13 d2 3e 70 40 4b 3e 6a 0b 2d 3e 69 69 33 be
       0.41030225 0.198488 0.16898885 -0.1752068
000250 90 a4 42 be e0 32 7b 3e 3e 13 c2 3d 19 01 03 bd
       -0.19008088 0.24531126 0.094763264 -0.03198347
000260 6c f7 1e 3e 87 3e 93 3e 4b 2a 2c 3d 47 6e 08 be
       0.15524071 0.28758642 0.04203252 -0.13323317
000270 2c 8a 43 3d e3 fc 22 3e d2 82 dd 3d f3 2d 84 3d
       0.047739193 0.15916781 0.108159676 0.064540766
000280 3d 8a ec 3c 6b 2e c4 bd 94 44 a1 3d d2 f0 4d be
       0.02887451 -0.09579166 0.07874408 -0.20111397
000290 bc 61 bc bd 84 c7 44 3d c3 90 c0 bd e1 39 f1 3d
       -0.09198329 0.048041835 -0.09402611 0.11778618
0002a0 11 1e 10 bd 6f 54 88 3e bc 42 e8 3d ce 96 08 3d
       -0.035184924 0.26626918 0.113408536 0.033346944
0002b0 55 23 dc 3e 24 76 b7 3e 54 13 16 be d6 55 4c 3e
       0.42995706 0.35832322 -0.1465581 0.19954619
0002c0 08 b6 0f 3d 53 c7 16 3f cf cf 53 3e d6 a7 86 be
       0.035085708 0.58897895 0.20684741 -0.26299924
0002d0 47 30 62 be c5 65 46 be c2 6e dd bc 8a c5 aa 3e
       -0.22088729 -0.1937476 -0.027030353 0.33353835
0002e0 de 39 ac bc 2c ec e2 bd 15 a4 c0 3c a0 40 f1 bd
       -0.021023687 -0.110802025 0.02351574 -0.11779904
0002f0 84 28 4c bd 31 ab 8e 3d 4d c6 1d bd 0c ee 51 3e
       -0.049843326 0.06966246 -0.038519192 0.20500964
000300 95 95 a0 3e 8f ae 5c 3e f8 b6 72 be 58 c5 c1 be
       0.31364122 0.21550964 -0.2370261 -0.37845874
000310 53 6b 83 be 30 36 25 bc 1a da 18 be a0 50 82 be
       -0.2566782 -0.01008372 -0.14926949 -0.25452137
000320 27 35 d3 3d f0 aa 34 3e af 7f 4e be af 0e fd 3d
       0.103128724 0.17643332 -0.20165895 0.12356316
000330 ce 36 07 3e bd 03 34 3e 4d 0e 13 3f d9 77 a5 bd
       0.132045 0.17579551 0.57443696 -0.080795
000340 0f 16 3d bd 1a 9a 85 3e 4a 8d eb 3d fd dc 86 3d
       -0.046163615 0.26094133 0.11501558 0.06585119
000350 1d 45 0a 3e 8d b6 dc 3d 2a 12 83 be c2 6b 43 3e
       0.13502927 0.10777006 -0.25599796 0.19084075
000360 86 45 57 bc 6f d7 a0 3d 3d a6 71 3d 8b 8d e2 bc
       -0.013139134 0.07853591 0.058996428 -0.027655384
000370 75 9b de bd 23 c9 db bd 7d cc ca be 27 59 4e bd
       -0.10869495 -0.10731723 -0.39609137 -0.05037799
000380 6b 07 2a be ed 13 c2 3c 7b 79 d4 3d 46 e3 ce bc
       -0.16604392 0.023691142 0.10374733 -0.025254857
000390 67 30 60 bd ea dd c2 3d 05 21 8a 3e 0b 52 94 be
       -0.05473366 0.09514983 0.26978317 -0.28968844
0003a0 0a a9 27 3e 2c ec 8d 3e 9a 98 31 bc a3 c4 87 3e
       0.16373077 0.27719247 -0.010839606 0.2651721
0003b0 f1 5b 88 3e 17 34 14 3e 5c d2 11 be fc df 5a bd
       0.26632646 0.14472996 -0.14240402 -0.053436264
0003c0 86 87 0a 3d d7 8c ef bd 94 1e 2b 3d d1 60 98 3e
       0.03382065 -0.11696785 0.04177721 0.29761365
0003d0 76 54 00 bd e4 33 f6 bd 74 e0 27 3e 6d f5 df 3d
       -0.03133055 -0.12021616 0.16394216 0.10935483
0003e0 98 99 af 3d c4 66 80 3d 0b 93 c7 bd cc 61 a6 3c
       0.085742176 0.06269601 -0.09744843 0.020310305
0003f0 88 a6 22 bf 1b 9a 2b be 8d 4b b4 3d 5e 68 56 3e
       -0.63535357 -0.16758005 0.08803473 0.2093825

network_body._body_endoder.seq_layers.0.bias f4 [128]
000000 00 00 00 00 00 00 00 00 00 00 00 00 00 00 00 00
       0.0 0.0 0.0 0.0
000010 00 00 00 00 00 00 00 00 00 00 00 00 00 00 00 00
       0.0 0.0 0.0 0.0
000020 00 00 00 00 00 00 00 00 00 00 00 00 00 00 00 00
       0.0 0.0 0.0 0.0
000030 00 00 00 00 00 00 00 00 00 00 00 00 00 00 00 00
       0.0 0.0 0.0 0.0
000040 00 00 00 00 00 00 00 00 00 00 00 00 00 00 00 00
       0.0 0.0 0.0 0.0
000050 00 00 00 00 00 00 00 00 00 00 00 00 00 00 00 00
       0.0 0.0 0.0 0.0
000060 00 00 00 00 00 00 00 00 00 00 00 00 00 00 00 00
       0.0 0.0 0.0 0.0
000070 00 00 00 00 00 00 00 00 00 00 00 00 00 00 00 00
       0.0 0.0 0.0 0.0
000080 00 00 00 00 00 00 00 00 00 00 00 00 00 00 00 00
       0.0 0.0 0.0 0.0
000090 00 00 00 00 00 00 00 00 00 00 00 00 00 00 00 00
       0.0 0.0 0.0 0.0
0000a0 00 00 00 00 00 00 00 00 00 00 00 00 00 00 00 00
       0.0 0.0 0.0 0.0
0000b0 00 00 00 00 00 00 00 00 00 00 00 00 00 00 00 00
       0.0 0.0 0.0 0.0
0000c0 00 00 00 00 00 00 00 00 00 00 00 00 00 00 00 00
       0.0 0.0 0.0 0.0
0000d0 00 00 00 00 00 00 00 00 00 00 00 00 00 00 00 00
       0.0 0.0 0.0 0.0
0000e0 00 00 00 00 00 00 00 00 00 00 00 00 00 00 00 00
       0.0 0.0 0.0 0.0
0000f0 00 00 00 00 00 00 00 00 00 00 00 00 00 00 00 00
       0.0 0.0 0.0 0.0
000100 00 00 00 00 00 00 00 00 00 00 00 00 00 00 00 00
       0.0 0.0 0.0 0.0
000110 00 00 00 00 00 00 00 00 00 00 00 00 00 00 00 00
       0.0 0.0 0.0 0.0
000120 00 00 00 00 00 00 00 00 00 00 00 00 00 00 00 00
       0.0 0.0 0.0 0.0
000130 00 00 00 00 00 00 00 00 00 00 00 00 00 00 00 00
       0.0 0.0 0.0 0.0
000140 00 00 00 00 00 00 00 00 00 00 00 00 00 00 00 00
       0.0 0.0 0.0 0.0
000150 00 00 00 00 00 00 00 00 00 00 00 00 00 00 00 00
       0.0 0.0 0.0 0.0
000160 00 00 00 00 00 00 00 00 00 00 00 00 00 00 00 00
       0.0 0.0 0.0 0.0
000170 00 00 00 00 00 00 00 00 00 00 00 00 00 00 00 00
       0.0 0.0 0.0 0.0
000180 00 00 00 00 00 00 00 00 00 00 00 00 00 00 00 00
       0.0 0.0 0.0 0.0
000190 00 00 00 00 00 00 00 00 00 00 00 00 00 00 00 00
       0.0 0.0 0.0 0.0
0001a0 00 00 00 00 00 00 00 00 00 00 00 00 00 00 00 00
       0.0 0.0 0.0 0.0
0001b0 00 00 00 00 00 00 00 00 00 00 00 00 00 00 00 00
       0.0 0.0 0.0 0.0
0001c0 00 00 00 00 00 00 00 00 00 00 00 00 00 00 00 00
       0.0 0.0 0.0 0.0
0001d0 00 00 00 00 00 00 00 00 00 00 00 00 00 00 00 00
       0.0 0.0 0.0 0.0
0001e0 00 00 00 00 00 00 00 00 00 00 00 00 00 00 00 00
       0.0 0.0 0.0 0.0
0001f0 00 00 00 00 00 00 00 00 00 00 00 00 00 00 00 00
       0.0 0.0 0.0 0.0

network_body._body_endoder.seq_layers.2.weight f4 [128, 128]
000000 74 2c 8b 3d 93 db 8d 3d dd 37 66 3d 43 c9 86 bd
       0.06795588 0.06926646 0.05620562 -0.065813564
000010 f1 3f f1 3d 9c d6 5a bc 1c e8 c2 3d 0d db 83 bd
       0.11779774 -0.013356831 0.095169276 -0.06438265
000020 35 e7 85 bc b5 bf 8c bd 29 4c bf bd 3e 5f b4 3c
       -0.0163456 -0.06872503 -0.09340698 0.022018071
000030 62 0c 01 bc 0a 5a 5d bd 08 44 a6 bb 0d f4 a6 3d
       -0.007876487 -0.054040946 -0.005074028 0.08152018
000040 61 44 f9 3d 86 43 71 bd a0 81 7e 3d 8e f9 8f 3d
       0.12171245 -0.058902286 0.06213534 0.07030021
000050 d6 c6 0d 3e 65 e5 5e bc 03 5b d9 bd aa c8 16 be
       0.13845381 -0.013604497 -0.10613062 -0.14724985
000060 33 7e 66 bd 01 ec e2 3c b2 c7 8c bd 51 76 51 bd
       -0.056272697 0.027700426 -0.06874026 -0.051138226
000070 d3 90 13 bc d5 8f bb bc 7d 91 aa bd 17 77 0c 3d
       -0.009006697 -0.022895733 -0.08328531 0.03429326
000080 e7 45 49 3d c2 da 97 3b 93 d1 f7 bd 18 67 39 bc
       0.04913893 0.0046342323 -0.1210052 -0.011316083
000090 e1 12 0a 3d c8 a2 46 bd 35 1e 76 bd cb 36 9f bc
       0.03370941 -0.048495084 -0.0600874 -0.019435307
0000a0 45 28 6b bd a6 12 fc bd d9 95 8c bd a0 42 52 3c
       -0.05741145 -0.123082444 -0.06864519 0.012833267
0000b0 cc 61 65 bd b4 c5 4e bd 62 d4 31 3d 04 37 da bd
       -0.05600147 -0.050481513 0.043415435 -0.10655025
0000c0 18 fd c2 bb 93 3d 26 bb 80 68 53 bd 83 f1 c2 3d
       -0.0059505813 -0.002536629 -0.05161333 0.09518721
0000d0 d4 bd a7 bc 9c ae 90 bd 22 08 b9 bb 87 d4 49 be
       -0.02047626 -0.07064554 -0.0056467215 -0.19709979
0000e0 c7 d6 96 bd 6b dd 6c bd ca ac 0f 3d 41 52 46 3d
       -0.07365184 -0.057828348 0.035076894 0.048418287
0000f0 09 ab 53 bd 27 e5 98 3d 23 3e 5e bd 11 24 30 3e
       -0.051676784 0.07465582 -0.054258477 0.17201258
000100 d7 b0 41 bd 85 01 38 3c 6e e4 26 3e 31 06 48 3d
       -0.04728779 0.011230831 0.16298077 0.04883403
000110 1f 46 23 3d 5d 91 81 bc 71 ed 8b 3c b8 65 3a bd
       0.039861795 -0.015816385 0.017080994 -0.045507163
000120 dd 61 a4 3c 28 65 d3 3d 76 81 02 3e a4 04 53 3d
       0.020066196 0.103220284 0.12744698 0.051518098
000130 c5 62 39 be 46 2a ce bd a0 37 aa 3c c6 97 e1 bd
       -0.18104084 -0.10066657 0.020778477 -0.110152766
000140 95 c1 aa bc b1 d5 80 3d ad dd 83 be 17 92 e6 bd
       -0.02084426 0.062907584 -0.25755063 -0.11258333
000150 93 d4 b6 bd 4c 09 06 be 35 26 e4 3b 0e 07 b3 3d
       -0.08927264 -0.13089484 0.0069625624 0.0874158
000160 3e 8f 02 be 10 c4 15 be e0 34 07 be 45 27 44 3d
       -0.12749955 -0.14625573 -0.13203764 0.047889013
000170 d9 8b 0e be 43 f2 c7 bd 5c 6e e5 bc 61 d1 8b 3d
       -0.13920535 -0.09763005 -0.028006725 0.06827045
000180 26 ca 8b bd 1b c8 f3 3c 33 d2 c0 3d 12 be 68 be
       -0.06825666 0.029758504 0.09415092 -0.22728756
000190 30 53 53 3b d5 4f 2b bb a6 bc a7 bc 59 e3 04 be
       0.0032245629 -0.0026140113 -0.020475697 -0.12977351
0001a0 d5 74 f0 bd fd b5 9d bc 26 7c f5 3d a8 18 0d bd
       -0.11741034 -0.019251818 0.1198657 -0.034447342
0001b0 60 50 59 bc b6 95 2f 3e c9 f9 ed bd e4 2f 53 bd
       -0.013263792 0.17146954 -0.11619908 -0.051559344
0001c0 88 46 1f 3d 36 3d 2f bd 0a 9d 3c bd 0a 42 e4 3d
       0.038885623 -0.042782985 -0.0460482 0.111454085
0001d0 34 77 78 3d f4 1e 28 bc c2 9f 41 bc 9e 6b 74 bd
       0.060660556 -0.010261286 -0.011817874 -0.059672944
0001e0 77 b6 22 be fd aa 4c 3c e1 ad d3 3c 1b b4 2c 3d
       -0.15889917 0.012491939 0.025839748 0.04216395
0001f0 15 f2 12 bd 60 08 f1 bc 3b 43 cc bd 9e 2d 45 be
       -0.0358754 -0.029422939 -0.09973761 -0.19255683
000200 76 4a 21 be c8 3e 93 3d 94 36 b3 bc 73 0a 82 3e
       -0.15751061 0.07189709 -0.02187661 0.25398597
000210 68 ad 5f 3d 15 30 9b bd e4 0d ae 3d b5 a6 42 3d
       0.054608732 -0.0757753 0.08498743 0.047522265
000220 36 93 9f 3d 38 7b 2d 3c d3 d8 12 3c a1 61 82 bc
       0.0779175 0.01058846 0.008962828 -0.015915694
000230 99 6a 24 bb d6 c0 c6 3a 13 6c 1c 3d 81 de 08 3e
       -0.0025087951 0.0015163671 0.038189005 0.13366129
000240 b6 ed 3c 3d ce 28 10 3e a3 c2 1e bd 01 c2 44 bb
       0.046125136 0.14078066 -0.03875984 -0.0030022862
000250 e0 30 b4 3b 1f ae 8b bd f1 2a 24 bd b6 61 95 bd
       0.0054989904 -0.0682032 -0.040080015 -0.072940275
000260 70 d5 e4 3c 0b 41 80 3b fa 31 ec bd 00 49 82 3b
       0.027933806 0.0039140037 -0.1153297 0.0039759874
000270 52 99 f9 3c f8 15 d4 3d 93 95 eb bd a4 b5 da 3d
       0.030468617 0.10355753 -0.115031384 0.106791764
000280 64 52 cb bd ef af ba 3d f0 2f ae 3c c5 e3 9b 3d
       -0.09927824 0.09115588 0.021263093 0.07611803
000290 79 52 de 3b 0f 1a b5 bd 7e fd 48 3d 82 dc c1 bd
       0.006784734 -0.08842861 0.049069874 -0.09465887
0002a0 80 39 dd bd f5 f7 a8 bd 63 c0 02 3e 51 f4 ce bb
       -0.10801983 -0.08250419 0.12768702 -0.006315746
0002b0 fb b3 0c 3e aa b0 3e 3d 3c ac 05 3d f1 51 95 3c
       0.13740532 0.0465552 0.03263496 0.01822755
0002c0 bf 51 2b 3b a4 7a 9a bd 47 b7 b3 3d b2 09 d0 bd
       0.0026141254 -0.07542923 0.08775192 -0.10158099
0002d0 2e 14 50 3d 03 0e 81 bd e0 d4 3a bd 46 0d 1b be
       0.050800495 -0.06301501 -0.04561317 -0.15141782
0002e0 08 06 f4 bc 6c 62 c0 3d 46 d6 bd bb 8e 04 da bd
       -0.029788032 0.093937725 -0.0057933656 -0.106454
0002f0 dd 18 c3 3c 42 a6 34 3d 87 fd 37 be 11 40 00 bd
       0.023815567 0.04410387 -0.17967807 -0.0313111
000300 7d b5 1d be d5 b1 f1 bc c2 b6 85 3c 8b 61 2b 3e
       -0.15401264 -0.029503742 0.016322497 0.16736428
000310 51 9e a5 bd fa ff 0f 3e c3 f6 d6 3c 7d ac 9e bd
       -0.08086837 0.14062491 0.026240712 -0.07747743
000320 74 b5 e5 3d 12 73 11 bd 79 cd bc bc 0e 52 28 3d
       0.1121625 -0.03551013 -0.023047196 0.04109388
000330 5f 62 91 bd dd 50 c5 bc 85 a7 de 3d 8a 51 49 bd
       -0.07098841 -0.02408641 0.108717956 -0.049150027
000340 46 43 86 bd d4 61 ab 3c 40 e3 90 bd cd 5d 27 bd
       -0.065558 0.020920672 -0.070745945 -0.04086094
000350 d4 2c a4 bc 1a 29 07 3e a5 fd bf ba 08 32 97 bd
       -0.020040907 0.13199273 -0.0014647736 -0.073825896
000360 67 e9 26 bd 74 f1 cb 3c e5 5b a5 3b f0 a1 39 3d
       -0.040749934 0.024895407 0.005046355 0.04532045
000370 54 00 41 3d 7b 7b 9b bd ef 20 ab 3d a9 8e b9 bd
       0.047119454 -0.075919114 0.08355891 -0.090604134
000380 32 82 a2 bd 39 61 86 bb 77 bd 20 bc e3 4b 97 3d
       -0.07934989 -0.0041009453 -0.009810797 0.07387521
000390 fd c5 37 3e 95 cf fd bd 40 51 ac 3c 65 f8 1a bd
       0.1794662 -0.12393109 0.021034837 -0.037834544
0003a0 dd af 8f bc 5a 11 59 3b d1 78 e2 bb ac 77 77 3d
       -0.017539913 0.0033121915 -0.006911375 0.060416862
0003b0 6d bc 2c be a3 9b 3d 3d 22 75 90 3d ac c3 cd bd
       -0.16868754 0.046291005 0.07053591 -0.10047087
0003c0 24 ea e1 3c 31 15 01 be 79 85 97 3c 02 9f 23 be
       0.027577467 -0.1260574 0.018496262 -0.15978625
0003d0 49 42 00 3d 1b 1a 21 bb da da 6e bd 63 8b 03 bd
       0.031313214 -0.002458221 -0.058314182 -0.03211535
0003e0 82 64 37 3d b1 40 e5 bd dc 2f ba bd 3c 8e f2 3b
       0.044773586 -0.111939795 -0.0909116 0.0074022096
0003f0 39 43 0e bd 6a 7e e2 bd 01 53 17 be 2e c3 4e bc
       -0.034732077 -0.11059268 -0.14777757 -0.012619777

network_body._body_endoder.seq_layers.2.bias f4 [128]
000000 00 00 00 00 00 00 00 00 00 00 00 00 00 00 00 00
       0.0 0.0 0.0 0.0
000010 00 00 00 00 00 00 00 00 00 00 00 00 00 00 00 00
       0.0 0.0 0.0 0.0
000020 00 00 00 00 00 00 00 00 00 00 00 00 00 00 00 00
       0.0 0.0 0.0 0.0
000030 00 00 00 00 00 00 00 00 00 00 00 00 00 00 00 00
       0.0 0.0 0.0 0.0
000040 00 00 00 00 00 00 00 00 00 00 00 00 00 00 00 00
       0.0 0.0 0.0 0.0
000050 00 00 00 00 00 00 00 00 00 00 00 00 00 00 00 00
       0.0 0.0 0.0 0.0
000060 00 00 00 00 00 00 00 00 00 00 00 00 00 00 00 00
       0.0 0.0 0.0 0.0
000070 00 00 00 00 00 00 00 00 00 00 00 00 00 00 00 00
       0.0 0.0 0.0 0.0
000080 00 00 00 00 00 00 00 00 00 00 00 00 00 00 00 00
       0.0 0.0 0.0 0.0
000090 00 00 00 00 00 00 00 00 00 00 00 00 00 00 00 00
       0.0 0.0 0.0 0.0
0000a0 00 00 00 00 00 00 00 00 00 00 00 00 00 00 00 00
       0.0 0.0 0.0 0.0
0000b0 00 00 00 00 00 00 00 00 00 00 00 00 00 00 00 00
       0.0 0.0 0.0 0.0
0000c0 00 00 00 00 00 00 00 00 00 00 00 00 00 00 00 00
       0.0 0.0 0.0 0.0
0000d0 00 00 00 00 00 00 00 00 00 00 00 00 00 00 00 00
       0.0 0.0 0.0 0.0
0000e0 00 00 00 00 00 00 00 00 00 00 00 00 00 00 00 00
       0.0 0.0 0.0 0.0
0000f0 00 00 00 00 00 00 00 00 00 00 00 00 00 00 00 00
       0.0 0.0 0.0 0.0
000100 00 00 00 00 00 00 00 00 00 00 00 00 00 00 00 00
       0.0 0.0 0.0 0.0
000110 00 00 00 00 00 00 00 00 00 00 00 00 00 00 00 00
       0.0 0.0 0.0 0.0
000120 00 00 00 00 00 00 00 00 00 00 00 00 00 00 00 00
       0.0 0.0 0.0 0.0
000130 00 00 00 00 00 00 00 00 00 00 00 00 00 00 00 00
       0.0 0.0 0.0 0.0
000140 00 00 00 00 00 00 00 00 00 00 00 00 00 00 00 00
       0.0 0.0 0.0 0.0
000150 00 00 00 00 00 00 00 00 00 00 00 00 00 00 00 00
       0.0 0.0 0.0 0.0
000160 00 00 00 00 00 00 00 00 00 00 00 00 00 00 00 00
       0.0 0.0 0.0 0.0
000170 00 00 00 00 00 00 00 00 00 00 00 00 00 00 00 00
       0.0 0.0 0.0 0.0
000180 00 00 00 00 00 00 00 00 00 00 00 00 00 00 00 00
       0.0 0.0 0.0 0.0
000190 00 00 00 00 00 00 00 00 00 00 00 00 00 00 00 00
       0.0 0.0 0.0 0.0
0001a0 00 00 00 00 00 00 00 00 00 00 00 00 00 00 00 00
       0.0 0.0 0.0 0.0
0001b0 00 00 00 00 00 00 00 00 00 00 00 00 00 00 00 00
       0.0 0.0 0.0 0.0
0001c0 00 00 00 00 00 00 00 00 00 00 00 00 00 00 00 00
       0.0 0.0 0.0 0.0
0001d0 00 00 00 00 00 00 00 00 00 00 00 00 00 00 00 00
       0.0 0.0 0.0 0.0
0001e0 00 00 00 00 00 00 00 00 00 00 00 00 00 00 00 00
       0.0 0.0 0.0 0.0
0001f0 00 00 00 00 00 00 00 00 00 00 00 00 00 00 00 00
       0.0 0.0 0.0 0.0

action_model._continuous_distribution.log_sigma f4 [1, 2]
000000 00 00 00 00 00 00 00 00
       0.0 0.0

action_model._continuous_distribution.mu.weight f4 [2, 128]
000000 29 b9 15 3c 45 77 61 3c 48 40 74 3c 7a 63 a7 b9
       0.009138384 0.013761346 0.014907904 -0.00031926838
000010 65 9e a1 3c 9f bd 0d 3c bf 5f 5d bc 5b 54 ce bc
       0.019728849 0.008651166 -0.013511597 -0.025186708
000020 d9 97 c0 ba ab 23 19 3c 78 75 74 bc 58 6c 03 bc
       -0.0014693692 0.009346883 -0.014920585 -0.008021437
000030 83 dc 99 3c f2 d1 c0 3c 1f 69 41 3d 27 a0 b3 bc
       0.018781906 0.02353761 0.047219392 -0.021926953
000040 10 7f 02 3d 5d 2b 68 bb d7 34 a2 3b 87 58 f4 3b
       0.031859457 -0.0035426237 0.0049501467 0.0074568423
000050 db c0 05 3c fe 78 26 bd 93 d2 2b 3d 1f 41 29 3b
       0.008163656 -0.04064273 0.041948866 0.0025826169
000060 01 22 b9 bc f0 32 bf bb 8e 66 9d 3c 2f 5f 52 3c
       -0.022599222 -0.0058349296 0.019213941 0.012840076
000070 ad 27 6d bc 1d e6 28 bb eb 56 76 bc bb 6f 2e 3b
       -0.0144747915 -0.0025771924 -0.015035371 0.002661689
000080 92 75 e7 bc cf bd ad 3c d8 bc 4f 3c 66 3f 81 bc
       -0.028254304 0.021208672 0.012679301 -0.015777301
000090 35 49 1f bc 1a ac 77 bc 8d 5e e4 bc 5f 02 e7 3c
       -0.009722044 -0.015116716 -0.027877117 0.028199373
0000a0 a2 93 e1 bc 5d 97 2c 3c 6b 28 c1 bb 20 40 84 bc
       -0.027536217 0.010534135 -0.005894711 -0.016143858
0000b0 1f 51 fb bc 7d 61 59 bc 71 f2 06 3d 8b 62 50 3c
       -0.03067833 -0.013267872 0.032946054 0.012718807
0000c0 25 e0 c0 3b e7 08 a8 3c e1 e9 05 3c 8d 3a f7 3c
       0.005886095 0.020512057 0.008173437 0.030179286
0000d0 bf 80 84 bb 0d 76 1b 3d 93 f9 c1 bc 39 41 bb ba
       -0.004043668 0.03795438 -0.023678577 -0.0014286406
0000e0 58 69 79 bc e1 7b a8 3b a7 08 c0 3c 3b 19 a4 bc
       -0.01522287 0.0051417206 0.023441626 -0.020031562
0000f0 51 68 b0 bc bf d3 47 bb 6a 0b e7 3b e5 3c 5d 3c
       -0.021534117 -0.00304912 0.007050921 0.013503288
000100 8f ed fb 3c 00 37 e5 bc 50 3a 5e 3b b5 70 ff 3c
       0.030752925 -0.027980328 0.0033909269 0.031181673
000110 02 19 85 bc 77 4e 72 bc 1e d9 4b bc db 9c 5f 3c
       -0.016247276 -0.014789215 -0.0124419015 0.013648237
000120 af d7 f6 ba db 21 40 3c b3 ce b9 bb cd 5c cf bc
       -0.0018832589 0.011726822 -0.0056703924 -0.025312806
000130 d5 e8 a0 3c 02 4b 09 3d 6f 26 88 3c b6 74 9a 3b
       0.019642273 0.0335188 0.016619889 0.00471362
000140 02 df ee 3c 24 d2 93 bc 6b b0 a2 bc 08 01 37 ba
       0.029159073 -0.018044539 -0.019859513 -0.00069810497
000150 78 c0 b5 3a 0b f3 e0 bc 17 15 e0 3c bb 5a d0 3b
       0.0013866564 -0.027459642 0.027353806 0.006358472
000160 35 1f 47 bc 71 fe a2 3c f7 b7 69 bc 3e 23 03 3c
       -0.012153436 0.019896718 -0.014265052 0.008004008
000170 ba 1c 92 bc 08 0e f8 3c 73 d3 4e bc 73 da 4e 3c
       -0.017835964 0.030280128 -0.012623656 0.012625325
000180 a0 05 44 bc 3c 5d 0f bd d7 75 ca 3c 7d 8b db ba
       -0.011964232 -0.035001025 0.024714394 -0.0016749945
000190 97 d3 63 bd ad 74 79 3b 23 0a 05 3d af d4 88 bb
       -0.05562171 0.003806393 0.03248037 -0.0041757445
0001a0 b1 fc a8 3c 67 ea 82 3b 25 85 c6 bc df 7c 0e 3c
       0.020628305 0.003995228 -0.02423341 0.008696764
0001b0 93 3d 5d bb 93 45 84 bc 9b d2 ea 3b 27 0b 27 bc
       -0.0033758625 -0.016146457 0.0071662194 -0.01019553
0001c0 24 51 8f bc 75 2f e1 bb 50 6a c4 39 c8 81 ea bc
       -0.017494746 -0.0068721124 0.00037463242 -0.028626338
0001d0 6b f3 03 bc cf 2a 66 bc 52 ba d1 3b 18 86 b5 3c
       -0.008053641 -0.014048292 0.006400385 0.022158667
0001e0 bd 29 d0 3c 93 7b 9a bb 55 40 fe bb ef 37 07 bd
       0.025410527 -0.004714438 -0.007759134 -0.033012327
0001f0 38 72 52 bc 1b a8 be 3c 19 17 2d bb 33 2b 2d bc
       -0.012844615 0.023273518 -0.0026411472 -0.0105693815
000200 5f 6a c6 bc e3 5a 17 3c f3 00 ec bb 03 a2 9c 3b
       -0.024220644 0.009237978 -0.0072022616 0.0047800555
000210 73 af 14 3c ad 49 a7 3c 20 25 d3 3c 03 a5 56 bc
       0.0090750335 0.020420874 0.025774539 -0.013100865
000220 b5 ce 71 bc 72 3e 55 bc 03 43 43 bb 96 57 c2 3c
       -0.014758755 -0.013015376 -0.002979458 0.023723405
000230 2e 0c 0a bd 6a 05 df 3b a3 9b 2c 3c 0a bd c9 3a
       -0.03370302 0.0068060653 0.010535154 0.0015391421
000240 03 5b 17 bc f7 52 ea bc 02 4a f4 bc 87 01 f8 3c
       -0.0092380075 -0.028604014 -0.029820446 0.030274166
000250 c2 ea 65 3c e2 56 68 3c 57 f4 05 3c 6f c5 b8 ba
       0.014033021 0.014180871 0.008175931 -0.0014096926
000260 9f 8c b6 bb 6f 83 a2 bc c0 9f 50 3c 87 bd 8a 3b
       -0.0055709626 -0.019838063 0.0127334 0.004234019
000270 0e fd 98 bc 0b 7e 11 3c 9a e3 1b bd c5 ce 13 bc
       -0.018675353 0.008880149 -0.038058855 -0.009021466
000280 08 c2 6a bc 26 2c b2 3c 68 e6 ab 3b 30 e6 68 bc
       -0.014328487 0.021749567 0.0052459724 -0.014215037
000290 79 2c bc bb fb d9 00 bc 18 f5 f4 3a fb c0 b9 3c
       -0.0057426062 -0.007864471 0.0018688766 0.022675028
0002a0 ae 95 88 bc ef 85 88 bc 37 2f 10 bd 5d 08 e6 bb
       -0.016672935 -0.016665427 -0.035201278 -0.00702004
0002b0 80 03 51 3c 67 53 d6 bc 97 35 2e bd ab c9 1b bb
       0.012757182 -0.026162816 -0.042531576 -0.0023771327
0002c0 5b dc 9f bc fd a0 05 3d 87 85 43 3c 1d 57 d1 bb
       -0.019514253 0.032624234 0.011933691 -0.0063885585
0002d0 37 9b b7 bc 18 eb 54 3c c0 ed 9a bc e4 99 b8 b9
       -0.02241288 0.012995504 -0.018912196 -0.00035209872
0002e0 e7 0e bb b9 ef 8f 1f bb 77 41 c7 bc 10 fa 59 bd
       -0.00035678523 -0.0024347266 -0.024323208 -0.053216994
0002f0 96 6e c7 bc 30 53 df 3b bd 35 2d 3c 92 c1 b1 bc
       -0.024344724 0.0068153366 0.010571894 -0.021698747
000300 68 dd b0 39 86 15 00 bd ed 51 46 bc 9b cb 03 ba
       0.00033734296 -0.031270526 -0.012104494 -0.0005027593
000310 d1 f1 04 3d 03 48 f4 bb d2 6e 6a bc fa 86 63 3c
       0.032457177 -0.0074548735 -0.014308648 0.013887161
000320 a7 31 05 3b fc c2 2a bd a3 9a a1 3b 77 db 62 3c
       0.0020323785 -0.041689858 0.004931764 0.01384627
000330 cd 7c b8 3c e4 1f a4 bb f8 11 05 3c b7 54 a4 3a
       0.022520447 -0.0050086845 0.00812196 0.0012537454
000340 98 00 04 bd e9 09 34 bb 82 2f 55 bc de 92 2e bc
       -0.03222713 -0.0027471727 -0.013011815 -0.010655133
000350 05 a4 10 bb 32 42 23 3b 33 50 03 bd 65 7d 1f bc
       -0.002207042 0.0024911282 -0.032058906 -0.009734486
000360 86 72 a4 bb 85 df 1e bc b1 09 34 3c c7 bc f0 3b
       -0.005018535 -0.009696846 0.010988639 0.0073467228
000370 b2 44 18 bc 03 d6 41 3c 2d 28 e4 bb 41 7b b3 3b
       -0.009293722 0.0118308095 -0.006962797 0.0054773395
000380 0e f8 a4 3b b3 e5 50 3a f3 ef 8b bc 4a ad 73 3b
       0.0050344532 0.0007968798 -0.01708219 0.0037182146
000390 79 34 43 3c b3 3c ba bc 4a 39 9d 3c ba 23 d4 bb
       0.011914366 -0.022734022 0.019192357 -0.0064739855
0003a0 81 b1 1e 3d 1b be 66 bc 3a 71 91 bc 81 9f 3d bc
       0.0387435 -0.014083411 -0.017754186 -0.011573673
0003b0 bb 3a 34 3c a0 48 65 3c 4f d4 c8 3c df 7f d9 3a
       0.011000331 0.013994366 0.0245153 0.0016593895
0003c0 77 bf 71 bc 69 e8 44 3b 3b 03 fb ba 7d f8 97 bc
       -0.014755121 0.0030045754 -0.0019150743 -0.018551106
0003d0 24 5d 41 3a 26 c1 38 bb 97 1c 1a 3d 3f 70 b5 bc
       0.0007376245 -0.0028191297 0.03762492 -0.02214825
0003e0 2b 0c 92 3c 37 6d a8 3c 98 87 97 bc 67 34 a9 bc
       0.017828068 0.02055989 -0.018497273 -0.02065487
0003f0 e5 98 49 3c 62 d1 1d 3d 23 07 9a bc f3 4b 9a 3c
       0.012304519 0.03852976 -0.018802231 0.018835044

action_model._continuous_distribution.mu.bias f4 [2]
000000 00 00 00 00 00 00 00 00
       0.0 0.0

action_model._discrete_distribution.branches.0.weight f4 [4, 128]
000000 67 be c7 bb 3f 08 ea 3b f7 9c 42 3c 6e 90 98 3c
       -0.006095696 0.0071420963 0.011878244 0.018623557
000010 63 5d 63 3a ef b4 d2 3b 47 bf b3 3b df a8 b2 bb
       0.00086732785 0.0064302604 0.0054854485 -0.00545226
000020 a8 04 8b bc f6 21 43 3b a0 ec ec ba f6 4b 85 3b
       -0.016969994 0.002977488 -0.0018075891 0.004067893
000030 c2 8d 34 3c bd 57 d7 bb c3 44 08 3c 91 ad 11 bb
       0.011020126 -0.0065717385 0.008317175 -0.0022228698
000040 3e af 82 3c fa 60 51 3c 38 bf 95 3b ef 04 27 3c
       0.015952703 0.012779469 0.004569914 0.010194047
000050 be 0a 2e bc 8c 06 3d bc c0 dd 32 bc a8 53 7a bc
       -0.010622678 -0.011537205 -0.010917127 -0.015278734
000060 1e 0a 24 bb 90 7d 33 3a fa df ee ba 12 64 dc bb
       -0.0025030444 0.00068470184 -0.0018224709 -0.0067257965
000070 47 9e 1c 3b 75 0c 65 3b 2d 84 e8 3b 69 46 1a bc
       0.0023898052 0.0034950052 0.0070958347 -0.009416201
000080 c3 e2 44 bc a8 37 d4 ba 56 5a 27 3c 3b 90 1a 3a
       -0.012016955 -0.0016190903 0.010214409 0.0005896126
000090 2f 2a 26 bc 08 82 8a 3b b8 d8 ce 3a 60 8b dc 3b
       -0.010141893 0.0042269267 0.001578114 0.006730482
0000a0 e7 62 28 bc da c1 24 3c 55 74 e6 3b 47 0b 4c bc
       -0.010277486 0.010055983 0.007032911 -0.012453861
0000b0 8a a1 d2 3a b7 8e dc ba 8b 7b ee 3a cf f7 8b bb
       0.0016069871 -0.00168272 0.0018194778 -0.0042714844
0000c0 d5 a1 7b 3c 53 b4 15 39 0f a1 29 bc 3e 5d 8a 3c
       0.015358408 0.00014276923 -0.010353341 0.016890164
0000d0 5f 1f 8b ba 5b 36 b1 3b 83 49 08 bb 72 40 45 3c
       -0.0010614208 0.005408091 -0.002079577 0.012039291
0000e0 4b a8 16 3b ef 72 07 b9 82 65 d8 bb ff ac 00 3c
       0.0022988494 -0.0001291742 -0.0066038975 0.0078537455
0000f0 d7 47 9c bc bb f5 11 bc da dc e8 bb f3 41 69 3c
       -0.019077225 -0.008908684 -0.0071064057 0.014236915
000100 25 be b7 bc 99 ec c2 3b 33 63 f0 3a a4 c2 90 bb
       -0.022429535 0.005948615 0.001834011 -0.004417734
000110 9f f3 c1 bb a7 7e bc bb c5 fd 6b ba e0 92 61 3b
       -0.0059189345 -0.005752403 -0.0009002353 0.003441982
000120 2b c8 38 3b 55 c7 02 3b 57 08 b2 bc 57 b0 c3 3b
       0.0028195481 0.0019955237 -0.021732492 0.005971949
000130 23 43 4c 3c 0f 4a 27 bb 97 c2 35 bb 3d 09 b5 bc
       0.0124671785 -0.002552632 -0.0027734393 -0.022099132
000140 58 86 38 3c d2 f2 63 3a 32 3d 13 bb 17 3e c1 bb
       0.011262499 0.0008695546 -0.0022466895 -0.0058972943
000150 bb 21 47 bb 02 5e 72 3a 3a 8e 44 3b 05 7f bf bb
       -0.0030385095 0.00092455756 0.0029992 -0.0058439993
000160 c8 bf ee 3b 1e c3 8c bc 6a 35 21 3b 23 4f ce 3a
       0.0072860457 -0.017182883 0.0024598488 0.0015740137
000170 bb 0b ea ba ef 94 bf bb 73 bd 10 3c 11 21 09 bc
       -0.0017856279 -0.0058466117 0.008834231 -0.0083697
000180 0f 63 30 bb d4 a4 9c bb ae 23 2b 3b 34 cb 96 3b
       -0.0026914512 -0.004780391 0.0026113796 0.0046018604
000190 54 f9 a2 bb b3 26 bf bb 03 5b 4e 3b 2f e4 3e 3c
       -0.00497357 -0.0058334707 0.0031487353 0.011651083
0001a0 d7 a4 04 3b 38 97 fd 3b 4f fb 22 bc bc da 90 3a
       0.0020239854 0.007738974 -0.009947612 0.0011051516
0001b0 23 ae 74 bc f5 c9 f6 b8 54 e0 3d bc 37 35 01 3c
       -0.014934096 -0.000117678115 -0.0115891285 0.007886223
0001c0 df a6 80 3a 73 32 e8 b8 3f c5 34 3c b1 0e aa bb
       0.0009815356 -0.00011072019 0.011033355 -0.0051897396
0001d0 c7 31 92 bb 57 47 35 bc 6e 54 a6 3a 26 f9 12 bc
       -0.0044615003 -0.011064372 0.0012689957 -0.008970534
0001e0 1d 99 19 bc 8d 74 7b 3b 30 75 bc bb 9a d3 90 bb
       -0.009374884 0.003836903 -0.0057512745 -0.004419756
0001f0 93 e3 19 bb dd 47 63 3c 00 07 30 3b 1b 91 6f 3c
       -0.0023481592 0.013872114 0.002685964 0.014621998
000200 26 b2 48 3c 2d 6c 50 bb 4a a0 df 3b be 42 27 bc
       0.012249505 -0.003180276 0.006824528 -0.010208784
000210 76 b4 82 bc c7 0b c9 ba f7 ef e2 3b d0 b0 df 3b
       -0.015955191 -0.0015338593 0.0069255787 0.0068264976
000220 b1 c5 8a b8 1c 5c ca b9 50 0f 1c 3c d9 60 bf bc
       -6.617176e-05 -0.0003859707 0.009525135 -0.02336161
000230 b2 a9 5c 3c ba b7 37 bb e7 06 9d 3c 4a 99 29 ba
       0.013468193 -0.0028033094 0.01916833 -0.000646968
000240 7a 3f 09 3c 96 3e 13 bc 4a b6 0e bc b5 d4 a9 bc
       0.00837695 -0.00898709 -0.008710453 -0.02073131
000250 d4 5d a0 bb 7d 53 e2 3a 78 c9 6a bb 7b cb dd 3b
       -0.0048939977 0.0017267313 -0.003582565 0.0067686415
000260 c9 45 a2 3b 9f ef 97 3b dc cd a0 bb 6d de 99 bc
       0.0049521667 0.0046367194 -0.004907353 -0.018782819
000270 e0 96 a4 bc 81 ef b1 3a ca a8 ed bb d2 e0 4a 3c
       -0.020091474 0.0013575406 -0.0072527872 0.012382703
000280 3d 1e 8f 3b 68 8f 82 bc bf 97 db ba ec e7 16 3a
       0.0043676184 -0.015937522 -0.0016753598 0.0005756605
000290 63 c8 15 3c 0b c4 f8 bb e4 90 a3 3a db af 85 3b
       0.009142014 -0.0075917295 0.0012479094 0.0040798015
0002a0 cb fc e3 3b 85 c4 42 bc 62 b1 15 bc 3b b2 d6 bb
       0.0069576255 -0.011887674 -0.00913653 -0.0065520084
0002b0 d5 38 b1 bb 24 ab 91 3b 15 95 3a ba db af 27 3b
       -0.0054083862 0.0044454504 -0.0007117552 0.0025586996
0002c0 e9 1a bb bb 67 41 97 3c 1f 91 2c 3c 38 dd 6e 3c
       -0.005709995 0.018463803 0.010532646 0.01457911
0002d0 c1 41 3a 3c c5 50 ae bc b5 19 46 bb 18 8e df 3b
       0.011368216 -0.021278748 -0.0030227725 0.006822359
0002e0 57 7d d9 ba 22 c0 89 bb 76 19 91 3a 1f fe 17 bc
       -0.001659314 -0.004203812 0.001107021 -0.009276896
0002f0 94 25 30 bc c9 5b 91 bb 5d 22 b4 3a 57 11 a1 3b
       -0.010751147 -0.0044359905 0.0013743151 0.004915397
000300 ad 95 56 3c 6b e6 e6 bb a3 6c cd bb cd 94 eb ba
       0.013097209 -0.007046511 -0.006269054 -0.0017973423
000310 24 46 33 3c 6a e0 47 bc c3 47 8b 39 58 5b 2b bc
       0.010942016 -0.012199501 0.00026565613 -0.01045879
000320 a9 d2 b6 bc 92 6e a7 3b a1 fe 11 bc b2 60 9f bb
       -0.022317247 0.0051096166 -0.008910806 -0.004863822
000330 3e 3c 1f bc fe 8c 27 3c 1d 72 63 bb 77 05 76 3a
       -0.009718953 0.010226486 -0.0034705468 0.00093849696
000340 90 90 40 3b f3 fd d0 3b 37 8d d8 ba 4d 40 5d bc
       0.002938304 0.0063779294 -0.0016521577 -0.0135041
000350 fb ea 55 3b 63 ea b1 bb 8a e4 04 ba 42 df d2 bb
       0.003264128 -0.0054295524 -0.00050694554 -0.006435306
000360 e0 35 55 3c d5 ee df bb 83 a9 bb bb 80 f5 a2 3b
       0.013013333 -0.006833891 -0.0057269945 0.0049731135
000370 b3 35 a6 bc f7 e0 50 b7 ff c4 37 3c e5 01 b0 ba
       -0.020289278 -1.2450145e-05 0.011216401 -0.0013428299
000380 db cd f8 bb bb dd 68 bc 49 2c 9d 3c 7d 2e 1c 3b
       -0.0075928993 -0.014213021 0.019186156 0.002383142
000390 9b c3 f9 3b 16 20 49 bc 32 c2 f6 3b e0 8d 8b bb
       0.007622195 -0.012275716 0.007530474 -0.004258856
0003a0 3a 93 f1 3a d7 8b 98 bc 00 63 ca ba 47 ac fa bc
       0.0018430718 -0.018621368 -0.0015440881 -0.030599726
0003b0 82 ce 8a bb 7f 4a 1b bc 78 58 f5 bb f8 92 1f 3c
       -0.0042360434 -0.0094782105 -0.007487353 0.00973963
0003c0 9b e2 25 3c 9f 58 5d bc c2 23 d7 3b 57 b9 ae 3b
       0.010124828 -0.013509898 0.006565542 0.005332153
0003d0 1b 24 51 3c 4f c1 2d bb 75 3b 1c 3c 85 c3 52 3b
       0.012764956 -0.0026512926 0.00953566 0.0032159996
0003e0 48 a2 e3 3a 02 03 c2 3b 52 e4 4e 3c 5e ae 2c bc
       0.0017367089 0.0059207687 0.012627678 -0.010539619
0003f0 0b bf aa ba 3e e9 9e ba e2 ef c5 bc f8 29 47 3c
       -0.0013026906 -0.0012123955 -0.024162237 0.012156002

action_model._discrete_distribution.branches.0.bias f4 [4]
000000 00 00 00 00 00 00 00 00 00 00 00 00 00 00 00 00
       0.0 0.0 0.0 0.0

network_body.observation_encoder.processors.0.normalizer.running_mean f4 [18]
000000 74 8d c0 40 ec c9 91 3f ff 9f b7 bc 9e f9 99 bc
       6.017267 1.1389747 -0.02241516 -0.018795785
000010 8d f2 7f 3f d8 47 81 3e 3a f7 87 3e 96 cd 9e 3e
       0.9997948 0.25250125 0.26555806 0.31016225
000020 b1 6a 1e 40 f6 63 6d 3f f9 2d a4 40 31 a8 ad 3b
       2.475262 0.92730653 5.130612 0.005299591
000030 5e 08 45 3f 8d f2 7f 3f a7 e8 47 3d d3 68 f9 3c
       0.7696589 0.9997948 0.04880586 0.030445492
000040 f1 e1 e3 3e 1c 93 a7 3f
       0.44508317 1.3091769

network_body.observation_encoder.processors.0.normalizer.running_variance f4 [18]
000000 40 7d b1 47 a9 9d 24 48 f3 7b 0b 45 5c c1 24 45
       90874.5 168566.64 2231.7468 2636.085
000010 48 f9 ff 3f 00 84 02 44 13 39 00 44 98 bf 10 44
       1.999795 522.0625 512.8918 578.99365
000020 27 de db 45 d9 68 f0 46 fb f8 c4 47 3b b0 34 44
       7035.769 30772.424 100849.96 722.7536
000030 d7 f4 9d 44 48 f9 ff 3f ef 2d 14 43 3f 38 30 42
       1263.6512 1.999795 148.17943 44.054928
000040 08 a4 cb 45 12 b6 63 45
       6516.504 3643.3794

network_body.processors.0.normalizer.running_mean f4 [18]
000000 74 8d c0 40 ec c9 91 3f ff 9f b7 bc 9e f9 99 bc
       6.017267 1.1389747 -0.02241516 -0.018795785
000010 8d f2 7f 3f d8 47 81 3e 3a f7 87 3e 96 cd 9e 3e
       0.9997948 0.25250125 0.26555806 0.31016225
000020 b1 6a 1e 40 f6 63 6d 3f f9 2d a4 40 31 a8 ad 3b
       2.475262 0.92730653 5.130612 0.005299591
000030 5e 08 45 3f 8d f2 7f 3f a7 e8 47 3d d3 68 f9 3c
       0.7696589 0.9997948 0.04880586 0.030445492
000040 f1 e1 e3 3e 1c 93 a7 3f
       0.44508317 1.3091769

network_body.processors.0.normalizer.running_variance f4 [18]
000000 40 7d b1 47 a9 9d 24 48 f3 7b 0b 45 5c c1 24 45
       90874.5 168566.64 2231.7468 2636.085
000010 48 f9 ff 3f 00 84 02 44 13 39 00 44 98 bf 10 44
       1.999795 522.0625 512.8918 578.99365
000020 27 de db 45 d9 68 f0 46 fb f8 c4 47 3b b0 34 44
       7035.769 30772.424 100849.96 722.7536
000030 d7 f4 9d 44 48 f9 ff 3f ef 2d 14 43 3f 38 30 42
       1263.6512 1.999795 148.17943 44.054928
000040 08 a4 cb 45 12 b6 63 45
       6516.504 3643.3794

network_body._body_endoder.seq_layers.0.weight f4 [128, 18]
000000 54 86 6f be b7 8b a4 be 18 de 39 3f b5 22 1b 3e
       -0.23391086 -0.32137844 0.72604513 0.15149958
000010 f2 d4 86 3d c7 c9 8e bc e3 9f ea bd 3a be fb bd
       0.06583585 -0.0174302 -0.11456277 -0.12292142
000020 c5 b3 f8 3d 66 5e 01 3e 45 86 22 bf d3 d3 22 3e
       0.12143663 0.12633666 -0.6348613 0.15901117
000030 b8 98 8a bd 4f 66 8a be 41 19 4f 3e 72 4a f1 3e
       -0.0676741 -0.2703118 0.20224477 0.4712711
000040 4e 2d 8b bd 1d 5e 74 bd 7a 98 23 be 12 82 a0 3e
       -0.067957506 -0.059660066 -0.15976134 0.31349236
000050 d2 bf a7 3e 01 7e a2 3e 71 7f 1b be 6b 36 af 3d
       0.32763535 0.31736758 -0.15185334 0.08555301
000060 2a 2b 60 3e 90 b8 85 3e 70 ad 45 3e d0 26 5d be
       0.21891466 0.26117373 0.19304442 -0.21596837
000070 a0 46 21 3b 2b 23 31 bc 56 c2 09 be c7 c0 c9 3c
       0.0024608746 -0.010811607 -0.1345304 0.024628056
000080 bf 18 c9 3e 1a 37 c6 3d 48 0a 8b be 09 35 92 3e
       0.39276692 0.096784785 -0.2715628 0.28556088
000090 50 52 a1 3e d0 4c 78 be c2 1f 5d bd cd 7f d0 bc
       0.31508112 -0.24248052 -0.053985365 -0.025451565
0000a0 e5 4c 78 be 93 04 68 3c ba ff 8b be 93 2e f0 3c
       -0.24248083 0.014161247 -0.2734354 0.029319083
0000b0 e5 2b a0 3e 97 f6 5a bd a5 b1 ea 3c 17 ee 0c be
       0.3128349 -0.053457823 0.02864916 -0.13762699
0000c0 66 95 91 bd 0d 38 04 be 6c f7 8d 3e 36 4c 12 3e
       -0.071085736 -0.12912007 0.2772783 0.14286885
0000d0 d4 c9 fe bd 6f cc ba bd d4 e5 e0 be 51 fa 21 3e
       -0.124408394 -0.09121024 -0.43925345 0.15818144
0000e0 82 04 e9 be 3c 0e 6b bd a3 2c 1b 3d a3 58 3b bd
       -0.45511252 -0.05738662 0.037884366 -0.045738827
0000f0 3f ca 02 be 0b 87 c3 bd 1d 7c d5 be df 29 53 be
       -0.12772463 -0.09547242 -0.41696253 -0.20621441
000100 92 87 8a 3e e5 d3 db bd f5 a2 f0 bd b6 5d 1e be
       0.27056557 -0.10733775 -0.117498316 -0.15465435
000110 32 ee 42 3e 7d b8 84 be ce 74 11 3d 9a 80 03 3e
       0.19036177 -0.25922003 0.035511784 0.12842026
000120 61 f6 6e be 40 74 65 3e e7 39 18 be 7d d1 cf 3e
       -0.23336174 0.22407627 -0.14865838 0.40589514
000130 65 5a 9b be 0a 20 3e 3d 47 06 c5 3e e5 3c 95 3e
       -0.30342403 0.046417274 0.38481352 0.2914802
000140 33 90 dd be ab 9a 75 3e 80 f0 79 be df 6b 2e 3e
       -0.43274078 0.23984782 -0.2440815 0.17033337
000150 4a 10 7f 3d f6 90 70 bd 1c b1 f4 3c c7 d7 89 be
       0.062271394 -0.058731996 0.029869609 -0.26922438
000160 99 54 bd 3e de 59 79 3e c1 f3 06 3d 07 d1 e9 bd
       0.36978605 0.24350688 0.032947306 -0.11416822
000170 2f 50 a6 bd 16 6a f3 bd 54 c2 b3 3e 50 ec ce 3e
       -0.081207626 -0.11885469 0.35109198 0.40414667
000180 d5 cb 21 be 9e 37 fd be 59 b8 ed bc 7c b9 50 be
       -0.15800412 -0.49456495 -0.029018568 -0.20383257
000190 55 61 9b 3e d9 36 f5 3c b6 d3 c9 be 1c dc cc be
       0.30347696 0.02993338 -0.39419335 -0.4001168
0001a0 07 a9 cc 3d 86 8d ad be ac 50 18 3f 23 bf d9 be
       0.09993177 -0.33897036 0.59498096 -0.42528638
0001b0 d1 16 cd 3d ed f2 88 3e 7d fc a8 3d 55 d0 5c bd
       0.100141175 0.26747838 0.08251283 -0.05390962
0001c0 b1 58 33 3f f8 22 68 be cb 46 01 3c a4 af 9f 3e
       0.7005721 -0.2266959 0.0078904135 0.3118869
0001d0 fa 64 3b be e7 91 a2 3c 15 1b 69 3d 93 52 60 3e
       -0.18300238 0.019844962 0.056910593 0.219065
0001e0 58 d5 1e be 95 c9 b5 3c 91 5e ed bd 95 32 ff 3e
       -0.15511072 0.022190848 -0.11590303 0.4984328
0001f0 c3 b9 05 3f e2 3e d2 3d 6c fb 8e 3e d2 85 05 bf
       0.52236575 0.102659 0.27926195 -0.5215732
000200 c0 92 c0 bd 94 62 9e 3e 90 22 22 3e 56 d4 5d be
       -0.0940299 0.30934584 0.15833497 -0.21663031
000210 2a c4 4c bd 8b 30 65 3e 9b fa 0d bf 37 b6 c6 bc
       -0.049991764 0.22381799 -0.5546052 -0.024256809
000220 05 26 c2 be 40 6d ef 3e 49 ce a9 3e 4e 47 00 be
       -0.37919632 0.4676304 0.33165196 -0.125272
000230 4b ec 1f be 69 d1 87 be 94 2a 8b 3e 3f 91 75 3e
       -0.15617482 -0.26526955 0.27180922 0.23981188
000240 c8 0f 27 bf da ea 96 3e 84 bb c0 bd f6 df 5a 3e
       -0.65258455 0.29476053 -0.09410766 0.21374497
000250 6a 7e 8d 3c d0 4b c9 3e 75 b3 4d be 5b 71 2b be
       0.017272193 0.39315653 -0.20087989 -0.1674246
000260 dd 6c 0d 3e aa 35 2f bc db ad a5 be ba 26 24 be
       0.1381106 -0.010693947 -0.32359204 -0.16030398
000270 2a 58 30 3b 41 60 fe 3e 37 c1 b5 bd a3 88 9f 3e
       0.0026908019 0.4968281 -0.088747434 0.31158933
000280 6d 29 50 3e 8c fb 9d 3e ba 94 be 3c 4c 61 b2 be
       0.20328303 0.30855978 0.023264278 -0.34839857
000290 8d 78 98 bd 34 21 e0 be 90 c5 93 3e 1a 72 ac be
       -0.07444868 -0.43775332 0.28861666 -0.33680803
0002a0 95 85 64 be 39 6c e3 bd f0 08 17 bf 15 44 c4 3d
       -0.22316583 -0.11104626 -0.5899801 0.09583298
0002b0 57 95 0b 3f 2c 15 8e bd 92 11 53 3d 6c ee 1c be
       0.5452475 -0.06937632 0.05153043 -0.15325326
0002c0 e8 06 4a bf d2 13 0e be 3e 1c 04 be 05 ae 49 3e
       -0.7891679 -0.13874748 -0.12901399 0.1969529
0002d0 f7 ac 3c be c9 a8 5c 3e 4b 21 c2 3d f8 71 49 be
       -0.18425356 0.21548761 0.094790064 -0.19672382
0002e0 2d dc 43 3e be 37 11 be 27 fd 7e 3e 07 fd 6d be
       0.19126959 -0.1418142 0.24901257 -0.23241054
0002f0 5c d3 dd 3d b9 8c 3b 3e cc e0 74 3d 62 df cf 3e
       0.10831329 0.183154 0.059784696 0.40600115
000300 fa 8b 19 be 26 45 fa be dd a4 f6 3d 23 99 19 3e
       -0.14994803 -0.4888088 0.12043164 0.14999823
000310 9f 5b 21 be 47 70 b2 3e f2 e3 9e be 3d e0 80 be
       -0.15757607 0.34851286 -0.31033283 -0.2517108
000320 eb 3c d3 3c 35 92 e5 3e a8 2a e7 bc ba ca b0 be
       0.025785884 0.4483811 -0.028218582 -0.34529668
000330 3b 9e e3 ba f1 31 9c 3d 61 10 f3 3e 3f f7 07 be
       -0.0017365882 0.07626713 0.47473434 -0.1327791
000340 a8 4c c4 bd ae a9 9f 3e e5 d3 f6 be 5c 1c b4 be
       -0.095849335 0.31184143 -0.48208538 -0.35177886
000350 0e 6d 2c be a8 ca 88 be fe f1 11 3f bd 06 ae bc
       -0.16838476 -0.26717114 0.57009876 -0.021243447
000360 12 1b b2 3d f2 41 c7 bd a7 eb 4f 3e 11 4c 02 bf
       0.086965695 -0.09729375 0.20304738 -0.5089732
000370 7d ff ef 3e 13 5a fa bc 69 3d 3c be 6c 26 5d be
       0.4687461 -0.030560529 -0.18382801 -0.21596688
000380 c6 f3 8d bd fe 8c 3c be 5f 3f cd 3e fe de 85 3d
       -0.06931262 -0.18413159 0.4008741 0.06536673
000390 a3 d6 50 be e4 5b de 3c ee 70 87 bc 21 2e b6 3e
       -0.20394377 0.027143426 -0.016533341 0.3558207
0003a0 34 38 b7 3c 41 9d 21 3e 40 0b 3d be 3d c9 b3 3d
       0.022365667 0.15782644 -0.18461323 0.087786175
0003b0 8d 6b 4e 3d 38 08 f6 3d ab b3 0c 3e f2 6c 7e 3e
       0.050395537 0.12013286 0.13740413 0.24846247
0003c0 5a 10 be 3c e9 48 c5 be 11 25 31 3e b7 02 92 be
       0.023201156 -0.3853219 0.17299296 -0.28517696
0003d0 e0 1a 14 3f a5 db aa 3d f1 d1 d6 bd fc d7 0f 3e
       0.5785351 0.08342675 -0.10489262 0.14047235
0003e0 e1 21 ff bd 21 4e 49 bd bf bb 69 3e 09 11 48 be
       -0.12457634 -0.049146775 0.22825526 -0.19537748
0003f0 a9 b4 e1 3e 10 58 5c 3e b6 a4 ba 3d a7 42 1d be
       0.44083145 0.21517968 0.09113447 -0.15357457

network_body._body_endoder.seq_layers.0.bias f4 [128]
000000 00 00 00 00 00 00 00 00 00 00 00 00 00 00 00 00
       0.0 0.0 0.0 0.0
000010 00 00 00 00 00 00 00 00 00 00 00 00 00 00 00 00
       0.0 0.0 0.0 0.0
000020 00 00 00 00 00 00 00 00 00 00 00 00 00 00 00 00
       0.0 0.0 0.0 0.0
000030 00 00 00 00 00 00 00 00 00 00 00 00 00 00 00 00
       0.0 0.0 0.0 0.0
000040 00 00 00 00 00 00 00 00 00 00 00 00 00 00 00 00
       0.0 0.0 0.0 0.0
000050 00 00 00 00 00 00 00 00 00 00 00 00 00 00 00 00
       0.0 0.0 0.0 0.0
000060 00 00 00 00 00 00 00 00 00 00 00 00 00 00 00 00
       0.0 0.0 0.0 0.0
000070 00 00 00 00 00 00 00 00 00 00 00 00 00 00 00 00
       0.0 0.0 0.0 0.0
000080 00 00 00 00 00 00 00 00 00 00 00 00 00 00 00 00
       0.0 0.0 0.0 0.0
000090 00 00 00 00 00 00 00 00 00 00 00 00 00 00 00 00
       0.0 0.0 0.0 0.0
0000a0 00 00 00 00 00 00 00 00 00 00 00 00 00 00 00 00
       0.0 0.0 0.0 0.0
0000b0 00 00 00 00 00 00 00 00 00 00 00 00 00 00 00 00
       0.0 0.0 0.0 0.0
0000c0 00 00 00 00 00 00 00 00 00 00 00 00 00 00 00 00
       0.0 0.0 0.0 0.0
0000d0 00 00 00 00 00 00 00 00 00 00 00 00 00 00 00 00
       0.0 0.0 0.0 0.0
0000e0 00 00 00 00 00 00 00 00 00 00 00 00 00 00 00 00
       0.0 0.0 0.0 0.0
0000f0 00 00 00 00 00 00 00 00 00 00 00 00 00 00 00 00
       0.0 0.0 0.0 0.0
000100 00 00 00 00 00 00 00 00 00 00 00 00 00 00 00 00
       0.0 0.0 0.0 0.0
000110 00 00 00 00 00 00 00 00 00 00 00 00 00 00 00 00
       0.0 0.0 0.0 0.0
000120 00 00 00 00 00 00 00 00 00 00 00 00 00 00 00 00
       0.0 0.0 0.0 0.0
000130 00 00 00 00 00 00 00 00 00 00 00 00 00 00 00 00
       0.0 0.0 0.0 0.0
000140 00 00 00 00 00 00 00 00 00 00 00 00 00 00 00 00
       0.0 0.0 0.0 0.0
000150 00 00 00 00 00 00 00 00 00 00 00 00 00 00 00 00
       0.0 0.0 0.0 0.0
000160 00 00 00 00 00 00 00 00 00 00 00 00 00 00 00 00
       0.0 0.0 0.0 0.0
000170 00 00 00 00 00 00 00 00 00 00 00 00 00 00 00 00
       0.0 0.0 0.0 0.0
000180 00 00 00 00 00 00 00 00 00 00 00 00 00 00 00 00
       0.0 0.0 0.0 0.0
000190 00 00 00 00 00 00 00 00 00 00 00 00 00 00 00 00
       0.0 0.0 0.0 0.0
0001a0 00 00 00 00 00 00 00 00 00 00 00 00 00 00 00 00
       0.0 0.0 0.0 0.0
0001b0 00 00 00 00 00 00 00 00 00 00 00 00 00 00 00 00
       0.0 0.0 0.0 0.0
0001c0 00 00 00 00 00 00 00 00 00 00 00 00 00 00 00 00
       0.0 0.0 0.0 0.0
0001d0 00 00 00 00 00 00 00 00 00 00 00 00 00 00 00 00
       0.0 0.0 0.0 0.0
0001e0 00 00 00 00 00 00 00 00 00 00 00 00 00 00 00 00
       0.0 0.0 0.0 0.0
0001f0 00 00 00 00 00 00 00 00 00 00 00 00 00 00 00 00
       0.0 0.0 0.0 0.0
