Assets/ML-Agents/results/RL_BASIC_1/RL_Basic/RL_Basic-57177.pt (torch, 491670 bytes, 50 tensors)

network_body.observation_encoder.processors.0.normalizer.running_mean f4 [18]
0	0x418e36c6	17.776745
1	0x412c53d6	10.770468
2	0xbdef21e6	-0.116763875
3	0x3d700004	0.058593765
4	0x42c7fece	99.997665
5	0x3f1e28a8	0.61780787
6	0x3f25dfdb	0.647947
7	0x3fcc765b	1.5973619
8	0x401fb740	2.4955597
9	0x41abf2e8	21.493607
10	0x411d4179	9.828485
11	0x31c4e8c3	5.7308127e-09
12	0x3f7ffea6	0.9999794
13	0x42c7fece	99.997665
14	0x3c9329fd	0.017964358
15	0x3cd6dc21	0.026228013
16	0x3d4283f1	0.04748911
17	0x3f8497f9	1.0358878

network_body.observation_encoder.processors.0.normalizer.running_variance f4 [18]
0	0x4b8a238a	1.8106132e+07
1	0x4ae2ae1f	7.4278555e+06
2	0x46dd1336	28297.605
3	0x46da02fe	27905.496
4	0x461c42f8	10000.742
5	0x4713a8fa	37800.977
6	0x4711dc9b	37340.605
7	0x4826dd71	170869.77
8	0x47a1702f	82656.37
9	0x4bad2b92	2.2697764e+07
10	0x4b224fde	1.0637278e+07
11	0x3f800000	1.0
12	0x3fffff36	1.9999759
13	0x461c42f8	10000.742
14	0x44b99269	1484.5753
15	0x4506caa8	2156.666
16	0x4604974f	8485.827
17	0x45a65ae5	5323.362

network_body.processors.0.normalizer.running_mean f4 [18]
0	0x418e36c6	17.776745
1	0x412c53d6	10.770468
2	0xbdef21e6	-0.116763875
3	0x3d700004	0.058593765
4	0x42c7fece	99.997665
5	0x3f1e28a8	0.61780787
6	0x3f25dfdb	0.647947
7	0x3fcc765b	1.5973619
8	0x401fb740	2.4955597
9	0x41abf2e8	21.493607
10	0x411d4179	9.828485
11	0x31c4e8c3	5.7308127e-09
12	0x3f7ffea6	0.9999794
13	0x42c7fece	99.997665
14	0x3c9329fd	0.017964358
15	0x3cd6dc21	0.026228013
16	0x3d4283f1	0.04748911
17	0x3f8497f9	1.0358878

network_body.processors.0.normalizer.running_variance f4 [18]
0	0x4b8a238a	1.8106132e+07
1	0x4ae2ae1f	7.4278555e+06
2	0x46dd1336	28297.605
3	0x46da02fe	27905.496
4	0x461c42f8	10000.742
5	0x4713a8fa	37800.977
6	0x4711dc9b	37340.605
7	0x4826dd71	170869.77
8	0x47a1702f	82656.37
9	0x4bad2b92	2.2697764e+07
10	0x4b224fde	1.0637278e+07
11	0x3f800000	1.0
12	0x3fffff36	1.9999759
13	0x461c42f8	10000.742
14	0x44b99269	1484.5753
15	0x4506caa8	2156.666
16	0x4604974f	8485.827
17	0x45a65ae5	5323.362

network_body._body_endoder.seq_layers.0.weight f4 [128, 18]
0	0x3df54b0f	0.11977207
1	0xbe0611f6	-0.13092789
2	0x3e849560	0.25895214
3	0xbda649a5	-0.08119515
4	0x3f130e60	0.5744381
5	0xbd9bbaf0	-0.07604015
6	0xbcd63f9d	-0.02615338
7	0xbdbd0fe9	-0.0923155
8	0xbd5561cf	-0.05209523
9	0x3ca421ac	0.020035587
10	0xbdf429da	-0.11922045
11	0x3d7c2e85	0.061567802
12	0xbe12f90d	-0.14352818
13	0x3f1bc848	0.6085248
14	0xbcbf346f	-0.023340432
15	0x3e9f993e	0.31171602
16	0xbd82040f	-0.0634843
17	0xbdf1b38a	-0.118018225
18	0xbe078818	-0.1323551
19	0x3eee10fc	0.46497333
20	0xbe8e9155	-0.27845255
21	0x3f1751b9	0.59109074
22	0xbe84a118	-0.25904155
23	0x3e168dc9	0.14702524
24	0xbe01fef5	-0.12694915
25	0x3eff3542	0.4984532
26	0x3e107492	0.14106968
27	0x3d753ae6	0.059870623
28	0xbcc7de89	-0.024398105
29	0x3ea348e1	0.3189154
30	0x3f0ec655	0.5577138
31	0xbdba0b9a	-0.09084244
32	0xbe84dea6	-0.25951117
33	0xbe1de597	-0.15419613
34	0xbf0532f7	-0.5203089
35	0x3ce8675f	0.028369604
36	0x3e096886	0.13418779
37	0xbe367c6c	-0.178209
38	0x3e361a2c	0.17783421
39	0xbe6a5ad3	-0.22886209
40	0x3e3e5fd9	0.1859125
41	0xbdc008c5	-0.09376673
42	0xbe0443ec	-0.12916535
43	0x3cc747e1	0.024326267
44	0x3e7e494f	0.24832653
45	0x3cf4cb17	0.029881997
46	0xbd92da7d	-0.071705796
47	0xbc00dfbb	-0.0078658415
48	0xbed3eb94	-0.4139067
49	0xbe7a6714	-0.24453384
50	0xbedb33a0	-0.42812824
51	0x3d2c791a	0.04210768
52	0xbd71a47c	-0.058994755
53	0xbeb2f020	-0.34948826
54	0x3bf4c5d6	0.007469873
55	0x3e81f3c7	0.253813
56	0x3df5ab24	0.11995533
57	0x3dfc4284	0.12317374
58	0xbef6010c	-0.48047674
59	0x3e021f88	0.1270734
60	0xbc95963e	-0.018260118
61	0xbd80da95	-0.06291691
62	0xbde42172	-0.11139192
63	0x3e36fba6	0.17869434
64	0xbd5e773e	-0.054312937
65	0x3efb7da3	0.4911929
66	0x3e52b771	0.2057779
67	0xbdfadaf1	-0.12248791
68	0xbe507663	-0.20357661
69	0xbe01676a	-0.12637106
70	0x3ec5b5f9	0.38615397
71	0xbf0e7823	-0.55652064
72	0xbccd3b99	-0.025052832
73	0xbea6a71b	-0.32549366
74	0xbe2774a8	-0.16353095
75	0xbe1ec001	-0.15502931
76	0x3d395aee	0.045252733
77	0x3dc1ec17	0.09468859
78	0x3eadaccd	0.339209
79	0x3dec9c53	0.11553254
80	0xbce4e2cc	-0.027940176
81	0xbf015837	-0.5052523
82	0x3e158620	0.14601946
83	0xbbd4c3ea	-0.0064930813
84	0xbec3fa8a	-0.38277084
85	0xbdf3f6e4	-0.11912325
86	0xbdf03b3a	-0.117300466
87	0x3d957a09	0.07298667
88	0xbe95f0f1	-0.29285386
89	0x3e2a70b6	0.16644558
90	0xbd81095c	-0.06300613
91	0x3e9f239d	0.31081858
92	0xbdc1a44e	-0.09455167
93	0x3bb207bb	0.0054330504
94	0x3e39cf18	0.18145406
95	0x3ead6a7b	0.338703
96	0x3e0a7483	0.13521008
97	0x3e3111f8	0.17292011
98	0xbeaba791	-0.3352628
99	0xbe25a93f	-0.16177844
100	0xbe29f1d5	-0.16596158
101	0x3ddfaf75	0.10922138
102	0xbf02762b	-0.5096156
103	0xbdbdfd52	-0.09276833
104	0x3eab8272	0.3349796
105	0x3ce008ea	0.027348
106	0xbe1451f2	-0.14484385
107	0x3d7ca62c	0.06168191
108	0x3e93f2d2	0.28896195
109	0xbe11ee9c	-0.14251179
110	0x3da16d13	0.078821324
111	0x3ec39c18	0.38205028
112	0x3e5c20ff	0.21496962
113	0xbe104b9f	-0.14091347
114	0x3dfa81df	0.12231802
115	0x3e692009	0.22766127
116	0x3c96275b	0.018329313
117	0x3e845405	0.25845352
118	0x3e593497	0.21211468
119	0x3d41105a	0.047134735
120	0x3c207d43	0.00979549
121	0xbe9a9014	-0.30188048
122	0x3ec10aee	0.3770365
123	0xbd12bbbd	-0.035823572
124	0x3d5cadde	0.05387675
125	0xbc82e168	-0.015976623
126	0xbd281714	-0.041037634
127	0x3e1d7c4c	0.15379447
128	0xbe494d72	-0.1965845
129	0x3e656de3	0.224052
130	0x3e80ac1d	0.25131312
131	0xbe43de5c	-0.19127792
132	0x3e996e36	0.29966897
133	0xbed59bc8	-0.41720414
134	0xbce1f45c	-0.02758234
135	0x3c1660e4	0.009178374
136	0xbe94056e	-0.28910393
137	0xbe8928db	-0.26788983
138	0xbed24382	-0.4106713
139	0x3b96ce69	0.0046022427
140	0xbe8a877f	-0.270565
141	0xbe1a4f56	-0.15069327
142	0xbed7e873	-0.42169532
143	0x3f09a8b4	0.53773046
144	0x3e6374a4	0.22212464
145	0xbe514e0f	-0.20439933
146	0x3e10bbcb	0.14134137
147	0x3dc31f91	0.09527505
148	0x3d3f47a1	0.04669917
149	0xbe82935a	-0.25503045
150	0xbe859bb3	-0.26095352
151	0x3e16e69c	0.14736408
152	0xbefa538f	-0.48891875
153	0xbe4b0eeb	-0.1982991
154	0xbdb0b538	-0.08628315
155	0xbccfba07	-0.02535726
156	0xbd835400	-0.06412506
157	0xbe7623c7	-0.24037085
158	0x3c9cda3a	0.019147027
159	0xba39b357	-0.00070839137
160	0xbe1148a6	-0.1418787
161	0x3d88e7a8	0.0668481
162	0xbdba21fd	-0.09088514
163	0xbe0bf35b	-0.13667051
164	0x3e68f0e4	0.22748142
165	0x3dd661e3	0.10467889
166	0x3d389218	0.0450612
167	0xbe99ed84	-0.30064023
168	0xbd969a09	-0.073535986
169	0x3e758950	0.23978162
170	0x3db8c862	0.09022595
171	0xbe220cf1	-0.15825249
172	0xbe804f68	-0.25060582
173	0xbe4c39fc	-0.19943994
174	0x3eb51004	0.3536378
175	0x3e10da36	0.14145741
176	0x3e649bcf	0.22325061
177	0xbd91fdc5	-0.07128481
178	0xbde1279d	-0.10993884
179	0x3e9a2316	0.30104893
180	0x3d24d12d	0.040238548
181	0x3e22be96	0.15893015
182	0x3e3f2677	0.18667017
183	0xbc1d7200	-0.009609699
184	0xbef3c555	-0.4761149
185	0x3e65b90b	0.2243387
186	0x3e751de2	0.2393718
187	0xbe723234	-0.23651963
188	0x3e7f5a7f	0.24936865
189	0xbec10b12	-0.37703758
190	0x3debcc7c	0.11513612
191	0xbe4bdd57	-0.19908653
192	0x3ed4f202	0.41590887
193	0x3e3cb76d	0.18429346
194	0xbe27af7e	-0.16375539
195	0x3e170c89	0.14750876
196	0xbe80ce7b	-0.25157532
197	0x3e5d3ca2	0.21605161
198	0xbf094330	-0.53618145
199	0xbd5f375b	-0.05449615
200	0x3e058bb0	0.13041568
201	0x3ce1280d	0.027484918
202	0x3e644b0b	0.22294252
203	0xbe49fdbc	-0.19725698
204	0x3e47ac42	0.19499305
205	0x3d1ca3cd	0.03824215
206	0xbcf3b17e	-0.02974772
207	0x3e4778c9	0.1947967
208	0xbe827f3b	-0.25487694
209	0x3d408cd1	0.047009293
210	0xbe964d30	-0.29355764
211	0xbd7e4f98	-0.062087625
212	0x3e1364d9	0.14393939
213	0xbe41402c	-0.18872136
214	0x3e7ec986	0.24881563
215	0xbe284db9	-0.16435899
216	0x3d90ae19	0.070644565
217	0x3e41bf0a	0.18920532
218	0x3e75e750	0.2401402
219	0xbcd87281	-0.026421787
220	0xbdc94818	-0.09828204
221	0x3e931c6d	0.28732625
222	0x3cf5d806	0.030010235
223	0xbb980e29	-0.00464036
224	0xbbcca137	-0.0062448042
225	0x3e847bb3	0.25875625
226	0xbe5b08ce	-0.21390077
227	0x3ca92837	0.020649059
228	0xbdd4e336	-0.103948995
229	0x3d052495	0.03250559
230	0xbed435ef	-0.41447398
231	0xbdd9b3c9	-0.106299944
232	0x3e18e59e	0.14931342
233	0x3bebd136	0.0071965707
234	0xbeca2d7a	-0.3948782
235	0x3edeb430	0.43496847
236	0x3e7d73e2	0.24751237
237	0x3e84e0c2	0.25952727
238	0xbc159686	-0.009130126
239	0xbe3e8a39	-0.18607415
240	0x3e7d790d	0.24753208
241	0x3ebdb954	0.37055457
242	0x3e3796da	0.17928639
243	0x3e00073b	0.12502758
244	0x3e59980c	0.21249408
245	0x3c07a602	0.008279325
246	0x3e097997	0.13425289
247	0xbe7e5739	-0.2483796
248	0x3dc2f3b4	0.09519139
249	0xbe3fcd18	-0.18730581
250	0x3cce45b5	0.025179723
251	0xbd4628ce	-0.048378758
252	0x3f066c79	0.52509266
253	0x3e95b26e	0.29237694
254	0x3ed29202	0.4112702
255	0xbe198ab3	-0.14994316

network_body._body_endoder.seq_layers.0.bias f4 [128]
0	0x3bc04b80	0.0058683753
1	0x3adc6f78	0.0016817888
2	0xbc162183	-0.009163263
3	0xbc4f6b69	-0.012659886
4	0xbba96fff	-0.0051708217
5	0x3c12a1df	0.008949726
6	0x3c468dad	0.012118739
7	0x3c650802	0.01397896
8	0xbce5a327	-0.028031899
9	0xbcef7c32	-0.029234026
10	0x3cad0c28	0.02112396
11	0x3c0f84e9	0.008759716
12	0x3c51328f	0.012768402
13	0x3bc1ab79	0.0059103337
14	0x3c57b4fa	0.013165707
15	0x3d0427fe	0.032264702
16	0xbc857877	-0.016292794
17	0x3ccfd213	0.025368726
18	0x3c155f3b	0.009116943
19	0x3bf21007	0.0073871645
20	0x3c946460	0.018114269
21	0x3cd6ab92	0.026204858
22	0xbcb9ac24	-0.02266509
23	0xbc2bb37b	-0.010479803
24	0xbc6b989e	-0.0143796485
25	0xbc1041b0	-0.008804724
26	0xbc313dfa	-0.010817999
27	0xbb8841a3	-0.004158215
28	0x3c01998d	0.0079101445
29	0x3c29e828	0.010370292
30	0x3c6f40a3	0.014602813
31	0x3c64a266	0.013954734
32	0x3c0960d1	0.008384899
33	0x3c5a4698	0.013322495
34	0x3aca346a	0.0015426998
35	0xbacf916a	-0.0015836183
36	0x3b1caaad	0.0023905442
37	0xbb81a880	-0.0039568543
38	0x3ca629d1	0.020283611
39	0x3d035203	0.032060634
40	0xba99aa1e	-0.0011723673
41	0xbc68d1a9	-0.014210143
42	0xbb5679fb	-0.0032726515
43	0x3ce2950f	0.027658967
44	0x3c9ef766	0.019405078
45	0x3c07c83a	0.008287484
46	0x3c235ece	0.009971334
47	0xbbd144fb	-0.006386397
48	0x3cb1c74b	0.021701476
49	0x3c5c757b	0.013455744
50	0x3c9f0984	0.019413717
51	0x3b841759	0.0040311036
52	0x3cde1dd2	0.027113829
53	0x3cea6474	0.028612353
54	0x3c27e1f1	0.01024674
55	0xbcc1fc5b	-0.023679903
56	0xbc653c00	-0.013991356
57	0x3cf640da	0.03006022
58	0x3c8938df	0.016750751
59	0x3bdeb028	0.006795902
60	0x3b096684	0.0020965645
61	0xbc113f25	-0.0088651525
62	0x3c9d2591	0.019182952
63	0x3b92ef65	0.0044841045
64	0x3d1f914f	0.038956936
65	0x3b0934bb	0.002093597
66	0xbc6424a2	-0.01392475
67	0xbc7b9292	-0.015354769
68	0x3bb3087f	0.0054636593
69	0x3ca47897	0.020077033
70	0xbc2d9d12	-0.0105965305
71	0x3cbaea8e	0.022816923
72	0xbb8555c1	-0.0040690606
73	0x3cd925ed	0.026507342
74	0x3d0890d8	0.03334126
75	0xbc260475	-0.010132899
76	0x3d03033d	0.03198551
77	0x3c822b08	0.01588966
78	0xbb8da601	-0.0043227677
79	0x3b1770d9	0.0023108034
80	0x3b19da04	0.0023475895
81	0x3be3518f	0.006937213
82	0xbce11bc7	-0.027479066
83	0x3c3c8280	0.011505723
84	0x3ba43448	0.005011115
85	0xbc10f082	-0.008846404
86	0x3c898075	0.016784886
87	0x3bb8abda	0.0056357207
88	0x3c6ac979	0.014330261
89	0x3c2a4e46	0.010394638
90	0xbb8f6f16	-0.004377256
91	0x3c991301	0.01868582
92	0xbc351597	-0.011052511
93	0x3c2a63f0	0.0103998035
94	0x3c4a8b92	0.012362378
95	0xbad07228	-0.0015903162
96	0xbcabed4b	-0.020987174
97	0xbc148a95	-0.009066244
98	0xbb67cc19	-0.0035369454
99	0x3c1700c7	0.009216494
100	0x3c7bf195	0.015377422
101	0x3cecba35	0.028897384
102	0x3cc2dbe4	0.023786493
103	0x3a256bd0	0.0006310316
104	0x3c99ff7a	0.018798579
105	0x3b1ce6b7	0.0023941228
106	0xbbede5e8	-0.007260073
107	0x3c8274df	0.01592487
108	0xbbfd18e8	-0.0077239163
109	0xbbeb6c04	-0.0071845073
110	0x3bf5800d	0.0074920715
111	0xbcc1a75f	-0.02363938
112	0x3bf9054c	0.0075995084
113	0xbc2d8c71	-0.010592566
114	0x3bc35a84	0.005961718
115	0x3c42e260	0.011894792
116	0x3c76c5cc	0.015061807
117	0xbcf379a0	-0.029721081
118	0x3c22b249	0.009930202
119	0x3c421013	0.011844653
120	0xbc389aae	-0.011267347
121	0x3b3af0ce	0.0028524878
122	0x3cd0270b	0.025409242
123	0xbcb07c2b	-0.021543583
124	0x3b4a3b28	0.0030858014
125	0x3d04975b	0.032370906
126	0x3c7524ac	0.014962357
127	0x3cdaa4a7	0.02668984

network_body._body_endoder.seq_layers.2.weight f4 [128, 128]
0	0x3c3531ad	0.011059207
1	0x3caa974d	0.020824099
2	0x3d534bc6	0.051585935
3	0xbde65d3f	-0.11248254
4	0x3cdd5722	0.027019087
5	0xbdc6d928	-0.09709388
6	0xbb67d82a	-0.0035376647
7	0xbc3fed29	-0.011714258
8	0xbda24d1f	-0.07924866
9	0x3db86dfc	0.09005353
10	0xbe1c32ec	-0.152538
11	0x3d6475d6	0.05577644
12	0xbbf887b9	-0.007584539
13	0x3d7dd241	0.061968092
14	0x3e13f929	0.14450516
15	0x3d13c740	0.03607869
16	0x3d284d6f	0.04108947
17	0xbd54e92d	-0.051980186
18	0x3ce3cee4	0.027808614
19	0xbc5853ef	-0.013203605
20	0xbe311d39	-0.17296304
21	0x3c2619f2	0.010138022
22	0xbcb5df08	-0.022201076
23	0xbd944a02	-0.07240678
24	0x3d84082b	0.064468704
25	0x3d973a5f	0.0738418
26	0x3b9b00df	0.0047303285
27	0xbd1b9a45	-0.03798892
28	0x3c93779a	0.018001366
29	0xbd19760e	-0.0374661
30	0x3c1ef23a	0.009701306
31	0xbdbb08d4	-0.09132543
32	0xbd44ce5c	-0.048048362
33	0xbe1baafb	-0.15201943
34	0x3d066833	0.032814216
35	0xbd05b36e	-0.03264182
36	0x3dbdad89	0.09261615
37	0x3dea2908	0.11433607
38	0x3d98bdc4	0.0745807
39	0x3d5e81ff	0.054323193
40	0x3c7a4765	0.015275811
41	0x3c6843b3	0.014176297
42	0xbd8a1ab6	-0.06743376
43	0xbda00bcc	-0.0781475
44	0x3d86d13a	0.065828755
45	0xbd97eed9	-0.074186035
46	0xbcfdc355	-0.03097693
47	0x3dc96c83	0.0983515
48	0x3d65f396	0.056140505
49	0xbc9f93c4	-0.01947964
50	0x3e1b828b	0.15186517
51	0x3e8becfa	0.27329236
52	0xbc2a679c	-0.010400679
53	0x3d419c8d	0.04726844
54	0xbacf6cdc	-0.0015825289
55	0x3c6cb192	0.014446633
56	0xbd5ed91d	-0.054406274
57	0x3c69d6b9	0.014272385
58	0xbdac949c	-0.084267825
59	0xbc7e2fc0	-0.015514314
60	0x3c241c60	0.010016531
61	0x3bcb99b0	0.0062133893
62	0x3c4c7889	0.01247991
63	0xbdecdae4	-0.115651876
64	0x3e0ad766	0.1355873
65	0xbe0b0bfd	-0.13578792
66	0x3d85bc2e	0.06530033
67	0x3d6303d1	0.05542356
68	0xbd41d377	-0.04732081
69	0x3ca85020	0.02054602
70	0x3daaa5cc	0.083324045
71	0xbe05cd19	-0.1306652
72	0xbe22648a	-0.15858665
73	0xbc19e207	-0.009392268
74	0xbd1f2469	-0.038853083
75	0x3b9ff010	0.0048809126
76	0xbdeac009	-0.11462409
77	0xbd9b90f6	-0.075960085
78	0xbd559c74	-0.05215116
79	0xbc24a867	-0.010049916
80	0x3e07f18d	0.13275738
81	0x3ccaf763	0.024776166
82	0xbc9f993e	-0.019482251
83	0x3e17d2f7	0.1482657
84	0xbe2cd792	-0.16879109
85	0xbe0dda8b	-0.13852899
86	0x3d8c0da7	0.068385415
87	0x3ddeee87	0.10885339
88	0xbdf92b94	-0.12166515
89	0xbd055877	-0.03255507
90	0x3d2f343e	0.04277443
91	0x3c206d1b	0.009791638
92	0xbc5f5894	-0.0136319585
93	0xbd7843e3	-0.060611617
94	0x3cd1d980	0.025616407
95	0xbd35634f	-0.04428416
96	0xbe7ea59f	-0.24867867
97	0x3e11b937	0.1423081
98	0x3d9788e2	0.07399155
99	0xbd92b131	-0.07162703
100	0xbd80e025	-0.06292752
101	0x3e287e69	0.16454472
102	0x3e2252b0	0.15851855
103	0xbcc3c58f	-0.023897914
104	0xbce024a5	-0.027361223
105	0xbc1e3a34	-0.009657431
106	0x3d8681f8	0.06567758
107	0x3c479014	0.012180347
108	0xbd12d64f	-0.03584891
109	0xbcd09e6e	-0.02546617
110	0xbcfeac75	-0.031088093
111	0xbcdf9144	-0.027290948
112	0x3d99879d	0.07496569
113	0xbd121dd9	-0.035672996
114	0x3d8eec70	0.069786906
115	0x3b28afeb	0.002573962
116	0x3d18caef	0.037302908
117	0xbd97c3d3	-0.074103974
118	0xbc643ed0	-0.013930991
119	0xbd50a472	-0.050938077
120	0xbd268630	-0.040655315
121	0xbd8782a2	-0.06616713
122	0xbd77c478	-0.0604901
123	0x3e368278	0.17823207
124	0xbc137109	-0.008999118
125	0x3d0a50dc	0.03376852
126	0x3c52e237	0.012871317
127	0xba217e8d	-0.000616052
128	0xbcb04420	-0.02151686
129	0xbddadab9	-0.10686249
130	0x3c7d5214	0.0154614635
131	0xbdc480dc	-0.095948905
132	0xbe854970	-0.2603259
133	0x3d84e514	0.06489006
134	0xbc4f8c08	-0.012667663
135	0x3d166cd9	0.0367249
136	0xbbf93288	-0.0076049007
137	0x3d9462a3	0.07245376
138	0xbc544d6a	-0.01295791
139	0x3cfc048c	0.030763887
140	0x3c105d1d	0.008811262
141	0x3d4e8ddc	0.050428256
142	0x3e2f77af	0.171355
143	0xbcdf0587	-0.027224315
144	0xbd8241d3	-0.06360211
145	0x3e53f57f	0.20699118
146	0x3d8f385b	0.06993171
147	0x3ce91abe	0.028455134
148	0x3d5703c5	0.05249383
149	0x3dbd702f	0.09249913
150	0x3e401544	0.18758112
151	0xbe3f073f	-0.18655108
152	0x3db66ba5	0.0890725
153	0xbe2d68a7	-0.16934453
154	0xbd2faaf0	-0.042887628
155	0xbc9b7757	-0.018977804
156	0x3c8a44dd	0.01687854
157	0xbda47943	-0.08030941
158	0x3d1a5b3a	0.037684657
159	0xbe4c8557	-0.1997274
160	0x3d08d9e4	0.03341092
161	0x3d971464	0.07376936
162	0xbdbb985f	-0.09159922
163	0xbd8cd5ca	-0.068767145
164	0x3d8dd359	0.06925077
165	0xbda7d515	-0.08194939
166	0x3ca9457e	0.02066302
167	0xbcf12ec2	-0.029441241
168	0x3da79172	0.08182038
169	0x3caa8f1f	0.020820199
170	0x3d3ab7c0	0.045585394
171	0x3caae102	0.020859245
172	0x3d8efcf9	0.069818445
173	0xbcf67d4e	-0.030089047
174	0xbd5b350e	-0.053517394
175	0xbc589b82	-0.01322067
176	0xbdf4b08f	-0.119477384
177	0xbd50c399	-0.050967786
178	0xbcef2c8a	-0.029196043
179	0xbd213c9b	-0.03936444
180	0x3d27e4f1	0.04098982
181	0x3e378240	0.1792078
182	0xbd082c9e	-0.033245675
183	0xbd4ac443	-0.049503576
184	0x3de2a785	0.11067108
185	0xbca06ca4	-0.019583054
186	0x3dcf477e	0.10121058
187	0xbb8208e8	-0.003968347
188	0x3d66a490	0.056309283
189	0xbd32a7ed	-0.043617178
190	0x3c02832a	0.007965842
191	0x3cc12cf5	0.023581007
192	0x3d92a4f2	0.07160367
193	0x3d1cdecc	0.038298413
194	0xbc359777	-0.011083475
195	0x3da3aa96	0.07991521
196	0xbcaee0bd	-0.021347398
197	0x3e3dceaf	0.18535875
198	0x3d283ee0	0.041075587
199	0xbb523f2f	-0.0032081117
200	0xbca166b4	-0.019702293
201	0x3c0f8ac0	0.008761108
202	0xbe48bbcb	-0.19602887
203	0xbd459aa6	-0.048243187
204	0xbdb81897	-0.08989065
205	0xbdbaec97	-0.09127157
206	0x3dbd182a	0.092331246
207	0xbd07a1bf	-0.033113237
208	0x3dc3d118	0.09561366
209	0xbdcfeb6e	-0.101523265
210	0xbdcb2565	-0.09919242
211	0xbe77794a	-0.24167362
212	0x3d2a90f8	0.04164216
213	0xbdd08db3	-0.10183277
214	0x3ce55691	0.02799538
215	0xbd2f10d1	-0.042740647
216	0xbdf35082	-0.1188059
217	0xbdc6bf1d	-0.09704421
218	0xbd3fe567	-0.046849634
219	0x3dab7158	0.08371228
220	0xbc9a870a	-0.01886322
221	0x3e0fce13	0.14043455
222	0x3c4a60df	0.012352197
223	0x3e294f58	0.16534173
224	0xbe08e895	-0.13369973
225	0xbdaf6e56	-0.08565967
226	0x3dbeef44	0.0932298
227	0xba6a6a31	-0.00089422154
228	0xbad7adde	-0.0016455015
229	0xbddc2bb9	-0.10750527
230	0x3cf41605	0.029795656
231	0x3e27e420	0.16395617
232	0x3e2a5fee	0.16638157
233	0x3d9b24ea	0.075754
234	0xbde1a2f9	-0.11017413
235	0x3e05b9eb	0.13059203
236	0xbcfa3e1a	-0.03054719
237	0x3dc097a6	0.09403925
238	0xbdf4aeb7	-0.11947387
239	0x3c6e0c42	0.01452929
240	0x3d319a50	0.043360054
241	0x3dbc0714	0.091810375
242	0xbe0ee379	-0.13953961
243	0x3ddf54c9	0.10904843
244	0xbde6f034	-0.11276284
245	0xbc8575b9	-0.016291486
246	0xbd63e395	-0.05563696
247	0x3d789ac8	0.060694486
248	0x3e0cb080	0.13739204
249	0xbd941e06	-0.07232289
250	0x3d770a3e	0.060312502
251	0xbcce919e	-0.02521592
252	0xbe0a0e33	-0.13481979
253	0x3d8fdb91	0.07024301
254	0x3df6899d	0.120379664
255	0xbe4fbfc7	-0.20288001

network_body._body_endoder.seq_layers.2.bias f4 [128]
0	0x3b7528a1	0.003740825
1	0x3ceca857	0.028888864
2	0xbc81fdb2	-0.015868042
3	0xbb031548	-0.0020001698
4	0xbb66aad9	-0.0035197048
5	0xbbe48172	-0.006973439
6	0x3c6d4fdc	0.014484372
7	0xbb13e696	-0.002256786
8	0xbc0ceba8	-0.008601107
9	0x3c418ae9	0.011812904
10	0x3c8baa7c	0.017049067
11	0x3c4a731e	0.012356548
12	0x3c1b3c0b	0.009474765
13	0x3c70923f	0.014683305
14	0xbc129506	-0.008946663
15	0x3c9e30eb	0.019310435
16	0xbc73ef48	-0.014888592
17	0x3c0fed59	0.008784615
18	0xbc8a524e	-0.016884949
19	0xbc9a82e4	-0.018861242
20	0xbcb91bf6	-0.02259634
21	0xbb390435	-0.0028231267
22	0xbbdc7e21	-0.006728903
23	0x3cabd670	0.020976275
24	0x3d0a86d2	0.03381998
25	0xbc5798fb	-0.013159032
26	0x3c2c84ec	0.010529738
27	0xbc22475a	-0.009904707
28	0xbc622e2c	-0.013804954
29	0x3b357880	0.0027690232
30	0x3b4e9b97	0.0031525844
31	0xbbd0a448	-0.00636724
32	0xbca4d441	-0.020120742
33	0x3cfca8e8	0.03084226
34	0xbcda3019	-0.026634263
35	0x3c9f56a7	0.019450499
36	0x3c2cba2c	0.010542434
37	0x3c89b169	0.016808229
38	0xbc88cff5	-0.016700724
39	0x3cbe27e8	0.023212388
40	0x3c5048cf	0.012712671
41	0xbc9967f8	-0.018726334
42	0xbc68416b	-0.014175753
43	0x3c9076c5	0.017634759
44	0x3cd33610	0.025782615
45	0x3c935a37	0.017987354
46	0x3caeb292	0.021325383
47	0x3baa4268	0.0051959045
48	0x3c2d665b	0.0105834855
49	0x3d0986d1	0.033575837
50	0x3c1d19ce	0.009588672
51	0x3d084a75	0.033274133
52	0xbb362b62	-0.0027796854
53	0x3cd37b29	0.025815563
54	0x3ca499f9	0.020092951
55	0x3c91fb9c	0.017820172
56	0x3d28056f	0.041020807
57	0xbc424896	-0.011858126
58	0x3cd22618	0.02565293
59	0xbc97e6f0	-0.018542737
60	0x3ca6a7a8	0.020343617
61	0x3bfef291	0.007780381
62	0x3c6267ee	0.013818724
63	0x3c9903ce	0.018678572
64	0x3d031b96	0.03200873
65	0xbb294f69	-0.0025834686
66	0xbc8c7547	-0.017145766
67	0xbc839228	-0.016060904
68	0x3c671ae1	0.0141055295
69	0x3ca5429a	0.02017336
70	0x3ce8f96e	0.02843925
71	0x3c68e14c	0.014213871
72	0xbc6c7b06	-0.014433628
73	0xbc3d6c1b	-0.011561419
74	0xbc950f62	-0.018195812
75	0xbc7599bb	-0.0149902655
76	0x3cb0cdf3	0.02158258
77	0xbb17c9fb	-0.0023161161
78	0xbc221f5e	-0.009895174
79	0xbc9a5b35	-0.018842319
80	0x3b8883f5	0.004166121
81	0x3ce72575	0.028216103
82	0xbc8361a9	-0.016037779
83	0x3cc18a78	0.023625597
84	0xbca42858	-0.020038769
85	0x3ccccacf	0.02499905
86	0xbb090cdf	-0.0020912213
87	0x3c92e256	0.017930191
88	0x3ca79814	0.020458259
89	0xbcb0cfff	-0.021583555
90	0x3d131da7	0.03591695
91	0xbbfe9bcd	-0.0077700377
92	0xbb87183a	-0.004122761
93	0x3befdf38	0.007320311
94	0xb9929ba7	-0.0002796326
95	0xbc9030a1	-0.017601313
96	0x3cdace2f	0.026709644
97	0x3be457f8	0.0069684945
98	0xbc8b3a87	-0.016995681
99	0xbbbbc508	-0.005730275
100	0xbad31bfe	-0.0016106365
101	0x3c97d69b	0.018534949
102	0x3c922e0a	0.017844219
103	0xbcc4c4c4	-0.024019606
104	0xbcb60c6b	-0.022222718
105	0xbc8315e2	-0.016001645
106	0x3cb38249	0.02191271
107	0x3cc0c8b3	0.0235332
108	0xbb3a59ea	-0.002843494
109	0x3c7ccfca	0.0154304
110	0xb8995a96	-7.3124815e-05
111	0x3c04cd9a	0.00810566
112	0xbbf18678	-0.0073707663
113	0x3b760451	0.0037539194
114	0xba94e78e	-0.0011360513
115	0x3cad3100	0.02114153
116	0x3c497e0e	0.01229812
117	0x3b46c709	0.0030331037
118	0xbb8b2aef	-0.0042470614
119	0xbce62dd6	-0.028098028
120	0xbc9dc153	-0.019257223
121	0xbc3aa901	-0.011392833
122	0x3c8c37e9	0.017116504
123	0xbae6d82b	-0.001761203
124	0x3c0e5b14	0.008688707
125	0x3c80c2d9	0.01571791
126	0x3c24c81e	0.010057477
127	0xbc4c7cfd	-0.012480971

action_model._continuous_distribution.log_sigma f4 [1, 2]
0	0x3c6412f1	0.013920532
1	0x3bee2a8e	0.0072682565

action_model._continuous_distribution.mu.weight f4 [2, 128]
0	0xbbf84cd8	-0.00757752
1	0xbcdc2103	-0.02687121
2	0x3b77af63	0.0037793748
3	0x3bcb7e5b	0.006210131
4	0x3c621269	0.013798335
5	0x3d133e24	0.035947934
6	0xbb80f6db	-0.0039356775
7	0xbc6aa977	-0.01432263
8	0x3c6df215	0.014523049
9	0xba3a5eb0	-0.00071094465
10	0xbbad933f	-0.005297094
11	0xbce9c75f	-0.02853745
12	0x3c25c0e1	0.010116787
13	0xbd128387	-0.035769965
14	0x3d04da0a	0.0324345
15	0x3bf09f3c	0.007343201
16	0x3c0e7ce3	0.0086967675
17	0xbcbf5902	-0.023357872
18	0x3c0a30d2	0.008434491
19	0x3c687844	0.01418883
20	0x3bf4525e	0.007456108
21	0x3c23314f	0.009960487
22	0x3c842bd5	0.016134182
23	0xbd1bfc46	-0.038082384
24	0xbc02706f	-0.007961377
25	0x3d319968	0.04335919
26	0x3c9fd356	0.019509953
27	0xbb71ffa4	-0.0036926055
28	0xbbd67a13	-0.006545314
29	0xbc4c327f	-0.012463211
30	0xbca3b541	-0.01998389
31	0xbb8d4b4d	-0.004311955
32	0x3d03d9d9	0.032190178
33	0xbca08e50	-0.01959911
34	0x3c800540	0.015627503
35	0xbad7ff09	-0.0016479205
36	0xbc4dc7e0	-0.012559861
37	0xbc6d2ff7	-0.014476768
38	0x3a43c7df	0.0007468443
39	0xbcfffe1f	-0.031249104
40	0xbcc06ede	-0.023490366
41	0x3ce5aebf	0.028037427
42	0xba8d9336	-0.0010801319
43	0xbcc36ee9	-0.023856597
44	0xb92bf97d	-0.00016400772
45	0xbccfad3f	-0.025351165
46	0xbc1ea08b	-0.009681831
47	0x3c2c229b	0.010506297
48	0x3c23a6dd	0.009988514
49	0xbd2508f1	-0.04029173
50	0xba942d36	-0.0011304978
51	0xbcf11b82	-0.029432062
52	0xbc63f7af	-0.013914033
53	0xbd29e5fd	-0.0414791
54	0xbcaf9d47	-0.0214373
55	0xbccca414	-0.024980582
56	0xbcd25e84	-0.025679834
57	0x3bdb0343	0.0066837384
58	0xbc84bcee	-0.01620337
59	0x3cc84d25	0.024450848
60	0xbd024d32	-0.0318119
61	0xbc724bbb	-0.014788563
62	0xbce55490	-0.027994424
63	0xbc0749f8	-0.008257382
64	0xbc473bb2	-0.012160229
65	0x3bcf7192	0.0063306773
66	0x3c0952f5	0.008381595
67	0xbb756f4d	-0.0037450374
68	0xbcb3f164	-0.02196569
69	0x3b5ffaa5	0.0034176495
70	0xbd09f5cc	-0.033681676
71	0xbc5f6735	-0.013635446
72	0x3cbbab6b	0.022908887
73	0x3c614da9	0.013751426
74	0x3ad1870b	0.001598568
75	0x3c4da387	0.012551195
76	0xbcbfa631	-0.023394676
77	0xbc37288b	-0.0111791
78	0x3cbcdef8	0.023055539
79	0x3cb98ea6	0.022651028
80	0x3ad9afe7	0.0016608209
81	0xbce562ae	-0.028001156
82	0x3cda29b1	0.026631208
83	0xbca9b878	-0.020717844
84	0x3cba6bf6	0.022756558
85	0xbcfc3611	-0.0307875
86	0x3cafa8dd	0.021442825
87	0xbc2f708f	-0.010707988
88	0xba70d4c1	-0.0009186976
89	0x3b96266d	0.0045822174
90	0xbd2429c9	-0.040078912
91	0x3c622c67	0.013804532
92	0x3cbc5d0f	0.022993593
93	0x3bc2c40b	0.0059437803
94	0x3c22100b	0.00989152
95	0x3a4be900	0.0007778555
96	0xba759ee4	-0.0009369685
97	0xbc911921	-0.017712178
98	0x3d0cf1bf	0.034410235
99	0x3c4d18ac	0.012518089
100	0x3c1b7aa5	0.00948969
101	0xbc9f9eb8	-0.019484863
102	0xbb5e7adb	-0.003394774
103	0x3bac1f52	0.005252757
104	0x3c59b600	0.013288021
105	0x3c70d37e	0.014698861
106	0xbc9538fd	-0.01821565
107	0xbc939e1a	-0.018019725
108	0xbc0a2462	-0.008431526
109	0xbd65992c	-0.05605428
110	0x3bd79c12	0.0065798843
111	0xbc97da57	-0.01853673
112	0x3bca6950	0.006177105
113	0xbc7281bb	-0.014801438
114	0x3bf1a064	0.0073738564
115	0xbd073952	-0.03301365
116	0xbc6927fc	-0.014230724
117	0xbc373cea	-0.011183957
118	0x3c77a320	0.015114576
119	0x3cce4655	0.025180021
120	0x3b094f66	0.0020951866
121	0x398c90b9	0.00026810708
122	0xbbcc96e1	-0.006243572
123	0x3a484ab8	0.00076405285
124	0x3c00ea4f	0.0078683635
125	0xbd4d4fb6	-0.050124846
126	0x3b0aaba1	0.0021159428
127	0x3bddda05	0.0067703747
128	0xbca58f25	-0.020209858
129	0x3c980305	0.018556127
130	0xbb9fd660	-0.0048778504
131	0xbd2675a5	-0.04063954
132	0xbc62a605	-0.013833527
133	0xbcdce678	-0.026965365
134	0x3c8fc030	0.017547697
135	0xbd2932d1	-0.041308228
136	0x3c50cf2d	0.012744707
137	0x3ca3d3f0	0.01999852
138	0xbc132187	-0.0089801615
139	0xbccc362a	-0.024928171
140	0xbbc5afba	-0.006032911
141	0x3c6b9e3d	0.014380989
142	0x3d07329d	0.033007253
143	0x3c2eff1d	0.010680941
144	0xba2e99fe	-0.000666052
145	0xbafe93f6	-0.0019422758
146	0xbc1244dd	-0.008927551
147	0x3b894e70	0.0041902587
148	0xba0dd570	-0.0005410528
149	0xbd700b48	-0.05860451
150	0x3cdaaefd	0.026694769
151	0x3c627a8b	0.013823162
152	0x3c07f316	0.008297702
153	0x3bdab639	0.0066745547
154	0x3c45aa2b	0.012064497
155	0xbc543e8d	-0.012954366
156	0xbc325fe6	-0.010887122
157	0xbd07c813	-0.03314979
158	0xbb8cb3a8	-0.0042938776
159	0x3c1c9398	0.0095566735
160	0x3b600872	0.0034184721
161	0xb935652a	-0.00017299192
162	0xbcaa3fe0	-0.020782411
163	0x3c3c484c	0.011491846
164	0x3ca44df2	0.020056698
165	0xbbba8941	-0.0056926315
166	0xbbe1d46b	-0.0068917773
167	0xbc2c1595	-0.010503192
168	0x3d1f9222	0.038957722
169	0xbb3e89ba	-0.002907379
170	0xbcc11b38	-0.02357255
171	0xbcdf0cdc	-0.027227812
172	0x3a1e3d16	0.0006036324
173	0x3d0d8c21	0.034557465
174	0x3cdc8075	0.026916722
175	0x3ca4b8aa	0.020107586
176	0x3c0b7aea	0.008513192
177	0x3d0a56e9	0.03377429
178	0xbb80539a	-0.003916216
179	0xbbcc09f5	-0.006226773
180	0xbc60a4a9	-0.013711133
181	0xbc8f7dd0	-0.017516047
182	0xbc9c8043	-0.019104129
183	0x3a77ce25	0.000945302
184	0x3c6bb045	0.014385288
185	0xbbe4da7a	-0.0069840522
186	0x3ce5053d	0.0279566
187	0xba237dd2	-0.0006236705
188	0xbc07b259	-0.0082822675
189	0xbc76f196	-0.015072247
190	0x3b8ba33e	0.0042614033
191	0x3ca3c98e	0.01999357
192	0xbb575d1e	-0.0032861899
193	0x3c24354b	0.010022472
194	0xbc2035a5	-0.009778415
195	0x37e02fe8	2.6725189e-05
196	0x3d607c2c	0.05480592
197	0x3c758ab5	0.014986684
198	0xbb4bf2a6	-0.0031119972
199	0x3d11341b	0.035450082
200	0xbc42bfd3	-0.011886555
201	0xbd2cf518	-0.042225927
202	0xbca77c98	-0.020445153
203	0xbc5f0f9e	-0.013614563
204	0x3b849ddb	0.004047138
205	0x3be44407	0.0069661173
206	0x3cedfe36	0.029051881
207	0x3ac5358e	0.0015045868
208	0x3d0a017d	0.033692826
209	0x3cf75356	0.030191105
210	0xbc85c28c	-0.016328119
211	0x3a3d6473	0.0007224746
212	0x3c0fbc74	0.008772958
213	0x3c2597b5	0.010106971
214	0x3c17e685	0.009271269
215	0xbc310a2f	-0.010805651
216	0xbb493909	-0.0030704162
217	0xbc37c6c9	-0.011216828
218	0x3c87235f	0.016496358
219	0x3cb44e24	0.022009917
220	0xbcab5eab	-0.020919165
221	0x3a220843	0.00061810407
222	0x3d0a9885	0.03383686
223	0x3c8aba47	0.016934527
224	0x3ca9b510	0.02071622
225	0x3c5f2a49	0.013620921
226	0xbb813a5a	-0.0039437236
227	0xbc821068	-0.015876964
228	0x3b12d873	0.0022406846
229	0x3c7fb4b2	0.015607046
230	0x3d12f550	0.03587848
231	0x3b2b207c	0.0026111891
232	0xbcbf4540	-0.02334845
233	0xbc81b7b5	-0.015834669
234	0x3b78b6e2	0.0037950804
235	0x3d7b3a97	0.061335173
236	0xbd07145b	-0.032978397
237	0xbc27f2ea	-0.010250786
238	0x3cd38f79	0.025825249
239	0xbc98348a	-0.01857974
240	0x3c8b82de	0.017030176
241	0x3c1ba1b2	0.009499
242	0x3bf1f30c	0.00738371
243	0x3b077c5b	0.0020673487
244	0xbc14f1fc	-0.009090897
245	0xbc04a42d	-0.008095783
246	0x3d843d41	0.06456996
247	0xbcdb7e0b	-0.0267935
248	0xbcde2bfa	-0.027120579
249	0xbb28619a	-0.002569294
250	0x3cf26c7b	0.029592743
251	0xbc07e9f6	-0.008295527
252	0xba0ca64d	-0.0005365357
253	0xbc5c21e0	-0.013435811
254	0x3c74e6d6	0.014947614
255	0xbcb6f356	-0.022332828

action_model._continuous_distribution.mu.bias f4 [2]
0	0xbca90624	-0.02063281
1	0x3bf65b03	0.0075181737

action_model._discrete_distribution.branches.0.weight f4 [4, 128]
0	0xbb47f01a	-0.0030508102
1	0x3c0a3b76	0.008437028
2	0xbc0b05dc	-0.008485284
3	0x3ca2e2f5	0.019883612
4	0x3c8a7c23	0.016904896
5	0x3cabb3ca	0.020959754
6	0x3caaaecc	0.020835303
7	0x3c4de41b	0.012566592
8	0x3c6dba12	0.014509695
9	0x3c9c7d92	0.019102845
10	0x3cfc9394	0.03083209
11	0x3c929e5e	0.017897781
12	0xba040ad7	-0.00050370157
13	0xbbd62f1b	-0.006536377
14	0xbc09906a	-0.008396247
15	0xbc5e25e2	-0.013558837
16	0xbbb20c2c	-0.00543358
17	0x3be41372	0.006960326
18	0xbad8b323	-0.0016532879
19	0xbc7ff1c2	-0.015621604
20	0xbcb7dca1	-0.022444071
21	0x3ce97253	0.028496897
22	0xbad4b370	-0.0016227793
23	0x3c1d444d	0.009598804
24	0x3d33742d	0.043811966
25	0x3c9fdc7d	0.019514317
26	0x3c2a0231	0.010376499
27	0x3c095d82	0.00838411
28	0x3ba591e0	0.00505279
29	0x3bcb6851	0.006207504
30	0x3b1e3205	0.00241387
31	0xbd08c5f5	-0.03339191
32	0x3b811143	0.0039388253
33	0x3c1ad982	0.009451272
34	0xbc8efcbc	-0.017454498
35	0x3c81d374	0.015847899
36	0xbca366b4	-0.019946434
37	0x3b81d778	0.0039624535
38	0xb9033905	-0.00012514375
39	0x3bbb7622	0.0057208696
40	0x3d06617a	0.032807805
41	0xbbe855c9	-0.0070903045
42	0x3c699a7f	0.014258026
43	0x3c067444	0.008206431
44	0x3c95484b	0.018222949
45	0x3cdbf8b5	0.026851991
46	0xbc823504	-0.01589442
47	0x3bdddfa0	0.006771043
48	0x3cb49366	0.022042941
49	0xbaadab7d	-0.001324996
50	0x3c00bb94	0.007857222
51	0x3cb58ac1	0.02216089
52	0xbc9aa08a	-0.01887538
53	0x3d06f9fe	0.032953255
54	0x3c4e5645	0.01259381
55	0x3c57f2fa	0.013180489
56	0x3c52b144	0.012859646
57	0x3a8a2879	0.0010540626
58	0x3c5b171d	0.01337221
59	0xbc49e5b7	-0.012322835
60	0xbb0ce59e	-0.0021499167
61	0x3c45edcc	0.012080621
62	0xbca26c11	-0.01982692
63	0xbc5e53e2	-0.013569804
64	0x3c879383	0.016549831
65	0x3b7c33aa	0.0038482943
66	0x3c454bed	0.012042028
67	0x3ae6c0f5	0.0017605113
68	0xbbdc3d92	-0.006721207
69	0x3c02707b	0.007961388
70	0x3c208284	0.009796742
71	0x3cb6f414	0.022333182
72	0xbbf8c819	-0.007592213
73	0xbc615a6c	-0.013754468
74	0xbcd1ced9	-0.025611328
75	0x3c3dc86d	0.01158343
76	0xb9d92dfb	-0.00041423723
77	0xbc34046f	-0.010987385
78	0x3c1c4534	0.009537984
79	0xbc38b061	-0.011272521
80	0x3cef42d6	0.029206675
81	0x3d0f95fd	0.03505515
82	0x3c50cb9c	0.012743857
83	0x3b9ef9fe	0.0048515787
84	0xbb56f556	-0.003280004
85	0x3ce88d3e	0.028387662
86	0x3c2b121c	0.010441329
87	0xbbb3195d	-0.00546567
88	0x3cbbb180	0.022911787
89	0xbcc84676	-0.02444766
90	0x3bc5830e	0.006027586
91	0x3bacd57d	0.005274473
92	0x3c74f680	0.014951348
93	0x3cac3eb3	0.021025991
94	0xbc5e446a	-0.013566116
95	0xbcd9952b	-0.026560387
96	0xbc39e850	-0.0113468915
97	0x3b8c6206	0.0042841462
98	0x3c1672cd	0.009182644
99	0x3c3f745b	0.011685456
100	0x3c486c56	0.012232861
101	0x3b9f41ef	0.004860155
102	0xbcb3f15e	-0.021965679
103	0xbcb68fb8	-0.022285327
104	0x3c20bb34	0.009810258
105	0xbb9062bb	-0.004406301
106	0xbb881ae8	-0.004153598
107	0x3cd0ba42	0.02547944
108	0x3d1fb7ae	0.03899353
109	0x3c356db3	0.011073518
110	0xbc2f391a	-0.010694766
111	0x3c22b9f5	0.009932031
112	0x3baffd2c	0.0053707566
113	0xbb67fd4b	-0.0035398777
114	0xbcbf01af	-0.023316232
115	0x3b0a79fa	0.0021129833
116	0x3b8d9550	0.004320778
117	0xbc31bfaf	-0.010848924
118	0xbc99e1da	-0.018784452
119	0xbd117f96	-0.035522066
120	0xbc7ba7d9	-0.015359842
121	0x3bc3d0b3	0.0059758066
122	0x3ca64cbf	0.020300267
123	0x3af17221	0.0018420854
124	0x3ce749d0	0.028233439
125	0x3beca8da	0.007222277
126	0x3b38ede8	0.0028217975
127	0xbb8f292a	-0.004368921
128	0xbbcb6439	-0.006207016
129	0x3c266da9	0.010157981
130	0x3cf91116	0.030403655
131	0xbb65de96	-0.0035075299
132	0xbc9d36ca	-0.019191165
133	0xbc54441e	-0.0129556935
134	0xbc54cc5c	-0.012988176
135	0x3cd637f6	0.026149731
136	0x3c560383	0.013062361
137	0x3c5115ef	0.012761577
138	0xbcb5f863	-0.022213167
139	0xbba306b7	-0.0049751657
140	0xbd112759	-0.035437915
141	0x3b1d556e	0.002400722
142	0x3b98b39d	0.0046600834
143	0xbbd2fe23	-0.006438987
144	0x3c4f171a	0.012639785
145	0x3b4be9b6	0.0031114644
146	0x3c411234	0.011784125
147	0x3cf1bb8e	0.029508378
148	0x39e2ea76	0.00043280766
149	0xbca9eb7d	-0.020742172
150	0xbc484383	-0.012223127
151	0x3c3e785a	0.011625374
152	0xbc89fadb	-0.01684325
153	0xbc35d934	-0.011099149
154	0xbbdca8a4	-0.0067339707
155	0xba93948c	-0.001125948
156	0x3c86f6c8	0.016475096
157	0xbbb45fc7	-0.0055045816
158	0xbb078ff4	-0.0020685168
159	0x3cb5bc8e	0.022184636
160	0x3c96d4e6	0.018412065
161	0xbd41ee60	-0.047346473
162	0x3c8fca31	0.017552467
163	0xbc6c1c9b	-0.014411117
164	0xbc894d15	-0.016760388
165	0xbce6d3b1	-0.028177114
166	0x383a2c0e	4.4386885e-05
167	0xbcfbbba1	-0.030729117
168	0x3b13f00d	0.0022573501
169	0xbbbe5ac3	-0.0058091595
170	0x3b86baf3	0.0041116416
171	0xbd0a24cc	-0.0337265
172	0xbd03f98d	-0.032220412
173	0xba47809f	-0.00076104136
174	0xba88f7c7	-0.001044982
175	0xbca326f4	-0.019916035
176	0xbcb97cab	-0.022642454
177	0xbaf8e2f5	-0.0018988537
178	0xbbfdc767	-0.007744718
179	0xbcec8ee8	-0.028876737
180	0x3b003760	0.0019564256
181	0xbca2c4ea	-0.019869287
182	0xbca4245c	-0.020036869
183	0x3a7f9b40	0.0009750612
184	0xbc89c62d	-0.01681813
185	0xbb5a3bf2	-0.003329989
186	0xbd1d9531	-0.03847236
187	0xbb804c49	-0.003915344
188	0xbcdcb3d9	-0.026941227
189	0xbcafd088	-0.02146174
190	0x3c0874f7	0.008328668
191	0xbc694de3	-0.014239761
192	0xbce3d92e	-0.02781352
193	0xbc10ee94	-0.008845944
194	0x3b19aad4	0.0023447769
195	0x3c46f3d5	0.012143095
196	0xbc50a2fa	-0.012734169
197	0x3c8d68d0	0.017261893
198	0xbbf98373	-0.007614547
199	0xbca34c6e	-0.019933905
200	0xbb7b7383	-0.003836841
201	0xbcbbc8c9	-0.02292289
202	0x3cbd144f	0.023080973
203	0x3be3fd6d	0.006957701
204	0xbc3703ef	-0.011170371
205	0xbb960ef5	-0.0045794197
206	0x3c6a89bb	0.014315064
207	0xbb10205f	-0.002199195
208	0xba9f7af1	-0.0012167377
209	0xbc8402dc	-0.016114645
210	0x3c2e57e6	0.010641074
211	0xbc7e0387	-0.015503771
212	0x3c020950	0.007936791
213	0xbb2322b0	-0.0024892502
214	0xbcc6b470	-0.024255961
215	0xbca5654c	-0.020189904
216	0xbca44ecf	-0.02005711
217	0x3c8f3717	0.017482324
218	0x3c0c0062	0.008545013
219	0x3bd31d38	0.006442692
220	0xbad80c70	-0.0016483199
221	0x3c1cd129	0.009571352
222	0x3c04082e	0.008058591
223	0x3b9b5753	0.0047406345
224	0xbc5b1297	-0.013371131
225	0xbcc43ec3	-0.023955708
226	0x3c64e8bb	0.013971503
227	0xbc1c73e9	-0.0095491195
228	0xbc98db04	-0.018659122
229	0xb9a90fd7	-0.00032245993
230	0x3c0c9b14	0.008581895
231	0x3c7023f3	0.014657008
232	0x3c0385c9	0.008027502
233	0x3ce72533	0.02821598
234	0xbc7979f2	-0.015226828
235	0xbd2372ea	-0.039904512
236	0x3cb3fd2c	0.021971308
237	0xbb5751f5	-0.0032855247
238	0x3b80f2fb	0.0039352155
239	0x3b04df2d	0.0020274625
240	0xbc236ce0	-0.009974688
241	0xbb079dda	-0.0020693452
242	0xbc13773a	-0.009000594
243	0xbc815658	-0.015788242
244	0x3b2bb7c1	0.0026202055
245	0xbc6a8509	-0.014313945
246	0x3c5de7e2	0.013544055
247	0x3d178b04	0.03699781
248	0x3cff2028	0.031143263
249	0xbb971f59	-0.004611891
250	0xbc95dccd	-0.018293763
251	0xbc874f78	-0.016517386
252	0xbc99db85	-0.018781433
253	0xbcc1eba0	-0.023671925
254	0xbc3d4dfa	-0.011554236
255	0xbaa26032	-0.0012388288

action_model._discrete_distribution.branches.0.bias f4 [4]
0	0x3cd8aa65	0.026448438
1	0xbcca1477	-0.024667962
2	0xbc84366a	-0.016139228
3	0x3c8d1e55	0.017226378

exp_avg f4 [128, 18]
0	0x38182dca	3.628227e-05
1	0xb7cdae11	-2.451896e-05
2	0xb8d22335	-0.00010020138
3	0xb78eca6a	-1.7021976e-05
4	0xb27009ab	-1.3972037e-08
5	0x34c11fa9	3.5972087e-07
6	0xb624cf2d	-2.4558497e-06
7	0x353fadad	7.1405776e-07
8	0xb7c026f6	-2.2906326e-05
9	0x3817d86a	3.6202757e-05
10	0x37801734	1.5269594e-05
11	0x2e36255f	4.14152e-11
12	0xb215f1ab	-8.72789e-09
13	0xb27009ab	-1.3972037e-08
14	0xb5e55715	-1.7087174e-06
15	0xb5ae08f0	-1.2966611e-06
16	0xb505e65a	-4.9881567e-07
17	0x35bb54cd	1.3957266e-06
18	0xb89350d4	-7.024562e-05
19	0x387e3f37	6.0617193e-05
20	0x37e53541	2.7323726e-05
21	0x373cb8db	1.1248713e-05
22	0x3423d3bb	1.5257585e-07
23	0xb6ffe28b	-7.6259653e-06
24	0x37d68c70	2.5576184e-05
25	0x384e4b5e	4.918442e-05
26	0x37938dea	1.758985e-05
27	0xb89616c5	-7.1567985e-05
28	0x380435f6	3.1521507e-05
29	0xafc07dc9	-3.5013972e-10
30	0x33ccaca4	9.5308934e-08
31	0x3423d3bb	1.5257585e-07
32	0xb6594586	-3.2375988e-06
33	0xb6852aa0	-3.968671e-06
34	0xb6756e8d	-3.6572194e-06
35	0xb5a1e00e	-1.2060643e-06
36	0x378c7f49	1.6748572e-05
37	0xb7c6056f	-2.360597e-05
38	0xb732deed	-1.0661531e-05
39	0xb76face8	-1.4285768e-05
40	0x334724d0	4.636678e-08
41	0xb7afd5be	-2.0961157e-05
42	0xb75c2eab	-1.3123888e-05
43	0x36c4be6d	5.8634237e-06
44	0x377ce744	1.5074216e-05
45	0x37ba3797	2.2198814e-05
46	0xb79b4441	-1.8509223e-05
47	0xae96733d	-6.841681e-11
48	0x32f8cc2f	2.8963852e-08
49	0x334724d0	4.636678e-08
50	0xb587a2a3	-1.0105617e-06
51	0xb5a4d4bd	-1.2280867e-06
52	0xb596a860	-1.1224874e-06
53	0xb5a1d38f	-1.2057006e-06
54	0xb7aa2f08	-2.028748e-05
55	0xb6a15216	-4.80773e-06
56	0xb622c76b	-2.4255958e-06
57	0x380a1d31	3.292895e-05
58	0xb271e5bd	-1.4080283e-08
59	0xb74a96b3	-1.2075226e-05
60	0x37d15f81	2.4959214e-05
61	0x37ebbb1d	2.8101314e-05
62	0xb797ec55	-1.8110653e-05
63	0xb7951185	-1.7770342e-05
64	0xb6cbd4b9	-6.0746356e-06
65	0xaec541ef	-8.970235e-11
66	0xb2171aef	-8.795481e-09
67	0xb271e5bd	-1.4080283e-08
68	0x36009bf4	1.9164263e-06
69	0x35e4e931	1.7055191e-06
70	0x3587919f	1.0100665e-06
71	0x34aa6ad9	3.174271e-07
72	0x38065ba1	3.2033426e-05
73	0xb7329475	-1.0644192e-05
74	0x384beb8d	4.8618345e-05
75	0xb7c11750	-2.3018249e-05
76	0xb36944f5	-5.4312256e-08
77	0x38d06482	9.936934e-05
78	0xb8b0d356	-8.4316984e-05
79	0xb88ae1dd	-6.622423e-05
80	0x3790f23b	1.7278935e-05
81	0x3844d470	4.692789e-05
82	0xb83da5d8	-4.5215565e-05
83	0x2e8d38cf	6.422029e-11
84	0xb311b727	-3.392702e-08
85	0xb36944f5	-5.4312256e-08
86	0x360adffb	2.0693976e-06
87	0x3611c064	2.171867e-06
88	0x35e1e678	1.6830882e-06
89	0x372ba266	1.0230206e-05
90	0x3876c60b	5.8835412e-05
91	0x38624690	5.3948315e-05
92	0xb8bdc269	-9.048434e-05
93	0x374e3258	1.2290278e-05
94	0x3329e27f	3.9554376e-08
95	0x37c96b99	2.4011171e-05
96	0xb86b7704	-5.6139208e-05
97	0xb76bdcb8	-1.4058482e-05
98	0x3795943a	1.7831208e-05
99	0x3811186b	3.4593435e-05
100	0x388063f7	6.1221355e-05
101	0x2fe14f8a	4.0983777e-10
102	0x32d43e0d	2.4708266e-08
103	0x3329e27f	3.9554376e-08
104	0x36a28d6c	4.84444e-06
105	0x3676c461	3.6771164e-06
106	0x35bded91	1.4150738e-06
107	0x361057b9	2.1508733e-06
108	0x39270f44	0.00015932048
109	0xb8ad328d	-8.258699e-05
110	0x37f40adf	2.9092129e-05
111	0xb8d0fa70	-9.9648605e-05
112	0x3515ac42	5.5757494e-07
113	0x388b4f32	6.642788e-05
114	0x3712aebb	8.742961e-06
115	0xb7519a72	-1.249333e-05
116	0xb70f3f5f	-8.538219e-06
117	0x395c6917	0.00021019984
118	0xb7f96281	-2.9728983e-05
119	0x30ae4a82	1.2681343e-09
120	0x34bafdc9	3.4829853e-07
121	0x3515ac42	5.5757494e-07
122	0xb801a60b	-3.0910636e-05
123	0xb7fe29c9	-3.0298617e-05
124	0xb7b2a803	-2.129749e-05
125	0xb77ef216	-1.5195945e-05
126	0xb7e49439	-2.724874e-05
127	0x383ae3e0	4.455808e-05
128	0x3879afce	5.9529957e-05
129	0x38136176	3.51383e-05
130	0xb45f3be1	-2.0790277e-07
131	0xb8624d24	-5.395444e-05
132	0xb5925521	-1.0902623e-06
133	0xb7460f22	-1.1805243e-05
134	0x38018961	3.088394e-05
135	0xb86bfc4f	-5.6263347e-05
136	0x384c7ac5	4.8751728e-05
137	0x2f2f359e	1.5935206e-10
138	0xb40b726d	-1.2987012e-07
139	0xb45f3be1	-2.0790277e-07
140	0xb5369805	-6.80215e-07
141	0x359ff857	1.19187e-06
142	0x36405a04	2.8662625e-06
143	0xb6245a35	-2.4490412e-06
144	0x3837f8a5	4.386217e-05
145	0xb8241861	-3.912335e-05
146	0x3798f75f	1.8235003e-05
147	0x3800a953	3.0675274e-05
148	0x3411eabf	1.3589577e-07
149	0x3800d799	3.071837e-05
150	0x3833bce3	4.285284e-05
151	0xb734ae87	-1.0769471e-05
152	0xb8262faf	-3.9621893e-05
153	0x389a0258	7.343729e-05
154	0x3699b33b	4.5806205e-06
155	0x2f9da260	2.8673508e-10
156	0x33b64c8c	8.488959e-08
157	0x3411eabf	1.3589577e-07
158	0xb5a7f665	-1.251418e-06
159	0xb61284fd	-2.1833105e-06
160	0xb62d0df7	-2.5787137e-06
161	0x3688f3cc	4.0814975e-06
162	0xb58c3cbd	-1.044849e-06
163	0xb8217d4b	-3.850208e-05
164	0xb7bbec50	-2.2402179e-05
165	0x35f9eaaf	1.8620248e-06
166	0x34123793	1.3617527e-07
167	0x36e7a802	6.903895e-06
168	0x37e122f8	2.6838374e-05
169	0xb823cd73	-3.9053568e-05
170	0xb6d695e0	-6.3951447e-06
171	0x380d8057	3.3736545e-05
172	0xb789a45b	-1.6408207e-05
173	0x2f9d0565	2.8561967e-10
174	0x33b6ac8a	8.50642e-08
175	0x34123793	1.3617527e-07
176	0x37588ac6	1.2906914e-05
177	0x371fff40	9.5365685e-06
178	0x365db80d	3.3038698e-06
179	0xb5b321c8	-1.3346371e-06
180	0xb75e89f7	-1.3264354e-05
181	0x378f40e7	1.7077151e-05
182	0xb782e9df	-1.5606112e-05
183	0x37647f1d	1.3619455e-05
184	0xb2b22cce	-2.0742302e-08
185	0xb76b0819	-1.4008977e-05
186	0x37a27096	1.9364332e-05
187	0xb6e8e87c	-6.9412035e-06
188	0x372078ea	9.564896e-06
189	0xb776a59a	-1.47013e-05
190	0xb7e6f996	-2.753436e-05
191	0x2e690587	5.2982976e-11
192	0xb25e999a	-1.2957026e-08
193	0xb2b22cce	-2.0742302e-08
194	0x34d9fa92	4.0601714e-07
195	0x3509472d	5.114005e-07
196	0x3501a6de	4.829907e-07
197	0xb61c177f	-2.3259488e-06
198	0x375efaba	1.3290608e-05
199	0xb8817fca	-6.175002e-05
200	0x3815abd3	3.5684392e-05
201	0xb7e88d00	-2.7722213e-05
202	0x349c75cf	2.914298e-07
203	0xb731d88f	-1.0600444e-05
204	0xb8c2d5c7	-9.29046e-05
205	0x35d5f1c1	1.5940096e-06
206	0xb68e1310	-4.234149e-06
207	0x37e2d881	2.7042117e-05
208	0xb8a086bc	-7.654491e-05
209	0xaecfe89a	-9.4545885e-11
210	0x34437893	1.8204655e-07
211	0x349c75cf	2.914298e-07
212	0xb78e38bc	-1.6954138e-05
213	0xb78a6313	-1.6497017e-05
214	0xb7405314	-1.1463435e-05
215	0xb73580e7	-1.0818453e-05
216	0xb8098da9	-3.2795277e-05
217	0x37b4f3b1	2.157115e-05
218	0x382f27fd	4.1760493e-05
219	0xb6b452b4	-5.374046e-06
220	0x33ac148f	8.013114e-08
221	0xb8c10b8c	-9.205108e-05
222	0x3680a38b	3.833736e-06
223	0x387e0df3	6.057131e-05
224	0x38483705	4.7734957e-05
225	0xb7f3110a	-2.8975792e-05
226	0x375b5507	1.3073214e-05
227	0x2e8eb0a7	6.488792e-11
228	0x3356fc31	5.0055124e-08
229	0x33ac148f	8.013114e-08
230	0xb6b6075c	-5.4248794e-06
231	0xb6ad68c8	-5.168e-06
232	0xb668d20c	-3.4692957e-06
233	0xb6a3434d	-4.8656134e-06
234	0x38fb9277	0.00011995894
235	0xb804d8cd	-3.1673164e-05
236	0xb8c00256	-9.1557085e-05
237	0xb8c4eb82	-9.389875e-05
238	0xb4a18fc5	-3.0093193e-07
239	0x3820bf2b	3.832501e-05
240	0xb8546d7c	-5.0646704e-05
241	0xb8ef39b1	-0.00011407154
242	0xb5ba93d0	-1.3901099e-06
243	0x38e3c3f1	0.000108607004
244	0xb51394e6	-5.4978443e-07
245	0x3022d518	5.923808e-10
246	0xb449d81c	-1.8798204e-07
247	0xb4a18fc5	-3.0093193e-07
248	0x35c8026e	1.4901868e-06
249	0x367d4b27	3.7743682e-06
250	0x36adbd2d	5.1778247e-06
251	0x37387f40	1.0996882e-05
252	0x377c8876	1.5052143e-05
253	0x36b8db8e	5.509187e-06
254	0xb874e36c	-5.8385936e-05
255	0x35860da6	9.98775e-07
