Assets/ML-Agents/results/RL_BASIC_1/RL_Basic/RL_Basic-3526.onnx (onnx, 86508 bytes, 10 tensors)

network_body.observation_encoder.processors.0.normalizer.running_mean f4 [18]
4.198121 -2.6792026 0.13812962 -0.0735904 99.97165 0.6488045 0.64686704 1.5179095
2.442302 -5.9101624 -3.1754227 0.0 0.9997165 99.97165 0.0064266142 0.0064266142
0.0064266142 0.0
00000000: 0257 8640 0e78 2bc0 da71 0d3e 90b6 96bd
00000010: 7cf1 c742 0d18 263f 1499 253f dc4a c23f
00000020: ad4e 1c40 0d20 bdc0 203a 4bc0 0000 0000
00000030: 6ced 7f3f 7cf1 c742 5996 d23b 5996 d23b
00000040: 5996 d23b 0000 0000

network_body._body_endoder.seq_layers.0.weight f4 [128, 18]
0.3499622 -0.103789896 0.16807823 -0.020783495 -0.096661225 -0.055053752 -0.25238833 -0.31086874
0.003014356 -0.058091298 -0.20737422 -0.12834392 -0.33278292 0.015518091 -0.11776243 0.041753106
0.27199653 0.19703394 -0.038476165 -0.36949107 -0.24154347 -0.07520479 -0.56988794 -0.2931424
-0.23899345 0.47038627 -0.14440337 0.37106076 0.083134376 0.18642056 -0.1268377 -0.06823973
0.13061664 -0.15218507 0.21150875 0.10453917 -0.19767614 0.26247656 0.017968036 -0.16480659
-0.27992254 0.11955905 -0.07782573 0.13005646 0.3143316 -0.18263148 -0.11475712 0.025510596
0.09962599 0.05177277 0.16340165 -0.27368423 0.65748256 -0.18184206 -0.5904546 0.15315814
0.34258115 -0.35705802 0.060010932 0.18250765 0.7267223 -0.38547257 0.16224827 -0.4029638
0.29934126 0.31729093 -0.049900144 0.00079162704 0.26059592 -0.49531326 -0.2528041 0.34111425
-0.10305218 -0.23385732 -0.2937616 -0.09789596 0.06737369 -0.2871753 0.3039975 -0.007783356
0.1453569 -0.035378817 0.29063728 -0.035670795 0.57544714 -0.21351829 -0.2429319 -0.19940664
-0.24232805 -0.1429253 -0.14642 -0.43321696 -0.036071602 -0.22939178 -0.11785202 -0.10592264
0.011136546 -0.07869604 -0.19306715 0.20024042 0.2036479 0.050540455 -0.15989153 -0.10334216
0.43159536 -0.041293252 0.06438543 -0.098968886 0.3027001 -0.06252951 -0.052785564 -0.20260453
0.11837253 -0.18449873 -0.2209106 0.12511675 0.2929653 0.15658553 -0.093619525 -0.37414512
0.14946748 -0.2850993 -0.10393989 0.07480502 0.17805256 -0.008003117 0.09231687 0.16172971
0.027988635 0.3056905 -0.029483544 -0.046375748 0.26515573 -0.24974851 0.021889519 0.06801717
-0.15306036 -0.048570108 -0.33540475 -0.16224386 -0.28388828 -0.050517753 0.060033865 -0.44392088
-0.009652494 0.40954784 0.14803058 0.13620158 0.03098772 -0.025034005 0.051186357 -0.019562084
-0.16208826 0.13560802 0.4097415 -0.12745625 0.15561739 -0.018294552 0.19193502 0.03205709
-0.011830388 -0.14894153 0.18326221 -0.252567 0.09513734 0.12514259 -0.051895685 -0.11989853
0.080830544 0.13208874 0.22445956 0.44917637 -0.22790459 -0.039207604 -0.27374825 0.11370209
-0.23421004 0.20333968 0.413767 0.09762426 -0.1593051 -0.09925013 0.38641235 0.042811144
-0.3916657 -0.5371289 0.36540452 -0.24385698 -0.102232195 -0.3245254 -0.25120264 -0.24476069
-0.08358519 -0.16894709 0.40193757 -0.032007087 0.04880604 -0.3780175 -0.3173824 0.35166413
0.4731497 0.42045876 0.4381288 -0.09246298 -0.13290933 -0.008447843 -0.17285055 -0.30499426
-0.50551605 0.0053355396 0.09292453 -0.09959079 -0.16462174 -0.31931016 -0.2278245 -0.24607657
-0.08082168 0.053434853 -0.2733834 0.38546914 -0.025654307 0.110282265 -0.06442705 -0.56079847
0.003701477 -0.18354945 0.22352175 0.00070502906 0.10618736 0.1698611 0.013325971 -0.10067941
0.34593475 0.23352347 -0.043605328 0.25775132 0.19905154 -0.15417065 -0.27981865 -0.3272484
-0.12424089 -0.031171564 -0.02050648 0.042818014 0.14022692 0.0009642961 0.19009985 0.10794909
-0.022612033 -0.17763887 0.2891169 -0.23993583 -0.2111614 0.064398676 0.21347854 -0.13109718
00000000: 3f2e b33e cc8f d4bd b31c 2c3e 2642 aabc
00000010: 52f6 c5bd 0b80 61bd 0b39 81be 302a 9fbe
00000020: 808c 453b 24f1 6dbd e859 54be 976c 03be
00000030: 8662 aabe 973f 7e3c 6e2d f1bd 4e05 2b3d
00000040: 2143 8b3e 44c3 493e 2f99 1dbd ef2d bdbe
00000050: 2c57 77be f804 9abd 2de4 11bf c316 96be
00000060: b3ba 74be 78d6 f03e 7ade 13be adfb bd3e
00000070: 5b42 aa3d 08e5 3e3e bee1 01be 46c1 8bbd
00000080: 5ec0 053e 67d6 1bbe c095 583e a218 d63d
00000090: 9d6b 4abe 5463 863e b431 933c 0fc3 28be
000000a0: 0252 8fbe 60db f43d 1963 9fbd 852d 053e
000000b0: 12f0 a03e bf03 3bbe c805 ebbd 99fb d03c
000000c0: b608 cc3d af0f 543d c352 273e 5720 8cbe
000000d0: c750 283f ce34 3abe 0828 17bf 7dd5 1c3e
000000e0: cc66 af3e 4fd0 b6be 06ce 753d 49e3 3a3e
000000f0: 790a 3a3f a95c c5be 6924 263e 4551 cebe
00000100: 4243 993e f573 a23e 1864 4cbd 3185 4f3a
00000110: d46c 853e b399 fdbe 8a6f 81be 87a6 ae3e
00000120: 050d d3bd 4b78 6fbe ec67 96be ad7d c8bd
00000130: 38fb 893d a408 93be 8fa5 9b3e 860b ffbb
00000140: 70d8 143e 61e9 10bd 69ce 943e 8a1b 12bd
00000150: 8150 133f 8aa4 5abe 24c3 78be 4131 4cbe
00000160: d824 78be 035b 12be 20ef 15be 9dce ddbe
00000170: d1bf 13bd aee5 6abe 665c f1bd f8ed d8bd
00000180: 0f76 363c 642b a1bd 65b3 45be d30b 4d3e
00000190: 1389 503e 8203 4f3d 9bba 23be 0ea5 d3bd
000001a0: 11fa dc3e 1d23 29bd 82dc 833d 33b0 cabd
000001b0: 82fb 9a3e 790f 80bd ad35 58bd 9077 4fbe
000001c0: 4c6d f23d 3ced 3cbe 6336 62be 9b1e 003e
000001d0: 8cff 953e f557 203e 98bb bfbd f38f bfbe
000001e0: 010e 193e 89f8 91be 70de d4bd 6033 993d
000001f0: 6953 363e 811f 03bc a110 bd3d 799c 253e
00000200: 6c48 e53c 7783 9c3e 7987 f1bc 7ff4 3dbd
00000210: 7ec2 873e 13be 7fbe a651 b33c 964c 8b3d
00000220: dbbb 1cbe 73f1 46bd 2cba abbe 4123 26be
00000230: ce59 91be b4eb 4ebd 12e6 753d 9949 e3be
00000240: 7f25 1ebc 41b0 d13e 5495 173e 6d78 0b3e
00000250: f5d9 fd3c 1d14 cdbc c9a8 513d aa40 a0bc
00000260: 77fa 25be d4dc 0a3e a3c9 d13e e483 02be
00000270: 2a5a 1f3e 75de 95bc 9d8a 443e 4c4e 033d
00000280: 3ed4 41bc 2184 18be 17a9 3b3e 7650 81be
00000290: 5ed7 c23d 6125 003e 9290 54bd 5c8d f5bd
000002a0: 7c8a a53d 4542 073e bad8 653e 72fa e53e
000002b0: d25f 69be 2798 20bd bb28 8cbe a4dc e83d
000002c0: c2d4 6fbe 4738 503e 45d9 d33e 3aef c73d
000002d0: e020 23be a743 cbbd d7d7 c53e bd5a 2f3d
000002e0: 6888 c8be 4881 09bf 4d16 bb3e a5b5 79be
000002f0: 1d5f d1bd 3128 a6be a29d 80be 8ca2 7abe
00000300: b62e abbd 7700 2dbe c3ca cd3e dd19 03bd
00000310: d8e8 473d 828b c1be f27f a2be 520d b43e
00000320: ad40 f23e 5f46 d73e 6b52 e03e 3b5d bdbd
00000330: 6219 08be d268 0abc bcff 30be 3528 9cbe
00000340: 8069 01bf c0d5 ae3b 374f be3d 42f6 cbbd
00000350: 9a92 28be 9f7c a3be d34a 69be 7ffb 7bbe
00000360: d685 a5bd 81de 5a3d e9f8 8bbe 365c c53e
00000370: fb28 d2bc abdb e13d 54f2 83bd 7d90 0fbf
00000380: 7b94 723b 63f4 3bbe e3e2 643e b3d1 383a
00000390: c278 d93d 11f0 2d3e 2c55 5a3c 0231 cebd
000003a0: 5c1e b13e c720 6f3e 809b 32bd fbf7 833e
000003b0: 2bd4 4b3e e9de 1dbe 6444 8fbe 1a8d a7be
000003c0: 0272 febd 825b ffbc 35fd a7bc f161 2f3d
000003d0: a597 0f3e d1c8 7c3a 89a9 423e 6a14 dd3d
000003e0: df3c b9bc f7e6 35be 2107 943e bdb1 75be
000003f0: b23a 58be 74e3 833d 1e9a 5a3e 573e 06be

network_body._body_endoder.seq_layers.0.bias f4 [128]
0.0 0.0 0.0 0.0 0.0 0.0 0.0 0.0
0.0 0.0 0.0 0.0 0.0 0.0 0.0 0.0
0.0 0.0 0.0 0.0 0.0 0.0 0.0 0.0
0.0 0.0 0.0 0.0 0.0 0.0 0.0 0.0
0.0 0.0 0.0 0.0 0.0 0.0 0.0 0.0
0.0 0.0 0.0 0.0 0.0 0.0 0.0 0.0
0.0 0.0 0.0 0.0 0.0 0.0 0.0 0.0
0.0 0.0 0.0 0.0 0.0 0.0 0.0 0.0
0.0 0.0 0.0 0.0 0.0 0.0 0.0 0.0
0.0 0.0 0.0 0.0 0.0 0.0 0.0 0.0
0.0 0.0 0.0 0.0 0.0 0.0 0.0 0.0
0.0 0.0 0.0 0.0 0.0 0.0 0.0 0.0
0.0 0.0 0.0 0.0 0.0 0.0 0.0 0.0
0.0 0.0 0.0 0.0 0.0 0.0 0.0 0.0
0.0 0.0 0.0 0.0 0.0 0.0 0.0 0.0
0.0 0.0 0.0 0.0 0.0 0.0 0.0 0.0
00000000: 0000 0000 0000 0000 0000 0000 0000 0000
00000010: 0000 0000 0000 0000 0000 0000 0000 0000
00000020: 0000 0000 0000 0000 0000 0000 0000 0000
00000030: 0000 0000 0000 0000 0000 0000 0000 0000
00000040: 0000 0000 0000 0000 0000 0000 0000 0000
00000050: 0000 0000 0000 0000 0000 0000 0000 0000
00000060: 0000 0000 0000 0000 0000 0000 0000 0000
00000070: 0000 0000 0000 0000 0000 0000 0000 0000
00000080: 0000 0000 0000 0000 0000 0000 0000 0000
00000090: 0000 0000 0000 0000 0000 0000 0000 0000
000000a0: 0000 0000 0000 0000 0000 0000 0000 0000
000000b0: 0000 0000 0000 0000 0000 0000 0000 0000
000000c0: 0000 0000 0000 0000 0000 0000 0000 0000
000000d0: 0000 0000 0000 0000 0000 0000 0000 0000
000000e0: 0000 0000 0000 0000 0000 0000 0000 0000
000000f0: 0000 0000 0000 0000 0000 0000 0000 0000
00000100: 0000 0000 0000 0000 0000 0000 0000 0000
00000110: 0000 0000 0000 0000 0000 0000 0000 0000
00000120: 0000 0000 0000 0000 0000 0000 0000 0000
00000130: 0000 0000 0000 0000 0000 0000 0000 0000
00000140: 0000 0000 0000 0000 0000 0000 0000 0000
00000150: 0000 0000 0000 0000 0000 0000 0000 0000
00000160: 0000 0000 0000 0000 0000 0000 0000 0000
00000170: 0000 0000 0000 0000 0000 0000 0000 0000
00000180: 0000 0000 0000 0000 0000 0000 0000 0000
00000190: 0000 0000 0000 0000 0000 0000 0000 0000
000001a0: 0000 0000 0000 0000 0000 0000 0000 0000
000001b0: 0000 0000 0000 0000 0000 0000 0000 0000
000001c0: 0000 0000 0000 0000 0000 0000 0000 0000
000001d0: 0000 0000 0000 0000 0000 0000 0000 0000
000001e0: 0000 0000 0000 0000 0000 0000 0000 0000
000001f0: 0000 0000 0000 0000 0000 0000 0000 0000

network_body._body_endoder.seq_layers.2.weight f4 [128, 128]
-0.037576023 0.07186584 -0.12371817 0.066452235 0.1280568 -1.1376993e-05 -0.09987952 0.03362308
-0.057315663 -0.12604713 -0.035830252 0.024155857 0.12816454 -0.04673016 -0.011073508 -0.0024453895
-0.03351909 -0.046711102 0.09161515 -0.027798641 0.08812618 0.032881476 0.1075192 -0.034748632
0.11851834 0.08398578 -0.1063092 0.16202603 -0.112834364 -0.05471561 0.024374858 -0.03163476
0.014458737 -0.17783415 -0.040387668 0.12288048 0.0690353 -0.0130605735 0.1392264 0.122589625
0.07835002 0.025642268 0.007376318 -0.13358322 -0.058327377 -0.023871506 -0.1092662 -0.04601358
-0.032289583 0.03158697 0.10476164 0.0030854347 0.104709074 -0.04175317 0.062758766 0.079002246
0.11012368 0.14282851 -0.01392883 -0.09518001 0.119526416 -0.011686353 0.049001172 0.126406
-0.01972597 0.07146142 -0.057285707 0.09782834 -0.057439245 0.19824016 -0.0023085463 0.0899045
0.12166938 0.14117056 0.015595239 -0.13891396 -0.11062104 -0.05070993 0.015171736 0.044742953
0.0034531134 -0.07100823 -0.037376687 0.04104895 0.040433295 0.09324944 0.08870777 -0.06818808
0.031383686 0.040624313 0.08603221 0.048112724 -0.08546956 0.06836608 0.04042902 0.20620984
-0.019000549 0.015746035 0.04113616 -0.030295394 -0.11193894 -0.13364366 0.0029571648 -0.04558639
-0.15685464 0.03210563 -0.14736411 -0.14776498 -0.122641616 0.015706185 -0.06078724 0.024801966
0.009316809 0.031988222 0.04593342 0.024162417 -0.08477495 0.0074812467 0.09989861 -0.06827758
-0.011159856 0.06071108 -0.032328315 -0.02741776 0.022568405 -0.19129285 0.015568117 -0.211897
-0.07188746 -0.07449188 -0.052838877 0.032936238 0.13738713 -0.042195853 -0.08871631 -0.090736076
0.20988199 -0.10368133 0.13957226 0.0038790922 -0.029887673 0.027604047 0.12101407 -0.036788624
0.0865858 -0.13559578 0.12033574 -0.11702071 0.047477607 -0.0026943835 -0.014194887 -0.0080403825
-0.12720528 0.16572687 -0.008371217 0.017810313 -0.00041029055 0.10794252 0.0085250065 0.06221319
0.041152976 -0.009595977 -0.05003403 -0.044127796 -0.031727217 -0.13319016 -0.07926653 0.02793812
-0.044708136 0.014418356 -0.15457152 0.08576302 -0.05984644 0.121970214 0.015514908 0.028851343
0.085249566 -0.17593673 -0.036135525 0.12409822 0.068393245 0.17881298 0.06349119 0.041704893
0.022389844 0.028097175 -0.059825 -0.0518888 0.21188228 0.0077416864 -0.022507496 -0.0057394677
0.048474927 -0.095492385 -0.20233814 0.07874373 0.011609869 -0.03499406 -0.063920416 -0.07240754
0.13302328 0.030888561 -0.001981245 0.124634765 -0.06650365 -2.6395479e-05 -0.005347747 0.022291433
-0.070929766 -0.15311551 0.101173684 -0.096927084 -0.06728157 -0.007014944 -0.016036998 0.0031404493
0.031296015 0.115120545 0.09634074 0.051024716 0.06399201 0.053799577 0.09145494 -0.10158308
0.051729485 0.11623765 -0.12335018 -0.11253604 -0.05487185 0.059757233 0.10453265 0.08331342
0.018320063 -0.057974223 -0.05454454 0.06353425 -0.027382636 -0.12922074 -0.04387251 -0.22657849
-0.059976365 0.050903056 0.08135 -0.040129364 -0.027313894 -0.047369596 0.04785638 -0.11104334
-0.008080746 0.17417225 0.07563405 0.033425644 0.03509461 -0.12793082 0.017164549 0.035088994
00000000: 51e9 19bd 662e 933d f45f fdbd 1c18 883d
00000010: 5221 033e d0df 3eb7 a28d ccbd 5bb8 093d
00000020: d4c3 6abd 8012 01be bec2 12bd 81e2 c53c
00000030: 913d 033e 2068 3fbd a96d 35bc d442 20bb
00000040: 504b 09bd 2454 3fbd b9a0 bb3d fab9 e3bc
00000050: 807b b43d baae 063d 0733 dc3d 9554 0ebd
00000060: beb9 f23d bd00 ac3d a3b8 d9bd 27ea 253e
00000070: b415 e7bd 7a1d 60bd c8ad c73c 7393 01bd
00000080: 57e4 6c3c 281a 36be 8a6d 25bd c3a8 fb3d
00000090: 6162 8d3d 04fc 55bc 5e91 0e3e 4510 fb3d
000000a0: fa75 a03d bc0f d23c 0ab5 f13b 0aca 08be
000000b0: b0e8 6ebd 2d8e c3bc f5c6 dfbd bc78 3cbd
000000c0: 1542 04bd 5761 013d 458d d63d 0135 4a3b
000000d0: b671 d63d 5f05 2bbd ab87 803d eecb a13d
000000e0: 8688 e13d a341 123e bf35 64bc bded c2bd
000000f0: 44ca f43d 1e78 3fbc 74b5 483d 9370 013e
00000100: 5c98 a1bc 5d5a 923d 6ba4 6abd 3a5a c83d
00000110: 6a45 6bbd 78ff 4a3e fb4a 17bb da1f b83d
00000120: cc2d f93d 048f 103e 2c83 7f3c 763f 0ebe
00000130: 498d e2bd 37b5 4fbd df92 783c 6344 373d
00000140: a14d 623b c36c 91bd 4c18 19bd f222 283d
00000150: 629d 253d 90f9 be3d 6bac b53d 31a6 8bbd
00000160: 2e8c 003d ae65 263d a831 b03d d911 453d
00000170: aa0a afbd 8403 8c3d e698 253d ac28 533e
00000180: 0aa7 9bbc d4fd 803c 647e 283d 0c2e f8bc
00000190: 3e40 e5bd e2d9 08be fecc 413b cbb8 3abd
000001a0: 819e 20be 3181 033d 9ee6 16be b44f 17be
000001b0: 872b fbbd 42aa 803c 0afc 78bd 7e2d cb3c
000001c0: 87a5 183c 1506 033d af24 3c3d 43f0 c53c
000001d0: 7d9e adbd 3f25 f53b a497 cc3d 1ed5 8bbd
000001e0: d4d7 36bc 2eac 783d b26a 04bd 369b e0bc
000001f0: 60e1 b83c 46e2 43be 6a11 7f3c 87fb 58be
00000200: bc39 93bd 338f 98bd 946d 58bd 26e8 063d
00000210: 36af 0c3e 8fd5 2cbd e6b0 b5bd d6d3 b9bd
00000220: 4eeb 563e e156 d4bd 08ec 0e3e 5e38 7e3b
00000230: fed6 f4bc e221 e23c 3ad6 f73d abaf 16bd
00000240: e553 b13d 9fd9 0abe 9672 f63d 8ea8 efbd
00000250: e177 423d 4194 30bb ac91 68bc cfbb 03bc
00000260: 1a42 02be 4eb4 293e 6e27 09bc efe6 913c
00000270: 441c d7b9 f810 dd3d 78ac 0b3c 42d3 7e3d
00000280: 0690 283d 7238 1dbc 7cf0 4cbd 59bf 34bd
00000290: 66f4 01bd 0063 08be 7e56 a2bd 7cde e43c
000002a0: e11f 37bd f83a 6c3c ff47 1ebe 86a4 af3d
000002b0: 8a21 75bd 85cb f93d 3e32 7e3c a759 ec3c
000002c0: 5397 ae3d c228 34be d802 14bd 3527 fe3d
000002d0: c211 8c3d c01a 373e ab07 823d c0d2 2a3d
000002e0: e86a b73c 0c2c e63c 0f0b 75bd 5a89 54bd
000002f0: abf7 583e f9ad fd3b a461 b8bc 2512 bcbb
00000300: a58d 463d 8391 c3bd bb31 4fbe 6544 a13d
00000310: 5237 3e3c ee55 0fbd b5e8 82bd 684a 94bd
00000320: 4137 083e 020a fd3c c6d7 01bb 8340 ff3d
00000330: 1133 88bd dc6b ddb7 273c afbb 869c b63c
00000340: a043 91bd 50ca 1cbe 2634 cf3d b581 c6bd
00000350: ebca 89bd 9edd e5bb 0660 83bc ffcf 4d3b
00000360: 4030 003d 52c4 eb3d 4b4e c53d 4bff 503d
00000370: 3e0e 833d f25c 5c3d ba4c bb3d ca0a d0bd
00000380: 4ce2 533d 010e ee3d 059f fcbd 4c79 e6bd
00000390: 4ec1 60bd 00c4 743d 3715 d63d 3aa0 aa3d
000003a0: f513 963c 6176 6dbd 186a 5fbd 3f1e 823d
000003b0: 8d51 e0bc 7152 04be a9b3 33bd 3104 68be
000003c0: c7a9 75bd b97f 503d d49a a63d b05e 24bd
000003d0: 63c1 dfbc 9f06 42bd 0d05 443d b16a e3bd
000003e0: 1b65 04bc 365a 323e 06e6 9a3d 54e9 083d
000003f0: 5ebf 0f3d 4c00 03be ab9c 8c3c 7ab9 0f3d

action_model._continuous_distribution.log_sigma f4 [1, 2]
0.0 0.0
00000000: 0000 0000 0000 0000

action_model._continuous_distribution.mu.weight f4 [2, 128]
-0.008723406 -0.002706874 -0.01680177 -0.0064702304 0.005692116 0.022669753 0.007231161 -0.013839607
0.011273806 -0.0024931242 -0.008039437 0.017774032 0.03039345 0.0022196292 0.009637565 -0.017445719
-0.034735106 0.007258668 -0.003137864 0.017555898 -0.0030727738 0.005489678 -0.0062173996 0.011904256
0.0024405352 -0.023064502 0.0060122903 -0.0044031483 -0.00010608272 -0.013392788 -0.013673121 -0.019296836
0.021199232 -0.025339602 0.002421247 0.00036805164 -0.0047531747 0.005843278 0.02009026 -0.017455516
-0.022247905 0.0067409137 0.0007596676 0.003959503 0.0019674764 0.00633185 0.00239115 -0.005631433
0.0011266435 0.011397487 0.0047399583 -0.020964203 -0.0040425365 -0.024838855 -0.011735099 0.0009159677
0.03703887 -0.03472581 -0.013879097 0.0107288845 -0.033650044 -0.0013985639 0.013285584 0.015163789
-0.00973585 0.012169367 -0.016777886 0.05513062 -0.014337708 -0.003132375 -0.011796052 0.02798654
0.0059390976 0.009621105 -0.0070203706 -0.012108293 -0.016621675 0.021065332 -0.0024657974 -0.007993809
0.009918222 0.023878008 -0.027870242 -0.014433225 -0.02171904 0.009752739 -0.029883588 0.00879307
-0.001997838 0.005312773 0.01491231 0.015368362 0.013396094 0.0024203083 0.032735955 -0.029214619
-0.018948859 0.013846362 -0.028520945 -0.0026186581 -0.012439699 0.012472774 0.0043137595 0.01925957
-0.015304989 -0.010322436 0.024805708 -0.02142941 0.008348172 0.019446803 -0.024814589 -0.01682764
-0.0052095796 -0.011109015 -0.017025966 0.009885695 -0.0032008141 0.0055738054 0.0015903934 0.0020330052
-0.014936293 0.002224367 0.010219267 -0.016777053 -0.024560735 -0.016438914 -0.022248257 0.02346033
-0.018715387 -0.019566273 -0.04439182 0.04285343 -0.014934934 0.046422005 0.011237604 0.016286382
0.01601685 0.047467694 -0.01925557 -0.0077834534 0.012924294 0.0073272916 0.012615702 -0.025158022
0.011654282 0.019747168 0.0077686 -0.042493414 0.0017042775 0.026641587 -0.040600747 0.0038415396
0.02353006 -0.019913495 -0.0009518713 0.004240207 -0.012462336 -0.008062455 0.004121632 -0.024214124
-0.03849293 -0.012746656 0.007748165 -0.0033931897 0.0023211641 0.031806774 0.029907886 -0.012086096
-0.0023527674 0.015107344 0.009279744 0.021414723 -0.0027561772 0.009845158 0.022006448 0.012568352
0.0022511329 0.00051136117 -0.014027576 -0.035484757 -0.0068226987 0.010077252 -0.0019867595 0.007636855
-0.010431279 -0.02026494 -0.009170621 0.02097159 0.00631874 0.010630669 -0.021295378 0.009341643
0.011385968 -0.028410623 -0.01475593 -0.009561838 -0.0027407657 -0.011953818 0.006548705 0.04149545
0.009646671 0.0013340715 -0.009748968 -0.0043779043 0.043547727 -0.031932723 0.009318805 -0.00057315757
0.012873839 -0.0065913717 0.023417564 -0.025470007 0.01786719 0.011620731 -0.0067814416 -0.01748973
-0.012580468 -0.029860077 -0.010295729 0.0003789485 -0.0074595897 -0.0035171676 -0.0075033726 -0.00619493
0.003929948 0.014411052 0.008731684 -0.025262509 0.020587655 0.013239311 -0.022237817 0.005073863
0.005938984 0.027515063 0.008964462 -0.006257207 0.008119098 0.012687625 0.017930076 0.020486195
0.027946576 0.017399106 0.0022308861 -0.02464207 -0.0021860052 0.0023953307 0.00096604135 -0.0019441454
-0.025350122 -0.023398444 0.012130966 0.025709841 0.0070596784 -0.033005882 -0.01698579 -0.02082818
00000000: 9eec 0ebc cf65 31bb dea3 89bc 3a04 d4bb
00000010: ee84 ba3b ebb5 b93c 60f3 ec3b 85bf 62bc
00000020: c5b5 383c af63 23bb d8b7 03bc d99a 913c
00000030: affb f83c 3377 113b e1e6 1d3c 53ea 8ebc
00000040: 6646 0ebd 1fda ed3b 9fa4 4dbb 63d1 8f3c
00000050: 9760 49bb c2e2 b33b 54bb cbbb 120a 433c
00000060: 63f1 1f3b c4f1 bcbc bf02 c53b 4948 90bb
00000070: ba78 deb8 6d6d 5bbc 3a05 60bc 6614 9ebc
00000080: 03aa ad3c ff94 cfbc c9ad 1e3b 0ef7 c039
00000090: 85c0 9bbb f878 bf3b 5494 a43c dffe 8ebc
000000a0: 3d41 b6bc e2e2 dc3b 6e24 473a b8be 813b
000000b0: c7f0 003b 687b cf3b d7b4 1c3b e287 b8bb
000000c0: e2ab 933a 86bc 3a3c a751 9b3b 1fbd abbc
000000d0: 4177 84bb db7a cbbc 9344 40bc 8d1d 703a
000000e0: 12b6 173d a73c 0ebd 2765 63bc 34c8 2f3c
000000f0: a1d4 09bd 0450 b7ba c7ab 593c 8a71 783c
00000100: 1d83 1fbc 0662 473c c771 89bc a5d0 613d
00000110: b5e8 6abc 8848 4dbb 3a44 41bc 0744 e53c
00000120: c39c c23b d7a1 1d3c 230b e6bb dd61 46bc
00000130: 2e2a 88bc 3491 ac3c 3799 21bb 77f8 02bc
00000140: 0a80 223c d09b c33c 2250 e4bc 5579 6cbc
00000150: 21ec b1bc f4c9 1f3c 6dce f4bc cf10 103c
00000160: 29ee 02bb c516 ae3b c352 743c 95cb 7b3c
00000170: 4a7b 5b3c 099e 1e3b 2316 063d 7f53 efbc
00000180: a33a 9bbc dadb 623c c2a4 e9bc cb9d 2bbb
00000190: e1cf 4bbc 9b5a 4c3c 705a 8d3b 3fc6 9d3c
000001a0: c7c1 7abc 6f1f 29bc 5735 cb3c bb8c afbc
000001b0: c5c6 083c e74e 9f3c f747 cbbc 1eda 89bc
000001c0: 1fb5 aabb 9602 36bc 0a7a 8bbc 9cf7 213c
000001d0: c0c4 51bb 78a4 b63b bf74 d03a 2b3c 053b
000001e0: 5ab7 74bc b0c6 113b b66e 273c 0870 89bc
000001f0: 9833 c9bc e7aa 86bc fa41 b6bc e12f c03c
00000200: 0351 99bc 7349 a0bc 32d4 35bd 1487 2f3d
00000210: a7b1 74bc 0025 3e3d ed1d 383c 056b 853c
00000220: c535 833c 7c6d 423d dbbd 9dbc 570c ffbb
00000230: 6bc0 533c c719 f03b 17b2 4e3c 3218 cebc
00000240: 9af1 3e3c d0c4 a13c bd8f fe3b 930d 2ebd
00000250: 1062 df3a 753f da3c f84c 26bd 57c2 7b3b
00000260: 1dc2 c03c a021 a3bc 0087 79ba 6ff1 8a3b
00000270: d32e 4cbc 6318 04bc c10e 873b b35c c6bc
00000280: c3aa 1dbd 5ad7 50bc 52e4 fd3b 4760 5ebb
00000290: ac1e 183b d247 023d 6201 f53c c304 46bc
000002a0: e330 1abb cb84 773c 110a 183c ee6d af3c
000002b0: fba0 34bb 964d 213c de46 b43c 7deb 4d3c
000002c0: be87 133b de0c 063a ebd3 65bc 7758 11bd
000002d0: f290 dfbb 0f1b 253c 4b34 02bb 953e fa3b
000002e0: f5e7 2abc a902 a6bc 5f40 16bc 9dcc ab3c
000002f0: 6f0d cf3b 422c 2e3c a573 aebc b10d 193c
00000300: 368c 3a3c 65bd e8bc dbc2 71bc 41a9 1cbc
00000310: 6b9e 33bb f2d9 43bc 8596 d63b 22f7 293d
00000320: 120d 1e3c 03dc ae3a 23ba 1fbc 8674 8fbb
00000330: 1a5f 323d e3cb 02bd e7ad 183c f43f 16ba
00000340: cbec 523c 6ffc d7bb 31d6 bf3c 7aa6 d0bc
00000350: 375e 923c e164 3e3c db36 debb 9f46 8fbc
00000360: 4f1e 4ebc 1f9d f4bc 6baf 28bc 9bad c639
00000370: 936f f4bb 4880 66bb dade f5bb d7fe cabb
00000380: cbc6 803b 551c 6c3c 560f 0f3c 52f3 cebc
00000390: 71a7 a83c b2e9 583c 152c b6bc a642 a63b
000003a0: cf9b c23b 4567 e13c aedf 123c 4209 cdbb
000003b0: f705 053c c2df 4f3c 18e2 923c aad2 a73c
000003c0: 38f0 e43c 9288 8e3c 0f34 123b 2bde c9bc
000003d0: 1543 0fbb fbfa 1c3b f03d 7d3a b2d2 feba
000003e0: 0fab cfbc 18ae bfbc f6c0 463c 729d d23c
000003f0: e054 e73b 2d31 07bd c925 8bbc dc9f aabc

action_model._continuous_distribution.mu.bias f4 [2]
0.0 0.0
00000000: 0000 0000 0000 0000

action_model._discrete_distribution.branches.0.weight f4 [4, 128]
-0.0025372012 -0.0022911346 0.008341217 -0.0027308778 0.015761366 -0.0074869776 0.0070147663 0.016357146
-0.01927716 -0.005478134 0.008103316 5.745784e-05 0.0034398031 -0.010186593 -0.010774828 0.0007724948
-0.0075062215 -0.0028606087 -0.0094217425 -0.0061189947 -0.008366346 -0.010470213 -0.006051996 -0.020819237
0.0033926142 0.010045191 0.013778174 0.0037128597 -0.0032668624 0.0077066286 0.0011106663 -0.0063734287
-0.0029326086 0.009175602 -0.001828051 -0.0017403801 -0.012046083 0.003872371 -0.0062926486 0.011574482
-0.0010498167 0.0038577595 0.0024736102 0.0023154698 0.016167916 -0.005213468 -0.010157992 -0.001999668
-0.0035632045 0.0010511831 -0.010388932 -0.0037673486 0.0045398534 -0.016438618 -0.004262676 -0.006909115
-0.012066186 -0.0038756472 -0.005542061 -0.0070161805 0.005122658 0.0061340663 0.008239294 -0.017412934
-0.008148497 0.008890382 0.00014703382 0.0006523905 -0.019417565 0.0035003785 -0.005203431 -0.009526283
-0.0037373349 -0.00375821 -0.0070188246 0.012109986 0.0017011475 0.011852278 -0.010351889 0.0012159548
-0.009002202 -0.0059708976 0.0042851623 -0.0004159572 0.0005878383 -0.0072261305 -0.004490394 0.013076193
-0.006899795 0.010448821 -0.0046996865 0.0051656123 -0.0068149543 -0.011541228 -0.0050030528 0.0065774247
0.0075813876 0.008074257 -0.008119541 0.0013701438 0.0011513134 -0.00012423877 -0.010689894 -0.017005906
0.009010571 -0.0040620393 0.0020808284 -0.00911945 0.019177293 0.00453177 -0.0072019272 -0.016506622
0.006765557 0.009676083 -0.004612626 0.009177941 0.0023704458 0.001310075 0.0040517873 -0.0068975105
0.0011589235 -0.006893541 0.0034702823 0.016324734 0.02115193 0.0028488876 0.0064611374 -0.00039890036
0.009962715 0.00094035215 0.00095722865 -0.0068217823 -0.0011914812 -0.0037587283 0.0028672211 0.009788723
-0.004245411 -0.0035102062 0.011680518 -0.0085308505 -0.017059222 0.014019755 -0.013617694 0.010978946
0.01397669 0.020150654 0.013949345 -0.012429426 -0.023196528 0.0041353507 0.010349536 0.01683361
0.008298523 0.006009845 -0.0041467506 -0.0006562514 -0.005577352 -0.0055836723 -0.0093376795 0.013508174
-0.009161668 0.005110077 -0.0066351104 0.006408825 0.0011151383 -0.003789045 0.015083718 -0.0036238506
0.0072974265 0.011958591 0.001987839 -0.003141187 -0.00020543013 -0.011470802 0.004018934 -0.004150526
0.010512991 0.024769459 0.0048218537 -0.0116755115 -0.018238321 0.014850224 0.00457031 0.0049529257
-0.00079929 0.012061435 0.0038777874 -0.0051244083 -0.0006314267 0.017797105 0.0055848546 0.0039412156
0.002184916 -0.0011898492 0.013510736 0.008900953 -0.0024999264 -0.007847789 -0.013955982 0.003255469
-0.0073359124 0.0032534094 0.012274606 -0.01137407 0.003069186 -0.014366082 -0.018615203 -0.011476094
-0.0018313983 0.00011189476 0.0029813095 0.008534732 -0.004226945 0.0006035007 -0.0067795864 -0.00983151
-0.0031449464 0.0047881966 -0.005432347 0.015614954 -0.0027479723 0.017486556 0.005511997 -0.011046766
-0.0062983246 0.008579492 0.009018707 0.010685424 -0.0072640195 0.0046620513 -0.0036790655 -0.011169147
-0.008413645 0.003938089 -0.0015640067 -0.009680454 -0.0061637624 -0.0024732947 0.0034656525 0.012350391
-0.018374585 -0.0016353801 0.0044567585 0.0037954194 0.009308731 -0.008551984 -0.0033648938 0.010105088
-0.002553389 0.006642575 -0.005077125 0.013165052 0.00907935 -0.0025605974 0.01133198 -0.009304046
00000000: 2c47 26bb dc26 16bb 9aa9 083c 87f8 32bb
00000010: fb1d 813c 5255 f5bb 20dc e53b 6cff 853c
00000020: 22eb 9dbc eb81 b3bb c5c3 043c e3fe 7038
00000030: 526e 613b abe5 26bc e788 30bc 4081 4a3a
00000040: c0f6 f5bb 0d79 3bbb a75d 1abc d981 c8bb
00000050: 0013 09bc 428b 2bbc d24f c6bb 1b8d aabc
00000060: 9f56 5e3b 9694 243c dabd 613c 7353 733b
00000070: db18 56bb e387 fc3b c793 913a 32d8 d0bb
00000080: 0231 40bb 4455 163c 379b efba 771d e4ba
00000090: ef5c 45bc 9bc7 7d3b 9032 cebb e5a2 3d3c
000000a0: 019a 89ba 77d2 7c3b 4b1c 223b 23bf 173b
000000b0: 9472 843c bdd5 aabb b56d 26bc dd0c 03bb
000000c0: a784 69bb dac7 893a 5736 2abc 9fe5 76bb
000000d0: 0dc3 943b 48aa 86bc ebad 8bbb db65 e2bb
000000e0: 41b1 45bc 92fe 7dbb 2d9a b5bb fde7 e5bb
000000f0: f8db a73b 4700 c93b 1bfe 063c 92a5 8ebc
00000100: 4681 05bc f7a8 113c 172d 1a39 2f05 2b3a
00000110: 9611 9fbc 9b66 653b 8b81 aabb 2014 1cbc
00000120: 13ee 74bb 4d4c 76bb 2bfe e5bb f668 463c
00000130: 0af9 de3a 0f30 423c f89a 29bc ac60 9f3a
00000140: f97d 13bc 85a7 c3bb 8c6a 8c3b d514 dab9
00000150: 2919 1a3a 2dc9 ecbb 2824 93bb 873d 563c
00000160: ad17 e2bb 8831 2b3c d4ff 99bb 4c44 a93b
00000170: fb4f dfbb 6b17 3dbc a6f0 a3bb 7087 d73b
00000180: 4a6d f83b e349 043c d307 05bc 6696 b33a
00000190: abe7 963a 1746 02b9 aa24 2fbc f84f 8bbc
000001a0: 13a1 133c db1a 85bb 825e 083b bf69 15bc
000001b0: b319 9d3c 3e7f 943b 25fe ebbb e538 87bc
000001c0: 9bb1 dd3b 6f88 1e3c 8325 97bb 135f 163c
000001d0: 7b59 1b3b d3b6 ab3a dbc4 843b 8304 e2bb
000001e0: 05e7 973a 37e3 e1bb ad6d 633b 73bb 853c
000001f0: d046 ad3c 67b4 3a3b f3b7 d33b 8023 d1b9
00000200: a83a 233c f781 763a 87ee 7a3a 4289 dfbb
00000210: 7a2b 9cba ff54 76bb fde7 3b3b e160 203c
00000220: 171d 8bbb 7d0b 66bb a55f 3f3c fbc4 0bbc
00000230: c8bf 8bbc 1db3 653c c01c 5fbc 0ae1 333c
00000240: 7dfe 643c fc12 a53c cb8b 643c cba4 4bbc
00000250: a506 bebc d681 873b 1a91 293c a4e6 893c
00000260: 87f6 073c 3cee c43b 77e1 87bb 4908 2cba
00000270: 38c2 b6bb 3df7 b6bb 11fd 18bc 6351 5d3c
00000280: d21a 16bc 6f72 a73b 576b d9bb 1f01 d23b
00000290: d529 923a a051 78bb b321 773c 207e 6dbb
000002a0: 401f ef3b f7ed 433c 6746 023b 5fdc 4dbb
000002b0: bb68 57b9 08f0 3bbc 43b1 833b 2301 88bb
000002c0: ae3e 2c3c 52e9 ca3c a400 9e3b a54a 3fbc
000002d0: 8868 95bc 5b4e 733c 8ac2 953b 274c a23b
000002e0: 7287 51ba 539d 453c 7a22 7e3b a7ea a7bb
000002f0: 5486 25ba 3ccb 913c 2801 b73b 5025 813b
00000300: cf30 0f3b b7f4 9bba 225c 5d3c 4ed5 113c
00000310: ced5 23bb 0394 00bc a2a7 64bc b559 553b
00000320: 1862 f0bb 2737 553b 6e1b 493c 4f5a 3abc
00000330: 6524 493b b75f 6bbc e97e 98bc 3a06 3cbc
00000340: 880b f0ba 0ba9 ea38 1362 433b 43d5 0b3c
00000350: 2f82 8abb 3f34 1e3a 4b27 debb 5714 21bc
00000360: 721b 4ebb 4ee6 9c3b d401 b2bb ddd5 7f3c
00000370: 5317 34bb f73f 8f3c fb9d b43b 7ffd 34bc
00000380: 2d62 cebb ff90 0c3c 33c3 133c eb11 2f3c
00000390: 0307 eebb 1fc4 983b 7a1c 71bb ccfe 36bc
000003a0: 63d9 09bc 160b 813b 5bff ccba c49a 1ebc
000003b0: 63f9 c9bb 0017 22bb 0020 633b 4b59 4a3c
000003c0: 4c86 96bc 405a d6ba 000a 923b 92bc 783b
000003d0: a683 183c 9f1d 0cbc 8d85 5cbb d08f 253c
000003e0: c256 27bb f5a9 d93b 035e a6bb 3bb2 573c
000003f0: 8ec1 143c b2cf 27bb c5a9 393c ff6f 18bc

action_model._discrete_distribution.branches.0.bias f4 [4]
0.0 0.0 0.0 0.0
00000000: 0000 0000 0000 0000 0000 0000 0000 0000

onnx::Div_70 f4 [18]
4.808155 4.8039637 0.69460595 0.70236087 1.6836706 0.8266649 0.80988777 1.7107447
1.1814425 2.8066063 5.80226 0.016838262 0.023811214 1.6836706 0.067746885 0.067746885
0.067746885 0.016838262
00000000: 68dc 9940 12ba 9940 b2d1 313f eccd 333f
00000010: 8582 d73f 50a0 533f ce54 4f3f aff9 da3f
00000020: 8239 973f 709f 3340 1dac b940 65f0 893c
00000030: bc0f c33c 8582 d73f e1be 8a3d e1be 8a3d
00000040: e1be 8a3d 65f0 893c
