Assets/ML-Agents/results/RL_BASIC_1/RL_Basic/RL_Basic-12882.onnx (onnx, 86961 bytes, 11 tensors)

network_body.observation_encoder.processors.0.normalizer.running_mean f4 [18]
0	0x41b4429e	22.532528
1	0x402d60ba	2.7090287
2	0xbcb2150c	-0.021738552
3	0xba59a064	-0.0008301793
4	0x42c7fc05	99.992226
5	0x3f1e4383	0.61821765
6	0x3f23d07e	0.6399001
7	0x3fca1389	1.5787212
8	0x401e0e18	2.4696102
9	0x41be853a	23.815052
10	0xbfc44628	-1.533391
11	0x32723b3c	1.4099722e-08
12	0x3f7ffaeb	0.99992245
13	0x42c7fc05	99.992226
14	0x3ce3bff5	0.027801493
15	0x3d256181	0.04037619
16	0x3d6869b4	0.05674143
17	0x3f86c424	1.0528607

network_body._body_endoder.seq_layers.0.weight f4 [128, 18]
0	0x3e25ab10	0.16178536
1	0xbe2ece99	-0.17070998
2	0x3df95c19	0.12175769
3	0xbe30779e	-0.1723313
4	0x3ea03d8d	0.3129696
5	0xbe0017b5	-0.12509044
6	0xbdfbfc8f	-0.12304031
7	0xbd2d1504	-0.04225637
8	0xbd4a9de8	-0.049466997
9	0x3e3e2eaa	0.18572488
10	0x3eab255b	0.33426937
11	0xbe1f9895	-0.15585549
12	0x3e4b195c	0.19833893
13	0xbd7dba39	-0.061945174
14	0x3eb8eccd	0.36118165
15	0xbe1aab74	-0.15104467
16	0x3de10985	0.10988144
17	0xbd325e01	-0.04354668
18	0xbca6e552	-0.02037302
19	0x3ed71054	0.42004645
20	0xbd4a4b1e	-0.049388044
21	0xbdff72d7	-0.12473076
22	0x3d5bcb8a	0.053660907
23	0xbe218215	-0.15772279
24	0xbd0ae51b	-0.0339099
25	0x3e92a6ef	0.28642985
26	0x3ee5d7f7	0.4489133
27	0xbed57d6a	-0.41697246
28	0x3b70cf59	0.0036744683
29	0xbf01118e	-0.5041741
30	0x3ef769cb	0.483229
31	0x3d5eec14	0.05442436
32	0xbc92dada	-0.017926622
33	0x3ef22d92	0.47300392
34	0xbf233fb1	-0.6376906
35	0xbea1238b	-0.3147243
36	0x3ee102c6	0.43947428
37	0xbe1ea8c6	-0.1549407
38	0xbea5cf04	-0.32384503
39	0xbdcfab94	-0.10140148
40	0xbd1dd3c5	-0.038532037
41	0x3e950a52	0.29109436
42	0x3ce4e292	0.027940068
43	0x3d44630e	0.04794603
44	0xbe33826f	-0.17530225
45	0x3df18353	0.11792626
46	0x3d8e520e	0.069492444
47	0xbe499df3	-0.19689159
48	0x3eebae81	0.46031573
49	0x3eedebd4	0.46468985
50	0xbebfdb04	-0.37471783
51	0x3d909851	0.07060302
52	0xbd992396	-0.074774906
53	0xbe8b95d9	-0.27262762
54	0x3e1c80c6	0.15283498
55	0xbdaddd81	-0.08489514
56	0x3c540157	0.012939773
57	0x3da00b96	0.0781471
58	0x3c624fcf	0.013812973
59	0xbd8b9d2e	-0.06817089
60	0xbda4fc0f	-0.08055889
61	0xbc05af6c	-0.0081595
62	0x3d5f72b2	0.05455274
63	0xbe1fa6f0	-0.15591025
64	0x3ebae44b	0.365023
65	0xbf11a93b	-0.5689885
66	0xbd09cc40	-0.033642054
67	0xbee0346f	-0.43790004
68	0x3d88ce77	0.06680005
69	0x3e9b074a	0.30279
70	0xbe303a8d	-0.17209835
71	0xbdeb9534	-0.115030676
72	0xbca0c9eb	-0.019627532
73	0x3e13d4cb	0.14436643
74	0x3da7a0d1	0.0818497
75	0xbd988735	-0.07447664
76	0x3dd12887	0.10212808
77	0x3e6339cb	0.22190015
78	0x3e29cf61	0.16583015
79	0x3e30cbd0	0.17265248
80	0xbeb8b1dc	-0.36073196
81	0xbef711f4	-0.48255885
82	0x3d644806	0.05573275
83	0xbe722db9	-0.23650254
84	0xbededcbd	-0.43527785
85	0xbdf936ed	-0.121686794
86	0xbd1a2b74	-0.037639096
87	0x3e681e3d	0.22667785
88	0x3e8a3d5c	0.26999938
89	0x3e0792ff	0.13239668
90	0xbc04ee3f	-0.008113443
91	0x3e893b74	0.26803172
92	0x3cd321dd	0.025772983
93	0xbca4e207	-0.02012731
94	0x3eaee482	0.34158713
95	0xbdb2be24	-0.08727673
96	0x3db6aae9	0.08919317
97	0xbd1e9f19	-0.038725946
98	0xbdf9ff14	-0.122068554
99	0xbdec3714	-0.11533943
100	0x3ebe67c8	0.37188554
101	0xbe018456	-0.12648138
102	0x3ea22d99	0.31675413
103	0x3e6521a4	0.22376114
104	0x3dd885c4	0.10572389
105	0xbe64df23	-0.22350745
106	0x3d1a11db	0.037614685
107	0xbe623020	-0.2208867
108	0xbe8c4a6a	-0.27400523
109	0x3f072214	0.52786374
110	0xbe0ca62e	-0.13735268
111	0x3e92269f	0.2854509
112	0x3e591ef7	0.21203218
113	0x3e0e90b7	0.13922392
114	0xbd3ec9e4	-0.046579257
115	0xbe67f993	-0.22653799
116	0x3e364f4a	0.17803684
117	0x3e0f9d5d	0.14024873
118	0x3d6b3568	0.05742398
119	0xbe93485b	-0.2876614
120	0xbd0b90a4	-0.034073487
121	0xbea1e87e	-0.3162269
122	0x3e103e70	0.14086318
123	0x3e644b96	0.22294459
124	0xbdea7522	-0.114481226
125	0x3e076d2d	0.13225241
126	0xbedd6d7f	-0.432476
127	0xbdacd31f	-0.08438706
128	0x3e3cb25f	0.18427418
129	0xbec97799	-0.39349058
130	0x3d9061ae	0.07049881
131	0xbe85d01a	-0.2613533
132	0xbe8e4bd2	-0.2779222
133	0x3df4c13f	0.11950921
134	0xbdb80657	-0.08985584
135	0x3d00b593	0.031423163
136	0xbde06ea6	-0.109586045
137	0xbdf381a7	-0.118899636
138	0x3edbe15a	0.42945367
139	0x3e19f9fe	0.1503677
140	0xbe2b7de4	-0.16747242
141	0xbe8ae53e	-0.27128023
142	0x3cd92990	0.026509076
143	0x3ed48827	0.41510126
144	0x3e143dad	0.14476652
145	0xbe349f02	-0.17638782
146	0xbea46a51	-0.32112363
147	0x3e4a0d08	0.19731534
148	0xbd85ab15	-0.06526772
149	0x3e5c7c92	0.21531895
150	0x3e0cdf89	0.13757147
151	0x3e1b0d26	0.15141734
152	0xbee1fa3c	-0.44136226
153	0xbdbd406e	-0.092408046
154	0xbd4f24c7	-0.050572183
155	0x3e99dcf2	0.3005138
156	0x3ea5a938	0.32355666
157	0xbe131e65	-0.14367063
158	0xbe0fa6b4	-0.14028436
159	0xbe637f86	-0.22216615
160	0x3dc9d516	0.09855096
161	0x3ebb2fcb	0.365599
162	0xbed89cbc	-0.4230708
163	0x3cfe730a	0.031060714
164	0xbda67286	-0.08127312
165	0xbb95c0a3	-0.004570083
166	0xbe906d56	-0.28208417
167	0x3e8767be	0.26446337
168	0x3e94c36d	0.29055348
169	0x3f152929	0.5826593
170	0xbea9ddd5	-0.33177057
171	0x3e8a3dc7	0.27000257
172	0xbcdee0a6	-0.02720673
173	0xbec311c9	-0.38099506
174	0x3d2f4ff5	0.042800862
175	0x3d9c5217	0.07632845
176	0xbde4302b	-0.11142
177	0xbd8a5eac	-0.067563385
178	0x3d83d7bb	0.06437632
179	0xbebbc955	-0.36677042
180	0x3d793624	0.06084265
181	0xbe7bb24c	-0.24579734
182	0x3c82a072	0.015945647
183	0x3d150ebf	0.036391016
184	0xbdf8fb11	-0.12157262
185	0xbdb5322b	-0.088474594
186	0x3e654d03	0.22392659
187	0xbdb92f5d	-0.09042237
188	0x3df78104	0.12085155
189	0x3e3e9132	0.18610075
190	0x3cccc7e6	0.024997663
191	0x3e07bcfc	0.13255686
192	0x3ba3cf61	0.0049990867
193	0xbd944a4f	-0.07240736
194	0x3e4371a5	0.1908632
195	0xbdcecdff	-0.100978844
196	0xbdfe28f3	-0.12410154
197	0x3e478652	0.19484833
198	0xbf0558ea	-0.520888
199	0xbe911aec	-0.28340852
200	0xbde3ee4f	-0.11129438
201	0x3e203b3d	0.15647598
202	0x3dd56fe2	0.104217306
203	0xbe1012cf	-0.14069675
204	0x3c854c6e	0.016271796
205	0x3d728ad3	0.059214424
206	0x3ee8504a	0.45373756
207	0xbdf10238	-0.11768001
208	0xbda26251	-0.079289086
209	0xbe7f2b8e	-0.24918959
210	0x3e8e09f5	0.27741972
211	0xbe5f194c	-0.21786994
212	0xbe327e33	-0.17430954
213	0x3e19aeb8	0.15008056
214	0xbe023e4f	-0.12719081
215	0x3e9a43e3	0.30129918
216	0x3eae2d82	0.34019095
217	0xbec4757e	-0.3837089
218	0xbe37edb0	-0.17961764
219	0x3daa37ff	0.08311462
220	0x3e0769cb	0.1322395
221	0xbd0a14fc	-0.03371142
222	0x3e2f3e1f	0.17113541
223	0x3e071c6d	0.13194437
224	0x3eb61238	0.35560775
225	0xbe02b4c0	-0.12764263
226	0x3e004103	0.125248
227	0x3cbe9959	0.023266481
228	0x3b6206b9	0.003448887
229	0x3d3efb3c	0.046626315
230	0xbd791d6d	-0.06081908
231	0x3dd372e2	0.103246465
232	0x3e21dce9	0.15806927
233	0xbe8bf70c	-0.2733692
234	0xbe8290de	-0.2550115
235	0x3e625c0e	0.22105429
236	0x3e7a950f	0.24470924
237	0xbd8d7044	-0.069061786
238	0x3e2d4b6c	0.16923302
239	0x3e163d2a	0.1467177
240	0xbeb60ce9	-0.35556725
241	0xbe9028ed	-0.28156224
242	0x3cc57182	0.024101976
243	0x3de50a3a	0.11183591
244	0xbe0d641e	-0.13807723
245	0xbdcef670	-0.10105598
246	0xbebf9dc9	-0.37425068
247	0x3d1821e8	0.03714171
248	0xbced20ea	-0.028946359
249	0xbd9c05d1	-0.07618297
250	0x3e2bf15a	0.16791287
251	0x3dbd380b	0.09239205
252	0x3e311ec7	0.17296897
253	0xbe1a2e26	-0.15056667
254	0xbe0b9e01	-0.13634492
255	0x3d690d82	0.056897648

network_body._body_endoder.seq_layers.0.bias f4 [128]
0	0x3b5b880a	0.0033497834
1	0xbae84094	-0.0017719441
2	0x3adcd9c9	0.0016849573
3	0xbab4f796	-0.0013806697
4	0x3a2a25de	0.0006490628
5	0x3b24fe89	0.002517613
6	0x3aab9e81	0.0013093502
7	0xba9ccfda	-0.00119638
8	0xb7aaec11	-2.0375506e-05
9	0x3b422862	0.002962612
10	0x3abe885e	0.001453649
11	0x3b9c8acd	0.0047772885
12	0x3b091e1a	0.0020922483
13	0xbb957149	-0.004560624
14	0xbb06b841	-0.0020556601
15	0x3949c8fa	0.00019243723
16	0x3b25a371	0.002527442
17	0x3bc1e945	0.0059177005
18	0x3b4c56c4	0.0031179646
19	0xbaca3ba6	-0.0015429154
20	0x3be2aae6	0.0069173453
21	0xbb2ce32c	-0.0026380522
22	0x3ba60b12	0.0050672377
23	0xba159c84	-0.00057072216
24	0x3af81be1	0.0018929207
25	0x3b6c7f49	0.003608661
26	0xba9cec01	-0.001197219
27	0x38bcd07c	9.003372e-05
28	0xbb751edb	-0.0037402424
29	0xbabb845a	-0.0014306412
30	0xbb433c39	-0.0029790534
31	0xbb3cd201	-0.0028811696
32	0x3bb8847a	0.005631027
33	0x3af1fdce	0.001846248
34	0x3b5acb69	0.0033385402
35	0x3beaa3f6	0.007160659
36	0xbb247133	-0.0025091886
37	0x3a8cc107	0.0010738679
38	0xbb0b544a	-0.0021259957
39	0xbb4d2b4f	-0.0031306332
40	0x3ba34d3f	0.0049835737
41	0xbb4ea5fb	-0.0031532038
42	0x3adad292	0.0016694835
43	0x3b85bdda	0.00408147
44	0x395aab06	0.00020853811
45	0x3bb18961	0.005417988
46	0x39cf5904	0.00039548439
47	0xbb0c0472	-0.0021364954
48	0xbb29b830	-0.0025897138
49	0x3b80106e	0.0039082086
50	0xbb41e266	-0.0029584407
51	0x3616b2d1	2.2455827e-06
52	0x3b267276	0.0025397814
53	0xbadd023c	-0.0016861628
54	0x3a8d23ba	0.0010768094
55	0xba93bdbe	-0.0011271758
56	0x3b61234e	0.0034353319
57	0x3b4deeb0	0.0031422786
58	0x3b35bcf1	0.0027731026
59	0x3b431a3e	0.002977028
60	0xbb75f22f	-0.0037528386
61	0xb96cac02	-0.00022570792
62	0xba8fb245	-0.0010963163
63	0xba86e7a9	-0.0010292429
64	0xbbb26c95	-0.005445073
65	0x3b5bc139	0.0033531918
66	0xbb490639	-0.0030673875
67	0x3adda823	0.001691107
68	0xba8f0b65	-0.001091343
69	0x3b91f548	0.0044542886
70	0x39375b5c	0.00017486274
71	0xbb0c6566	-0.0021422743
72	0xbb51a566	-0.0031989454
73	0x3b7537e3	0.0037417344
74	0x3aa1eac5	0.0012353292
75	0xbace81cd	-0.0015755236
76	0x3b328174	0.0027237805
77	0xbb0f4795	-0.0021862735
78	0x3bcac685	0.006188216
79	0x3b534720	0.0032238439
80	0xbad9c1c2	-0.001661353
81	0x3bde12df	0.006777152
82	0x3b524191	0.0032082538
83	0x3b6a1228	0.0035716388
84	0x3af6a9aa	0.0018818874
85	0x3bc58945	0.0060283267
86	0xbb82f04d	-0.0039959312
87	0x3a21943f	0.0006163753
88	0x3b4cb200	0.0031234026
89	0xbc36c47d	-0.011155245
90	0x3b0e5e98	0.0021723863
91	0xbbd73bc8	-0.006568406
92	0x3b44b5f0	0.003001567
93	0xbb497c34	-0.0030744197
94	0xb92e3a01	-0.00016615541
95	0x397a8467	0.00023891182
96	0xb9e72e46	-0.0004409423
97	0xb98f80f2	-0.00027371157
98	0xbbb963a0	-0.005657628
99	0xbc074f65	-0.008258675
100	0xbb17048b	-0.002304348
101	0xbc084ea5	-0.008319532
102	0xbbb95d3b	-0.005656866
103	0xbb94103e	-0.004518538
104	0xbbdebebe	-0.0067976406
105	0xb9fa7765	-0.00047772672
106	0x3ad864d7	0.0016509545
107	0x3b7385e7	0.003715867
108	0x3b3c627e	0.002874523
109	0x3b5e459c	0.0033916002
110	0x3b530d1c	0.0032203859
111	0x3b338ced	0.002739723
112	0xbb39a0fa	-0.002832471
113	0x3b7c17d9	0.0038466363
114	0xbb1564c9	-0.0022795668
115	0xbc1591d4	-0.009129006
116	0xba8ea4e3	-0.001088288
117	0xb9a26f9d	-0.00030982206
118	0xb988aa26	-0.00026066712
119	0x3b5dfaa4	0.0033871317
120	0xbb98419f	-0.0046464945
121	0x38f9c11f	0.00011909217
122	0xbb267398	-0.002539849
123	0xbbb4ab6a	-0.005513598
124	0xbae3761b	-0.0017353924
125	0xba381139	-0.00070216093
126	0x3c0867cc	0.008325528
127	0xbb5badfa	-0.0033520446

network_body._body_endoder.seq_layers.2.weight f4 [128, 128]
0	0x3e2af30f	0.16694282
1	0x3d8c8a28	0.06862289
2	0x3daf5135	0.08560411
3	0xbd1d089d	-0.038338292
4	0xbc04c268	-0.008102991
5	0x3d8e8156	0.069582626
6	0xbd4ffceb	-0.05077831
7	0x3d336e35	0.043806273
8	0xbd8ad211	-0.06778348
9	0xbe04fbd0	-0.12986684
10	0x3df8cb5a	0.12148161
11	0xbd89507f	-0.067048065
12	0xbe2bcf5c	-0.1677832
13	0xbddefed5	-0.10888449
14	0xbc97df0d	-0.018538976
15	0xbd1d4ef9	-0.038405392
16	0x3cf4b40d	0.029871011
17	0x3df2b7be	0.11851452
18	0xbd41bf34	-0.047301486
19	0xbd4f95d0	-0.05067998
20	0x3d597f83	0.05310012
21	0xbdaebbc0	-0.08531904
22	0xbd1eb272	-0.038744397
23	0x3d0bda61	0.03414381
24	0x3afe880a	0.0019419205
25	0xbdb2d7e7	-0.08732586
26	0xbe29a618	-0.16567266
27	0xbca074e6	-0.019586992
28	0x3c9c0028	0.019043043
29	0x3d8bcae6	0.06825809
30	0xbde25beb	-0.11052688
31	0xbdc11292	-0.0942737
32	0x3de28896	0.11061208
33	0x3d6942ee	0.056948595
34	0xbd3d9be1	-0.046291236
35	0xbdd0e220	-0.1019938
36	0xbb883c87	-0.004157606
37	0xbd460f40	-0.048354387
38	0xbe288de8	-0.16460383
39	0xbe7acd01	-0.24492265
40	0xbdb30551	-0.087412484
41	0xbb87e659	-0.0041473326
42	0x3da03356	0.078222916
43	0x3e37ad9f	0.17937325
44	0x3e2e1e0e	0.17003652
45	0xbe1befc8	-0.15228188
46	0xbc4788cd	-0.012178612
47	0xbc012b2d	-0.007883829
48	0xbbd2de0a	-0.0064351605
49	0x3db25638	0.08707851
50	0xbe51dba0	-0.20493937
51	0xbd6d4d50	-0.05793506
52	0xbd50c0cb	-0.05096511
53	0x3d547aa0	0.051874757
54	0xbd1636a3	-0.0366732
55	0x3d3346d6	0.043768726
56	0xbd0157b9	-0.0315778
57	0x3e582938	0.21109474
58	0xbe30e6da	-0.17275563
59	0x3bd8f4cf	0.0066209803
60	0x3d5e0f6d	0.05421393
61	0x3d889fd5	0.066711105
62	0xbbcdb8a1	-0.006278113
63	0xbddb169b	-0.10697671
64	0x3d2dbc14	0.042415693
65	0xbdcfb70e	-0.10142337
66	0x3e5443c8	0.20728981
67	0xbc2f5bfb	-0.010703082
68	0xbdb6fb45	-0.089346446
69	0x3d7f1849	0.06227902
70	0xbd044707	-0.0322943
71	0x3d354286	0.044252895
72	0xbd8727f4	-0.06599417
73	0x3c46cc3d	0.012133655
74	0xbdb41dc5	-0.087947406
75	0x3d247a1a	0.040155508
76	0xbc2ac446	-0.010422772
77	0x3d6615bf	0.056173082
78	0xbdb6afb5	-0.08920232
79	0x3c758ac0	0.014986694
80	0xbc20148c	-0.009770524
81	0xbd8ae8b2	-0.06782664
82	0x3b94a886	0.004536691
83	0xbb77ec1c	-0.003782994
84	0x3b2eabd3	0.0026652708
85	0x3e05d4f9	0.13069524
86	0xbcb29547	-0.021799697
87	0x3d8b005a	0.067871764
88	0x3e10bcf8	0.14134586
89	0xbe0274d5	-0.1273988
90	0xbcc6e997	-0.024281306
91	0x3cf44925	0.029820034
92	0xbc752a2a	-0.014963666
93	0xbd2f92d9	-0.042864654
94	0x3d2c98b6	0.042137824
95	0x3c7f5527	0.015584267
96	0xbddb9791	-0.107222684
97	0x3dfdd05a	0.123932555
98	0xbe030e64	-0.12798458
99	0xbb56a022	-0.0032749255
100	0x3d7e5d69	0.0621008
101	0x3cb89938	0.022533998
102	0x3c68ff03	0.014220956
103	0xbda3d3aa	-0.07999356
104	0x3cdc864d	0.026919508
105	0xbd1dd4e7	-0.038533118
106	0x3de212e9	0.11038763
107	0xbdfa33a4	-0.12216881
108	0x3ceb924d	0.028756285
109	0x3db242d2	0.08704151
110	0x3d4aa2f7	0.04947182
111	0x3ca4c22b	0.020112118
112	0xbd480154	-0.04882939
113	0xbd67b892	-0.056572504
114	0xbdba44cb	-0.090951525
115	0xbdd14ecf	-0.1022011
116	0xbe32ebef	-0.17472814
117	0xbdbe32f4	-0.09287062
118	0xbd9b1dfd	-0.07574079
119	0x3ca961d6	0.020676535
120	0x3e6a63f3	0.2288969
121	0xbdaae490	-0.08344376
122	0xbd3094b9	-0.043110583
123	0x3adb9241	0.0016751961
124	0xbca4e0e9	-0.020126777
125	0x3e5e8859	0.217317
126	0x3e043600	0.12911224
127	0x3d18d1df	0.037309524
128	0xbd03c338	-0.032168597
129	0x3ca95b14	0.020673312
130	0x3caac7c4	0.020847209
131	0xbd4753c7	-0.04866388
132	0xbd9c2941	-0.07625056
133	0x3d4324a9	0.047642384
134	0xbdb58c84	-0.08864692
135	0xbbe927b1	-0.0071153273
136	0xbcec4bd1	-0.028844746
137	0xbd54b834	-0.051933482
138	0x3d589dda	0.052884914
139	0xbd713da3	-0.058896672
140	0xbd9710e2	-0.07376267
141	0x3d571ff4	0.052520707
142	0xbe15b952	-0.14621475
143	0xbc9c5301	-0.019082548
144	0x3dd4e8c3	0.10395958
145	0x3c3b4b9b	0.0114316
146	0x3a39f6e5	0.000709398
147	0xbd9ac2aa	-0.075566605
148	0xbd8a3721	-0.06748796
149	0xbdefbbd9	-0.11705751
150	0x3e1585cd	0.14601822
151	0x3d8dbe6d	0.069210865
152	0xbcaad7d9	-0.020854877
153	0xbd573770	-0.052543104
154	0x3c038907	0.008028275
155	0xbc6a921c	-0.014317062
156	0x3e169038	0.14703453
157	0x3de0eb0e	0.10982333
158	0x3d92f82b	0.071762405
159	0xbd08af26	-0.03337016
160	0xbdc6ab4a	-0.097006395
161	0xbe06cbe6	-0.13163719
162	0xbdbcf990	-0.09227288
163	0xbcfafdcf	-0.030638603
164	0xbdf6f77e	-0.12058924
165	0xbd2b4282	-0.041811474
166	0x3e0ea502	0.13930133
167	0x3d8ca836	0.06868021
168	0xbd976664	-0.07392576
169	0x3d72f83b	0.059318762
170	0xbd3778b0	-0.04479283
171	0xbdcfa683	-0.101391815
172	0xbdf0925d	-0.117466666
173	0xbd36332e	-0.044482403
174	0x3d8cd8ee	0.068773136
175	0xbca29a12	-0.019848857
176	0xbc099eb7	-0.008399657
177	0x3d44bb9f	0.048030492
178	0x3bb3cce0	0.0054870695
179	0xbdab6908	-0.083696425
180	0x3d493f5d	0.049132694
181	0x3c964666	0.018344115
182	0xbd8b3b7f	-0.06798457
183	0xbda8e9fd	-0.08247755
184	0x3dabfe8e	0.08398162
185	0xbda508df	-0.08058333
186	0xbdc97834	-0.0983738
187	0x3e027d6c	0.12743157
188	0xbd4ab678	-0.049490422
189	0xbddff003	-0.109344505
190	0x3c65b93c	0.014021214
191	0x3df0429f	0.11731457
192	0x3dc6e34f	0.097113244
193	0x3ced3f6d	0.028960908
194	0xbe00777d	-0.12545581
195	0xbe28a370	-0.16468596
196	0x3dab4294	0.08362308
197	0xbd62cce0	-0.055371165
198	0x3cf86998	0.030323789
199	0x3e004eac	0.12530011
200	0x3c798a8b	0.015230785
201	0xbd7f5782	-0.062339313
202	0xbdd6acce	-0.10482179
203	0xbd7cf66a	-0.061758436
204	0x3dd79c69	0.1052788
205	0xbdc25547	-0.094889216
206	0x3d12398e	0.03569942
207	0x3cb3ecc6	0.021963488
208	0xbd8b81f2	-0.068118945
209	0x3e33925d	0.17536302
210	0xbd3a87ce	-0.04553967
211	0xbc5920ef	-0.013252481
212	0x3cba1d71	0.022719117
213	0xbd891b55	-0.06694666
214	0x3dbfcf61	0.09365726
215	0xbcf4a4df	-0.029863773
216	0xbc576e15	-0.013148804
217	0x3d88f64d	0.06687603
218	0xbdb47954	-0.08812204
219	0xbd92849f	-0.07154202
220	0x3d92ca58	0.071675
221	0xba41b434	-0.0007389218
222	0x3dfbf2a1	0.12302137
223	0x3c1ae282	0.009453418
224	0x3d906372	0.07050218
225	0xbd1eb7fc	-0.03874968
226	0xbe086b7a	-0.13322249
227	0x3e524646	0.2053462
228	0xbd884a83	-0.06654837
229	0x3c524f6f	0.012836321
230	0x3bd78024	0.006576555
231	0xbde1451e	-0.10999511
232	0xbc2c604f	-0.010521009
233	0xbb0ebac3	-0.00217788
234	0x3da4790f	0.080309026
235	0xbe181546	-0.14851865
236	0x3cbef0ce	0.023308184
237	0x3ccdebe2	0.025136892
238	0x3d0e2ec9	0.034712587
239	0x3e1b261b	0.15151255
240	0x3c45ad2f	0.012065216
241	0xbdf1b885	-0.118027724
242	0x3ca70af5	0.020390967
243	0x3d6cef0b	0.057845157
244	0xbbd57c6f	-0.006515078
245	0x3e6f8870	0.2339189
246	0xbd45ce6a	-0.048292555
247	0x3ddc59a1	0.10759283
248	0x3cd077db	0.025447777
249	0x3b05ed6f	0.002043571
250	0xbdb17c0f	-0.086662404
251	0xbe79399c	-0.24338382
252	0x3d4f9527	0.050679352
253	0xbe4a9183	-0.19782071
254	0xbdbcc600	-0.09217453
255	0x3d2e74c0	0.04259181

network_body._body_endoder.seq_layers.2.bias f4 [128]
0	0x3bc3860e	0.0059669083
1	0xba5f081c	-0.00085079833
2	0x3acce699	0.0015632688
3	0xbb842d46	-0.0040337173
4	0xba157f38	-0.0005702856
5	0xbb1c34a5	-0.002383509
6	0xbb1f06fd	-0.002426564
7	0xbb60b5f9	-0.0034288152
8	0xba3bbba7	-0.0007161446
9	0x3b197aa8	0.0023419056
10	0x3aa7b8b1	0.0012796131
11	0x3aa57fc7	0.0012626582
12	0x39e07bff	0.00042816994
13	0x3b11ff4d	0.0022277415
14	0xb9e73f1c	-0.00044106774
15	0x3ad0bd69	0.0015925589
16	0xbb8ce76a	-0.0043000476
17	0xbb69a727	-0.003565261
18	0x3adb96e9	0.0016753349
19	0x3b8d6802	0.004315377
20	0x3bb7c73f	0.005608469
21	0x3a80df13	0.0009832106
22	0xbb2e005c	-0.0026550507
23	0x3a494d5c	0.0007679069
24	0x3b0daeb6	0.0021619028
25	0x3b3468da	0.0027528317
26	0xb9134bd2	-0.00014047258
27	0xb99a761c	-0.00029461167
28	0x3a47e4b8	0.00076253293
29	0xba94515c	-0.0011315751
30	0xbb10c269	-0.0022088534
31	0x3bf4ae92	0.0074670995
32	0x39a1ebe4	0.00030884065
33	0x3b867de6	0.0041043637
34	0x39efc819	0.00045734717
35	0x3731d850	1.0600386e-05
36	0xbaeea099	-0.0018205821
37	0x38dcdb04	0.00010531212
38	0x3b846557	0.004040401
39	0xba7415c1	-0.0009311103
40	0xbb535cf6	-0.0032251454
41	0x3b3bc17e	0.0028649266
42	0xbb4d8b30	-0.003136348
43	0x3bd31a87	0.0064423713
44	0x3ae933b5	0.0017791899
45	0x3a287199	0.0006425619
46	0x3b091994	0.0020919787
47	0xbb7203c6	-0.0036928519
48	0xb9e2316e	-0.00043142907
49	0x3b678795	0.0035328616
50	0xbb9f4bba	-0.004861322
51	0xb7ef2240	-2.850697e-05
52	0xbae5cef3	-0.0017532989
53	0x3b7bf7a4	0.0038447166
54	0x3baebd60	0.005332634
55	0x3a8a3692	0.0010544828
56	0x3a5d8e61	0.0008451697
57	0x3ac1480d	0.0014746204
58	0x3b15992b	0.002282689
59	0x3afe4da7	0.0019401804
60	0x3bbddbaa	0.0057940083
61	0x3b19f408	0.0023491401
62	0x3b5bce5b	0.0033539745
63	0x388f8108	6.842805e-05
64	0xba44aad6	-0.0007502263
65	0x39357481	0.00017304906
66	0xbb2cf702	-0.0026392345
67	0x3ae8a38a	0.0017748934
68	0x390e2e1d	0.00013559354
69	0x3a532a5d	0.0008055324
70	0xba4476f7	-0.0007494534
71	0xbb362706	-0.0027794256
72	0x39fe052b	0.00048450506
73	0x3a47ec69	0.00076264754
74	0x3b26d254	0.0025454955
75	0x384a2e65	4.820376e-05
76	0x3aa47fe0	0.0012550317
77	0x3b7b2ca6	0.0038326173
78	0xbace8ae8	-0.001575795
79	0x3b0e06a2	0.0021671434
80	0x3a9146cd	0.0011083722
81	0x3b04e2ca	0.0020276778
82	0x3aa0944f	0.0012251231
83	0x3bb4eaf5	0.005521173
84	0x3bad6731	0.0052918424
85	0xbaae4550	-0.0013295803
86	0x3b0d0668	0.002151871
87	0x3b46f8c9	0.003036069
88	0x382aacf0	4.069222e-05
89	0xba2f0d42	-0.0006677696
90	0x3a95112f	0.0011372919
91	0xba9f9a22	-0.0012176672
92	0xbb05fdda	-0.0020445497
93	0xbb766072	-0.0037594107
94	0xbb9df12d	-0.00482001
95	0x39773723	0.00023576296
96	0x3b3ffdf3	0.0029295653
97	0xb9f284b1	-0.000462567
98	0xbb004c3a	-0.0019576685
99	0x392161bc	0.00015390565
100	0x3b0aedf3	0.0021198958
101	0x3a297989	0.00064649485
102	0x3bb5e7e7	0.0055513266
103	0x3b4304d7	0.0029757523
104	0x3ac91d32	0.0015343784
105	0x3b32caa9	0.002728144
106	0x39141cb5	0.00014125074
107	0x3b880729	0.004151244
108	0x38d02184	9.924456e-05
109	0x3ab95895	0.0014140779
110	0x3a593df6	0.0008287126
111	0x3b92bdbb	0.004478184
112	0x3b4e810d	0.0031510026
113	0x3b39767b	0.002829938
114	0x3a1bce83	0.00059435534
115	0x3ba0e5de	0.004910215
116	0xb97650e2	-0.0002349052
117	0xb9a20398	-0.00030901725
118	0xbaec0c0c	-0.0018008961
119	0xbb39f094	-0.0028372156
120	0xba3dcc8e	-0.0007240259
121	0xb957dfa7	-0.00020587315
122	0xbc03d471	-0.008046255
123	0x3a8e280c	0.0010845675
124	0x3b629c23	0.0034577928
125	0x3b9c0a13	0.004761943
126	0x3bb21093	0.0054341047
127	0xbb6beff8	-0.0036001187

action_model._continuous_distribution.log_sigma f4 [1, 2]
0	0x3a443a63	0.0007485507
1	0xbb79a268	-0.0038091186

action_model._continuous_distribution.mu.weight f4 [2, 128]
0	0x3d0c1c95	0.034206945
1	0xbcc56b81	-0.024099113
2	0xbb897c7c	-0.004195748
3	0x3cda0a81	0.026616337
4	0x3c2037c5	0.0097789215
5	0x3c2de9b5	0.010614802
6	0xb8df95b5	-0.00010661354
7	0xbc884e43	-0.01663888
8	0xbc9e42f8	-0.019319043
9	0xbc4b3f13	-0.012405175
10	0xbc4a3b75	-0.012343277
11	0xbccca701	-0.024981977
12	0xbb1a7c09	-0.0023572466
13	0xbca9225f	-0.020646272
14	0xbca9b4c7	-0.020716084
15	0xbd049c6c	-0.032375738
16	0xbc9f92c9	-0.019479172
17	0x3bc6b464	0.0060639847
18	0x3d3ce0ee	0.046112947
19	0x3b9030af	0.004400335
20	0x3b8cf520	0.004301682
21	0xbc067c33	-0.008208322
22	0x3d00ab72	0.031413503
23	0xbcb49cfa	-0.022047509
24	0xbb8e134e	-0.0043357974
25	0x3b376eb4	0.0027989568
26	0xbc5aeef1	-0.013362632
27	0xbc9a72ca	-0.018853564
28	0xba77804f	-0.0009441422
29	0xbc08c390	-0.008347407
30	0xbb839843	-0.0040159537
31	0xbaf03567	-0.0018326462
32	0x3cedba9f	0.029019652
33	0xbc95e8f6	-0.018299561
34	0x3cd19469	0.025583463
35	0x3c3e0b85	0.011599426
36	0xbc828d5e	-0.01593655
37	0x3c97d735	0.018535236
38	0x3b7e8ce9	0.0038841313
39	0xbcd49cf7	-0.025953753
40	0xb9407e16	-0.00018357518
41	0xbc58a9bc	-0.013224062
42	0x3c833fa7	0.016021563
43	0xbc036f5f	-0.008022158
44	0xbbf77500	-0.0075517893
45	0x3c44ed00	0.012019396
46	0xbcbc27d4	-0.02296821
47	0x3a7719cc	0.0009426146
48	0x3b5a3b2e	0.0033299434
49	0x3c08a3e2	0.008339854
50	0xbbcf4f6d	-0.006326607
51	0x3c822d2d	0.015890682
52	0x3bbde5c1	0.005795211
53	0x3ae4803b	0.0017433235
54	0xbbca72e9	-0.006178249
55	0x3bde8d59	0.0067917523
56	0x3d2188fa	0.03943727
57	0x3c885c9f	0.016645728
58	0xbcb9114e	-0.02259126
59	0xbca1bde5	-0.01974387
60	0x3c380641	0.01123196
61	0x3ca87ab8	0.02056633
62	0xbc19cc8b	-0.009387146
63	0x3d04a626	0.032385014
64	0xbcd86efb	-0.026420107
65	0x3c88ad00	0.016684055
66	0xbbb280b0	-0.0054474697
67	0xbbac9ae5	-0.0052674883
68	0xbca5aac4	-0.020223029
69	0xbb27c9f3	-0.002560255
70	0xbba7ddb5	-0.005122865
71	0xbc50d78a	-0.012746701
72	0x3d0f92f5	0.03505226
73	0x3c0b56e7	0.008504606
74	0x3c07c30c	0.008286249
75	0xbc2e3bfe	-0.01063442
76	0xbcc2b88a	-0.023769636
77	0x3c592512	0.013253467
78	0xbb1c630c	-0.0023862747
79	0xbc965d99	-0.018355178
80	0xbcb1c325	-0.021699497
81	0xbc0e4555	-0.008683522
82	0x3d193268	0.037401587
83	0x3bc46049	0.0059929234
84	0xbc5230ee	-0.012829049
85	0x3cfc2b06	0.030782234
86	0xba46aa4b	-0.0007578476
87	0x3c8c6c14	0.01714138
88	0xbd035dd0	-0.03207189
89	0x3c716a85	0.014734869
90	0x3d6db501	0.058033947
91	0xbcaa07e1	-0.02075571
92	0xbca8af0a	-0.020591278
93	0xbc04cc8a	-0.008105407
94	0x3cc370ff	0.023857592
95	0xbc6fb209	-0.014629849
96	0xbc12111a	-0.00891521
97	0xbc638953	-0.013887721
98	0x3d1bbf81	0.03802443
99	0x3c437351	0.011929349
100	0xbbc091e2	-0.0058767656
101	0xbc8df84f	-0.017330317
102	0xbb05ce4f	-0.002041716
103	0x3b2d50ce	0.0026445868
104	0xbca08d50	-0.019598633
105	0x3be045b5	0.006844247
106	0x3bcf437b	0.006325183
107	0xbcd1a6b8	-0.025592193
108	0x3c55f97b	0.013059969
109	0xbcd847fc	-0.026401512
110	0x3aad3a8b	0.00132163
111	0x3ace77d1	0.0015752261
112	0x3c131928	0.008978166
113	0xbbc367f7	-0.0059633213
114	0x3b42c0f5	0.0029717062
115	0x3c6e0e54	0.014529783
116	0x3c288250	0.010284975
117	0x3cdce2dd	0.026963646
118	0xbc277f32	-0.010223197
119	0xbc980962	-0.018559162
120	0x3c01a704	0.007913355
121	0xbac45dea	-0.0014981602
122	0x3b48e698	0.0030655023
123	0x3beff166	0.007322478
124	0x3bdccecb	0.006738519
125	0xbb3b0627	-0.0028537603
126	0x3a8b2649	0.0010616268
127	0x3cd8a940	0.026447892
128	0x3caeea17	0.021351857
129	0x3cb14143	0.021637565
130	0x3caab0af	0.020836202
131	0x3ae3494c	0.001734057
132	0xbccc0845	-0.024906287
133	0xba5c9c3e	-0.0008415616
134	0x3c1cde67	0.009574509
135	0x3cb5ac3d	0.022176856
136	0x3c26122b	0.0101361675
137	0xbbe78d42	-0.0070664
138	0xbce05c97	-0.0273879
139	0x3c55f593	0.013059038
140	0x3cdde79c	0.027087979
141	0x3c737e21	0.014861614
142	0x3c7b2153	0.015327769
143	0x3958c518	0.00020672788
144	0x3c234400	0.009964943
145	0x3c5154c4	0.012776557
146	0x3cb3b6b4	0.021937706
147	0xbb46af63	-0.003031694
148	0xbbefeecf	-0.0073221694
149	0x3cc035c8	0.023463145
150	0x3c54f9e1	0.012999029
151	0x3c9bbffb	0.019012442
152	0xbbc1fb16	-0.0059198244
153	0xbbf2b2c0	-0.0074065626
154	0x3cb19133	0.021675682
155	0x3bfd3b54	0.0077280197
156	0xbcdadf4b	-0.026717803
157	0x3c18e376	0.009331575
158	0x3ca34993	0.019932544
159	0xbbbcb8d7	-0.0057593393
160	0x3c34217d	0.010994312
161	0xbaa774e8	-0.001277593
162	0x3d15bece	0.03655892
163	0xbc0d57d0	-0.008626893
164	0x3d0dbfd3	0.034606766
165	0xbc866eb1	-0.016410204
166	0xbcb0026b	-0.021485528
167	0x3c9d9a9d	0.019238764
168	0x3becccc3	0.007226558
169	0xbd37aa2b	-0.04484002
170	0x3b9011b0	0.0043966398
171	0x3b8126a0	0.003941372
172	0x3d459e76	0.048246823
173	0xbcafea60	-0.021474063
174	0xbc909b92	-0.017652307
175	0x3c2701ab	0.010193269
176	0xbca8ecbb	-0.020620694
177	0xbc5eb860	-0.013593763
178	0xbacddffa	-0.0015707009
179	0x3c682c4f	0.01417072
180	0x3c7f5d6c	0.015586238
181	0xbc85d0ed	-0.016334975
182	0xbc0f7409	-0.008755692
183	0x3cb3853c	0.021914117
184	0x3ccc1df9	0.024916636
185	0xba4541a5	-0.00075247354
186	0xbcb25d18	-0.021772906
187	0xbca69bdb	-0.02033799
188	0xbcb6de4e	-0.0223228
189	0xbce157f6	-0.027507763
190	0xbc798a12	-0.015230672
191	0xbc80809e	-0.01568633
192	0xbc9d20e7	-0.019180728
193	0x3c22792c	0.009916585
194	0x3c4d3f5e	0.012527315
195	0xbb2fd385	-0.0026828956
196	0x3ce2a3de	0.027666029
197	0x3c40b1fc	0.011761185
198	0xbc1f0405	-0.009705548
199	0x3c5ef2f6	0.013607731
200	0xba52f740	-0.00080477074
201	0x3c85eff7	0.016349776
202	0x3bc322a8	0.005955059
203	0xbb04afd3	-0.00202464
204	0xbc854dd9	-0.016272472
205	0x3b8e2b12	0.0043386305
206	0x3cc280da	0.023743082
207	0x3c43a0d0	0.011940196
208	0xb8a2eb98	-7.768645e-05
209	0x3c28d692	0.010305064
210	0xbc21be3a	-0.009872014
211	0x3aab27ca	0.0013058123
212	0x3c7f34bf	0.0155765405
213	0xbcbf0022	-0.023315493
214	0x3c7c08ad	0.015382928
215	0x3ba02734	0.004887486
216	0xbb599bfb	-0.0033204544
217	0x3c490a50	0.012270525
218	0xbcbf4ed6	-0.023353022
219	0x3d14df34	0.036345676
220	0x3b250d27	0.0025184841
221	0x3d069c56	0.032863937
222	0x3c97adf6	0.018515568
223	0x3d27b24d	0.040941525
224	0xbbd4ed9a	-0.006498051
225	0x3be681ce	0.007034517
226	0x3ba013c6	0.0048851697
227	0x3c228ce2	0.009921284
228	0xbcb861e9	-0.022507625
229	0x3ca33c6d	0.019926274
230	0xb9e8454f	-0.00044302127
231	0x3c858989	0.016300933
232	0x3cdc5feb	0.026901206
233	0x3cac8c47	0.021062983
234	0x3c9866ab	0.018603643
235	0x3b977fc7	0.0046233865
236	0xbc881eca	-0.016616244
237	0x3cc7aae0	0.024373472
238	0xbd051870	-0.03249401
239	0xbad50c1e	-0.0016254222
240	0xbc19e119	-0.009392046
241	0x3beb6da7	0.0071847024
242	0x3cbeff54	0.02331511
243	0xbb54c8b4	-0.0032468261
244	0xbc5c55f2	-0.013448225
245	0xbd3ef425	-0.046619553
246	0xbd025604	-0.031820312
247	0x3c6733d9	0.014111483
248	0x3ca11888	0.019665018
249	0x3c66a672	0.01407777
250	0x3b81c5f4	0.0039603654
251	0xbcbc404e	-0.022979882
252	0xbd209019	-0.039199922
253	0xbb839770	-0.0040158555
254	0xbc04f63f	-0.00811535
255	0x3bd876e5	0.00660597

action_model._continuous_distribution.mu.bias f4 [2]
0	0xba5f8fcc	-0.00085282023
1	0xbaa86d84	-0.0012850021

action_model._discrete_distribution.branches.0.weight f4 [4, 128]
0	0xbc24493a	-0.010027224
1	0x3b5487d6	0.0032429597
2	0xbb7b8d24	-0.0038383687
3	0x3b9670ef	0.0045910995
4	0xbc0a6623	-0.008447203
5	0x3c2a51a2	0.010395439
6	0xbaee5231	-0.0018182454
7	0x3cd73397	0.026269717
8	0x3c395a25	0.011312996
9	0x3be255d6	0.006907205
10	0xb9b685c1	-0.000348134
11	0x3b9f2ff0	0.0048580095
12	0x3c86e328	0.016465738
13	0x3bbacf82	0.0057010064
14	0x3cd5cf09	0.026099699
15	0x3a927b7b	0.0011175716
16	0x3c5fa289	0.013649591
17	0x3c84f127	0.016228272
18	0xb9962eca	-0.0002864509
19	0x39d9a840	0.0004151482
20	0x3bf1ce91	0.007379361
21	0xbc14ea9b	-0.009089137
22	0xbc801269	-0.015633779
23	0x3c2883e4	0.010285351
24	0xbca4e63c	-0.020129316
25	0xbc20bffe	-0.0098113995
26	0xbb99c626	-0.0046928106
27	0xbcc2160e	-0.023692157
28	0xbb312428	-0.0027029607
29	0x3b73a02f	0.0037174334
30	0x3b2c473b	0.0026287574
31	0x3afc0f55	0.0019230644
32	0xbc809139	-0.015694248
33	0xbc79714f	-0.015224769
34	0xba3aea84	-0.00071302825
35	0xba0df00d	-0.00054144935
36	0x3b9533bd	0.004553287
37	0xbbec044c	-0.0072026607
38	0xbb0e0863	-0.002167248
39	0xbbb1a8c5	-0.00542173
40	0x3bd11522	0.006380693
41	0x3c804115	0.015656034
42	0x3a138ecd	0.0005628884
43	0xbc78eb11	-0.015192763
44	0xbbd09c13	-0.0063662617
45	0xbab0d9ee	-0.0013492682
46	0xbad50340	-0.0016251579
47	0xb7dedec0	-2.6568188e-05
48	0xbc117208	-0.008877285
49	0x3bb33ef8	0.005470153
50	0x3c068044	0.008209292
51	0x3bf06f79	0.0073375073
52	0x3c2e29b5	0.010630061
53	0xbbd14046	-0.006385836
54	0xbcd4c568	-0.025973037
55	0xbaf1c30a	-0.0018444967
56	0xbba8697a	-0.005139527
57	0x3b916112	0.0044366205
58	0xbcaf8d51	-0.02142969
59	0xbc4cf6d2	-0.012510018
60	0xbc63c622	-0.013902219
61	0x3c616c6f	0.013758763
62	0x3ba25789	0.0049542827
63	0x3ba9aeb8	0.005178299
64	0x3a56b781	0.00081907964
65	0x3b815210	0.00394655
66	0xbb568b97	-0.003273701
67	0xbc261b43	-0.010138336
68	0xbbe95f43	-0.007121952
69	0xbc21280b	-0.009836207
70	0x3c5e9321	0.013584883
71	0x3b95acb2	0.004567706
72	0xbba4fcb7	-0.005035009
73	0x3b479df7	0.0030459145
74	0xbc7249cc	-0.014788102
75	0x3ab615ee	0.0013892034
76	0x3b07039e	0.0020601521
77	0xbc4bf005	-0.012447362
78	0xb9d286a2	-0.0004015463
79	0x3c069b22	0.0082156975
80	0xbc88c96f	-0.016697614
81	0xbbf9a6fb	-0.0076187826
82	0xbcacf7dd	-0.021114284
83	0xbbd6a311	-0.0065502007
84	0xbc874adc	-0.016515188
85	0xbb059491	-0.0020382742
86	0xbc92d669	-0.017924504
87	0xbc8a18bd	-0.0168575
88	0x3a068a9a	0.00051323476
89	0xbbf060fd	-0.0073357807
90	0x3c258c6c	0.01010428
91	0xbb57080c	-0.0032811193
92	0x3b115d74	0.0022180947
93	0x3a635c6c	0.0008673135
94	0x3c08c5f3	0.008347976
95	0xbc689812	-0.014196413
96	0x3c9534e6	0.0182137
97	0xbbebc490	-0.007195063
98	0xbb2155bc	-0.0024617752
99	0xbbfabcbf	-0.007651895
100	0xbbbf9296	-0.005846332
101	0xbc4e4007	-0.0125885075
102	0xbc07c8b1	-0.008287595
103	0xbbdba54b	-0.006703054
104	0xbc960dc3	-0.018317109
105	0xbc205956	-0.009786924
106	0xbc812170	-0.015763015
107	0xbbeef67a	-0.007292566
108	0x3bebdc87	0.00719792
109	0xbc11f950	-0.008909538
110	0xbb527515	-0.0032113243
111	0xbc8eb369	-0.017419534
112	0x3b405069	0.0029344803
113	0xbc7e5da0	-0.015525252
114	0x3bcd337a	0.00626224
115	0x3bb25846	0.005442652
116	0x3c9260d0	0.01786843
117	0xbb3e44a6	-0.0029032617
118	0x3c24445a	0.010026062
119	0xbb15f55d	-0.0022881844
120	0x3a06bc57	0.0005139759
121	0x3c0c3314	0.0085571
122	0x3c05f6c3	0.008176508
123	0xbbb1633b	-0.0054134405
124	0xbc155a55	-0.009115775
125	0xbc158350	-0.009125546
126	0xbb4515cf	-0.0030072813
127	0x3c86500c	0.016395591
128	0xbcc80868	-0.02441807
129	0xbb730812	-0.0037083668
130	0xbc819393	-0.01581744
131	0x3c52ca82	0.012865664
132	0xbb914439	-0.0044331816
133	0xbc549eee	-0.012977345
134	0xbc3ac203	-0.011398795
135	0xbbed838d	-0.007248348
136	0x3c05ee8c	0.00817455
137	0x3b7387cc	0.0037159799
138	0xbc0d2a6e	-0.008616073
139	0x3c17980c	0.009252559
140	0xbc5c2d3c	-0.013438519
141	0xbb90c449	-0.0044179303
142	0x3c28eb62	0.010310026
143	0xbb840fba	-0.004030195
144	0x3b19f1a5	0.0023489979
145	0x3b9eacb1	0.0048423638
146	0xba1e9fe8	-0.00060510496
147	0xbc05e99c	-0.008173373
148	0x3c73c574	0.014878619
149	0x3c9bd8ef	0.01902434
150	0x3c1f8508	0.009736307
151	0x3d0118c5	0.031517763
152	0x3b7f8236	0.0038987524
153	0xbb97b36a	-0.004629542
154	0x3c18b353	0.009320098
155	0x3b6ca607	0.0036109702
156	0x3b2e1bb4	0.0026566805
157	0x3c1f7e81	0.009734751
158	0xbb7f662c	-0.0038970811
159	0xbc73bd12	-0.014876621
160	0xb9f4ec5f	-0.00046715417
161	0xbb80eea5	-0.0039346986
162	0x38c4d9d8	9.386585e-05
163	0x3c6e8eb4	0.01456039
164	0xbbe74470	-0.007057719
165	0x3c119248	0.008884974
166	0xbb4c3dd8	-0.0031164791
167	0x3bd3f59b	0.0064684874
168	0x3b6d4010	0.0036201514
169	0xbbcbf935	-0.006224776
170	0x3c7b52ae	0.015339537
171	0xbb184ef3	-0.0023240417
172	0xbba5a336	-0.0050548567
173	0x3c69f318	0.0142791495
174	0x3c11aa94	0.008890767
175	0xbbc0ac1b	-0.0058798916
176	0xbccbf81b	-0.02489858
177	0x3b9894a9	0.0046563935
178	0x3aba68b6	0.001422188
179	0xbc33151c	-0.010930326
180	0xbc2dbeb2	-0.010604547
181	0xbba976a7	-0.005171615
182	0x39acf653	0.00032989922
183	0xbb89db08	-0.0042070188
184	0xbc5761f2	-0.013145911
185	0x3b43e5cf	0.0029891615
186	0x3bfa9595	0.007647226
187	0xbc42bb9e	-0.011885552
188	0xbc233c36	-0.009963086
189	0xbb05c2bc	-0.002041026
190	0x3bc3c051	0.0059738536
191	0x3a976a9a	0.0011552155
192	0x3c4a8d6b	0.012362818
193	0xbc7a9380	-0.015293956
194	0x3b7d2d36	0.0038631684
195	0x3af95ff4	0.0019025789
196	0x3a54ac95	0.0008112875
197	0x3b9d7a71	0.004805856
198	0xb88c569e	-6.691854e-05
199	0x3c7935c6	0.0152105745
200	0xbc6d178f	-0.014470949
201	0x3bf31f24	0.0074194837
202	0x3b1b3850	0.0023684688
203	0xbb87cc37	-0.0041442174
204	0x3ad320e5	0.0016107826
205	0xbc98e17d	-0.018662209
206	0xbbe2f7c2	-0.0069265077
207	0xbbba076f	-0.0056771557
208	0x3aee2bb8	0.0018170988
209	0xbc4d00a5	-0.012512361
210	0x3c4174f9	0.011807674
211	0xbbdbc3a1	-0.0067066704
212	0xbbfaf18b	-0.0076581887
213	0xbc0b75e2	-0.008511992
214	0xbb8b1cb4	-0.004245365
215	0x3c29577e	0.010335801
216	0xbb6b1a34	-0.0035873773
217	0x3be66207	0.0070307287
218	0xbc0b86dd	-0.008516041
219	0xbaf2c15e	-0.0018520763
220	0x3b9e7162	0.0048352936
221	0x3b67e270	0.003538277
222	0xbb70215c	-0.0036640977
223	0x3c2f9da3	0.010718736
224	0xbc4e4026	-0.012588536
225	0x3c912771	0.017719002
226	0x3c7248e0	0.014787883
227	0x3cabe21a	0.020981837
228	0xbc0287c0	-0.007966936
229	0xbc3a7383	-0.011380079
230	0x3cdc7072	0.026909087
231	0x3b942a12	0.0045216167
232	0x3a7ee7f6	0.0009723896
233	0x3bb69e7c	0.005573092
234	0x3c78cf24	0.015186105
235	0x3cae116c	0.021248542
236	0xbc5cac3b	-0.013468797
237	0x3be13691	0.00687296
238	0x3c87a66c	0.016558848
239	0x3c2cd958	0.010549866
240	0x3bfca0b0	0.007709585
241	0x3ab2406b	0.001359952
242	0xbbf721d7	-0.007541876
243	0xbc85d1e6	-0.016335439
244	0x3c2b325a	0.0104490165
245	0x3c588e97	0.01321759
246	0x3c71b65b	0.01475295
247	0x3ba64cdb	0.00507508
248	0x3c8356c9	0.016032593
249	0xbc6b8127	-0.014374054
250	0x3c41fb78	0.01183974
251	0xbb8413bb	-0.0040306724
252	0xbabd0e30	-0.0014423784
253	0xbaa208d4	-0.001236225
254	0x3a67db28	0.00088446075
255	0xbb24946b	-0.0025112878

action_model._discrete_distribution.branches.0.bias f4 [4]
0	0xbba75a5f	-0.0051072086
1	0xbaa5f9aa	-0.0012662907
2	0x3bf384bf	0.007431596
3	0xbaeca638	-0.0018054908

onnx::Div_70 f4 [18]
0	0x41b1f1e2	22.243107
1	0x40d4c7ee	6.6494055
2	0x3f34a0ff	0.7055816
3	0x3f355666	0.7083496
4	0x3f618bdf	0.8810405
5	0x3f4fb689	0.811379
6	0x3f4dbef9	0.80369526
7	0x3fdc23ff	1.7198485
8	0x3f9a4544	1.2052388
9	0x41940c23	18.505926
10	0x4099734f	4.7953258
11	0x3c105925	0.008810316
12	0x3c4c22a1	0.012459428
13	0x3f618bdf	0.8810405
14	0x3e52e59e	0.20595405
15	0x3e7a037a	0.24415389
16	0x3ed7983b	0.4210833
17	0x3eb87354	0.36025488
