Assets/ML-Agents/results/RL_BASIC_1/RL_Basic/RL_Basic-5192.onnx (onnx, 86508 bytes, 10 tensors)

network_body.observation_encoder.processors.0.normalizer.running_mean f4 [18]
-1.8643354 -0.12643898 -0.07297057 0.03888734 96.868866 0.61846083 0.64975286 1.5768663
2.4960527 -2.3157957 2.8577983 1.0652343e-08 0.9998075 99.98075 0.091276705 0.11120735
0.22575259 1.1998842
00000000: 8ba2 eebf 3879 01be 9871 95bd 5548 1f3d
00000010: dcbc c142 7353 1e3f 3456 263f c1d6 c93f
00000020: 54bf 1f40 ff35 14c0 2be6 3640 8001 3732
00000030: 62f3 7f3f 25f6 c742 48ef ba3d aec0 e33d
00000040: b02b 673e ce95 993f

network_body._body_endoder.seq_layers.0.weight f4 [128, 18]
-0.020153185 -0.09479129 -0.40006316 0.0013189409 -0.08041086 -0.10111244 0.053210158 -0.04089818
0.36431423 -0.030706584 0.46676484 -0.31807965 0.022686675 0.16308168 0.0001033849 0.05443353
0.07559819 -0.020443855 -0.009491501 -0.24062513 0.087283015 -0.35984826 0.5169109 0.49836457
0.038094647 -0.21463527 0.061596192 -0.012120238 -0.016079426 -0.055336855 -0.20575659 0.28566685
0.18062447 0.030591475 0.1802856 -0.09618709 0.294032 -0.5247065 -0.11355592 -0.12155412
-0.24561387 0.025810404 0.045415055 0.06988269 -0.10398418 0.13709803 0.1466012 -0.29262805
0.010034378 0.08789441 0.25624165 0.3664051 0.16113429 0.14272273 0.06295236 -0.11522537
0.17170049 0.36713538 0.2663573 -0.37649345 -0.32391968 -0.0325807 -0.033906247 -0.077546224
0.035955243 -0.20345496 0.17252745 0.019988451 0.29640853 0.25476414 -0.037699856 0.14534016
-0.1504317 0.16547072 0.16403952 -0.59685487 0.08731591 0.4854259 0.26138428 -0.24332646
0.0037073658 -0.20595817 -0.16935623 0.16316691 0.029760305 0.18715781 0.34674898 0.42727622
-0.18875724 0.30534345 -0.42390147 -0.19432046 -0.030693932 0.31005117 -0.567252 -0.49357122
-0.25368246 -0.12998424 0.025329044 0.04936041 -0.49044394 -0.007155479 0.06163766 0.1330251
0.2898048 0.34424272 0.0413385 0.077782996 0.25370118 0.44463757 -0.06669527 0.28187785
-0.22126909 0.6176824 0.27643 -0.11425709 0.3452058 -0.018997211 0.10069346 0.044535372
0.2849975 0.18247114 0.1479882 -0.36907777 0.082015835 0.35904527 -0.10906225 0.38890055
0.011981989 -0.17530909 0.05129114 0.002744221 -0.10124877 0.08903706 0.26539037 0.24103384
-0.19294572 0.19877172 -0.041885246 0.049074844 -0.37482148 0.07849724 0.083153404 -0.12734371
0.2161836 0.22381417 -0.1244985 -0.34084332 -0.026541406 0.04292972 -0.27126738 -0.018020658
0.079381935 -0.19965413 -0.17370227 -0.19211613 0.14443944 -0.4621446 -0.06769771 0.19157623
0.46233815 -0.4668177 0.24298541 -0.012831686 0.25136685 -0.07997641 -0.1522579 0.27379256
0.08820712 -0.097344294 0.1639149 0.35579616 0.29549748 -0.28567314 -0.15368955 0.118415155
-0.060675994 0.16983977 -0.066101715 0.15791944 0.15960559 -0.23855965 -0.18817654 -0.023118725
0.27641454 0.11030803 0.12572014 0.014740307 -0.2905853 0.04544046 -0.10870492 -0.09974867
-0.09119968 -0.38068113 0.4844692 -0.23198098 -0.39490324 -0.5078362 0.029907003 0.061842438
0.07058434 0.04255349 0.2801884 -0.027358102 -0.04742686 0.024660803 0.048483003 0.26200208
0.031007914 0.265809 0.3509948 0.0682027 0.021244973 -0.17022108 -0.30745777 -0.33119535
-0.074966304 -0.0017550256 0.16482067 -0.13616431 0.3998936 0.09737333 0.46642876 -0.09358629
0.15282959 -0.0072653396 -0.04915943 0.063512735 -0.15372053 0.5002614 0.5357467 -0.27353117
-0.0927733 -0.1506266 -0.2261744 0.19277076 -0.052116215 0.030899035 0.04632877 -0.09290582
0.025060603 0.33685574 -0.010273157 0.28552085 0.08065963 -0.10513014 -0.31338888 0.09256302
0.18411924 0.20464551 -0.08478289 -0.22566149 -0.09422783 -0.24526636 0.0075873863 -0.052817475
00000000: 4b18 a5bc f021 c2bd 14d5 ccbe 50e0 ac3a
00000010: 73ae a4bd 0a14 cfbd e5f2 593d da84 27bd
00000020: 6587 ba3e 608c fbbc cdfb ee3e 56db a2be
00000030: 68d9 b93c e2fe 263e 58d0 d838 b1f5 5e3d
00000040: 39d3 9a3d df79 a7bc 3e82 1bbc 6f66 76be
00000050: 70c1 b23d 083e b8be 4654 043f a429 ff3e
00000060: 2209 1c3d 59c9 5bbe 4a4c 7c3d f693 46bc
00000070: 00b9 83bc e6a8 62bd dbb1 52be ed42 923e
00000080: 9ff5 383e f99a fa3c ca9c 383e bdfd c4bd
00000090: 5d8b 963e 2a53 06bf 0290 e8bd 5ef1 f8bd
000000a0: 3482 7bbe 5770 d33c 2305 3a3d a81e 8f3d
000000b0: a8f5 d4bd 6d63 0c3e a01e 163e 58d3 95be
000000c0: 3b67 243c fc01 b43d 1b32 833e 7399 bb3e
000000d0: 6300 253e e825 123e 2bed 803d 47fb ebbd
000000e0: 41d2 2f3e 2bf9 bb3e fc5f 883e c0c3 c0be
000000f0: cdd8 a5be 5773 05bd 47e1 0abd 8ed0 9ebd
00000100: ce45 133d 7f56 50be 09ab 303e d2be a33c
00000110: dcc2 973e 7270 823e 2a6b 1abd 0dd4 143e
00000120: c40a 1abe 2871 293e faf9 273e 7bcb 18bf
00000130: afd2 b23d be89 f83e 29d4 853e 922a 79be
00000140: 47f7 723b b3e6 52be b86b 2dbe 3a15 273e
00000150: e2cb f33c 4ca6 3f3e 1589 b13e f3c3 da3e
00000160: 9449 41be fa55 9c3e 9d09 d9be f1fb 46be
00000170: d771 fbbc 07bf 9e3e 6d37 11bf 5eb5 fcbe
00000180: abe2 81be 971a 05be db7e cf3c 242e 4a3d
00000190: 781b fbbe 8278 eabb c577 7c3d bb37 083e
000001a0: 4b61 943e 9540 b03e 8f52 293d b14c 9f3d
000001b0: 1fe5 813e 89a7 e33e 8897 88bd 4b52 903e
000001c0: 5d94 62be 6f20 1e3f 3c88 8d3e 9fff e9bd
000001d0: d1be b03e 0aa0 9bbc 5f38 ce3d b96a 363d
000001e0: 31eb 913e b7d9 3a3e 388a 173e c3f7 bcbe
000001f0: ebf7 a73d c8d4 b73e 075c dfbd f91d c73e
00000200: 1b50 443c 3a84 33be a916 523d 63d8 333b
00000210: 845b cfbd 1059 b63d 3fe1 873e 93d1 763e
00000220: 9093 45be d08a 4b3e dd8f 2bbd b402 493d
00000230: 9ae8 bfbe 29c3 a03d 554c aa3d 6466 02be
00000240: 3c5f 5d3e 8b2f 653e 12f9 febd 0483 aebe
00000250: 5d6d d9bc 13d7 2f3d 8fe3 8abe 0fa0 93bc
00000260: ff92 a23d 2272 4cbe 02df 31be 17ba 44be
00000270: efe7 133e 389e ecbe 19a5 8abd 8f2c 443e
00000280: 96b7 ec3e bb02 efbe 2bd1 783e fe3b 52bc
00000290: 28b3 803e acca a3bd 7fe9 1bbe 8a2e 8c3e
000002a0: efa5 b43d 725c c7bd 4fd9 273e ea2a b63e
000002b0: 724b 973e c043 92be cb60 1dbe a583 f23d
000002c0: 6487 78bd 7aea 2d3e 5660 87bd a2b5 213e
000002d0: a66f 233e fb48 74be 5ab1 40be 7b63 bdbc
000002e0: 3586 8d3e 2de9 e13d c8bc 003e 5481 713c
000002f0: 99c7 94be c71f 3a3d afa0 debd 0849 ccbd
00000300: e6c6 babd a3e8 c2be 590c f83e 6c8c 6dbe
00000310: c230 cabe 8e01 02bf 88ff f43c 7f4e 7d3d
00000320: 868e 903d 914c 2e3d db74 8f3e 191e e0bc
00000330: ab42 42bd 7405 ca3c 1d96 463d 2325 863e
00000340: 4f04 fe3c 1e18 883e 97b5 b33e dbad 8b3d
00000350: f009 ae3c 6f4e 2ebe 1b6b 9dbe 7092 a9be
00000360: ef87 99bd e308 e6ba c0c6 283e a86e 0bbe
00000370: dbbe cc3e ab6b c73d c0cf ee3e 2baa bfbd
00000380: 5c7f 1c3e 1612 eebb 665b 49bd f712 823d
00000390: ea68 1dbe 2211 003f b226 093f 470c 8cbe
000003a0: eeff bdbd dc3d 1abe 439a 67be b365 453e
000003b0: d077 55bd f91f fd3c 3dc3 3d3d 6845 bebd
000003c0: e54b cd3c 5b78 ac3e be50 28bc ca2f 923e
000003d0: e030 a53d 794e d7bd 8274 a0be ae91 bd3d
000003e0: c189 3c3e 988e 513e a7a2 adbd ce13 67be
000003f0: 85fa c0bd 1b27 7bbe 9c9f f83b 2357 58bd

network_body._body_endoder.seq_layers.0.bias f4 [128]
0.0 0.0 0.0 0.0 0.0 0.0 0.0 0.0
0.0 0.0 0.0 0.0 0.0 0.0 0.0 0.0
0.0 0.0 0.0 0.0 0.0 0.0 0.0 0.0
0.0 0.0 0.0 0.0 0.0 0.0 0.0 0.0
0.0 0.0 0.0 0.0 0.0 0.0 0.0 0.0
0.0 0.0 0.0 0.0 0.0 0.0 0.0 0.0
0.0 0.0 0.0 0.0 0.0 0.0 0.0 0.0
0.0 0.0 0.0 0.0 0.0 0.0 0.0 0.0
0.0 0.0 0.0 0.0 0.0 0.0 0.0 0.0
0.0 0.0 0.0 0.0 0.0 0.0 0.0 0.0
0.0 0.0 0.0 0.0 0.0 0.0 0.0 0.0
0.0 0.0 0.0 0.0 0.0 0.0 0.0 0.0
0.0 0.0 0.0 0.0 0.0 0.0 0.0 0.0
0.0 0.0 0.0 0.0 0.0 0.0 0.0 0.0
0.0 0.0 0.0 0.0 0.0 0.0 0.0 0.0
0.0 0.0 0.0 0.0 0.0 0.0 0.0 0.0
00000000: 0000 0000 0000 0000 0000 0000 0000 0000
00000010: 0000 0000 0000 0000 0000 0000 0000 0000
00000020: 0000 0000 0000 0000 0000 0000 0000 0000
00000030: 0000 0000 0000 0000 0000 0000 0000 0000
00000040: 0000 0000 0000 0000 0000 0000 0000 0000
00000050: 0000 0000 0000 0000 0000 0000 0000 0000
00000060: 0000 0000 0000 0000 0000 0000 0000 0000
00000070: 0000 0000 0000 0000 0000 0000 0000 0000
00000080: 0000 0000 0000 0000 0000 0000 0000 0000
00000090: 0000 0000 0000 0000 0000 0000 0000 0000
000000a0: 0000 0000 0000 0000 0000 0000 0000 0000
000000b0: 0000 0000 0000 0000 0000 0000 0000 0000
000000c0: 0000 0000 0000 0000 0000 0000 0000 0000
000000d0: 0000 0000 0000 0000 0000 0000 0000 0000
000000e0: 0000 0000 0000 0000 0000 0000 0000 0000
000000f0: 0000 0000 0000 0000 0000 0000 0000 0000
00000100: 0000 0000 0000 0000 0000 0000 0000 0000
00000110: 0000 0000 0000 0000 0000 0000 0000 0000
00000120: 0000 0000 0000 0000 0000 0000 0000 0000
00000130: 0000 0000 0000 0000 0000 0000 0000 0000
00000140: 0000 0000 0000 0000 0000 0000 0000 0000
00000150: 0000 0000 0000 0000 0000 0000 0000 0000
00000160: 0000 0000 0000 0000 0000 0000 0000 0000
00000170: 0000 0000 0000 0000 0000 0000 0000 0000
00000180: 0000 0000 0000 0000 0000 0000 0000 0000
00000190: 0000 0000 0000 0000 0000 0000 0000 0000
000001a0: 0000 0000 0000 0000 0000 0000 0000 0000
000001b0: 0000 0000 0000 0000 0000 0000 0000 0000
000001c0: 0000 0000 0000 0000 0000 0000 0000 0000
000001d0: 0000 0000 0000 0000 0000 0000 0000 0000
000001e0: 0000 0000 0000 0000 0000 0000 0000 0000
000001f0: 0000 0000 0000 0000 0000 0000 0000 0000

network_body._body_endoder.seq_layers.2.weight f4 [128, 128]
0.05443504 -0.056725405 0.06675582 -0.059033804 -0.06431417 -0.047332823 0.061927803 0.079286024
0.10107085 -0.16216053 -0.008346587 -0.013157465 0.04475205 0.057634007 0.008876278 0.07614826
0.06036003 -0.03319459 0.02617461 -0.13966098 0.15673772 -0.009207818 0.05257856 0.051749434
-0.009788985 0.019669825 0.01090384 0.13771406 0.0066065257 -0.08765951 -0.1102145 -0.12095659
0.025502685 0.06306355 -0.049953535 0.037143994 -0.030390864 -0.03652872 0.059302475 0.12878077
0.1122292 -0.0056868987 0.027262809 0.14368887 0.054993812 0.005697464 0.012669092 -0.029625153
0.024876013 -0.024111202 0.07814954 -0.14123438 0.07605778 -0.05848339 -0.025404025 -0.06425557
0.08668052 -0.07848866 -0.06877918 -0.1158411 -0.058464438 0.033786207 -0.020352948 0.043825265
0.08652024 0.12416422 0.10738492 -0.005648396 -0.043924563 0.010655616 0.041165717 0.05772947
-0.076253064 0.039681796 0.041441645 -0.095764294 0.023187552 -0.065725714 0.08039351 -0.04819137
-0.087520465 0.07849858 0.07352064 0.028711017 0.0040911636 0.060016062 0.06877667 -0.13001718
0.10745368 0.097078376 -0.07731301 -0.069074355 0.117620304 6.9267226e-05 0.03235321 0.07674464
0.040698078 0.09579456 0.018368782 0.0578527 -0.044277377 0.009758759 -0.022928383 0.06791948
0.052513257 -0.0006869754 0.09858237 0.14471997 -0.0771035 -0.121563405 0.03539163 0.00036987473
-0.07951397 -0.050991748 0.15702137 0.03681491 -0.0017155637 -0.051253784 0.004921845 -0.0033911169
0.1109215 0.087467745 -0.066221505 -0.0025638808 -0.05291793 0.13171934 -0.012689956 0.0053890627
-0.0796215 0.040620267 -0.07635331 0.118363276 0.0010020662 -0.04581145 0.034245986 -0.046155687
0.16665934 -0.01764463 -0.028959608 0.090926744 -0.05341702 -0.11085562 0.077800475 0.023149405
0.036498003 -0.1022179 -0.053522594 0.10017919 -0.09036146 0.077829644 0.14334048 -0.06971227
-0.11583831 0.025154809 -0.045743298 -0.1605648 0.16064082 -0.0019208448 -0.09877035 0.079987936
-0.017639663 0.25995287 -0.069253 -0.085334584 -0.007964695 -0.031060273 -0.043925006 0.1467572
-0.07602822 -0.0692971 -0.0041345498 -0.03608871 0.043865606 0.0518113 -0.055330623 0.132152
-0.06611657 0.10521361 0.08530343 -0.00043697905 -0.13474418 -0.075997345 0.054679718 0.022507578
0.094312325 -0.07691033 -0.10248833 0.044184987 0.053692892 -0.06233926 0.007438298 -0.05588015
0.07613875 0.02094584 -0.061531115 -0.092475474 0.007850858 0.04107043 0.045692883 0.07802691
0.0051318496 -0.06685619 0.015629364 -0.016214853 -0.09494161 -0.035003636 -0.07585113 0.06356019
0.0285482 -0.072828665 -0.07441003 0.028989505 0.0024881784 -0.028893236 0.07877033 -0.009518249
0.044485513 0.21693484 -0.066349864 0.044221036 -0.055298418 -0.01224812 -0.012486898 0.06796137
-0.12552384 0.028065227 0.0012802158 0.14813645 -0.11601227 0.023833336 0.058990713 0.060087252
-0.03753753 0.120376885 0.069691256 0.054896552 -0.14387645 -0.03058834 -0.15130243 0.02950855
0.12971584 -0.017720722 -0.04556811 -0.011878346 -0.050434086 -0.013971268 -0.06684384 -0.05214202
0.009830808 0.03760984 -0.16257693 -0.06428078 -0.04022405 -0.008208962 0.08438278 0.03813932
00000000: 47f7 5e3d e658 68bd 46b7 883d 6ecd 71bd
00000010: 26b7 83bd 10e0 41bd 02a8 7d3d b660 a23d
00000020: 3cfe ce3d 690d 26be 20c0 08bc 6892 57bc
00000030: ed4d 373d a311 6c3d cf6d 113c 9ef3 9b3d
00000040: 143c 773d 0df7 07bd 236c d63c 4a03 0fbe
00000050: da7f 203e 63dc 16bc 9e5c 573d 37f7 533d
00000060: fb61 20bc 9d22 a13c 05a6 323c ea04 0d3e
00000070: 8e7b d83b d486 b3bd 24b8 e1bd 17b8 f7bd
00000080: 02eb d03c 7627 813d 149c 4cbd 4d24 183d
00000090: 43f6 f8bc 249f 15bd 27e7 723d 1bdf 033e
000000a0: 6cd8 e53d 2a59 babb 4156 df3c 2d23 133e
000000b0: 3141 613d cbb1 ba3b 0692 4f3c 73b0 f2bc
000000c0: c8c8 cb3c db84 c5bc de0c a03d bf9f 10be
000000d0: 2ec4 9b3d 478c 6fbd 1a1c d0bc 6d98 83bd
000000e0: 8e85 b13d aabe a0bd 19dc 8cbd 193e edbd
000000f0: 6878 6fbd 6863 0a3d 3abb a6bc 1f82 333d
00000100: 8631 b13d d049 fe3d a0ec db3d 2e16 b9bb
00000110: 3eea 33bd e594 2e3c 629d 283d bd75 6c3d
00000120: 912a 9cbd 6189 223d b7be 293d 1220 c4bd
00000130: d2f3 bd3c 349b 86bd 5aa5 a43d 5064 45bd
00000140: ee3d b3bd ddc3 a03d fd91 963d 5e33 eb3c
00000150: 2b0f 863b 67d3 753d c8da 8c3d 3923 05be
00000160: ad10 dc3d 07d1 c63d 4956 9ebd db76 8dbd
00000170: eae2 f03d 8f43 9138 cd84 043d 4b2c 9d3d
00000180: 07b3 263d f02f c43d 217a 963c f4f6 6c3d
00000190: 325c 35bd 34e3 1f3c 4ed4 bbbc 5e19 8b3d
000001a0: 2418 573d 2416 34ba 8ee5 c93d 7931 143e
000001b0: 71e8 9dbd 3cf6 f8bd d0f6 103d bfeb c139
000001c0: 38d8 a2bd b9dc 50bd 36ca 203e 3bcb 163d
000001d0: c4dc e0ba 7def 51bd 6e47 a13b 803d 5ebb
000001e0: d02a e33d 4a22 b33d 249f 87bd c806 28bb
000001f0: 79c0 58bd 6fe1 063e 89e9 4fbc bc96 b03b
00000200: 9910 a3bd 7061 263d 205f 9cbd 7268 f23d
00000210: c357 833a c9a4 3bbd 8545 0c3d bf0d 3dbd
00000220: bfa8 2a3e 798b 90bc b33c edbc cd37 ba3d
00000230: cecb 5abd 4508 e3bd db55 9f3d d2a3 bd3c
00000240: ee7e 153d 9e57 d1bd 823a 5bbd bf2a cd3d
00000250: 6e0f b9bd 2665 9f3d d9c7 123e 4ec5 8ebd
00000260: a33c edbd 7511 ce3c 535d 3bbd 196b 24be
00000270: 077f 243e dbc4 fbba 1c48 cabd b7d0 a33d
00000280: 0e81 90bc 8b18 853e 84d4 8dbd e6c3 aebd
00000290: 5a7e 02bc 1d72 febc b5ea 33bd 8547 163e
000002a0: afb4 9bbd a3eb 8dbd 1e7b 87bb c1d1 13bd
000002b0: 6cac 333d 1638 543d 5da2 62bd db52 073e
000002c0: 2068 87bd 3c7a d73d 91b3 ae3d 561a e5b9
000002d0: 61fa 09be 7fa4 9bbd d7f7 5f3d d061 b83c
000002e0: d226 c13d 2a83 9dbd 67e5 d1bd 51fb 343d
000002f0: 14ed 5b3d 7457 7fbd f7bc f33b 96e2 64bd
00000300: a2ee 9b3d 9c96 ab3c 0d08 7cbd c863 bdbd
00000310: e3a0 003c 7839 283d 7628 3b3d 93cc 9f3d
00000320: 1329 a83b e6eb 88bd 2709 803c 03d5 84bc
00000330: bf70 c2bd f95f 0fbd d657 9bbd d82b 823d
00000340: eadd e93c 3227 95bd 4964 98bd 667b ed3c
00000350: b510 233b 82b1 ecbc 5752 a13d 6ef2 1bbc
00000360: 7136 363d 2b24 5e3e 70e2 87bd 1e21 353d
00000370: 9880 62bd 57ac 48bc d995 4cbc 552f 8b3d
00000380: 5289 00be 0ce9 e53c eacc a73a 15b1 173e
00000390: d797 edbd 213e c33c 3fa0 713d 0d1e 763d
000003a0: f4c0 19bd 2888 f63d 4aba 8e3d 35db 603d
000003b0: 5954 13be 6694 fabc 06ef 1abe eabb f13c
000003c0: 3bd4 043e 0c2b 91bc a0a5 3abd 659d 42bc
000003d0: f993 4ebd bfe7 64bc 6ce5 88bd df92 55bd
000003e0: 6611 213c c70c 1a3d 917a 26be a4a5 83bd
000003f0: f9c1 24bd e27e 06bc e1d0 ac3d fa37 1c3d

action_model._continuous_distribution.log_sigma f4 [1, 2]
0.0 0.0
00000000: 0000 0000 0000 0000

action_model._continuous_distribution.mu.weight f4 [2, 128]
0.04285262 -0.0137382345 0.016994026 0.008029978 -0.011042589 -0.016715387 0.007890574 -0.0024759064
0.009683124 0.021922365 0.022531092 0.0052591874 -0.0025309022 -0.007015717 -0.03854312 -0.016519919
-0.014322343 -0.047600213 -0.012010585 0.02416303 0.025816036 0.013393077 -0.009183525 -0.0018845359
-0.014335284 0.024325347 0.01192555 -0.011781937 -0.0042505856 -0.00564934 -0.022179607 0.02240164
0.00589642 0.0013678005 0.01287822 0.004323126 0.0022466814 0.0068778344 -0.015370076 0.0077476758
0.01398253 -0.015922723 -0.0030816097 0.003068984 -0.010382319 0.03627282 0.022464007 0.0015291298
0.006875947 0.0016949273 -0.015269077 0.015457067 0.0047577983 0.02385923 0.022703951 -0.02226099
0.0027898808 -0.010368968 -0.02296306 -0.007227925 -0.001577488 0.016062671 -0.011140336 -0.018012332
-0.021854853 -0.022101002 -0.010338627 -0.010874592 -0.011194381 -0.0074890964 0.00092719356 -0.017720075
-0.024077402 -0.0026974424 -0.011527343 0.0034055074 0.043297783 0.025382323 0.0047763404 -0.012054922
0.0019621863 -0.009266889 0.0006171504 -0.0089735 -0.010438793 -0.008815336 -0.016412178 -0.024134954
-0.030937372 0.01189985 0.042764284 0.0066343653 -0.0016551145 -0.025290046 0.022311864 0.011460447
-0.0025838253 0.0059864824 -0.022670195 -0.0033161126 0.028325407 -0.031644665 0.014116551 0.012885201
-0.02911205 0.0113816485 0.010110383 -0.039227266 0.011933123 -0.003079756 -0.005312756 0.01598457
-0.015305816 0.0031002117 -0.0065216543 0.0038674239 -0.018046182 -0.016773295 -0.004646837 0.025100077
0.012253399 -0.0065500126 -0.010055645 -0.012268274 -0.028174419 -0.011875336 0.03391729 -0.035468407
-0.0133082885 -0.0038084758 -0.010998607 -0.016378408 0.00064464245 -0.0067553087 -0.018064225 0.025402814
0.027668608 0.028037487 -0.0061369548 0.007048774 0.0019957572 -0.011814356 0.019162847 -0.006096382
-0.024865583 -0.008416465 -0.0069612353 -0.003915924 0.009010232 -0.013135279 0.011816419 -0.011462517
0.008149438 -0.007854153 0.034653895 0.012105513 -0.008970578 -0.00023729668 0.017130783 -0.013693871
0.02221394 -0.0046029147 0.02283316 -0.012064471 0.020303367 0.0045130993 0.0073157893 0.012357696
0.012554473 -0.014063123 -0.003582149 -0.0019906003 -0.006704129 -0.025410486 -0.054385077 -0.007126274
-0.0047449768 -0.0061559402 0.005089146 -0.007278438 0.0037736048 0.011327546 0.026061997 0.0014129229
-0.02669997 -0.017928736 -0.020947373 -0.012444249 -0.00198074 0.0086714905 -0.0062509435 0.012445941
0.0031339482 0.009630705 -0.011034388 -0.00038303822 -0.02441933 -0.047063194 -0.0009885532 -0.0036909
-0.021749139 0.004443446 -0.020477906 0.030051652 0.0027570676 -0.0043591256 0.025172392 0.015891451
-0.03826058 -0.005304869 -0.0047568073 -0.0128103 0.0028572918 0.011863663 -0.020012885 0.022251938
-0.009214145 -0.016934207 -0.018001962 0.01263003 0.012539662 0.011452745 -0.0044320496 -0.013453349
-0.010151904 -0.003855624 -0.016831761 0.004679348 -0.004739352 0.001238104 0.0027558205 0.0045558065
0.0148552675 0.0031088484 0.0032432457 0.014869942 -0.054108143 0.02257156 0.0015912524 0.0011902536
-0.0014721408 0.012416923 0.013509464 -0.011077068 0.0006467492 0.02842982 -0.0032016747 0.0048509254
-0.05352334 0.008779257 0.026664412 0.016881455 0.010739136 -0.022265127 0.014680474 0.010364479
00000000: 3b86 2f3d 5516 61bc 0e37 8b3c 2b90 033c
00000010: faeb 34bc b5ee 88bc 7747 013c d142 22bb
00000020: f7a5 1e3c 8896 b33c 2093 b83c 4355 ac3b
00000030: 7edd 25bb 1ae4 e5bb 64df 1dbd c854 87bc
00000040: 43a8 6abc 71f8 42bd 0bc8 44bc 8cf1 c53c
00000050: 277c d33c a36e 5b3c 7f76 16bc 8802 f7ba
00000060: 8ade 6abc f345 c73c 6263 433c 0709 41bc
00000070: 7f48 8bbb 191e b9bb 02b2 b5bc a583 b73c
00000080: c236 c13b c547 b33a 2bff 523c 02a9 8d3b
00000090: 0f3d 133b 755f e13b c5d2 7bbc 37e0 fd3b
000000a0: fb16 653c 5f70 82bc d5f4 49bb 0221 493b
000000b0: 9a1a 2abc cf92 143d 7006 b83c 156d c83a
000000c0: a04f e13b 5328 de3a 272b 7abc a33f 7d3c
000000d0: 4ee7 9b3b 6f74 c33c a3fd b93c ae5c b6bc
000000e0: 6fd6 363b 9be2 29bc 071d bcbc 3bd8 ecbb
000000f0: b7c3 ceba dd95 833c f585 36bc 998e 93bc
00000100: f308 b3bc 290d b5bc 5863 29bc 582b 32bc
00000110: a368 37bc 1867 f5bb e80e 733a b129 91bc
00000120: f93d c5bc 93c7 30bb 2edd 3cbc ef2e 5f3b
00000130: 0459 313d 97ee cf3c d982 9c3b 0282 45bc
00000140: 0698 003b 26d4 17bc 43c8 213a 9605 13bc
00000150: 7907 2bbc 336e 10bc d572 86bc abb6 c5bc
00000160: 5f70 fdbc 97f7 423c 9a29 2f3d 1765 d93b
00000170: 6df0 d8ba 122d cfbc 5fc7 b63c 99c4 3b3c
00000180: 6555 29bb 412a c43b d8b6 b9bc 2353 59bb
00000190: af0a e83c d69d 01bd 1b49 673c 731c 533c
000001a0: 657c eebc 187a 3a3c 05a6 253c c5ac 20bd
000001b0: 2583 433c bbd5 49bb a116 aebb 13f2 823c
000001c0: 3fc5 7abc ec2c 4b3b 9ab3 d5bb 9b74 7d3b
000001d0: 96d5 93bc 2668 89bc 7e44 98bb ad9e cd3c
000001e0: 7bc2 483c 7da1 d6bb 6fc0 24bc df00 49bc
000001f0: 0ace e6bc c590 42bc dbec 0a3d 5247 11bd
00000200: 020b 5abc 9f97 79bb 8033 34bc 032c 86bc
00000210: 39fd 283a a35b ddbb 6dfb 93bc 9019 d03c
00000220: 47a9 e23c dfae e53c 8218 c9bb 67f9 e63b
00000230: 40cb 023b 0091 41bc 67fb 9c3c 29c4 c7bb
00000240: e8b2 cbbc 36e5 09bc 131b e4bb 2751 80bb
00000250: a79f 133c 5a35 57bc a799 413c 48cd 3bbc
00000260: 3885 053c b5ae 00bc 3ef1 0d3d 3456 463c
00000270: 55f9 12bc d8d2 78b9 db55 8c3c 425c 60bc
00000280: 02fa b53c 0cd4 96bb 9b0c bb3c 0faa 45bc
00000290: 3f53 a63c 9fe2 933b 4ab9 ef3b ef77 4a3c
000002a0: 47b1 4d3c 0369 66bc 7dc2 6abb bb74 02bb
000002b0: 4fae dbbb a729 d0bc e3c2 5ebd 8583 e9bb
000002c0: c07b 9bbb c5b7 c9bb dac2 a63b f77f eebb
000002d0: 954e 773b 2c97 393c f87f d53c d331 b93a
000002e0: e5b9 dabc 49df 92bc d399 abbc f7e2 4bbc
000002f0: 4ecf 01bb de12 0e3c b7d4 ccbb 0fea 4b3c
00000300: ed62 4d3b 1bca 1d3c 94c9 34bc 85d2 c8b9
00000310: 0c0b c8bc 56c5 40bd 5792 81ba 07e3 71bb
00000320: 402b b2bc 549a 913b 48c1 a7bc e22e f63c
00000330: ebaf 343b ffd6 8ebb 5536 ce3c ca2e 823c
00000340: 20b7 1cbd 77d4 adbb fede 9bbb 4be2 51bc
00000350: 6741 3b3b cf5f 423c 10f2 a3bc b249 b63c
00000360: edf6 16bc 9bb9 8abc da78 93bc 2fee 4e3c
00000370: 2873 4d3c 4ba4 3b3c ba3a 91bb 6f6b 5cbc
00000380: 2c54 26bc a3ae 7cbb c3e2 89bc 3755 993b
00000390: 914c 9bbb e047 a23a ff9a 343b e048 953b
000003a0: 8263 733c d2bd 4b3b a28c 543b 0fa1 733c
000003b0: 80a0 5dbd fee7 b83c 9291 d03a 4902 9c3a
000003c0: d9f4 c0ba 5a70 4b3c cd56 5d3c 977c 35bc
000003d0: 9b8a 293a a7e5 e83c 30d3 51bb 83f4 9e3b
000003e0: 4a3b 5bbd dfd6 0f3c 536f da3c fa4a 8a3c
000003f0: 33f3 2f3c 5b65 b6bc 5f86 703c c7cf 293c

action_model._continuous_distribution.mu.bias f4 [2]
0.0 0.0
00000000: 0000 0000 0000 0000

action_model._discrete_distribution.branches.0.weight f4 [4, 128]
-0.008567709 -0.0044527906 -0.0043610707 -0.011236805 -0.0068419324 0.0026315781 -0.0025780236 0.0028582062
-0.0048481855 -0.0046025156 0.009063955 -0.019716723 -0.004175943 -0.0030763848 -0.0031448205 -0.0057749855
0.012740897 -0.0029416208 -0.0087619675 0.008561973 -0.0030082655 0.017155714 -0.002025858 0.008680762
0.010876395 0.0026009416 0.024850005 0.01846726 0.0088539915 -0.004006825 0.021711947 -0.0048331465
0.0029354184 0.008805862 0.0015605236 0.006692376 0.0052371738 0.007005226 -1.1652562e-05 -0.010820563
0.010169452 -0.0034511709 -0.01068466 -0.0017258831 -0.0012581524 -0.0040335646 0.0077021704 -0.012644978
0.0015001792 0.009453231 0.00030137575 -0.006063008 0.017463844 -0.0012216446 0.007759274 -0.002140199
0.0062331976 -0.0009941339 -0.0051799263 0.0023016478 0.002982997 0.0077134357 -0.0029552768 0.01641838
-0.009608695 -0.0129697295 0.009267316 -0.0072611305 0.009449146 -0.01287122 -0.0070262016 0.008692699
-0.0053904704 0.0044374033 -0.0075641945 0.026669754 -0.0058047827 0.004495581 -0.0010082962 -0.002685037
-0.0026999705 -0.010108448 0.00018431857 0.008698091 -0.0025500408 0.007149342 0.004574416 -0.012221297
0.007034734 0.004622461 -0.0023275504 0.0040389155 -0.0064469106 -0.007153722 0.00060500135 -0.0010965952
-0.00033001302 -0.0043346393 -0.004122183 -0.014440914 -0.0039653946 0.0019130468 -0.0032652894 -0.0022919145
0.006318143 -0.00019743732 -0.01095233 -0.010949061 0.0030095463 0.0087357415 0.0048301406 -0.012641172
0.00961884 0.0016506136 -0.008872378 0.008445787 0.0077121495 0.0059653115 -0.0009987217 -0.0062324437
0.0013137056 0.010589029 -0.005973563 0.007013163 0.0033874304 -0.0098671075 0.007888752 -0.0140474085
-0.016368238 -0.011227581 0.0008433475 0.0074578202 -0.0029277063 -0.007721831 0.0018703334 0.010120377
-0.0031242187 0.00143679 0.008267473 0.0068522296 -0.0021405069 -0.01115008 -0.008198309 0.007893981
-0.012689826 -0.0025973786 0.0024562627 0.011334876 -0.023188287 0.011371474 0.008997906 -0.010384284
-0.017758591 0.012113667 -0.01582234 -0.0008448885 0.019004414 0.0066128294 -0.0028377934 -0.0011272174
-0.008868775 0.0067055263 0.00027986613 0.011707845 0.0015144645 0.004900714 -0.002045833 -0.016543489
0.0031733892 -0.0024743828 0.008552327 0.007026434 0.01657862 0.004246768 -0.0055299876 -0.019963121
-0.0018097159 0.0037663714 -0.004854123 -0.0016512157 0.002672753 -0.0063851657 0.0021722196 0.0015385434
-0.00080207345 0.0009361687 -0.0006690892 0.0073287855 -0.007310403 0.002063697 0.0028633291 -0.005338433
0.01262216 -4.6804387e-05 -0.0076168873 -0.008955671 -0.008708963 -0.022924332 -0.0066669295 -0.009172802
0.0090142675 -0.0017374739 -0.015124756 -0.006968643 -0.013446787 -0.004741996 0.0030961435 -0.001533478
-0.0052650995 0.00046536783 0.012199678 0.007892558 -0.004240638 -0.005982318 -0.013909143 -0.0056346986
-0.011814452 0.008102873 -0.0054889796 -0.0034450262 -0.0039310567 -0.0013130688 0.0014128227 -0.008030219
-0.0038015363 -0.022886798 -0.017766168 0.006008642 0.0059348242 -0.002103621 0.004887546 -0.022910533
-8.959257e-05 0.008135411 -0.00038150308 -0.014963808 0.0017430125 -0.010854444 0.0134882955 -0.0066511096
-0.0052330694 0.0057436097 0.01376707 0.0017295302 0.008203647 0.0134248575 -0.0027960602 -0.0026236807
0.0032698081 0.005657302 -0.0014022099 -0.0039041068 -0.0013736071 -0.012917312 0.0028566436 0.014065842
00000000: 935f 0cbc b7e8 91bb 50e7 8ebb 931a 38bc
00000010: 4a32 e0bb 8e76 2c3b 0ff4 28bb be50 3b3b
00000020: 87dd 9ebb b3d0 96bb fc80 143c f784 a1bc
00000030: 59d6 88bb 2c9d 49bb 5519 4ebb 173c bdbb
00000040: 32bf 503c 35c8 40bb 5b8e 0fbc 8547 0c3c
00000050: 5226 45bb 248a 8c3c 42c4 04bb c139 0e3c
00000060: e832 323c 8f74 2a3b 3d92 cb3c a748 973c
00000070: 5510 113c af4b 83bb 41dd b13c 5f5f 9ebb
00000080: 2660 403b 7646 103c 7c8a cc3a b84b db3b
00000090: 999c ab3b 188c e53b 5f7f 43b7 bb48 31bc
000000a0: c69d 263c 0a2d 62bb b60e 2fbc 0737 e2ba
000000b0: 97e8 a4ba fe2b 84bb 7d62 fc3b e22c 4fbc
000000c0: a9a1 c43a b9e1 1a3c f801 9e39 33ac c6bb
000000d0: 5610 8f3c 971f a0ba 8241 fe3b 9542 0cbb
000000e0: da3f cc3b 994d 82ba 5fbc a9bb 3ed7 163b
000000f0: 637e 433b fdc0 fc3b 51ad 41bb d77f 863c
00000100: ca6d 1dbc fd7e 54bc f1d5 173c c7ee edbb
00000110: 97d0 1a3c cfe1 52bc 0d3c e6bb d26b 0e3c
00000120: 8ba2 b0bb a367 913b 10dd f7bb 877a da3c
00000130: 0c36 bebb ab4f 933b ce28 84ba 72f7 2fbb
00000140: fdf1 30bb e79d 25bc a445 4139 7082 0e3c
00000150: 961e 27bb 0745 ea3b fce4 953b d63b 48bc
00000160: a083 e63b 0378 973b d189 18bb e158 843b
00000170: 9b40 d3bb c569 eabb f498 1e3a a1bb 8fba
00000180: 9905 adb9 9709 8ebb 6113 87bb 9599 6cbc
00000190: 24f0 81bb 33bf fa3a 77fe 55bb f233 16bb
000001a0: 6d08 cf3b 2d07 4fb9 6771 33bc b163 33bc
000001b0: cf3b 453b 5b20 0f3c 2846 9e3b eb1c 4fbc
000001c0: 5798 1d3c 6759 d83a 735d 11bc 3360 0a3c
000001d0: 33b6 fc3b a978 c33b 8ae7 82ba 8739 ccbb
000001e0: a530 ac3a 9b7d 2d3c e1bd c3bb adce e53b
000001f0: a7ff 5d3b a6a9 21bc d33f 013c 1a27 66bc
00000200: af16 86bc e3f3 37bc 1814 5d3a bb60 f43b
00000210: c3de 3fbb 6a07 fdbb fa25 f53a f0cf 253c
00000220: b1bf 4cbb ac52 bc3a 4c74 073c ab88 e03b
00000230: bf47 0cbb d3ae 36bc 3352 06bc c255 013c
00000240: fde8 4fbc c838 2abb 40f9 203b eab5 393c
00000250: 5df5 bdbc 6b4f 3a3c f46b 133c d822 2abc
00000260: 777a 91bc 6778 463c da9d 81bc 827b 5dba
00000270: 25af 9b3c 6fb0 d83b 46fa 39bb 24bf 93ba
00000280: 574e 11bc 08ba db3b ffba 9239 43d2 3f3c
00000290: ff80 c63a 2b96 a03b 6213 06bb 3686 87bc
000002a0: a3f8 4f3b 4129 22bb 0f1f 0c3c 003e e63b
000002b0: e3cf 873c 7928 8b3b e634 b5bb b389 a3bc
000002c0: fd33 edba 3ad5 763b 560f 9fbb 9b6d d8ba
000002d0: 5b29 2f3b a73a d1bb cc5b 0e3b f3a8 c93a
000002e0: 3d42 52ba 3869 753a d165 2fba 4f26 f03b
000002f0: 1b8c efbb 173f 073b b1a6 3b3b 06ee aebb
00000300: 2dcd 4e3c d44f 44b8 1597 f9bb cfba 12bc
00000310: 0ab0 0ebc cfcb bbbc 4276 dabb 8549 16bc
00000320: 94b0 133c f3bb e3ba d3cd 77bc 3759 e4bb
00000330: ea4f 5cbc bf62 9bbb abe8 4a3b fcfe c8ba
00000340: db86 acbb 9dfc f339 29e1 473c ca4f 013c
00000350: 0df5 8abb 5207 c4bb 2de3 63bc 47a3 b8bb
00000360: 6791 41bc eac1 043c e6dc b3bb f3c5 61bb
00000370: 18d0 80bb 471b acba 772e b93a 2e91 03bc
00000380: 3223 79bb 187d bbbc 5b8a 91bc 24e4 c43b
00000390: ea78 c23b e7dc 09bb b527 a03b dfae bbbc
000003a0: a5e3 bbb8 634a 053c 7a04 c8b9 c22a 75bc
000003b0: cb75 e43a d6d6 31bc 03fe 5c3c 8df1 d9bb
000003c0: 2b7a abbb e434 bc3b 478f 613c 67b1 e23a
000003d0: 9768 063c eff3 5b3c 1b3e 37bb 0ff2 2bbb
000003e0: 474a 563b e460 b93b 5bca b7ba 0bdc 7fbb
000003f0: 9b0a b4ba 22a3 53bc 8736 3b3b 6b74 663c

action_model._discrete_distribution.branches.0.bias f4 [4]
0.0 0.0 0.0 0.0
00000000: 0000 0000 0000 0000 0000 0000 0000 0000

onnx::Div_70 f4 [18]
7.1656795 5.677794 0.6850438 0.7239273 4.820857 0.8161611 0.79830253 1.7198778
1.2033051 5.8342667 3.0886078 0.013876848 0.019623883 1.3876199 0.37864035 0.4055336
0.84900004 0.69071573
00000000: 3f4d e540 7db0 b540 085f 2f3f 4d53 393f
00000010: 7644 9a40 efef 503f 8e5d 4c3f f524 dc3f
00000020: e705 9a3f 50b2 ba40 c0ab 4540 b85b 633c
00000030: 44c2 a03c 879d b13f 26dd c13e 1aa2 cf3e
00000040: 1158 593f bfd2 303f
