Assets/ML-Agents/results/RL_BASIC_1/RL_Basic/RL_Basic-174612.pt (torch, 491747 bytes, 50 tensors)

network_body.observation_encoder.processors.0.normalizer.running_mean f4 [18]
000000 4d a2 b3 41 78 43 20 41 3f f1 0b 3d 37 78 6b ba
       22.454248 10.016472 0.034165617 -0.0008982452
000010 a6 fe 7f 3f 95 c3 7b 3e a4 18 7b 3e b0 97 a1 3e
       0.9999794 0.24586327 0.24521118 0.3156104
000020 5a 9d 1c 40 22 71 b0 41 13 f2 1f 41 12 2c 12 3c
       2.447104 22.05524 9.9966 0.00892164
000030 a7 d5 ef 3b a6 fe 7f 3f a3 77 16 3e f8 cc da 3d
       0.0073191705 0.9999794 0.14694075 0.10683626
000040 bd 98 97 3f c8 cb f9 3f
       1.1843487 1.9515314

network_body.observation_encoder.processors.0.normalizer.running_variance f4 [18]
000000 b6 60 79 4c 1b bf c6 4b da 10 a9 47 33 94 ab 47
       6.537289e+07 2.6050102e+07 86561.7 87848.4
000010 36 ff ff 3f 03 e0 8f 46 52 a5 8b 46 8a f7 a1 46
       1.9999759 18416.006 17874.66 20731.77
000020 70 ed 79 48 b2 c7 72 4c 2f c3 be 4b cd 0d a9 47
       255925.75 6.3643336e+07 2.5003614e+07 86555.6
000030 80 f1 ab 47 36 ff ff 3f 4b a1 58 46 89 35 80 45
       88035.0 1.9999759 13864.323 4102.692
000040 78 ab e4 48 e8 1a 83 48
       468315.75 268503.25

network_body.processors.0.normalizer.running_mean f4 [18]
000000 4d a2 b3 41 78 43 20 41 3f f1 0b 3d 37 78 6b ba
       22.454248 10.016472 0.034165617 -0.0008982452
000010 a6 fe 7f 3f 95 c3 7b 3e a4 18 7b 3e b0 97 a1 3e
       0.9999794 0.24586327 0.24521118 0.3156104
000020 5a 9d 1c 40 22 71 b0 41 13 f2 1f 41 12 2c 12 3c
       2.447104 22.05524 9.9966 0.00892164
000030 a7 d5 ef 3b a6 fe 7f 3f a3 77 16 3e f8 cc da 3d
       0.0073191705 0.9999794 0.14694075 0.10683626
000040 bd 98 97 3f c8 cb f9 3f
       1.1843487 1.9515314

network_body.processors.0.normalizer.running_variance f4 [18]
000000 b6 60 79 4c 1b bf c6 4b da 10 a9 47 33 94 ab 47
       6.537289e+07 2.6050102e+07 86561.7 87848.4
000010 36 ff ff 3f 03 e0 8f 46 52 a5 8b 46 8a f7 a1 46
       1.9999759 18416.006 17874.66 20731.77
000020 70 ed 79 48 b2 c7 72 4c 2f c3 be 4b cd 0d a9 47
       255925.75 6.3643336e+07 2.5003614e+07 86555.6
000030 80 f1 ab 47 36 ff ff 3f 4b a1 58 46 89 35 80 45
       88035.0 1.9999759 13864.323 4102.692
000040 78 ab e4 48 e8 1a 83 48
       468315.75 268503.25

network_body._body_endoder.seq_layers.0.weight f4 [128, 18]
000000 8c a1 15 3e 32 21 94 3d 25 4a a8 be 79 a2 f2 be
       0.14612406 0.07232894 -0.32869068 -0.47389582
000010 69 74 34 3f 58 b0 8d 3d f1 69 0f bf 75 fd 06 be
       0.7049013 0.069184005 -0.5602103 -0.13182624
000020 6c 54 4e 3e 10 01 4a 3e 83 89 1b 3e 3d 8d 6b 3e
       0.20149392 0.19726968 0.15189175 0.23003097
000030 5d 22 92 be c3 15 25 be fd 4e 17 3d 6c da 18 bf
       -0.28541842 -0.16121583 0.036940563 -0.59708285
000040 a4 83 7a 3e ce 65 03 bc a6 43 2f 3d 44 b4 bd 3d
       0.2446428 -0.008019878 0.042789124 0.092628986
000050 36 8f 2e bd c2 6b 16 bd 2f 3f 02 3e 45 9a 82 3e
       -0.042617045 -0.03672386 0.12719415 0.25508323
000060 a6 ea f6 3d 56 ae d0 3d 0d 82 54 3d 52 85 9d 3b
       0.120564744 0.10189502 0.05188184 0.004807153
000070 a7 cb ce 3e d2 89 e0 be a1 eb 92 3e f3 7a 10 3e
       0.4038975 -0.4385515 0.28695396 0.14109401
000080 ba f3 95 be eb 95 d1 3d 64 53 67 3d 65 17 37 be
       -0.2928751 0.10233673 0.056476012 -0.17880018
000090 0c be 49 bd 79 5d 2c 3e 49 75 22 be 90 06 c0 bd
       -0.04925351 0.16832532 -0.15865053 -0.09376252
0000a0 9e de f7 3e f1 37 99 3c 49 5e 5c 3e c7 b3 50 3e
       0.4841203 0.018703433 0.21520342 0.2038108
0000b0 2c 2e 62 be 56 b3 8d be b9 de 83 be 18 bd 22 bf
       -0.22087926 -0.27675885 -0.2575586 -0.63569784
0000c0 b3 a4 b6 3d 1a df fa bd 1c 1c b8 bb b3 b1 56 3d
       0.08918133 -0.122495845 -0.0056185853 0.05241556
0000d0 fc bb 0d be 8b 82 ae 3e d7 f4 07 3e 30 cc 18 be
       -0.13841242 0.3408397 0.13276993 -0.14921641
0000e0 14 c5 c9 bd 13 6a ca be d2 b2 e9 3d d9 fe 8d 3e
       -0.09852043 -0.39534053 0.114110604 0.27733496
0000f0 93 f9 2e 3e 69 20 6f bc 71 a1 bd bc 50 c1 f6 3d
       0.17087393 -0.0145951295 -0.02314827 0.1204859
000100 50 2e 07 be ca ae df 3c 91 3f ab bd 72 6b 76 be
       -0.1320126 0.027305026 -0.08361734 -0.24064425
000110 8e b5 69 3c 23 e7 12 be a0 82 a7 3c 4d 65 83 bd
       0.014264477 -0.14345984 0.020448029 -0.06415806
000120 63 d2 be 3c 3a c2 dd 3c 64 4e 63 be 2d ac a0 3d
       0.02329368 0.027070154 -0.22197872 0.0784534
000130 84 ea b7 3c 36 05 2e bf 81 22 7b bd 2a 5e 75 3e
       0.022450693 -0.679767 -0.061312202 0.23961702
000140 a0 5c ca 3e 9b 2f a2 be fc 27 38 3d c4 38 95 3c
       0.39523792 -0.31676945 0.044960007 0.018215545
000150 71 2a 24 3e 24 97 e0 be 59 71 28 be fc 8b 2d be
       0.16031815 -0.4386531 -0.16449489 -0.16947931
000160 e7 c5 aa 3e ff cf 4b 3e 95 53 4d 3c 8e 5d a9 be
       0.33354113 0.19903563 0.012532135 -0.3307919
000170 d1 5c 9c bc f5 a2 90 3d 97 3c 6f 3e 8d 0d 25 be
       -0.019087227 0.070623316 0.23362957 -0.1611845
000180 3c 5e f9 bd fa 0f e9 3d a9 57 16 3e d7 32 8f 3c
       -0.12176177 0.113800004 0.14681877 0.017480297
000190 74 ed aa 3e 57 13 f1 bd 98 f4 99 3e fa fd a1 3d
       0.33384287 -0.11771267 0.30069423 0.0790977
0001a0 0f 37 6d 3d 38 da 53 bb d2 10 29 3e ef 04 d2 3e
       0.057913836 -0.0032326113 0.16510323 0.4101939
0001b0 f2 e5 3d 3e b7 15 2e be 30 b0 ac be bc 8d 24 3e
       0.18544748 -0.17000471 -0.3372817 0.16069692
0001c0 0e 8b 64 be d7 54 e7 3e 32 88 06 be 5f b7 2e be
       -0.2231867 0.45181915 -0.13137892 -0.17062138
0001d0 58 86 9f be 68 cd 7a 3e 9f fb 91 3d be 50 bd 3e
       -0.31157184 0.24492419 0.07128071 0.36975664
0001e0 2f 1b 66 be 8d a7 bb be 36 2e 4e be 66 63 3a 3d
       -0.22471307 -0.3665127 -0.20134816 0.04550495
0001f0 51 ea 3f be 74 46 45 3d 82 27 66 3c eb 44 36 be
       -0.18741728 0.048162892 0.014047505 -0.17799728
000200 e2 5b 52 3d 4f e6 94 be 63 b6 ae 3e ed 3e b8 bd
       0.051357158 -0.29081962 0.34123525 -0.08996377
000210 6a 0b da be 54 e3 47 be 08 c2 7e 3e 7e 1a 38 bd
       -0.42586833 -0.19520313 0.24878705 -0.04494714
000220 0c 25 3c be 40 3d be be 78 ca 11 bf 2e 15 08 3d
       -0.18373507 -0.37156105 -0.5694957 0.033223324
000230 df 6f 07 3e cb cb 98 3e 07 c3 23 be ae 45 fc bd
       0.13226269 0.29842982 -0.15992366 -0.12317978
000240 6e 63 b3 bd 57 84 40 be 00 44 23 be c8 ad 84 be
       -0.08759199 -0.18800484 -0.15943909 -0.25913835
000250 47 f3 45 be 42 8d 12 bd b0 fa 7b be 67 7c ef 3d
       -0.19331084 -0.035779245 -0.24607348 0.1169365
000260 16 d1 1b 3e 74 04 51 3e d5 25 93 3e 68 65 69 3e
       0.15216479 0.20411855 0.287398 0.2279259
000270 4f f3 0c 3e 99 12 16 3e 69 3f 37 be 57 22 e7 3d
       0.1376469 0.14655532 -0.17895283 0.11285847
000280 ae 11 97 3e ac bc 1d bc 5f c6 9e be c4 c8 0c 3e
       0.29505676 -0.009627502 -0.3101072 0.13748461
000290 eb 2c 70 3e b7 e9 a4 be 30 e4 e6 bb 0f 25 9a be
       0.23454635 -0.3220956 -0.007046245 -0.30106398
0002a0 0a 1e 00 3e 5a ea 8a be 81 fb 56 be bb 2c 85 be
       0.12511459 -0.2713192 -0.20994379 -0.2601069
0002b0 c5 f2 23 3d a4 6d 90 bc 6b 15 81 3d 9a ed 85 3e
       0.040026445 -0.017630406 0.06302913 0.26157838
0002c0 a3 a0 e9 3d a4 cc a1 3d 51 1f af 3c 20 cd 2d be
       0.11407592 0.0790036 0.021377238 -0.1697278
0002d0 ad 0a 59 3e 28 33 c3 bc b8 fe 38 be 7a c7 44 be
       0.21195479 -0.023828104 -0.18065917 -0.1921672
0002e0 e7 8b 24 be 74 fb 93 be 53 10 25 be e5 02 cd 3c
       -0.16068994 -0.2890278 -0.16119508 0.025025794
0002f0 82 f3 38 bd 98 fb fd bd 08 97 27 3e 0c 87 d1 3e
       -0.045154102 -0.12401503 0.16366208 0.40923345
000300 e9 65 03 3e 62 8c ba 3e cd d9 11 3f d9 9c a1 be
       0.12831844 0.3643523 0.5697296 -0.31564978
000310 34 19 c6 3c f5 43 ce bd 19 7b 9f bc 31 5e 8d 3e
       0.02418194 -0.100715555 -0.019467877 0.27610925
000320 50 03 03 bf 97 cd 53 3e 54 03 bb 3a f2 dc 66 be
       -0.5117693 0.20683895 0.001426796 -0.22545221
000330 76 13 03 bd d8 fc 1f be 5a f9 aa be d4 de 5c be
       -0.03200098 -0.15623796 -0.33393365 -0.21569377
000340 b7 d1 ac bd 29 ca d4 3d 2c 87 bf 3e c6 41 98 bd
       -0.084384374 0.103901215 0.37407815 -0.0743442
000350 dd 10 09 3e ba 94 0c 3e 6d 7f a2 be 97 e6 a4 be
       0.13385339 0.1372861 -0.31737843 -0.32207176
000360 bc e9 7e 3d 6f 30 84 be 89 d1 99 bd be 33 dc 3d
       0.062234625 -0.25818202 -0.07510669 0.107520565
000370 f5 a9 b0 bd c3 c1 4d be 63 83 c0 be 57 9b e3 be
       -0.08626167 -0.20093445 -0.3760024 -0.44454452
000380 f1 0e c2 bd 43 de e0 bd 3c 6f 19 3e 03 d1 f8 bb
       -0.09475506 -0.10979893 0.14983839 -0.0075932755
000390 f8 ba 63 be b2 74 24 be f2 b6 90 be 7d 69 6a be
       -0.22239292 -0.1606014 -0.28264576 -0.22891803
0003a0 1a 98 8a bd 6b 7d 4c be 36 42 fb ba 89 c9 9d 3e
       -0.06767292 -0.19969718 -0.0019169513 0.30817822
0003b0 67 12 04 bc 3e 61 b2 bd 92 7c 94 3e 12 52 93 bd
       -0.008061028 -0.08709954 0.2900129 -0.07193388
0003c0 99 02 a3 be 28 e6 c4 be e1 88 6c 3e f6 d1 11 3f
       -0.3183792 -0.38456845 0.2309909 0.56961
0003d0 c5 dd 68 be 8d b6 4b 3e 06 78 bb 3c a2 9c 40 3d
       -0.22740848 0.19893856 0.02288438 0.047024377
0003e0 9e f5 be be ad 38 96 be 57 5d 81 be 71 e0 b2 3e
       -0.37296766 -0.29340115 -0.25266525 0.3493686
0003f0 4e 37 8a bd 8c f2 34 3e 36 61 14 be 6c a7 a3 be
       -0.0674883 0.1767065 -0.14490208 -0.3196367

network_body._body_endoder.seq_layers.0.bias f4 [128]
000000 24 ab 0d bd 1a cb 07 3c e0 59 2b 3c 09 56 0d 3d
       -0.03458704 0.008288169 0.01045844 0.034505878
000010 7a 9d 5e 3c 97 78 46 bc 99 42 74 3b aa 8e af 3c
       0.01358735 -0.012113712 0.003727114 0.021430332
000020 53 4e 44 bb 96 48 cd 3c 21 4e 89 3b e5 01 17 3d
       -0.0029953911 0.025059026 0.004190222 0.03686704
000030 79 fe 4b bc 22 c5 38 3c b6 52 57 3c 55 c0 33 bc
       -0.012450808 0.011277469 0.013142278 -0.0109711485
000040 49 0b 01 3d 9a f2 06 3d 09 19 73 bb ad e6 0e b9
       0.031504903 0.032946207 -0.003709378 -0.00013628109
000050 53 e3 8d bc 52 15 bf 3c fe c6 cf 3c 11 21 c3 3c
       -0.01732031 0.023325596 0.025363442 0.023819478
000060 7a 88 52 bb f9 0a 91 bc 1f a5 3c 3c 2a 16 86 3c
       -0.0032124803 -0.017705427 0.011513977 0.01636799
000070 6c 83 74 bb d2 d1 40 bc c8 fa 04 3d f2 93 59 3c
       -0.003730978 -0.011768775 0.032465726 0.013279902
000080 76 6e b1 3c ba 3c 28 bb cf 92 90 3c 92 27 cf 3b
       0.021659117 -0.0025670961 0.017648129 0.006321856
000090 95 38 fa bb 90 a9 f6 bb 03 8c 0f 3c 80 b7 47 3b
       -0.0076361396 -0.0075275376 0.008761409 0.0030474365
0000a0 92 f2 95 3b bb 0a 9d 3b d1 3e 4b bc 0e 39 ba bb
       0.004576036 0.004792539 -0.012405113 -0.005683071
0000b0 c1 2a 5d bb 87 d4 3d 3d 42 d0 f6 ba 0e 19 3e 3c
       -0.0033747407 0.04634526 -0.0018830376 0.011602653
0000c0 50 10 8e 3b 6d cf d7 3a 7a e1 b8 3c 78 8b 51 3a
       0.0043354407 0.0016465016 0.022568453 0.00079935
0000d0 87 00 d1 3c c8 a5 8f 3c 1e 24 90 39 a3 2c 0f 3b
       0.025512947 0.017535105 0.0002749273 0.0021846674
0000e0 ed 9b 16 bb 78 0e 23 3d 0c 44 32 3c 0d e4 00 3c
       -0.0022981123 0.03980872 0.010880481 0.007866872
0000f0 9f 98 ac 3b 5d 18 18 3c 79 92 d2 3b 0d 59 cd bc
       0.0052672173 0.009283152 0.0064261523 -0.025066877
000100 2d a5 eb 3a 5a bf 97 bc ff 08 e7 3a 55 67 ac 3c
       0.0017978303 -0.01852386 0.0017626582 0.021045366
000110 40 54 03 3b 5d 80 a9 3b 23 ef 8f ba e4 10 fc ba
       0.002003923 0.005172773 -0.0010981302 -0.0019231108
000120 54 c8 72 3c af a5 82 3b 9a da 70 3b 59 03 98 bc
       0.01481827 0.003987036 0.003675139 -0.018556284
000130 1f 97 ae 3c 0d 8d c8 3c 87 e4 1c bc d6 26 bf 3c
       0.021312295 0.02448132 -0.00957597 0.023333948
000140 6c 96 9b 3b 46 7b c0 3a b2 4f fe 3b 6f ae 09 3d
       0.0047481563 0.0014685176 0.0077609653 0.03361362
000150 f5 eb 29 bc 62 c8 7c 3c 86 d2 f7 3c 56 1d f5 3c
       -0.010371198 0.015428634 0.030251753 0.029921215
000160 6e ce 2b bb c3 23 d4 3c 42 d6 89 3b 78 1f 35 3a
       -0.002621557 0.025895959 0.0042064497 0.0006909291
000170 7a 3c 17 3c 53 ec ce bb bb a3 e8 3b 96 70 14 bc
       0.009230727 -0.006314793 0.0070995963 -0.009060046
000180 89 53 85 bb 20 9e aa bc 80 d2 1d 3d a4 6c a9 3c
       -0.004068796 -0.020827353 0.038530827 0.020681687
000190 03 ab 8b bc 68 64 6b 39 6d 79 f8 3c e9 3c b2 bc
       -0.017049318 0.0002244875 0.030331338 -0.02175756
0001a0 8d 22 16 3c 00 44 de 3c 1d 4f e9 3b e6 fc 7f b9
       0.009163511 0.027132034 0.0071200267 -0.00024412907
0001b0 05 9b b1 3c ad 2e 95 3c 79 b5 53 bb b7 73 5f 3d
       0.021680364 0.018210733 -0.003230421 0.054553714
0001c0 49 b9 2e 3d ed af c3 bb 46 28 9e bb be 7c 97 3c
       0.04265717 -0.0059718997 -0.0048265783 0.018492099
0001d0 4d 6a 50 bc 58 2f a3 ba 6d 1f 3d bc 9b 4d 04 3d
       -0.012720657 -0.0012450023 -0.011543137 0.032300573
0001e0 dc eb 37 3c f0 51 b3 3c b6 d3 2d bc ff 77 13 3c
       0.011225667 0.021889657 -0.010609558 0.009000777
0001f0 43 92 4b 3b 98 95 1e bc 33 6f 03 3d fc 2b 95 3c
       0.003106252 -0.009679221 0.03208847 0.01820945

network_body._body_endoder.seq_layers.2.weight f4 [128, 128]
000000 a3 68 70 bd ef f6 14 3d 2c d2 ea 3d 27 5e 53 bd
       -0.05869354 0.036368307 0.11465868 -0.051603463
000010 75 2b 34 3d b0 a3 df bd be 45 a7 bd 2c 72 d2 3d
       0.043986756 -0.10919893 -0.08167599 0.10275683
000020 a3 91 c2 3d bb 31 61 bd a8 3e da bd be 6b fd bd
       0.09500434 -0.054979067 -0.10656482 -0.12374066
000030 9c f8 ac 3d 72 f6 a5 3c c4 54 d7 bc 7f 1d 50 3e
       0.08445856 0.020259116 -0.026285537 0.20323752
000040 d7 9c 9b bc 3d 7f 39 3e 58 52 14 3e 2f 07 f3 ba
       -0.018995686 0.18114944 0.14484537 -0.001854157
000050 8f 92 29 bd c5 b7 32 3c 8e da bf 3c ac 90 49 3d
       -0.041399535 0.010908072 0.023419645 0.049210235
000060 72 f1 3d 3d 81 99 04 3e 99 5a 4c bd f4 3e c8 bd
       0.04637284 0.12949182 -0.04989109 -0.09777632
000070 5d 1c 5e 3d ab fd 38 3e 14 35 ba bc fc e2 18 bc
       0.054226268 0.18065517 -0.022730388 -0.009331461
000080 08 5f 88 3d 29 5b f2 3d 46 60 87 3c 22 b5 a7 3c
       0.06658751 0.11833794 0.016525399 0.020472113
000090 ab e9 e6 bd 11 0c 85 3d 38 6c 08 3e 49 30 43 bd
       -0.112750374 0.06496442 0.13322532 -0.04765347
0000a0 57 49 65 bd 40 76 46 3d 9c 18 89 bd 3d 20 58 be
       -0.055978145 0.048452616 -0.06694147 -0.21106048
0000b0 6a bd 45 be ea f0 91 bc 31 d6 97 3d 73 b1 00 bd
       -0.19310537 -0.017815072 0.07413901 -0.03141923
0000c0 31 fc 96 3d 0d 50 7f bb ef 7b 2c 3c a0 a7 0d bd
       0.073723204 -0.0038957626 0.010527595 -0.034583688
0000d0 23 36 43 bd e0 8a 83 3d b5 54 0f 3d ef 84 a0 bd
       -0.04765905 0.06422973 0.034992892 -0.07837855
0000e0 61 6e b8 bd b3 df 1c be 7e 5d b0 3d 22 3f 41 3d
       -0.09005428 -0.1531971 0.08611582 0.04717935
0000f0 ca c7 bf bd 62 75 21 3c 5b b7 5c be b9 ab ba 3d
       -0.093642786 0.009854646 -0.2155432 0.09114785
000100 3b 37 bc bc 01 9b 48 bd 74 0a 75 3c a6 32 9b bd
       -0.022975555 -0.04897595 0.0149561055 -0.0757802
000110 f7 83 2a bd e4 da fc 3c 91 e2 81 bb b4 87 ac bb
       -0.041629758 0.030866094 -0.0039637764 -0.0052652005
000120 db af 09 be 6a 8e 2e 3d 1c ee 02 3e a5 ae 1a 3d
       -0.1344599 0.042616285 0.12786144 0.03776421
000130 0c b6 16 3c 7c a9 4a bd 14 49 df 3c 3c 93 f6 bd
       0.009198677 -0.04947804 0.027256526 -0.120398015
000140 b4 4e fd bc 52 a5 b3 bd ec e7 aa 3c af 64 ac 3c
       -0.030921318 -0.08771767 0.020862542 0.021044103
000150 88 95 e6 bc 8f 36 39 3e cc 97 06 3e 30 55 34 bd
       -0.028147474 0.18087219 0.13143843 -0.044026554
000160 5f ba 05 bd 08 3d 83 bd 2b 95 1c 3e c7 f7 63 3e
       -0.03264844 -0.06408125 0.15291278 0.22262488
000170 b3 fe 36 bd 94 46 1d bd 46 78 80 3d 3c 7f 95 bd
       -0.044676494 -0.038397387 0.0627294 -0.07299659
000180 e1 78 71 bd c2 13 84 3d 5d 19 28 3d 50 6b 38 3d
       -0.05895317 0.06449081 0.041039813 0.045024216
000190 e3 4c 77 3e f9 80 92 bd 2a 49 92 3b 5c 18 ee bd
       0.24150424 -0.07153506 0.0044642882 -0.1162574
0001a0 16 af c9 3d 87 68 87 3d 7d 89 c8 bc ca 3d d1 3d
       0.09847848 0.06611734 -0.024479622 0.102168635
0001b0 78 38 6b bd 4f ca b7 3d 70 3d fa bd 29 bf 49 be
       -0.0574269 0.08974134 -0.122187495 -0.19701828
0001c0 07 9d ef 3d 49 7e e8 bd 35 6a ff 3d d1 ba 17 bd
       0.116998725 -0.11352212 0.12471429 -0.037043396
0001d0 c4 e4 25 bd 95 ca 9a 3a a9 07 c9 bd 8c 47 97 3d
       -0.04050137 0.0011809642 -0.09815914 0.07386693
0001e0 6c 63 16 bc cf fd 0a be fa 9f 1a 3d 04 f2 d5 3c
       -0.009178977 -0.13573383 0.03775022 0.026116379
0001f0 f2 a6 1c bd 84 c6 9f 3d 70 87 c4 bb 34 45 1c 3d
       -0.03824515 0.07801536 -0.0059975907 0.038151935
000200 56 5b 1f be 51 a8 62 3c 4b 76 90 bd 9a a2 fd bd
       -0.15562186 0.013834075 -0.070538126 -0.123845294
000210 f7 be 93 bd 9a c9 0c bd 79 66 a7 3d 56 c0 4b 3d
       -0.07214158 -0.03437195 0.08173842 0.049743973
000220 6e 03 59 bc 64 2c 55 be 77 05 10 3e 36 88 1f be
       -0.013245447 -0.20817715 0.14064585 -0.15579304
000230 37 5a 45 bd 9b b0 15 be f2 b6 b2 3b f6 ba a2 bd
       -0.04818174 -0.14618151 0.0054539377 -0.07945816
000240 60 75 ae 3d 7e 4c 7d 3d 22 81 78 3d aa 07 9d bd
       0.08518481 0.061840527 0.060670026 -0.076674774
000250 e7 a9 c0 3d 32 86 6a bd 09 85 41 3d 81 7a c4 3d
       0.09407406 -0.057256885 0.047246013 0.09593678
000260 08 33 d0 bc ff 9a 1f 3c 18 09 12 be e1 6c 38 3d
       -0.025414959 0.009741544 -0.14261281 0.04502571
000270 dd 7a eb 3a 33 85 f1 bd c5 78 91 bd 2b 82 65 bd
       0.0017965693 -0.11792984 -0.07103113 -0.05603234
000280 f7 ea 18 be 3a a6 70 bc 4e 69 04 ba 25 41 c0 3b
       -0.14933382 -0.014688069 -0.0005051092 0.005867141
000290 db 74 71 3c 50 7c 92 3c 2c 54 05 be 09 1a c0 bc
       0.014737333 0.017881542 -0.1302039 -0.023449915
0002a0 50 4e 6e bd b8 fe 9f bd e8 cf cf bd 53 37 5b 3d
       -0.058180153 -0.078122556 -0.10147077 0.05351956
0002b0 0a e6 86 bd be 15 1b 3e b2 8e 74 ba fd a1 5a 3d
       -0.06586845 0.15145013 -0.00093291246 0.05337714
0002c0 76 e4 01 3c 8c a3 68 bc f1 68 a4 bc ed 27 d0 3c
       0.0079280045 -0.014199149 -0.020069571 0.025409663
0002d0 7a fe d3 3d 94 b4 ca bd 65 cc 60 bd 0d 5d ae 3c
       0.10351272 -0.09897724 -0.054882426 0.021284604
0002e0 1d 14 ab 3a 35 09 46 be e3 28 6b bd 81 70 c5 3d
       0.0013052259 -0.1933945 -0.05741204 0.09640599
0002f0 0e a1 44 be f7 43 d7 3a e6 0a 56 3c 0e 70 88 3d
       -0.19202062 0.0016423453 0.013064122 0.06661998
000300 06 a0 f9 bd b4 69 88 3e 23 31 24 3d 73 0a cd 3d
       -0.12188725 0.26643145 0.040085923 0.10011759
000310 a8 13 9b 3d d3 19 e4 bc f2 14 d1 bd 0c 73 23 be
       0.075721085 -0.027844345 -0.10209073 -0.15961856
000320 5f f3 94 bc c2 d9 17 bd a1 9d aa 3d d5 0e 91 3d
       -0.018182455 -0.037072904 0.083308466 0.07082907
000330 9c c9 23 bd 4d d4 79 bd 56 15 17 be 28 57 e2 3d
       -0.03998719 -0.06099348 -0.14754233 0.1105178
000340 19 6e 29 bb cb b1 9b bd 5c 2f 63 bb 14 0d 0d 3d
       -0.0025852977 -0.07602271 -0.003466568 0.0344363
000350 8b c0 04 3c 4e 3d 63 3d 97 86 09 be 91 46 f3 bc
       0.008102546 0.055478387 -0.13430248 -0.029696735
000360 6f 55 10 3e 3b 8c f5 bd 99 7f 2a bd 4d f7 f6 3d
       0.1409509 -0.119896375 -0.041625593 0.12058888
000370 b1 30 cc bb 34 0b b5 bd f1 64 1c 3d 5d 23 7a bc
       -0.0062313904 -0.088400275 0.038182203 -0.01526722
000380 ac 36 1c 3d 72 9d c1 3d 5c c5 05 be 2e 7b 82 3d
       0.038138077 0.094538584 -0.13063568 0.06371151
000390 ec 52 18 3e 5b ff 7a 3d 64 d4 11 3d 1d e9 c4 bd
       0.14875382 0.061278682 0.035602942 -0.09614775
0003a0 3b 54 b1 ba e8 54 5f 3d 35 ce 20 bd c1 07 8c 3d
       -0.0013529131 0.054524332 -0.039259154 0.068374164
0003b0 77 95 78 3c 80 f5 c7 3d 64 82 15 3e 9e bf 09 bd
       0.015172354 0.09763622 0.14600521 -0.033630006
0003c0 1f 08 0b 3c 8c 52 09 be c5 05 74 3e c7 a2 ba 3d
       0.008485823 -0.13410395 0.23830326 0.091130786
0003d0 f0 f8 d1 3d 45 6f ee bd 19 62 8d 3d f9 c1 f0 3d
       0.10252559 -0.11642317 0.06903476 0.11755747
0003e0 94 54 b0 3c 4b 64 17 bd 87 f1 e6 bd ba d7 d7 bc
       0.021524705 -0.03696088 -0.112765364 -0.026347984
0003f0 b4 14 04 bd 5b 8d 8a bd 80 b3 10 3d ae db c7 bd
       -0.032246307 -0.06765243 0.035327435 -0.097586975

network_body._body_endoder.seq_layers.2.bias f4 [128]
000000 3d d7 35 3c 9e 19 3a bc 18 08 72 bb 10 cd ab 3b
       0.01109868 -0.011358647 -0.0036931094 0.005242951
000010 bc 75 29 3d cb f9 e8 39 b2 da e9 bb c7 03 a9 3c
       0.041372046 0.000444366 -0.007136666 0.020631684
000020 ac d5 13 bc 7f b5 d4 ba 2b 47 f7 3b df da 51 3c
       -0.009023111 -0.0016228406 0.0075463257 0.012808531
000030 fd 79 10 3b af 11 c0 bb 19 6a 00 3c f0 d1 ce bb
       0.0022045367 -0.005861483 0.007837796 -0.0063116476
000040 0f 94 99 bb fd ab 01 bd 5d 16 c5 3c fc 96 b0 3b
       -0.0046868394 -0.03165816 0.024058515 0.0053890925
000050 af 66 b4 3c 23 dd b2 3c 4c 41 1f bb a6 af bf 3b
       0.02202162 0.021833962 -0.0024300395 0.0058497963
000060 8f d8 87 bc c5 36 05 3d 23 cd 02 bb 77 2a 5d 3b
       -0.016582755 0.032522935 -0.0019958697 0.0033747235
000070 ff a2 cf 3c f2 ad b0 3c 18 cc c1 3c b0 75 b0 ba
       0.025346277 0.021567319 0.02365689 -0.0013462808
000080 d6 e6 f6 3b 9d 1e 70 bc 19 21 58 3b f0 6a 0a 3d
       0.007534842 -0.014655736 0.0032978712 0.03379339
000090 a4 36 43 bc 15 ca cd 3c c1 ac 17 bc 2e 5e 0a 3c
       -0.011914883 0.025120774 -0.009257496 0.008445306
0000a0 24 38 cc 3c e6 8b ce 39 6f 83 d0 bb fc f2 22 bb
       0.024929114 0.00039395614 -0.0063633244 -0.0024864068
0000b0 30 67 e6 bb 82 58 8b 3b 5e 13 a4 3c da 40 ba 3b
       -0.007031344 0.0042524943 0.020028766 0.0056840004
0000c0 db 5c 70 3c 5c 6f b7 ba 66 ca eb 3b c2 e5 0a bc
       0.014670576 -0.001399498 0.0071957586 -0.00847763
0000d0 2f f1 f3 3a 5c 14 2c 3c ea ce 75 bb dd 32 4f bb
       0.0018611307 0.010502901 -0.0037507364 -0.003161601
0000e0 e2 87 9b bc 1d 40 0e bc 2b 62 6b 3c fc da 3b bc
       -0.018985692 -0.008682278 0.014366667 -0.011465784
0000f0 14 ef ef 3c e8 0b e6 3c 8a 13 cf bc cf d9 3c 3c
       0.029288806 0.02808185 -0.025277872 0.011526539
000100 f5 16 8a 3c 11 1b 76 3c 15 26 e6 3a d5 6f 7d 3c
       0.01685665 0.015021102 0.0017558957 0.015468557
000110 0c 36 9c 39 43 4e 76 3c ec c2 c8 b9 f0 dc f0 3c
       0.00029794907 0.0150333075 -0.000382922 0.029402226
000120 30 73 de 3c 34 19 cf 3c 05 5c 8f 3c 7a 8c 81 bc
       0.027154535 0.025280572 0.017499933 -0.015814055
000130 1c f5 c9 bb 9e 02 23 3b b8 b5 c9 3b f7 9e a2 3c
       -0.0061632525 0.0024873386 0.0061556958 0.019851191
000140 13 75 c4 3b 70 80 d6 3c 32 99 79 bc 53 c6 2d bc
       0.0059954016 0.02618429 -0.0152342785 -0.010606366
000150 71 6b d8 3b 74 40 5e bc b1 91 1a bc 58 c0 31 bb
       0.006604605 -0.0135651715 -0.00943415 -0.0027122702
000160 fe 60 f0 3c e5 90 d2 3c 33 0d 29 3c df 3d 1c 3d
       0.029343124 0.025703857 0.010318088 0.038144942
000170 12 0b a1 bb 77 ec a2 3c 1e 97 04 3c 4c ac c6 3c
       -0.0049146498 0.019888146 0.00809267 0.02425208
000180 eb 54 d7 ba 94 46 cf bb 02 07 ec 3b c8 8d cd bb
       -0.0016428506 -0.0063255522 0.007202984 -0.006273005
000190 53 20 a7 3c 39 2a 83 3c d2 c2 56 bb 3a 8d 94 3c
       0.020401156 0.016011344 -0.003276993 0.018133748
0001a0 f4 5d 48 bc 16 99 36 3c 6a cf 05 bb 2d 71 bf ba
       -0.012229431 0.011144897 -0.0020417818 -0.0014605873
0001b0 d5 c3 17 3c af be ba 3c 5b dd 19 3c c1 b4 ad 3b
       0.009262999 0.022796003 0.009391154 0.0053010886
0001c0 8d e2 82 3c 8c 34 d6 ba b7 7c e0 bc d7 d7 9c bc
       0.015977168 -0.0016342564 -0.027403219 -0.01914589
0001d0 b5 60 b1 3c 01 aa 90 39 10 84 36 39 dd 08 9b bb
       0.021652559 0.00027592483 0.0001740607 -0.004731281
0001e0 bf df ee 3c 91 1b 35 3c 10 21 af bb e9 cb 35 3c
       0.029159425 0.011053936 -0.0053445175 0.011095979
0001f0 90 03 c0 bb e0 91 88 3c 73 5c b4 ba b9 97 eb 3c
       -0.0058597997 0.016671121 -0.0013760462 0.02875887

action_model._continuous_distribution.log_sigma f4 [1, 2]
000000 54 5f 83 3c 2d 3d 43 3c
       0.016036667 0.011916441

action_model._continuous_distribution.mu.weight f4 [2, 128]
000000 ef 43 9e bb 18 50 34 3c de 87 95 ba 84 3b ff 3a
       -0.0048298757 0.011005424 -0.001140829 0.0019472693
000010 90 f9 ba 3b 5f d4 be bc 43 fc be 3c 3d 30 64 bc
       0.0057060197 -0.023294626 0.023313647 -0.0139275165
000020 42 46 85 bc e1 1b 63 bb b9 9a f6 3c fa 4c 29 bd
       -0.016268853 -0.0034654068 0.030103074 -0.041333176
000030 7b 73 8e 3c 07 ba 44 3d 26 30 21 bb bd b9 93 bc
       0.01738905 0.048028972 -0.002459535 -0.018032903
000040 3d 38 ed 3c 76 04 f9 3b 08 d0 2c bd f0 83 f7 ba
       0.02895748 0.0075994087 -0.04219058 -0.0018883925
000050 4a 93 0c 3a e7 43 aa 3c 4a a1 8c 3b e1 b7 ab bc
       0.0005362524 0.020784331 0.004291688 -0.020961704
000060 e9 57 b1 3c af 89 e1 bc 4b c6 7e bc 12 54 68 3d
       0.021648364 -0.027531473 -0.015550206 0.0567208
000070 d2 f9 7d bb 53 08 15 3d f7 b2 65 bc 13 b1 ba bc
       -0.003875364 0.03638489 -0.014019719 -0.022789514
000080 b0 7f 34 bd 09 b7 50 bc 18 20 97 3c b4 be 04 bb
       -0.044067085 -0.0127389515 0.01844792 -0.002025527
000090 29 47 3f bb 1f e6 b5 bc 21 60 61 3c 3e ea 7d 3c
       -0.0029186702 -0.022204457 0.013755829 0.015497742
0000a0 d9 e0 27 3c ee 72 28 bc 77 d2 aa bc 91 62 8d bc
       0.010246479 -0.010281308 -0.02085231 -0.017258914
0000b0 41 99 6e bc a4 51 95 bc 47 6c dd bb 18 2c bd ba
       -0.014562906 -0.018227406 -0.0067572924 -0.0014432697
0000c0 87 64 b7 ba dc 9d 89 3b e7 00 0b bb 41 74 4f 3c
       -0.0013991751 0.0041997265 -0.0021210255 0.012661994
0000d0 44 7c 8b 3c d4 c2 dc ba ff fa 88 3c a0 34 aa bc
       0.017027028 -0.0016842731 0.016721247 -0.020777047
0000e0 ea 86 dc 3a bf 02 b4 3c 92 17 8e bc 18 76 49 3d
       0.0016824875 0.021973966 -0.017345224 0.04918489
0000f0 75 d5 32 ba 88 88 96 bc a5 71 22 ba 6b 79 99 bb
       -0.0006821969 -0.01837565 -0.0006196744 -0.0046836636
000100 73 97 c5 3c a1 0f 9c bc 34 e9 d7 bc da ac 97 bc
       0.024120068 -0.019050421 -0.026356317 -0.01851504
000110 48 b5 25 3b a7 2a ef bc 1f a9 ab 3c 28 8d 4f 3c
       0.0025285054 -0.029195143 0.020954667 0.012667932
000120 7e cd 02 3c e3 21 dd ba ef 97 4a 3b 63 63 31 3c
       0.0079835635 -0.0016871061 0.0030913313 0.010826918
000130 e8 fd b1 3b 5e 2f 44 bd 5c f2 0b bc d9 d1 9f bc
       0.0054318793 -0.047896735 -0.00854167 -0.019509243
000140 0b d5 30 bd c5 30 0b 3c f8 05 25 3d 29 6d 18 bc
       -0.043171924 0.008495514 0.040288895 -0.00930337
000150 ce 17 02 bc 2c b3 7c bc 0e 89 11 3d dd 59 e2 bc
       -0.007940246 -0.015423577 0.035531096 -0.02763074
000160 83 f5 3d 3c 07 09 81 ba 24 0b 5d bc 31 56 86 bc
       0.011594179 -0.0009844609 -0.013491426 -0.016398521
000170 df 83 0f 3d 11 48 8d bc 0d 1b 93 3c f8 4c 52 bd
       0.03503787 -0.017246278 0.017957235 -0.051342934
000180 2e e6 82 3b 93 d6 35 3d be 1e 20 bc 40 d6 d9 bc
       0.0039947247 0.044394087 -0.0097729545 -0.02659142
000190 5f a2 df bc aa 18 9f bc bf 3e aa bc a0 63 b3 bc
       -0.027299104 -0.01942094 -0.020781873 -0.02189809
0001a0 ab 14 bc 3c 32 5f 9d bc 7c 84 58 bc f9 c0 30 3d
       0.022959074 -0.019210432 -0.0132151805 0.043152783
0001b0 0c 0f d3 bb 56 15 89 3b c7 c0 94 bc ef eb 50 bc
       -0.0064410027 0.0041834516 -0.01815833 -0.012751563
0001c0 96 e0 10 bd a3 aa 2b bd da b1 b9 ba 46 05 fc 3b
       -0.03537043 -0.04191078 -0.0014167384 0.0076910583
0001d0 54 9c 17 bc 4f 3f db 3c 86 09 de 3c 05 53 41 3c
       -0.00925358 0.026763586 0.02710415 0.011799579
0001e0 34 58 fd bc 18 af 6d bc 9f 3d 04 3d 4c c0 08 bb
       -0.030925848 -0.014507078 0.03228533 -0.002086657
0001f0 27 19 91 3c 02 30 b1 3b 5c 4c 5b 3c 22 d9 8a bc
       0.017712189 0.0054073343 0.013384905 -0.01694924
000200 1f 85 f8 3c 4e d3 31 3b ef d0 0b bd bd 8f 01 3b
       0.030336915 0.0027134004 -0.0341348 0.0019769513
000210 1a e9 01 bc e4 e3 00 3c 82 5e 09 bd de 68 43 3d
       -0.007929111 0.007866833 -0.033537395 0.04770743
000220 3b 11 c1 bc 1d 3b c0 3b 9e 1e 5a bd 1a a0 fc 39
       -0.023567786 0.005866422 -0.053251855 0.0004818447
000230 ed 11 f9 ba aa 44 98 bb f1 56 53 3b ad 6f e8 3b
       -0.0019002535 -0.0046468573 0.0032247866 0.007093391
000240 32 cb f2 bb 40 4e 22 bc 6d e7 c0 bc 2c fc f7 3c
       -0.0074094767 -0.009906352 -0.023547852 0.030271612
000250 40 ba 91 3c c2 57 36 3c 42 1e a3 bc 25 bf 1c 3d
       0.017789006 0.0111293215 -0.019911889 0.038268227
000260 c5 86 0a bb 2e 06 88 3b 00 ce c4 3c 38 6e bb 3c
       -0.0021137458 0.0041511273 0.02402401 0.022879705
000270 82 7f 0f bc 44 5a 88 3c 72 dd 72 3c 28 42 ab 3c
       -0.008758428 0.016644605 0.0148233045 0.02090557
000280 9b 8e 1a bc 9b 24 0f bd 34 24 1f 3d db 19 14 3d
       -0.009433414 -0.03494702 0.038852885 0.03615747
000290 ec fc 72 bc a2 5d aa 3c 18 08 43 bd 6c dc a5 3c
       -0.014830809 0.0207966 -0.04761514 0.020246707
0002a0 b9 0e 5f bc 54 32 78 bc 3b a7 59 bb ec 8c 05 bc
       -0.01361435 -0.015148718 -0.003321125 -0.008151274
0002b0 b9 51 8a bc 4f 03 1d bd f6 8a ad ba 0f 7d 85 bc
       -0.016884672 -0.038333233 -0.0013240266 -0.016294984
0002c0 37 69 3a 3b 9c 05 38 bd 79 ef 9c 3b 66 16 10 3b
       0.002844406 -0.044927225 0.0047892896 0.0021986007
0002d0 f3 26 2f 3d 11 c6 08 bd bb 5b 19 bc 1d 0c 60 bd
       0.042761754 -0.033392016 -0.009360249 -0.054699052
0002e0 c3 c2 1b bc 77 73 45 bd 74 65 fe bc 08 27 93 bc
       -0.009506884 -0.04820582 -0.031054236 -0.017962947
0002f0 7d 75 1b bc 2a 1e 1d bd 5d 40 f1 bb 1a 53 59 bd
       -0.009488461 -0.038358845 -0.007362409 -0.053057767
000300 e8 db 47 3d 4e 12 b3 3c e4 ef e4 3b 88 0f f4 bb
       0.048793703 0.021859314 0.006986605 -0.0074481405
000310 37 12 01 bd d9 56 78 3c f2 ef 5a 3b 02 b1 cb 3c
       -0.03151151 0.015157425 0.0033407179 0.024864677
000320 5d f6 9c 3c 28 8e bd bc 81 98 a0 3c f4 ad 14 3c
       0.019160444 -0.023139074 0.01960397 0.009074677
000330 c6 09 58 bc 0d 48 de bc e1 66 d1 3c 8e 9a f1 3c
       -0.013185924 -0.027133966 0.025561752 0.029492643
000340 29 19 70 3c 65 60 0b 3b 7e e7 48 3b ff 15 d3 bc
       0.014654436 0.0021267172 0.0030655558 -0.025767324
000350 b2 72 33 3d 16 d6 7f ba 9a 78 a3 39 8e 90 79 bc
       0.043810554 -0.00097593793 0.00031179638 -0.015232218
000360 6e 23 c2 ba 74 fa 44 bb 47 b9 41 bc 75 7b 1c bc
       -0.0014811584 -0.0030056508 -0.011823959 -0.009550919
000370 70 7c 26 bb 7a 46 fd bb 0c c1 b5 3a 1b 0d 0e 3d
       -0.002540376 -0.0077293487 0.0013866737 0.034680467
000380 18 ee 38 bc fd 90 da bb d2 a9 98 3c 5a 73 36 bc
       -0.011287235 -0.006670116 0.018635664 -0.0111359
000390 05 14 fc 3b e0 cc 42 3d 5e 26 7e bc bd e5 ee 3c
       0.007692816 0.047558665 -0.015512077 0.029162282
0003a0 73 4b 9f bc 4c 6e cf 3c d7 e0 4c bc 8f 42 04 3c
       -0.019445157 0.025321148 -0.012504778 0.008072509
0003b0 f8 fb 24 bd 26 6d 14 bd 95 99 9e 3c d2 ab 9a 3b
       -0.04027936 -0.036236905 0.019360343 0.0047201896
0003c0 01 a4 86 bd 9d 52 8a bc 3e 66 12 bc 4e 88 95 bc
       -0.0657425 -0.016885096 -0.008935509 -0.018253472
0003d0 c1 9c 54 3c 29 f7 e6 3a e1 49 67 bd 30 ea 45 bc
       0.012976826 0.0017621267 -0.05646694 -0.01207976
0003e0 93 21 95 bb 82 38 03 bc 34 03 c4 bc 0e be 30 3d
       -0.0045511215 -0.008009078 -0.023927309 0.04315
0003f0 e6 9e e9 bc 67 16 dc 3c c0 ea 0a bd 31 d8 30 3d
       -0.028518151 0.026866151 -0.03391528 0.043174926

action_model._continuous_distribution.mu.bias f4 [2]
000000 3f e1 dc bb cf c4 35 3c
       -0.0067407186 0.011094286

action_model._discrete_distribution.branches.0.weight f4 [4, 128]
000000 70 27 5e 3b e4 ef 9b bb 46 4f 9a 3c 7e 98 20 3c
       0.0033898018 -0.004758822 0.018836629 0.009801982
000010 54 ea 46 3d 2b 91 77 bb 44 53 13 bc ae 4d c8 3c
       0.048563316 -0.0037775736 -0.00899202 0.024451103
000020 7b 8a 9d bc af 4a 44 3c aa ad 9c 3c b0 dd 66 3c
       -0.019231072 0.011980697 0.019125778 0.01409094
000030 12 55 01 3d f0 db c1 bc 8c d6 93 3c a5 b7 93 bc
       0.03157527 -0.023664445 0.01804664 -0.018031904
000040 74 68 29 3c 55 33 8d bc 75 eb 66 3b 3d 56 61 bc
       0.010339845 -0.017236391 0.0035235558 -0.013753471
000050 98 10 30 3d 96 a0 2a 3c 76 65 a3 3c ae a1 2e bd
       0.042984575 0.010414263 0.019945841 -0.04263466
000060 52 cd 34 bd 48 4f c4 3c ff da 04 bd e6 ca fc 3c
       -0.04414112 0.023963585 -0.032435413 0.030858468
000070 62 ee 0c 3d 6a 7a 1c 3d fc 9a 0a 3d 9f d7 5a bc
       0.034407027 0.03820268 0.03383921 -0.013357072
000080 ee 86 17 3c 42 24 19 bd 32 a6 12 bc 66 1f 8e bc
       0.009248478 -0.037388094 -0.008950757 -0.017348956
000090 b8 c1 c7 bb b0 ae 20 3c f1 01 db 3b e4 79 20 3d
       -0.006096091 0.009807274 0.006683581 0.039178744
0000a0 1f b6 d8 3c 97 9b 10 bb 4e 71 74 bc 48 20 93 bb
       0.02645403 -0.0022065395 -0.014919592 -0.004489932
0000b0 24 8b c3 bc f5 2d ca 3b 54 e7 a3 bc 35 69 48 bc
       -0.023870058 0.0061700293 -0.020007767 -0.012232115
0000c0 59 cb 1a 3d eb 1d 7b 3c 91 7a e8 bc f9 b5 a1 bc
       0.037791584 0.015326957 -0.028378757 -0.019740092
0000d0 85 8f a6 3c 6c 21 2d bc bb 7a bf 3c 33 57 9c bc
       0.020332107 -0.01056705 0.023373952 -0.019084549
0000e0 f3 52 b8 bc d3 30 d9 3c 40 29 1a 3d 45 a9 3e 3c
       -0.02250049 0.026512539 0.037636995 0.011637037
0000f0 2f 75 0c 3d fc 20 e7 3b 84 32 2c bc 3b 7c 84 3d
       0.034291442 0.0070534926 -0.010510091 0.064690076
000100 44 80 c3 3c 7c 0b 14 bb c5 e4 1a bc 3e 48 d9 3b
       0.023864873 -0.0022589853 -0.009453957 0.0066309264
000110 ed c2 57 3b f7 e6 89 3c 8e 53 a8 38 db a3 9f 3c
       0.0032922581 0.016833765 8.0264275e-05 0.019487312
000120 76 54 9d 3c dc 65 fa 3c cf 12 b2 3c 60 53 0a bc
       0.019205313 0.030566148 0.021737484 -0.00844273
000130 6a f0 85 3c 34 f7 3f 3b d9 48 ba bc 71 ce 68 3c
       0.01634999 0.0029291632 -0.022739815 0.014209376
000140 09 e2 21 bc 77 36 35 3d 9a 7f 83 3b 28 97 ce bc
       -0.009880551 0.044241395 0.004013014 -0.025218561
000150 82 c6 c2 bc 90 03 41 bd 02 ce 16 bd 75 4e 4c bd
       -0.023776297 -0.047122538 -0.036817558 -0.04987951
000160 dc 81 82 3c 97 27 e4 3c 91 70 9e bc 85 35 4f 3d
       0.015931062 0.02785091 -0.019340785 0.05058815
000170 3b d4 ad bb 9d 15 08 bc a1 8a 46 3c 5d db ab bc
       -0.005304841 -0.008305934 0.012118013 -0.020978624
000180 f0 28 2f 3b 1a f3 f9 bc 66 bc f7 bc ec 46 ff bb
       0.0026727282 -0.030511428 -0.030241203 -0.007790437
000190 80 ba fb 3c d1 4b f4 3b 2b e9 0b bc b8 cf 2c bc
       0.030728579 0.007455327 -0.008539478 -0.010547571
0001a0 ae f8 92 bc 97 01 47 bb d3 ff ca bb 2e 56 fa 3b
       -0.017940845 -0.0030365938 -0.0061950474 0.007639668
0001b0 a4 77 f1 3c c3 a2 05 3d c3 a3 e7 3c e4 82 a3 3c
       0.029475994 0.032625925 0.02827633 0.019959874
0001c0 19 29 5e 3d 25 cc f0 3b 53 83 07 bc 96 4a 9e bb
       0.054238413 0.0073485547 -0.008271056 -0.0048306687
0001d0 5f 28 e7 bb dd ee 10 3d 51 74 9d 3c 61 64 01 bb
       -0.007054373 0.035384048 0.019220503 -0.0019743668
0001e0 d2 c7 0f 3d 54 86 8c 3c 06 75 8e 3c 0d 1a eb bb
       0.035102673 0.017153896 0.017389785 -0.0071747364
0001f0 2a bb 36 bc 20 3c e6 3c ab 15 0a 3c 63 c0 6f 3b
       -0.011153022 0.028104842 0.008428018 0.0036583177
000200 bb 01 02 bd 1c d3 86 3b de 39 8e bc b2 57 78 3c
       -0.03173993 0.0041145217 -0.017361578 0.015157627
000210 65 18 e4 bc 72 46 45 3d db 30 22 3c b6 3c 4d bd
       -0.027843663 0.048162885 0.009899343 -0.050106727
000220 f1 5a b3 3c 6a 7b cb ba 0b 3b 7d bd 47 93 1f bb
       0.02189395 -0.0015524451 -0.061823886 -0.0024349259
000230 bb 81 a2 bc 55 37 80 bb 5f 55 f2 bc 43 50 0e 3d
       -0.019837251 -0.003912846 -0.029581724 0.034744512
000240 88 72 34 3c f0 2d 10 bc 78 d4 71 bc 67 00 cf bc
       0.0110136345 -0.008800015 -0.014760129 -0.025268747
000250 63 84 d0 bc 71 d7 1c bd 6a 5c 9e bc 73 33 cf 3b
       -0.025453752 -0.0382914 -0.019331176 0.006323272
000260 a5 50 95 3c 44 76 3b 3d c6 41 9e 3c 47 b4 b7 bc
       0.01822693 0.045767084 0.019318473 -0.02242483
000270 ba 95 6b 3d c0 89 a5 bd e8 2e 86 bc 3a ad f4 3b
       0.057515837 -0.08082914 -0.016379789 0.0074669393
000280 e6 15 43 bc 39 e9 83 bb 0a ce 5c 3c 30 8c 1a bd
       -0.011907076 -0.004025605 0.013476858 -0.03773135
000290 8a b1 2d bc a1 ce 41 bd d1 13 07 3d ca 81 ed bb
       -0.010601411 -0.047316197 0.032977883 -0.007248138
0002a0 91 20 30 bd b5 84 30 3d 46 1a 4c 3d 9d f1 f6 3c
       -0.042999808 0.04309531 0.049829744 0.030144507
0002b0 f1 0f 8e 3c 6c 8f 32 3b 4e 5c f5 3a b7 f0 f8 3c
       0.017341586 0.002724613 0.0018719526 0.03038822
0002c0 47 49 eb bc a2 8b 20 bb 77 19 db bc 55 74 b8 3b
       -0.028721465 -0.002449729 -0.026745541 0.0056291022
0002d0 9a 77 a5 3c 7e 08 97 bd 49 18 15 3a 89 1c 9a 3c
       0.020198632 -0.07374667 0.00056875177 0.018812435
0002e0 8f d6 46 39 0e e2 9a bc b4 92 1a bd bc ad a6 3c
       0.00018962681 -0.01890662 -0.037737563 0.020346515
0002f0 49 18 c0 bc 14 c8 64 3d 51 fb 88 3b 09 26 7e bc
       -0.02344908 0.055854872 0.00418035 -0.015511998
000300 e2 43 2a bd 02 f3 ac 3c e9 f6 57 3d e8 69 42 3c
       -0.041568644 0.021111969 0.052725706 0.01186607
000310 83 bd 55 3d 62 b2 4a 3d 6d 7c c8 3b ce 9c 38 3d
       0.052182686 0.049486525 0.0061183483 0.045071416
000320 c3 1e 6e bd e0 b3 d9 bb 88 e8 50 3d 11 43 fd 3c
       -0.058134805 -0.006643757 0.05100301 0.030915769
000330 81 24 d4 38 54 7a 75 3b 7d 35 19 bc 44 0f 6d 3b
       0.00010115747 0.0037456946 -0.0093511315 0.003617243
000340 ee 2f 90 3c b8 81 8d bc a4 35 16 3d 47 25 d8 bc
       0.01760098 -0.017273769 0.03667225 -0.026384963
000350 4f 83 ab 3c b8 df 47 3c 11 be bb 3c 81 10 72 3d
       0.020936636 0.012199335 0.02291778 0.05909777
000360 6f ca 7c bd 1f 6b 89 bd 76 6b 1d 3d 63 57 ed bc
       -0.061716493 -0.06709885 0.03843256 -0.028972333
000370 41 58 e2 3b df 91 42 bc 1a 3f 03 bc a8 7c ab bc
       0.0069074933 -0.011875599 -0.00801065 -0.020933464
000380 8b 47 51 bb aa ee b2 3c a6 65 66 bc ee 9b 21 3d
       -0.0031933512 0.02184232 -0.014062321 0.039455347
000390 11 f0 97 bc 9b 83 2c bc 58 3c 31 3d ed 5b b2 bc
       -0.01854709 -0.010529424 0.04327044 -0.02177235
0003a0 aa fc d1 3b 60 55 0f bd 7f 34 fb bc dc 74 ce 3c
       0.0064082937 -0.03499353 -0.03066468 0.025202207
0003b0 17 ba e1 3c 94 88 bc bd 7a 9f 8f 3c f0 b8 03 3c
       0.027554555 -0.09205738 0.017532099 0.008039698
0003c0 5b ca 93 bd 83 84 a5 3b 2c 13 29 3b 78 56 37 3d
       -0.072163306 0.005051197 0.002579878 0.044760197
0003d0 e3 4f 06 bd da ec 99 bc 87 b2 23 3b 14 df ab 3c
       -0.03279103 -0.018789697 0.0024978237 0.020980395
0003e0 75 74 f4 3b 8f 74 a9 3c 19 64 0a 3d 88 31 99 3c
       0.007460172 0.020685462 0.033786867 0.018700376
0003f0 2d 25 c7 3c 5d ec ac 3b 31 cb 3a 3d fd f8 16 bd
       0.024309719 0.0052772 0.045603935 -0.036858547

action_model._discrete_distribution.branches.0.bias f4 [4]
000000 1b 48 ec 3c 15 96 53 bc 3f c3 59 bc e8 71 51 38
       0.028842976 -0.0129142 -0.013291179 4.9935566e-05

exp_avg f4 [128, 18]
000000 32 ff 4d 39 7e 6e 73 b8 7d 21 f7 b8 f4 6c 30 b9
       0.00019645391 -5.803862e-05 -0.000117841155 -0.00016825256
000010 e5 93 c3 35 a3 a8 e0 b8 05 09 dc 37 82 08 22 39
       1.4571675e-06 -0.000107125634 2.6230244e-05 0.00015452693
000020 db 56 af b8 71 8a 41 39 f8 17 fd b7 c7 0b f3 38
       -8.360828e-05 0.00018457488 -3.0171112e-05 0.00011589337
000030 5b 50 82 b8 e5 93 c3 35 c3 91 0e 39 75 ff 12 b9
       -6.2138504e-05 1.4571675e-06 0.00013596476 -0.0001401881
000040 24 be cf 38 bf 24 11 b9 ec ee 97 b7 67 ec 4f b8
       9.9059456e-05 -0.00013841967 -1.811186e-05 -4.9572813e-05
000050 f3 84 6c b7 b4 5a 2f 39 ac 56 0e b4 e9 4f c2 37
       -1.4097651e-05 0.0001672309 -1.3256312e-07 2.3163813e-05
000060 2b b3 ad b6 3b 85 e8 b7 fd 22 a8 b7 b8 8b 0b b8
       -5.1766597e-06 -2.7718595e-05 -2.0043453e-05 -3.3270306e-05
000070 5c b0 87 b8 48 80 c4 b8 be 8d b7 38 ac 56 0e b4
       -6.470151e-05 -9.3699025e-05 8.7525215e-05 -1.3256312e-07
000080 8f 2a 90 37 91 29 02 38 f1 d6 73 b6 ad 0a 01 b9
       1.7185956e-05 3.1033127e-05 -3.6334934e-06 -0.00012306376
000090 d6 00 a7 37 5f 92 90 37 31 bf 2d b9 5a a6 5e b8
       1.990834e-05 1.7234297e-05 -0.0001656979 -5.308385e-05
0000a0 d2 2f f7 b3 40 46 fe b7 99 cc 53 38 7e 3f 81 38
       -1.1510532e-07 -3.0311872e-05 5.0496867e-05 6.163026e-05
0000b0 c3 72 01 38 0d 36 bb 37 a6 73 bb 37 5e 9e c2 b8
       3.0862877e-05 2.2317307e-05 2.234599e-05 -9.280139e-05
0000c0 af d3 c5 36 d2 2f f7 b3 1c f3 10 b8 bc e9 c7 37
       5.8957007e-06 -1.1510532e-07 -3.455869e-05 2.383149e-05
0000d0 48 30 0d 38 bd ff cc 38 73 ee dc 37 9f 4f 86 37
       3.3661985e-05 9.775113e-05 2.633708e-05 1.6011121e-05
0000e0 15 88 8e 38 0a d2 ed b7 f3 ae 22 34 6a 43 7a b8
       6.796435e-05 -2.8350409e-05 1.5151072e-07 -5.966743e-05
0000f0 4d 0c 0e 39 71 d3 8b b8 a2 87 f1 b7 f6 c3 f1 37
       0.00013546758 -6.6674205e-05 -2.8792598e-05 2.882069e-05
000100 7c c0 b1 37 00 c5 12 38 ee 5d 85 b6 f3 ae 22 34
       2.1189677e-05 3.4992583e-05 -3.9746437e-06 1.5151072e-07
000110 74 60 61 b4 71 a4 32 b8 3c 7a 49 36 87 94 1f 38
       -2.0989847e-07 -4.2591655e-05 3.0022484e-06 3.804688e-05
000120 c4 d8 93 38 bf e4 9c 38 d3 f2 a7 37 bb 0c 64 b8
       7.049882e-05 7.481267e-05 2.0021025e-05 -5.4371292e-05
000130 24 8b 30 34 e3 fa 89 35 c4 35 05 39 21 26 c8 b8
       1.6441896e-07 1.0280313e-06 0.00012703898 -9.543845e-05
000140 b5 79 ff 37 ab 9b 9e 38 4e 47 17 39 95 d5 a8 38
       3.0455043e-05 7.5630225e-05 0.00014427045 8.050647e-05
000150 f2 6d b4 b8 24 8b 30 34 dc a6 dd 38 3e 4d 85 37
       -8.603548e-05 1.6441896e-07 0.00010569181 1.5890804e-05
000160 d3 fb b7 38 06 a7 46 b8 4a 67 43 37 bf 32 17 b8
       8.773026e-05 -4.736243e-05 1.1646955e-05 -3.6048466e-05
000170 ad 67 0e 37 4b a5 28 38 e9 e9 3e 35 3f b3 3b b8
       8.4879985e-06 4.0208262e-05 7.11209e-07 -4.475121e-05
000180 f8 9c a7 b8 d0 5c ab 38 b4 dd ed 35 99 57 53 37
       -7.992418e-05 8.171203e-05 1.77224e-06 1.25969755e-05
000190 61 28 f1 b7 80 a7 c2 37 fe 57 ab 38 e9 e9 3e 35
       -2.8748242e-05 2.32046e-05 8.170305e-05 7.11209e-07
0001a0 e2 4b 14 38 24 62 ac b8 0d cd c8 b7 02 b3 2e 38
       3.535662e-05 -8.219879e-05 -2.3937342e-05 4.1651547e-05
0001b0 c1 2f 7e b7 77 0c 4c b9 d5 7d bc b7 eb 74 73 39
       -1.5150698e-05 -0.000194596 -2.2469942e-05 0.00023217841
0001c0 ed 30 fd 34 c1 38 31 38 8b d1 b8 38 b3 6b 67 37
       4.716052e-07 4.2252945e-05 8.812834e-05 1.3793749e-05
0001d0 0a 6b 80 b9 4a d0 3f b8 e6 c1 96 b9 1c f7 02 b9
       -0.00024493813 -4.5731933e-05 -0.00028754695 -0.00012489822
0001e0 7f f7 46 38 ed 30 fd 34 fa b7 16 39 16 fc 91 37
       4.7437377e-05 4.716052e-07 0.00014373651 1.7402734e-05
0001f0 25 bb 82 b8 63 6f de b8 15 26 04 39 31 f8 6e 39
       -6.2337414e-05 -0.00010606532 0.00012602688 0.00022789907
000200 fe 86 9b b8 15 24 95 b9 69 7e f3 33 a1 3b b2 b8
       -7.41612e-05 -0.00028446378 1.1338563e-07 -8.498808e-05
000210 14 9a 02 39 7c 08 07 38 73 e9 31 37 82 b2 ec 38
       0.00012455165 3.219441e-05 1.0604376e-05 0.000112866066
000220 a1 1f b6 39 d1 a1 5b 39 f0 bc 90 38 69 7e f3 33
       0.0003473731 0.00020945749 6.9016474e-05 1.1338563e-07
000230 ca 35 3d 38 0f 6d 01 b9 f5 a0 f3 36 27 bf 09 38
       4.5111206e-05 -0.00012343026 7.260702e-06 3.284137e-05
000240 e4 cb 52 b8 95 e7 3d b8 56 b5 c8 38 c6 60 3e b7
       -5.025779e-05 -4.527679e-05 9.5705196e-05 -1.1347414e-05
000250 31 f1 65 b4 52 fb 27 b7 22 82 9a 38 85 81 3f b9
       -2.1415032e-07 -1.0012491e-05 7.367531e-05 -0.00018263429
000260 59 0d 97 37 0c b6 51 b8 4e 62 2e b8 e8 ef 89 b7
       1.8006818e-05 -4.9999027e-05 -4.1576386e-05 -1.6443388e-05
000270 cb df 8b 37 31 f1 65 b4 d9 4c 08 38 92 94 a9 36
       1.6674303e-05 -2.1415032e-07 3.2496497e-05 5.0538883e-06
000280 e0 72 0d b6 e9 50 01 38 ff b6 b4 37 23 08 28 38
       -2.1077503e-06 3.083135e-05 2.1542886e-05 4.00619e-05
000290 c9 02 90 b7 fd 2b 35 38 f0 bf 17 b5 81 db a2 38
       -1.7167435e-05 4.319473e-05 -5.653119e-07 7.765648e-05
0002a0 33 11 8a b8 39 7a a6 b8 da 03 42 39 ce df d1 36
       -6.5835564e-05 -7.9382626e-05 0.00018502717 6.2547397e-06
0002b0 66 99 a1 38 53 da a0 b8 26 49 05 b7 f0 bf 17 b5
       7.705651e-05 -7.6700606e-05 -7.944449e-06 -5.653119e-07
0002c0 d0 31 24 b9 92 76 02 39 26 d8 98 b7 7c cf 20 39
       -0.00015658815 0.00012441937 -1.8220464e-05 0.00015336083
0002d0 1c fb 4e 38 aa ce a8 38 72 37 57 b8 e8 fa 3c b7
       4.934809e-05 8.0493584e-05 -5.1311632e-05 -1.1264092e-05
0002e0 bd 9b 3b 35 b6 5d 72 b8 a6 ac 25 b9 ac 43 17 39
       6.988956e-07 -5.778457e-05 -0.00015799943 0.00014425692
0002f0 9e c2 10 b7 47 36 37 38 db ba cb 38 6e 85 a4 38
       -8.628382e-06 4.368115e-05 9.714599e-05 7.8449826e-05
000300 20 b0 8b 38 bd 9b 3b 35 14 7e 9a 38 16 6f cf b8
       6.660842e-05 6.988956e-07 7.366776e-05 -9.8912205e-05
000310 63 1b 0e 38 5f 80 a5 36 12 ef 34 b8 4b d8 50 b8
       3.3880944e-05 4.9323276e-06 -4.3137996e-05 -4.9792503e-05
000320 b3 e5 4e 38 05 e4 22 38 94 ad 11 33 2d 62 cd b7
       4.932815e-05 3.883617e-05 3.391831e-08 -2.4483621e-05
000330 bb 94 b2 38 f2 24 3b b9 0a ab b3 38 3e 97 85 b8
       8.5154046e-05 -0.00017847473 8.567244e-05 -6.370105e-05
000340 34 ce f2 b7 17 98 6c b8 e6 96 38 39 94 ad 11 33
       -2.8944669e-05 -5.640843e-05 0.00017603821 3.391831e-08
000350 c6 c1 85 b9 79 2d 8d 38 7f 36 3b 37 3c ae 27 39
       -0.0002551211 6.731874e-05 1.1158757e-05 0.00015991268
000360 18 3e 21 38 ac f8 83 38 7e 97 28 b7 a0 85 6a b7
       3.844322e-05 6.2928855e-05 -1.0048852e-05 -1.3978599e-05
000370 43 e7 ab b4 46 f1 03 b8 e3 40 97 38 2a d2 e4 36
       -3.2019497e-07 -3.1457537e-05 7.212327e-05 6.819396e-06
000380 20 c3 e1 37 d9 f6 c7 37 2d fe c2 38 98 2e 8c 37
       2.6912952e-05 2.3837596e-05 9.297985e-05 1.6710997e-05
000390 85 d7 65 b8 43 e7 ab b4 1b 5e 56 38 e4 0b 63 b7
       -5.4798573e-05 -3.2019497e-07 5.110922e-05 -1.3533023e-05
0003a0 03 7e 5c 38 f7 a9 f9 b7 32 d4 7a b8 aa 5f 87 b7
       5.2569445e-05 -2.976226e-05 -5.9802267e-05 -1.6137801e-05
0003b0 14 ef 6a b8 f3 21 f0 b7 cc 73 cc 34 f0 a4 96 b8
       -5.6012606e-05 -2.8626038e-05 3.8082214e-07 -7.1832794e-05
0003c0 f3 8b ba b8 8a 9e ad b8 c4 cb 12 38 84 77 49 b8
       -8.895239e-05 -8.278813e-05 3.4998884e-05 -4.8033442e-05
0003d0 d9 b0 d7 b7 e2 29 04 36 5d c8 40 39 cc 73 cc 34
       -2.5712348e-05 1.9693912e-06 0.00018385188 3.8082214e-07
0003e0 56 3f 15 b8 be a6 b5 b8 a4 d0 02 b8 df 72 9e 37
       -3.5583354e-05 -8.661811e-05 -3.1188727e-05 1.8888559e-05
0003f0 97 16 32 b6 9c f7 e9 38 03 40 e5 37 83 6d 7b b8
       -2.6537216e-06 0.000111564266 2.7328735e-05 -5.9945054e-05
