Assets/ML-Agents/results/RL_BASIC_1/RL_Basic/RL_Basic-42435.onnx (onnx, 86961 bytes, 11 tensors)

network_body.observation_encoder.processors.0.normalizer.running_mean f4 [18]
000000 c8 f5 e5 bf ff ce 00 bc 21 ab 78 bd b6 d5 11 3c
       -1.7965631 -0.007861852 -0.060710076 0.00890105
000010 b6 49 a5 42 93 ab 24 3f 01 63 24 3f 6d 31 ca 3f
       82.64397 0.643243 0.6421357 1.5796334
000020 d1 69 1e 40 48 eb 47 c0 cb bf 76 be b0 68 37 3d
       2.4752085 -3.1237354 -0.240966 0.044777572
000030 b0 5c 83 bd ce fe c7 42 91 df a4 3e ed 82 d3 3e
       -0.06414163 99.997665 0.32201818 0.41310826
000040 ec 1c 4d 3f 15 77 da 3f
       0.80122256 1.7067591

network_body._body_endoder.seq_layers.0.weight f4 [128, 18]
000000 6b 0c 50 be d2 16 54 be 37 85 88 be 5d 68 11 3e
       -0.20317237 -0.2071183 -0.26664135 0.14199968
000010 64 0e 15 be 41 eb 67 bd 51 25 13 be c3 bd ce bd
       -0.14556271 -0.05662084 -0.14369704 -0.10094788
000020 29 ff 1f bf 4d 4f 42 3d d0 12 f1 3c b2 2a c6 3e
       -0.6249872 0.04743891 0.029427916 0.3870445
000030 0c 8a 85 3e af d9 15 be 61 f1 33 3e bf 44 27 3e
       0.26081884 -0.14633821 0.17572547 0.16334818
000040 e5 b0 38 3e 9e 03 aa bd 66 0d c5 3d 7d ad af 3e
       0.1803623 -0.08301471 0.09621696 0.3431205
000050 69 75 29 3d 6a 75 55 be 6d 70 ab 3d 06 11 a4 be
       0.041371737 -0.20845571 0.08371053 -0.32044238
000060 c4 5e 44 3e b1 ba 11 be aa a6 ab 3d 68 7a d0 bc
       0.19176775 -0.14231373 0.08381398 -0.025448993
000070 4f e5 a0 3b 6f 55 e3 3e ed f0 ed 3a b5 43 89 3e
       0.004910148 0.44401118 0.0018153467 0.2680947
000080 d9 92 b5 bc c8 3d 7e bd 8d 5f 28 bc 25 85 31 3d
       -0.022164749 -0.062070638 -0.010276687 0.043339867
000090 d1 62 cc be 0a 8e 45 3e c3 36 0a 3b 2a 75 ad 3d
       -0.3991914 0.19292465 0.002108977 0.08469613
0000a0 01 e5 d4 bc a6 f6 fe 3d c1 43 85 be bb b5 75 bc
       -0.025988104 0.12449388 -0.26028255 -0.014996941
0000b0 3b b6 f3 be a1 64 f5 3e 04 c8 b3 3b 35 3b 94 3e
       -0.47599968 0.47928336 0.00548649 0.2895142
0000c0 a4 87 92 3e e7 61 28 bf 9f 94 76 bd f7 3b 89 3e
       0.2861911 -0.6577439 -0.06020033 0.26803562
0000d0 08 bd 3e 3e 1d 2c b2 3d e4 6f 6c 3e ba 69 73 bd
       0.18626797 0.0869982 0.23089558 -0.059427
0000e0 81 ac 62 bd 9f 45 f8 be f2 54 69 be 06 3e 08 be
       -0.055340294 -0.48490617 -0.2278631 -0.1330491
0000f0 e7 2b 83 be 1a 44 98 3d 18 38 cf 3d 4e 9f b5 3c
       -0.25619432 0.07434864 0.10118121 0.022170689
000100 04 a9 5a 3e b1 a9 b4 bd e0 d2 8e 3e 1a 1e 71 3c
       0.21353537 -0.088214286 0.2789526 0.014716649
000110 7a 71 14 bd 0b 30 a7 3d 33 6c 1f be ba b3 ef bd
       -0.036241032 0.0816346 -0.15568618 -0.11704202
000120 32 1d 6f 3d 0c e7 c7 be 50 75 95 3e d5 a3 47 bb
       0.058377452 -0.39043462 0.29191065 -0.0030462642
000130 21 54 0e 3e 00 91 cf 3d 8a 7e 23 3f 75 78 58 3e
       0.1389928 0.101350784 0.6386496 0.211397
000140 e6 79 7a 3d 77 db b0 3d f3 be aa 3d 50 5b e8 3d
       0.061151408 0.086356096 0.08337202 0.113455415
000150 35 e5 0e be 6f b7 06 bf 82 ab b4 3e 97 02 a3 bd
       -0.13954623 -0.5262365 0.352871 -0.07959478
000160 a8 60 6b 3d a0 39 c1 3c 03 0d 20 3e 2d 18 ba 3d
       0.057465225 0.023587048 0.15629964 0.090866424
000170 9a 1c e8 bd a0 d0 67 3f bb a1 a8 bd b5 35 1c 3e
       -0.1133358 0.9055271 -0.08233973 0.15254863
000180 eb be ac bd 73 24 44 bd 32 7a a2 3e 44 fd 21 3d
       -0.08434852 -0.047886323 0.31733853 0.039548174
000190 2d 2b ff 3c 33 e5 54 be 42 96 2d 3e 11 93 29 3e
       0.031148518 -0.20790558 0.1695185 0.16560008
0001a0 25 57 ab 3c 08 06 90 3d e9 b4 41 bd d9 52 dc 3b
       0.020915577 0.070324 -0.04729167 0.0067237434
0001b0 45 78 6c be 88 f6 32 3d a2 9d 59 3e 12 e5 12 3e
       -0.23092754 0.04369214 0.21251538 0.14345196
0001c0 af 3a 07 be 79 6c 9e bb 99 bc 21 be 86 d3 ed bd
       -0.1320598 -0.0048347083 -0.157946 -0.116126105
0001d0 4b ca 8f bd fc ec 27 3e 0e d3 4d bd 63 53 ab be
       -0.07021006 0.16398996 -0.050250106 -0.33462057
0001e0 28 1c 65 3d 1d df b0 3d 7c 92 f8 3c 19 49 cc bd
       0.055935055 0.086363055 0.030343287 -0.0997488
0001f0 78 62 ec be ee ce c0 3e 9e 34 b7 3e 39 69 cb be
       -0.46168876 0.37657875 0.3578233 -0.39728716
000200 d9 ff 80 bd 2e 3a aa 3e e4 00 da be 45 ab c3 bd
       -0.06298799 0.33247513 -0.42578804 -0.095541514
000210 a7 0f 36 3d 10 c0 51 3d 38 8f 28 be 16 a6 23 bf
       0.04444852 0.051208556 -0.16460884 -0.639253
000220 f8 3d dc be bd cd 2c bf 9f 43 0a be d1 04 45 3c
       -0.43016028 -0.6750143 -0.13502358 0.012025074
000230 68 cc 1a 3e 3f 50 17 3d f2 5d cc 3c a2 d0 1a 3d
       0.15117037 0.036941763 0.02494714 0.037796624
000240 e1 f1 67 3e b1 5b 64 3e c3 eb 2e 3d 9e fa 1d 3d
       0.22650863 0.22300602 0.04270531 0.038569085
000250 ba 8f ae 3e 15 53 10 be 29 80 9e be 55 0c 03 bd
       0.3409403 -0.14094193 -0.30957153 -0.031994183
000260 d6 3a 07 3e 68 18 26 be de f1 cd 3e c0 33 ee 3c
       0.13206038 -0.16220248 0.40223593 0.02907741
000270 46 1a 18 bc 87 3e 97 3d 37 50 c0 3d df a2 14 3e
       -0.009283608 0.07384973 0.093903 0.14515255
000280 20 bd 98 be ca ca 8d 3e 58 6b c0 be 67 a6 b3 3d
       -0.2983179 0.27693778 -0.37581897 0.08771973
000290 ce c5 68 3e 81 86 a0 3e 1a e9 f0 3d fd a2 c2 be
       0.22731707 0.31352618 0.117632106 -0.38014975
0002a0 c6 05 8d be 1f 7c 15 be 69 2f 6b 3d de 46 96 3e
       -0.27543467 -0.1459813 0.05741826 0.29350942
0002b0 da 4b 18 3e e0 9a 79 be db 55 34 be f5 19 bc 3c
       0.14872685 -0.24375486 -0.17610876 0.022961596
0002c0 27 5d 6b 3d 88 de 07 3e f5 d1 c2 be a4 1a 08 be
       0.057461884 0.13268483 -0.3805081 -0.13291413
0002d0 b1 86 af bd 6f e9 bc 3e f5 d1 c6 3e 4b 0d 94 3d
       -0.08570612 0.36896846 0.3883206 0.07229098
0002e0 e6 ea d6 3d ca 33 f1 bd 32 d1 62 be bf 88 a8 3e
       0.10494022 -0.11777456 -0.22150114 0.3291683
0002f0 a7 1c d2 3e 0f 52 fe bd ac e4 39 3c 41 96 04 3e
       0.41037485 -0.12417995 0.0113460235 0.12947942
000300 80 0a 13 be 74 e1 21 3d 35 47 c6 bd 5f 32 88 3e
       -0.14359474 0.03952165 -0.096815504 0.2660093
000310 c9 30 3a be fe c4 1c 3d e4 ad 08 3e 08 2f da be
       -0.18182673 0.038273804 0.13347584 -0.42614007
000320 88 ed 9a be ba 7a ca 3c c4 09 48 3e a7 c4 68 3e
       -0.30259347 0.024716724 0.19534975 0.22731267
000330 6d 1b b8 be 6f ab aa 3c f5 15 7a 3e 2e 46 06 3e
       -0.35958424 0.020833699 0.24422438 0.13112709
000340 fe ea 3b 3f c0 e6 5c be 5c 84 91 3e ad 2f 78 bd
       0.73405445 -0.21572399 0.28421295 -0.060592342
000350 e7 97 89 3e 03 b9 6f 3e 48 0a 92 be c9 d4 2e 3c
       0.26873705 0.2341042 -0.2852347 0.010670849
000360 8c 27 7a bc a3 50 29 3e 0d 9d 47 3d ce d6 9d 3c
       -0.015268218 0.16534667 0.04873376 0.019267466
000370 c3 ef b4 3d e1 7f 70 be 27 8f 72 be 4e 8d e6 3e
       0.088347934 -0.23486282 -0.23687421 0.45029682
000380 ee d7 a9 be d2 ac 98 3e f5 e8 96 be a7 71 4c be
       -0.33172554 0.2981935 -0.29474607 -0.1996523
000390 e9 aa e1 be b0 7a 03 3e c1 7d c7 3e 72 4c 95 be
       -0.44075707 0.1283977 0.3896313 -0.29159886
0003a0 73 23 1c 3e 1c 59 81 3e ed e3 a9 be d6 1c 57 3e
       0.15247898 0.25263298 -0.33181706 0.21007094
0003b0 82 97 fb bd 22 29 0f bd 0e ab 0b be 9c d0 b5 3e
       -0.12284757 -0.034951337 -0.13639471 0.3551072
0003c0 42 b8 00 bd 3b 82 05 3e 08 53 ba 3d e1 59 78 bd
       -0.031425722 0.1303796 0.09097868 -0.06063259
0003d0 1c ef a5 bd 03 76 64 3e 8f 9b 5a 3e 8a c4 24 3d
       -0.08102247 0.22310643 0.21348403 0.040226497
0003e0 ea 68 b7 3e c1 02 10 be 18 c3 a1 3e ca 90 11 be
       0.3582223 -0.1406355 0.31594157 -0.14215389
0003f0 11 ac 07 3e 3d ee 94 be 02 6d 47 be 0e 21 cd 3e
       0.13249232 -0.2908801 -0.19475177 0.4006428

network_body._body_endoder.seq_layers.0.bias f4 [128]
000000 c4 ab 2f bb 2d e4 45 3b b8 06 d1 ba d5 de 04 3c
       -0.002680526 0.0030195818 -0.0015947437 0.008109768
000010 b6 59 96 3c 96 71 aa bb 07 65 ab 3b f4 5c dc 3a
       0.018353324 -0.005201529 0.0052305493 0.001681237
000020 23 e9 93 3b bd 65 33 bc d5 9c e2 3b ce 90 9a 3b
       0.004513876 -0.010949549 0.0069156685 0.004716969
000030 0c 29 a2 3a 6e f3 fe ba 77 b0 f4 3b b3 21 86 3b
       0.0012371852 -0.001945121 0.0074673253 0.0040933727
000040 c4 34 bd b8 63 9f 9f bb 14 43 50 3b dd df ac 3b
       -9.022051e-05 -0.0048712953 0.0031778263 0.00527571
000050 fa a1 a8 bb 00 cc d2 3b 60 72 a1 3b 07 ae 56 3c
       -0.0051462622 0.00643301 0.0049269646 0.013103015
000060 2c cd 46 ba 8d fd ab bb ec c2 98 39 1f ad 1a 3c
       -0.00075836736 -0.0052487315 0.00029136927 0.009440689
000070 8e 75 9f 3b 9d fa fd 3b 35 d7 a7 3c c1 76 2d bb
       0.0048663085 0.0077508227 0.02048836 -0.0026468488
000080 a6 f6 32 3b 2c 7d 4e bb 6d 26 38 3c 79 64 0c bc
       0.0027307658 -0.0031507714 0.01123963 -0.008568876
000090 bf d7 4d 3c 67 26 46 3c 98 e2 82 3c ac 85 60 3c
       0.012563645 0.012094117 0.015977189 0.013703745
0000a0 e3 1b c8 bb f2 62 17 bc be d3 e5 3b 8c ea ab 3b
       -0.00610684 -0.009239899 0.007013767 0.005246466
0000b0 10 bb 19 3c 78 80 46 3c dd c9 a4 3b 5b d8 b3 bb
       0.009382978 0.01211559 0.005028947 -0.005488438
0000c0 6f 6a a9 bb 42 1e 08 ba 26 ab 2a bb 4e 3f 7c bb
       -0.0051701586 -0.0005192497 -0.0026041954 -0.003848988
0000d0 92 f2 57 bb 70 61 92 3b 7f a5 20 ba 2d 3d f5 3b
       -0.003295098 0.004467182 -0.00061281765 0.0074840994
0000e0 56 8b 01 bb bd b5 c8 bb e6 71 ae 3a ba 2e 09 3c
       -0.0019766889 -0.0061251805 0.0013309091 0.008372957
0000f0 16 4d bf 3b 9d 8a bd 3b 66 36 30 bc 4a ce 0b 3a
       0.005838047 0.0057843463 -0.010755157 0.00053331687
000100 bc ec da 3b 18 3d 5a ba 70 35 4c bb 56 12 93 3c
       0.006681053 -0.0008325144 -0.003115978 0.01795308
000110 f7 0f 0d bc 3b 3a 52 3a 44 6c 03 3b 03 99 3d b9
       -0.008609763 0.0008019541 0.0020053545 -0.00018081446
000120 2a de 27 3b 05 ec 31 3b c0 38 73 ba 35 aa a4 3b
       0.0025614598 0.0027148735 -0.0009278171 0.005025173
000130 00 1e 6d 3b d3 30 62 3c 14 e8 b6 3b 1b f8 c6 ba
       0.0036181211 0.013805586 0.005581865 -0.0015180142
000140 bc 2c ff 3a 76 90 92 3c f2 71 27 bc 2c 5e e8 3a
       0.0019468288 0.01789115 -0.010220038 0.0017728261
000150 13 2c 31 bc 4f cd 3e 3c 2c 16 9a 3a b4 58 4d 3b
       -0.010813731 0.011645629 0.0011755875 0.0031333389
000160 e1 bb dc 3a 24 ba bf 3b 66 1c b4 3b 4f 6f ed 39
       0.001684066 0.005851047 0.0054965494 0.00045287094
000170 3d 86 bc bb 4f b0 be 39 92 e8 d9 3b 68 22 08 ba
       -0.005753307 0.00036370984 0.006650039 -0.0005193115
000180 f3 5e d5 3b 66 0c 3c 3c 57 f6 a6 b8 a6 4b eb bb
       0.006511563 0.011477565 -7.961381e-05 -0.007180649
000190 66 a8 98 ba 24 43 de 39 09 f3 17 3a 06 a7 3a 3c
       -0.0011646866 0.00042393163 0.0005796408 0.011392361
0001a0 43 56 7b bc 5e 98 37 3b 56 3d 0b 3c 3e fc f8 3b
       -0.015340391 0.0028014402 0.00849851 0.007598429
0001b0 c2 46 a4 bb d4 fc 5a 3b e2 0f d0 3b d6 ae 5c 3a
       -0.005013318 0.0033414857 0.0063495496 0.00084183866
0001c0 1e 68 fe 3a 51 f1 76 bb a6 19 31 bb 81 4e 5b bb
       0.0019409691 -0.0037680457 -0.0027023344 -0.003346354
0001d0 fb 36 21 3c 62 a4 de 3b 13 0b 2a 3b 21 76 77 bc
       0.0098397685 0.0067944983 0.0025946542 -0.015103848
0001e0 bb 93 1d 3c 9e 74 0a 3c 2d bf 02 bc 34 80 e4 bb
       0.009617741 0.008450655 -0.00798015 -0.006973291
0001f0 38 04 e4 ba b2 c6 a6 3b ea 36 4c ba 00 ef a2 3b
       -0.0017396277 0.0050896043 -0.0007790165 0.0049723387

network_body._body_endoder.seq_layers.2.weight f4 [128, 128]
000000 4f b1 56 bd a7 d9 ad bd dd 5f 28 be fa 96 b4 3d
       -0.05241519 -0.084887795 -0.16442819 0.08817859
000010 a1 eb b4 bd 2a 17 6d bd 68 b8 a4 3c 30 bf 19 3c
       -0.08834005 -0.05788342 0.020107463 0.009383962
000020 b7 bf b9 bc 7a d7 62 bd 1f 3b 07 bd 29 fa b6 3d
       -0.022674425 -0.055381276 -0.033015367 0.08934433
000030 b1 58 40 3e ba 02 60 3c 69 91 b2 3b a9 55 aa bd
       0.18783833 0.013672525 0.005449463 -0.0831712
000040 99 e7 1a 3d 2d 02 03 be 5b 72 d6 bd d6 26 45 3e
       0.037818525 -0.12793799 -0.1047103 0.19253096
000050 27 74 35 bd 9e d2 30 be ed f7 1a be ea 0d c0 bc
       -0.044300225 -0.17267844 -0.15133639 -0.023444135
000060 78 7e 9b 3a 60 11 29 3c 5d 6d 08 bc a0 f1 56 3d
       0.0011863252 0.010319084 -0.0083268555 0.052476525
000070 2a a2 36 bd 07 cb c2 3d 1d 76 06 bd 52 ab 99 3d
       -0.044588245 0.09511381 -0.032827485 0.0750338
000080 05 71 eb bb ad 46 c0 3c 82 3e 38 bd 06 4d e8 bd
       -0.007185104 0.0234712 -0.044981487 -0.11342816
000090 bc 84 ee bd 5f 86 11 3c 93 84 13 bb fb 39 2a 3e
       -0.11646411 0.008882134 -0.002250944 0.1662368
0000a0 68 68 a0 3a 79 a4 21 be cf ba aa 3d 24 b5 ae 3c
       0.0012238147 -0.15785398 0.08336412 0.021326609
0000b0 0b f3 bb 3d 51 21 88 3d 2d b0 33 bd d7 d6 09 be
       0.09177216 0.066469796 -0.043869186 -0.13460861
0000c0 00 59 82 bc a7 e1 f7 3c f0 55 01 3e 93 57 49 3e
       -0.01591158 0.030258967 0.12630439 0.19662313
0000d0 4b 0f c2 3d ee c1 0e bd 33 73 e9 bc ff 20 7d bd
       0.09475573 -0.034852915 -0.028497314 -0.061799046
0000e0 df e5 62 3d ac 3a 17 be 49 5d 84 bd bc 70 d5 bd
       0.055395003 -0.14768475 -0.06463105 -0.10421893
0000f0 4a 22 9a 3b 67 8a 24 be da f4 ba 3d 62 57 a0 bd
       0.0047037946 -0.16068421 0.09128733 -0.07829167
000100 fc 6b 70 3d c0 f1 da 3d e6 0f 94 3c 4c 0b 5c 3e
       0.058696732 0.106906414 0.018073987 0.21488684
000110 8f 98 10 bd 48 d5 ae bd a4 75 ac bc b9 64 04 3e
       -0.03530174 -0.08536774 -0.02105219 0.12929048
000120 8d 01 94 3d 7f 09 19 3e b9 f9 cd 3d 6f 28 d6 bb
       0.07226858 0.14945029 0.100573964 -0.006535582
000130 31 16 66 bd 0b e9 5e ba 7d 1e a0 bc 2a 3f 57 bc
       -0.056173507 -0.0008503354 -0.019545788 -0.013137618
000140 5a 2c bb bc 12 38 5d 3c f1 61 fa 3d e0 7e e8 bd
       -0.022848297 0.013502138 0.12225712 -0.113523245
000150 dc 9b 33 bd 64 bc 17 3e 6a f9 25 3d 7a c7 9d bd
       -0.04384981 0.14817959 0.040521063 -0.07704063
000160 cd 8a 97 bd 3f 9e 4a be 98 2f 03 bd 08 85 8d bd
       -0.07399521 -0.19786929 -0.03202781 -0.06910139
000170 cb 89 df 3c 47 ed d4 3c 96 da d9 bc 6b 10 4c bd
       0.027287384 0.025992049 -0.026593488 -0.049820345
000180 bb 70 7e be a0 65 5e bd 59 58 0a 3d 3e 71 bd bd
       -0.24847691 -0.054296136 0.03377566 -0.09250115
000190 40 3e 68 3c 8f 90 ed 3d 27 a1 12 be 4e 85 b0 bd
       0.014174998 0.11599838 -0.14319287 -0.08619176
0001a0 94 89 56 bd bc 58 6e 3d b6 8e 0c bd 72 c7 c0 bc
       -0.0523773 0.058190092 -0.034315787 -0.023532603
0001b0 f8 9c 91 bc 6a 2e a1 3d bf ac f3 bd c7 d0 b3 bd
       -0.017775044 0.07870181 -0.11898183 -0.087800555
0001c0 a8 ef 42 3b 5d ff 2e be e6 8b 06 3d 3d ae f1 ba
       0.0029744897 -0.17089601 0.03284826 -0.0018438768
0001d0 94 4a 26 bd 7a c8 ca bc 21 d8 13 3c a1 bb b4 3c
       -0.040598467 -0.024753798 0.009023697 0.022062125
0001e0 b5 55 83 bb 1b 6a 9a 3d 16 f6 c8 ba bd 76 15 bd
       -0.00400802 0.07539769 -0.0015332128 -0.03649019
0001f0 b1 9e 0d be 82 d2 1c 3d a5 16 20 bd 52 f9 12 3c
       -0.13830067 0.038286693 -0.039084096 0.008970575
000200 8f 9e 3e 3c 73 ba bd 3d f4 e6 62 3c 99 f6 b6 3c
       0.011634483 0.09264078 0.013849009 0.022334384
000210 58 30 6c 3d cf 2d 31 bd 5f 01 5a 3e c6 b7 2e 3d
       0.05766329 -0.043256577 0.21289586 0.04265573
000220 37 3c bf 3b cc 63 80 3d 8f 4c e5 3d c9 1b 88 bc
       0.0058360356 0.06269035 0.11196243 -0.016614811
000230 92 f7 01 3d 81 85 b7 3d 63 7f f3 3d 5f b4 05 be
       0.031730242 0.08961011 0.118895315 -0.13057087
000240 31 90 7a 3d 6a 6e 0e bd 2e ec a2 3b 13 5a 0e be
       0.061172668 -0.034773268 0.0049720025 -0.13901548
000250 09 8b bc bb 8e 3e 6a 3d 9c 6a 04 bd 57 ba f5 bd
       -0.005753879 0.057188563 -0.032328233 -0.11998432
000260 f0 e6 e5 bc 63 30 b5 bd cc cb 70 bc da 5d 3d 3c
       -0.028064221 -0.0884712 -0.014697026 0.0115580205
000270 f6 dc 6a bd fc 31 81 3d 47 20 e7 bd e6 22 d6 3d
       -0.05733963 0.06308362 -0.11285453 0.10455875
000280 0e 95 96 bd a2 14 c3 3d 51 52 81 3d 02 8c e4 3a
       -0.07352649 0.0952542 0.06314529 0.0017436745
000290 66 30 0f be 7f 0a 15 3c 14 19 e1 bd 92 e0 ca bd
       -0.13983306 0.009096741 -0.109911114 -0.09906115
0002a0 6c 3f 38 bd 19 16 2e bd 59 bb 8c bd cf 7e 99 3d
       -0.04498236 -0.042501543 -0.06871671 0.0749489
0002b0 ed 15 12 be d4 d7 fa bd d6 03 83 3d 1f 43 ad bd
       -0.14266177 -0.12248197 0.06397216 -0.08460068
0002c0 d2 4f b4 3d 27 69 a4 3d 83 55 c0 bd be f5 76 bd
       0.08804287 0.08027869 -0.0939131 -0.06029295
0002d0 fd 0c ca bc 64 88 a8 bd 38 ca 67 be f8 2d 62 3e
       -0.024664396 -0.082291394 -0.22635734 0.22087848
0002e0 ff 59 cd bd 8a 02 b0 bd 46 54 90 bd b6 04 01 3e
       -0.10026931 -0.08594234 -0.07047324 0.12599453
0002f0 81 a5 2c 3e fa f3 41 3d 8c f5 79 bd 8f f1 4a 3d
       0.1686001 0.047351815 -0.061025187 0.049546774
000300 dc 01 3b bd 07 ec ad bd 01 72 37 bb eb c9 c5 3c
       -0.04565607 -0.08492284 -0.0027991536 0.024144134
000310 83 d2 1f 3d 9f 02 2f 3e b9 1e 27 3e 96 83 9f bd
       0.03901912 0.17090844 0.16320314 -0.0778877
000320 ba 6f 98 3d 2c 7a 45 3c 54 e3 38 be a8 c5 10 be
       0.07443185 0.012053054 -0.18055469 -0.141379
000330 fd a2 37 3e c2 31 87 3d a7 9a 14 bd ce 36 8b bc
       0.17933269 0.066012874 -0.0362803 -0.016993906
000340 13 6f 9e 3d fa 7c 72 3d 57 82 41 3d 2a c3 82 3d
       0.077360295 0.05920122 0.047243442 0.06384881
000350 2b b9 cf bc 3c 87 b2 3d 09 f4 14 3e e4 b4 f7 3d
       -0.02535685 0.087172 0.14546217 0.12095049
000360 21 fa 16 3e 12 e3 96 bc 42 a7 d6 bb 87 ae 06 3e
       0.14743854 -0.018418822 -0.0065507004 0.13152514
000370 2f dc e0 3d da 09 30 bd e0 00 74 3c 64 4e 95 bc
       0.10979497 -0.042978145 0.014892787 -0.018225856
000380 17 b3 7b bd fb e9 35 bc 0f 1a 40 3b 4c 77 33 3e
       -0.06145009 -0.011103149 0.0029312407 0.17525977
000390 15 ea 08 3d fb fc 41 3b 2a 1c f7 bc c3 0f e2 3b
       0.033426363 0.002960025 -0.030164797 0.0068988516
0003a0 6d 0e 20 3d 73 2b 00 3d c4 6d 22 bd 40 fe 4b bb
       0.039076257 0.031291436 -0.039655462 -0.0031126887
0003b0 72 d4 28 bd b5 2f db 3b d7 6a 4c bd 17 c3 dd 3c
       -0.04121823 0.0066890367 -0.049906578 0.027070565
0003c0 9b 31 fc bd fb 54 34 be af b2 f3 3d c7 b7 a2 3c
       -0.12314149 -0.17610542 0.118993156 0.019863022
0003d0 97 af 0a be 5d 24 aa 3d 54 ac 0b 3c 65 75 fe 3d
       -0.13543545 0.08307717 0.008524973 0.12424735
0003e0 a2 12 22 3d 8e a0 4b 3d 75 2d 93 3d fa 4f 5d bd
       0.03956855 0.049713664 0.071864046 -0.05403135
0003f0 65 70 1a bd da 5b 8b 3d c8 9d 04 bd bd 58 4b be
       -0.037704844 0.06804629 -0.032377034 -0.1985807

network_body._body_endoder.seq_layers.2.bias f4 [128]
000000 70 f7 01 3c bc 01 42 ba 1c 47 7c 3c 4d 98 c8 bb
       0.007932529 -0.0007400771 0.015397813 -0.0061216713
000010 d2 6f 12 3c 6d 11 95 3c 64 e1 a9 3b bb 60 27 bc
       0.008937793 0.018196786 0.0051843394 -0.010215933
000020 a0 d6 8a 3a c9 03 77 3b 3c 58 cf bb 5c 64 fb 3a
       0.0010592528 0.0037691465 -0.006327657 0.001917969
000030 e7 a0 28 ba 8a 1d d0 bb b8 8d f2 3b e3 8c 4b 3c
       -0.0006432668 -0.0063511776 0.007402148 0.012423727
000040 15 49 35 bb 82 60 99 38 e4 35 2d 3b e0 19 b5 3b
       -0.0027661968 7.3135845e-05 0.0026429826 0.005526766
000050 8c 2e 41 3b ba db 14 3c 17 f5 58 3b 16 7f ad ba
       0.0029477207 0.00908559 0.003310507 -0.0013236727
000060 d9 9d 6a 3c fe 73 38 3c 85 38 a8 3b 8b e9 1b bb
       0.01431986 0.011258123 0.005133691 -0.0023790326
000070 45 70 09 3b 11 1c ff 3b 0c 5f d8 3b 32 72 2e 3c
       0.002097146 0.007785328 0.0066031273 0.0106473435
000080 19 a6 f9 3b 65 d9 85 ba c7 4e f6 bb 5e 24 7e 3b
       0.0076186773 -0.0010211883 -0.007516715 0.0038779
000090 1a 45 35 bb 17 c2 c8 39 06 b1 0d bb ec 98 97 bb
       -0.0027659596 0.0003829158 -0.0021620407 -0.004626384
0000a0 ef b4 af bb 3c a8 4b 3b a1 d8 84 3b 5f c7 83 b9
       -0.005362145 0.0031075617 0.0040541445 -0.0002513481
0000b0 a3 3c fc 3b 1e 22 d8 3b d5 a4 8f b8 ad 82 f9 3a
       0.007697658 0.006595864 -6.849474e-05 0.0019036137
0000c0 e6 4f bf bb ac ca 53 3c 57 07 1e 3b d6 a0 9d 3c
       -0.005838382 0.012926739 0.0024113262 0.019241732
0000d0 f4 83 08 bb 52 45 4c 3b 18 e0 41 3c 56 9d ac 3a
       -0.0020830603 0.0031169248 0.011833213 0.0013169448
0000e0 93 b3 c3 3b 29 9c 16 bb fd 9d bf bb 0f 8b aa 3c
       0.0059723346 -0.0022981262 -0.005847691 0.020818261
0000f0 e8 34 15 3c c6 92 9c 3b d9 95 37 3c 9c 12 05 ba
       0.009106852 0.004778239 0.01120516 -0.00050763204
000100 67 60 7f b9 cb 32 c6 38 fd 59 31 bb e0 89 e4 39
       -0.00024354608 9.450837e-05 -0.0027061694 0.00043590274
000110 c1 b1 6b 3a 44 a2 c2 3c dd 5a 82 bb fc de d3 3a
       0.0008991026 0.023759015 -0.003978117 0.0016164477
000120 aa 65 84 3c c3 57 0c ba c9 72 7b 3b 96 2c 87 3b
       0.016161758 -0.00053536537 0.0038367978 0.004125188
000130 ac 6c 1e bb f1 53 7e 3b 6f dc a1 3b 8e 99 0c bb
       -0.002417366 0.0038807357 0.004939608 -0.002145383
000140 1c 22 bf 3a 23 a4 55 3c 28 98 15 3c 01 49 ac bb
       0.0014582309 0.0130396215 0.009130515 -0.005257726
000150 5e 76 89 bb 6f e4 10 3c 0c b0 c1 3b 86 bf 5a 3c
       -0.0041950187 0.008843525 0.005910879 0.013351327
000160 20 15 4d 3b 1c 38 c8 3b 2b c6 08 3b 61 e5 18 3b
       0.003129311 0.0061102044 0.002087007 0.002333008
000170 ca 21 36 3b 85 89 1d 3c 60 23 18 3c 04 97 97 3c
       0.0027791136 0.009615307 0.009285778 0.018504627
000180 04 35 5d 3c 59 59 e7 3b 70 22 fc 39 f1 66 c4 bb
       0.013501409 0.0070602116 0.00048090843 -0.005993717
000190 4f ab 23 3c f2 36 9d 3b 03 d6 30 ba e7 5a 54 3b
       0.009989574 0.0047978098 -0.00067457574 0.0032402815
0001a0 3f 29 8c 3c 7a 54 10 3b 88 fe 7f bb 36 6c a2 3b
       0.017109511 0.0022023008 -0.0039061625 0.0049567474
0001b0 82 77 1c bb a0 8e da 3b 6f 41 e4 3b 1c 5e 28 3b
       -0.0023874943 0.0066698343 0.006965808 0.002569086
0001c0 26 95 9a 39 87 3d c5 bb 1e 6b 30 3b a7 5b 27 3c
       0.00029484293 -0.0060192975 0.0026919316 0.010214723
0001d0 02 7e 4c 3c 92 36 1d bb 07 8c 0e bb b3 b3 47 3c
       0.0124812145 -0.0023988825 -0.0021750943 0.01218884
0001e0 c5 d8 a6 b9 8a 9f 0c bb 51 65 d5 bb bf db f6 ba
       -0.00031823493 -0.0021457397 -0.006512322 -0.00188338
0001f0 08 18 03 bb 52 64 18 3b d3 a0 6c 3b 3a 24 54 ba
       -0.0020003337 0.0023253155 0.00361066 -0.00080925564

action_model._continuous_distribution.log_sigma f4 [1, 2]
000000 bb 29 22 3c 7f 5a 84 3b
       0.009897645 0.0040391083

action_model._continuous_distribution.mu.weight f4 [2, 128]
000000 01 17 f7 3b da ab 03 bd 6e a3 83 ba e2 37 4d 3c
       0.007540584 -0.032146312 -0.0010043213 0.0125255305
000010 0c 7d 66 3b fa c9 4b 3c 0d 6d f5 bc 7e 17 17 bc
       0.0035169749 0.012438292 -0.029959226 -0.00922191
000020 37 c1 6a 3b e8 c5 99 bc 71 09 a7 bc 10 92 bb 3c
       0.0035820731 -0.018771127 -0.020390244 0.022896796
000030 92 ec 60 3c c4 7c 98 3b d9 ed 85 bc 8a 44 51 bc
       0.013728278 0.004653545 -0.016348766 -0.012772689
000040 8a 0d 3c 3c e8 19 35 bc 9a c7 82 3c 03 d4 a6 ba
       0.011477837 -0.01105354 0.015964318 -0.0012727979
000050 04 13 8e bc ee 93 cf 3c ad 19 15 bb ac 50 80 bc
       -0.017343052 0.025339093 -0.00227509 -0.015663467
000060 7b 48 c9 3a c0 06 8d bd fa 14 5d 3a 40 41 f2 bc
       0.0015356684 -0.06886053 0.00084336067 -0.02957213
000070 fa c6 4a 3c 70 db 21 3d d3 bc 27 3c 6a 73 c7 bc
       0.012376541 0.039515913 0.01023789 -0.024347026
000080 5f 4f d9 3c db ed d6 bc f0 82 98 bc 8f 86 56 3c
       0.026527105 -0.026236465 -0.018617123 0.013093605
000090 56 03 c2 bb 77 45 fd 3a c8 d4 79 bc cc 1a f7 3a
       -0.005920808 0.001932307 -0.015248485 0.0018852591
0000a0 77 6e 43 bc ba 84 b9 3c 46 25 fe 3c dc f0 0f bd
       -0.011928192 0.022646297 0.031023633 -0.03514181
0000b0 67 e2 7e 3c bd db 7c 3c f1 23 85 3c 2a 5f 08 3c
       0.015556908 0.015433249 0.01625249 0.00832347
0000c0 ae 3e a0 bc 89 7c 35 bb 7d 01 87 3c 21 6e a6 3c
       -0.019561138 -0.0027692637 0.016480202 0.020316185
0000d0 04 85 48 bd e6 c2 a2 3c 58 43 06 bb a3 3a 88 bc
       -0.04895498 0.019868325 -0.0020486917 -0.016629523
0000e0 62 70 0f bd 06 96 5a bc f3 64 d6 ba cc 69 35 bc
       -0.035019286 -0.013341432 -0.001635699 -0.011072587
0000f0 81 fc 6e bc a1 95 a7 ba 50 2d 19 3d df fc 3f bd
       -0.014586569 -0.0012785682 0.03739673 -0.046872016
000100 ea 79 dd 3c 92 4a 1d 3c b7 2e 7d 3b 55 df 81 bb
       0.027035672 0.0096002985 0.003863258 -0.003963391
000110 a8 69 a5 3c 9f a3 81 bc bf d7 25 3d ad 1f 9e bc
       0.020191982 -0.01582509 0.040488955 -0.019302214
000120 0a 5c cb 3c 35 0c 3a 3c 89 f3 bb 3b 70 37 94 bc
       0.024824161 0.011355449 0.0057358188 -0.01809284
000130 dc 2c 96 3c f8 46 19 bc 52 26 46 3c 0e 17 87 bc
       0.018331937 -0.009355299 0.012094097 -0.016490486
000140 5f aa 8b bc d5 51 12 3c 5a a1 2e 3c 66 7f 3d ba
       -0.017049013 0.008930643 0.010658586 -0.00072287617
000150 36 06 db 3b 31 3e b8 3a d2 f5 8b 3c 5d 42 c2 bc
       0.00668409 0.001405662 0.01708499 -0.023713285
000160 44 ac 88 bc a5 4c 00 bd ca 79 c9 bb 19 40 38 bd
       -0.016683705 -0.031323094 -0.0061485516 -0.044983003
000170 71 40 5f 3c a7 d6 eb 3c b2 03 14 bd 7f 00 eb 3b
       0.013626204 0.028788878 -0.036136337 0.00717169
000180 ad 5a fd bc e5 b4 56 bc 66 73 eb bc 12 c0 be bc
       -0.030927027 -0.013104652 -0.02874155 -0.023284946
000190 4b 76 db bb 0b 08 0c 3d fe 48 1d bd c5 00 f3 bb
       -0.006697451 0.034187358 -0.03839969 -0.007415863
0001a0 42 de 58 3c 2e 4f be 3c e8 9b 2a bc bf 62 a1 bb
       0.013236584 0.023231115 -0.0104131475 -0.0049251015
0001b0 df 73 e1 bc 0d 39 e1 bb 65 3e 85 3c 52 3e 8a bc
       -0.027521072 -0.006873256 0.016265104 -0.01687542
0001c0 21 ec ae ba 3d 75 07 bc db f0 0a bc 78 94 0a bc
       -0.0013345518 -0.008267698 -0.008480276 -0.008458249
0001d0 89 8f 0a bc c2 22 5c 3c 84 3b d2 bc b6 19 25 bb
       -0.008457073 0.013436021 -0.025663145 -0.0025192327
0001e0 5c 95 0e 3c 77 af a9 bc 28 cc f1 3b 7d 40 6f 3c
       0.008702602 -0.020713551 0.0073790736 0.014602778
0001f0 04 60 cd 3c b7 4d ad bc a9 06 1a bd a7 dc 7e bd
       0.025070198 -0.021155221 -0.037604008 -0.06222215
000200 81 c4 84 3b aa 11 fc 3c b7 94 96 3c f8 ef 94 3c
       0.0040517454 0.030770142 0.01838146 0.018180832
000210 4b c2 ff bc db 9c 83 3c 38 c6 3d 3b 39 1d bb 3b
       -0.031220576 0.016066005 0.002895726 0.0057102707
000220 60 ea 1b bc 09 f3 52 bc e1 97 b7 3b 4b 69 97 bc
       -0.009516329 -0.012875327 0.005602822 -0.018482825
000230 d6 4a e5 3b 2d f5 0e 3a 76 1d d4 bc 4c 15 04 bd
       0.0069974465 0.0005453404 -0.025892954 -0.032246873
000240 3f fb 08 bd 08 d4 e1 bc ce 02 01 bc 0f f5 a1 bc
       -0.033442732 -0.027566925 -0.007874204 -0.019770173
000250 23 bc 49 3c bc a6 1a bc 1f 80 98 bc c5 8f 2e bd
       0.012312922 -0.009439167 -0.01861578 -0.042617578
000260 31 5d 8c 3c fc 8f 8c 3c df a1 f4 3c eb d5 9a bb
       0.01713428 0.0171585 0.029862342 -0.004725208
000270 00 e6 1c 3d 55 73 51 3c 7e 49 af ba 91 c5 49 bb
       0.038305283 0.012783845 -0.0013373343 -0.0030787925
000280 bc 78 49 bc 34 32 5e 3c 91 93 95 bb 5d 69 24 bb
       -0.012296852 0.013561774 -0.0045647104 -0.0025087215
000290 86 d5 86 3c db 3e 14 3d 27 df a8 3b 56 b6 0f 3c
       0.016459238 0.036192756 0.005153555 0.0087715
0002a0 c6 50 13 3c 34 14 58 bc 6f af fd bc 9a 21 60 bc
       0.008991426 -0.013188411 -0.030967442 -0.013679886
0002b0 ca f2 67 3c 7f 93 16 3c 82 b2 cd bc 08 b8 06 bc
       0.0141570065 0.009190439 -0.025109533 -0.008222587
0002c0 5b e6 bc 3b 6b 8f c6 bb b3 5e 9c 3c 6e 19 e5 3b
       0.005764765 -0.006059577 0.019088125 0.006991557
0002d0 2e 4f be bc ec 32 05 bd b6 e1 de bb 7c bd e4 bc
       -0.023231115 -0.032519266 -0.006801809 -0.027922384
0002e0 2f c6 71 bc 27 c7 7c bb b4 e2 34 bc 23 04 63 bb
       -0.014756723 -0.0038570852 -0.011040378 -0.0034639917
0002f0 25 96 0b bd e7 bd be bc 4c 94 cc bb 9d 3c 85 3c
       -0.034078736 -0.023283912 -0.0062432643 0.016264254
000300 24 ed 8f bc 77 ef cc 3c d3 8d 9a 3c 7a 63 95 3c
       -0.017569132 0.02501653 0.018866455 0.01823591
000310 e1 7a 5b 3c cb f2 37 3c c1 51 d1 3c 49 5c b0 bc
       0.013395996 0.01122732 0.025551679 -0.02152838
000320 09 33 de bb 10 ee ac bc cb e6 9c bb 3d 79 59 bc
       -0.006780986 -0.02110961 -0.004788255 -0.013273534
000330 39 a5 2f 3c 01 ba 73 3c 5c 36 e3 bc fd 67 8e 3c
       0.0107205445 0.01487589 -0.027735882 0.01738357
000340 bf 11 99 3c 40 0e 06 bc 72 7e f7 3c db 6c 53 bc
       0.01868522 -0.008182108 0.030211661 -0.012904371
000350 6d db c6 3c dd 08 de bc 7a 66 7c 3a 2a e6 96 bc
       0.024274552 -0.027103836 0.00096283073 -0.018420298
000360 79 b6 0b bd a2 27 1a 3d 91 37 83 3c bd d6 a2 3c
       -0.034109566 0.037635453 0.016017707 0.019877786
000370 ff 9e 3b 3c 84 9a 3c 3c 40 1c d7 bc c9 f9 64 bb
       0.011451482 0.011511449 -0.026258588 -0.0034938923
000380 0e 46 88 bc c1 e9 e3 bc 05 fd 5c bc bf 25 58 bb
       -0.016634967 -0.027821423 -0.013488059 -0.0032981483
000390 54 5d c6 bb e0 38 cf 3b e7 63 fa bb 5c 72 e5 bb
       -0.006053606 0.0063239187 -0.007641304 -0.007002158
0003a0 5f f6 99 bc ee 04 e9 3b ad cf 18 3a f5 cc 85 bc
       -0.018794237 0.0071111834 0.0005829286 -0.016333083
0003b0 63 f7 4d 3b 6b e1 0b 39 1c 94 1d 3b ed ca 66 3c
       0.0031427972 0.00013340048 0.002404458 0.014086467
0003c0 88 dd 83 bb 81 f3 94 3b 3e c1 35 bc 64 6b 49 bc
       -0.0040242113 0.0045456295 -0.011093436 -0.01229367
0003d0 8d e8 0b 3d 4f 66 a3 3c 4e 28 6a ba 89 8a 26 3c
       0.034157325 0.019946245 -0.00089323975 0.010164865
0003e0 ba 28 d5 3b 12 4f 58 3c 82 c4 41 3c af 1d ee 3c
       0.006505099 0.013202446 0.011826636 0.029066889
0003f0 dd 24 85 bc 8e 82 df bc e2 ed e6 3c 5b a9 97 bb
       -0.01625293 -0.027283933 0.028189603 -0.004628343

action_model._continuous_distribution.mu.bias f4 [2]
000000 4d 21 b5 38 a0 ba 08 bb
       8.636955e-05 -0.002086319

action_model._discrete_distribution.branches.0.weight f4 [4, 128]
000000 62 66 0c bd 76 60 ec 3a 67 3f 0c 3b aa 05 07 3b
       -0.034277327 0.0018034119 0.0021400095 0.0020602741
000010 1c 4f b7 b9 a6 e4 ed 3c 57 54 dc 3b 98 11 22 bb
       -0.0003496342 0.029039692 0.0067239213 -0.0024729725
000020 07 a0 9e bc 9c 00 cd bc 53 00 05 bc 75 04 9e bc
       -0.019363416 -0.025024705 -0.008117753 -0.019289235
000030 75 15 7c 3c f9 fa 40 bc 77 67 07 3d 0d 64 af 3b
       0.015385975 -0.011778587 0.033057656 0.005352503
000040 ce d8 a6 bc 60 a4 91 bc 98 13 80 3b 71 e6 1b bc
       -0.020367052 -0.017778575 0.0039085858 -0.009515391
000050 2e ba 67 3b cf a9 2a bc ef f0 c5 ba 90 5a 80 bc
       0.0035358774 -0.010416462 -0.0015101711 -0.015668184
000060 72 b7 7e bb d0 e1 64 ba ed 55 92 3c 2c 9f 02 3a
       -0.0038866666 -0.00087311585 0.017863238 0.0004982825
000070 0e cb dc 3a 05 96 cb 3c 3f 3a 2f bc fa 8d 19 3d
       0.0016845183 0.024851808 -0.010695039 0.037488915
000080 22 92 e6 3c 57 2e 39 3b 58 39 b5 bc d8 68 03 bb
       0.028145853 0.002825638 -0.02212207 -0.0020051505
000090 35 6c 0a 3c 79 ac b0 bc 87 15 b4 ba 34 df c9 bb
       0.00844865 -0.021566616 -0.0013739326 -0.006160641
0000a0 75 bb 19 3c 98 dd 4d 3b a0 04 9c 3c 31 97 10 bc
       0.009383072 0.0031412598 0.019045174 -0.008825109
0000b0 4d b2 94 3c c8 9c c4 3c 7d 87 33 3c c6 c0 4a bc
       0.018151427 0.02400054 0.010957596 -0.012375062
0000c0 5b 22 46 bb fb e0 cd 3c 2e 99 a1 bb 12 25 06 3d
       -0.003023288 0.025131693 -0.0049315905 0.032750197
0000d0 02 5a 0b 3c 2d 66 6c bc 98 ed 21 3c 84 17 08 3b
       0.008505346 -0.0144286575 0.009883307 0.002076597
0000e0 91 57 82 bc b2 d6 4b 3c 91 c7 29 bc f5 53 e4 3c
       -0.015910896 0.012441324 -0.010362522 0.027872065
0000f0 ee b9 af 3b ff ec 33 bc ac 86 fd ba d9 00 64 3c
       0.0053627407 -0.010981797 -0.0019342504 0.013916218
000100 aa 59 f2 bb d5 02 0b 3c 4b f2 c3 bc 7e b5 0f bc
       -0.0073959427 0.008484562 -0.023919245 -0.008771298
000110 8e fc 95 bc be a1 7a 3c 88 2d 1a 3b 78 0a 2d bc
       -0.018308904 0.015297351 0.0023525674 -0.010561578
000120 57 d6 90 3c b4 8e 5a 3c 8b 77 45 3c f4 24 22 3c
       0.01768033 0.013339687 0.012052427 0.009896506
000130 86 ea 03 3c 8b 50 07 3c d8 71 b1 3b fa ef 76 3c
       0.00805152 0.008258949 0.0054151826 0.015071863
000140 ec 97 b9 3c 7f 00 2b bc c2 91 38 3c a7 b6 03 3c
       0.02265545 -0.01043713 0.01126522 0.008039153
000150 dc 1c 43 3c 3a bb a9 3c 05 36 82 3c 66 f7 fa bb
       0.011908736 0.02071916 0.0158949 -0.0076588867
000160 95 c7 b5 3c f5 3e 13 3c 2e 31 e3 3c ab 21 69 3c
       0.022189895 0.008987178 0.027733412 0.0142292185
000170 ed dd 69 bc 34 ca da bc 42 e3 9b 3c 75 55 e2 bb
       -0.014274103 -0.026707746 0.019029263 -0.00690716
000180 6e f2 b3 3c 4a 51 75 bc cf 30 0c bd 1c ab f8 bc
       0.021966185 -0.014972994 -0.034226235 -0.030355029
000190 6c c0 b9 3c ae 09 05 3d 48 5f d3 ba fd f9 39 bb
       0.022674762 0.032479934 -0.0016126418 -0.0028377764
0001a0 87 06 d3 bc c8 f8 b1 bc a9 7e 14 3c 62 e3 d9 bc
       -0.025759948 -0.021725073 0.009063401 -0.026597682
0001b0 a9 12 50 bc 1d a2 e4 bb 4e f3 5a bc a6 59 e5 3b
       -0.012699761 -0.006977333 -0.013363672 0.0069992123
0001c0 d7 ef 25 bc 7a 2f 76 bb b6 80 66 bc a0 1e db 3b
       -0.010127983 -0.003756492 -0.014068773 0.0066870004
0001d0 61 11 43 3c 61 82 79 39 58 a0 03 bc 9b 22 ef 3c
       0.011905999 0.0002379506 -0.008033834 0.029191306
0001e0 40 92 e6 3b c1 aa e5 bb 1a ef 2a bb 78 ba 39 bc
       0.0070364773 -0.007008881 -0.0026082457 -0.0113359615
0001f0 d0 2a aa bb 91 d7 4a 3a 28 89 75 3c ec 66 42 bc
       -0.005193092 0.00077378104 0.014986314 -0.011865359
000200 3e 93 f2 3c f8 cd 1e 3b c6 67 f4 3b aa ed 13 3b
       0.029611226 0.0024231654 0.00745866 0.0022572079
000210 5a b6 13 bc 08 28 80 bb de 06 8c 3c 04 fc bb bb
       -0.009015644 -0.003911022 0.017093118 -0.0057368297
000220 55 64 88 3c 00 cb c4 bc ea e3 37 3c a7 93 5e 3c
       0.016649405 -0.02402258 0.011223773 0.013585008
000230 32 2e 36 bc 20 b3 23 3c a0 88 ed bc a3 6c 6b 3b
       -0.011119412 0.009991437 -0.028995812 0.0035922907
000240 2c a0 f4 3b ec 2e 94 bb ed 17 71 bc 92 0e 21 3c
       0.007465383 -0.004522195 -0.014715177 0.009830134
000250 3c e7 c6 3b cc 49 bd ba 5a e5 0d ba b0 08 9b 3b
       0.0060700458 -0.0014441549 -0.0005412899 0.0047312602
000260 5c c7 ef bc 33 d4 83 3a ef b6 7e 3c b2 e3 2d bc
       -0.029269867 0.0010057747 0.015546544 -0.010613369
000270 d5 85 83 3c 54 76 a9 bc c4 dd 97 bc 45 a7 c7 bc
       0.016055027 -0.020686306 -0.018538363 -0.024371753
000280 14 d4 87 3b 00 f0 d6 bc 6f 94 dc 3b 60 7f 14 3c
       0.0041451547 -0.026237488 0.006731562 0.009063572
000290 de 6f 03 3b 36 95 0e 3b 3c 6b b3 bc 00 b4 e4 3b
       0.0020055692 0.0021756417 -0.02190172 0.0069794655
0002a0 03 9e 92 3a 99 92 ab 3c 90 3f fb bb 0b 40 df 3b
       0.0011186007 0.020943927 -0.0076674893 0.0068130544
0002b0 48 84 63 b9 68 a2 bd bc df 02 21 3c 80 0d 14 3d
       -0.00021697686 -0.02314873 0.009827345 0.036145687
0002c0 78 d6 03 3c 85 c4 34 39 9c a1 5a bc 9c dd e2 bc
       0.008046739 0.00017239347 -0.013344195 -0.027693562
0002d0 4e 39 7d bc ca cf 1d 3b a6 c7 86 bc 8b e8 38 bc
       -0.015455557 0.002408015 -0.016452622 -0.011285911
0002e0 aa 4a 9a 3a d5 91 60 bb dc 1d 4f bc 7a 47 ab bc
       0.0011771519 -0.003426661 -0.012641396 -0.020908106
0002f0 65 db 8c bc 8f 18 74 3b c1 8a 6d bb 4f 7b b1 bb
       -0.01719446 0.0037246083 -0.0036246034 -0.005416311
000300 27 6b ab 3b 25 4a b3 bc 08 4e a1 3c 15 39 79 3c
       0.0052312794 -0.02188594 0.019690529 0.015211363
000310 f3 d9 ea 3b c0 0e 35 bc 6e b7 5d 3c e3 cb 07 3d
       0.007167095 -0.01105088 0.013532503 0.033153426
000320 92 63 49 ba fc 93 ad 3c ed 29 72 3c 16 b4 2d 3c
       -0.00076823786 0.021188729 0.014780504 0.010602018
000330 c4 dc 90 ba 7a 76 a5 bc 09 ef 1d bb a4 70 49 bc
       -0.0011052121 -0.020198096 -0.0024098775 -0.012294922
000340 31 63 9e 3c 2b 5e 9f ba 2e 28 00 3b 37 ab 11 bc
       0.019334408 -0.0012158802 0.00195552 -0.008890918
000350 f7 b6 a0 bc 44 01 8d bb b0 7c b5 bc 48 c7 16 bc
       -0.019618494 -0.0043031294 -0.022154182 -0.009202786
000360 bd 1e 0b bb ac 39 91 bb c6 88 60 3c 88 28 99 3b
       -0.0021228038 -0.004431924 0.013704484 0.004674021
000370 ea 57 82 3c 94 b2 d5 3c 2d 4c e9 bc f6 27 49 bc
       0.015911061 0.02608613 -0.028478706 -0.012277594
000380 8d 1a e7 bc f9 ad 91 3c cb 03 89 3b 4f d4 5d 3b
       -0.028210903 0.017783152 0.0041813604 0.003384847
000390 3d dc 59 bc 04 bf c6 bc 70 d7 11 bc fc c7 da bc
       -0.013297138 -0.024261005 -0.008901462 -0.026706688
0003a0 62 96 b6 bc d8 4a b3 3b e0 2f c5 3b 01 40 ae 3c
       -0.022288505 0.0054715686 0.00601767 0.021270754
0003b0 38 1c 29 3d cd 68 5f bb eb c7 61 3b af 35 6f bc
       0.041286677 -0.0034089566 0.0034451436 -0.0146002015
0003c0 e9 6b cb bc 51 41 a8 3a d1 f8 10 bc c6 4d ef bc
       -0.024831729 0.0012836849 -0.008848385 -0.02921189
0003d0 f8 dd b7 3b 98 25 d3 bc 24 0e 9e 3a d9 4e 2f 3a
       0.0056111775 -0.025774762 0.0012058658 0.00066874694
0003e0 1d b0 a0 bb 12 8f ef 3c d1 ba c8 3c d6 b8 b4 3c
       -0.004903807 0.029243026 0.024503144 0.022060793
0003f0 c3 8b d3 3b 14 4d 86 3c e3 aa 59 bc f5 3e a9 b9
       0.00645587 0.016394176 -0.0132853715 -0.00032281099

action_model._discrete_distribution.branches.0.bias f4 [4]
000000 8c 96 88 3c 98 58 4c bc 0c 6a 62 bc 1b fb 1a 3c
       0.016673349 -0.012472294 -0.013819229 0.009459282

onnx::Div_70 f4 [18]
000000 89 a7 de 40 8f 91 d3 40 64 f4 35 3f a7 65 33 3f
       6.957951 6.6115184 0.71076035 0.70076984
000010 16 99 70 41 2a 5c 52 3f d9 cc 4e 3f ac a4 dc 3f
       15.0373745 0.8217188 0.8078132 1.7237754
000020 8a ff 98 3f 7c 9b 1f 41 a3 a8 1d 41 81 2f 2a 3f
       1.1952984 9.97546 9.853671 0.66478735
000030 69 31 3e 3f 8c 8d f8 3e e4 36 2b 3f 65 77 35 3f
       0.74294144 0.48545492 0.6688063 0.70885307
000040 91 36 ba 3f 57 8a 90 3f
       1.4547902 1.1292218
