Assets/ML-Agents/results/RL_BASIC_1/RL_Basic/RL_Basic-7296.onnx (onnx, 86508 bytes, 10 tensors)

network_body.observation_encoder.processors.0.normalizer.running_mean f4 [18]
0.0 0.0 0.029236056 -0.02077885 99.98628 0.9998629 0.9998629 0.9998629
0.997533 -0.00013787701 1.3850603e-12 0.0 0.9998629 99.98628 0.9998629 0.9998629
0.9998629 0.829108
00000000: 0000 0000 0000 0000 7480 ef3c 6838 aabc
00000010: faf8 c742 04f7 7f3f 04f7 7f3f 04f7 7f3f
00000020: 535e 7f3f 1493 10b9 0eee c22b 0000 0000
00000030: 04f7 7f3f faf8 c742 04f7 7f3f 04f7 7f3f
00000040: 04f7 7f3f 6c40 543f

network_body._body_endoder.seq_layers.0.weight f4 [128, 18]
0.014988452 -0.009301524 -0.071489014 0.4065217 -0.06707704 0.1813471 0.18062659 -0.23321709
-0.1501233 0.13073352 -0.035396263 -0.1983118 -0.04533275 0.004672028 0.25175205 -0.10906349
0.4842805 0.29614735 0.18777092 -0.11363237 0.062018484 0.14690883 -0.23740283 0.13739623
-0.39261502 0.4039395 -0.042023834 0.10821901 -0.0794773 -0.2517947 -0.075202025 -0.137482
0.03945739 -0.13165648 -0.14351302 0.00027929357 -0.0024481649 -0.1232335 0.3068453 -0.004167846
0.14253247 0.06223644 0.2867333 -0.19021647 -0.35256132 0.0649097 -0.20634909 -0.16449691
-0.03238426 0.29206395 0.3414142 0.06336532 -0.23199403 -0.10326745 0.29713506 -0.15221672
0.034075625 -0.30574462 -0.4850491 0.30026308 0.16757822 0.013900872 0.15267763 0.18969096
0.37928805 -0.17859393 0.057453584 0.052150812 -0.059931736 0.14382981 -0.042751305 0.053603854
0.06426673 -0.019994134 0.097685054 -0.013493416 0.086669266 -0.27911454 -0.09355544 0.2668085
0.3914839 -0.28073213 -0.38209695 -0.035750195 -0.18762572 -0.008948526 0.06057216 -0.35303265
-0.12089158 0.33276218 -0.07230516 0.27730188 -0.3196933 -0.15960523 -0.1544731 0.08497552
0.1056793 0.1019877 0.22955589 -0.27196053 0.18472007 -0.17642242 -0.29880232 -0.078646675
-0.21644218 0.11378442 0.33839384 0.29176912 0.092260994 -0.0291376 0.23357081 0.14213085
-0.005173476 -0.26850373 -0.6625063 -0.033481527 0.13831182 0.2738569 0.1541269 -0.013020849
0.13492133 0.12976633 -0.24262516 0.30504233 0.14693338 0.0013305661 0.27223653 -0.013333028
-0.4753617 -0.15361509 0.21525441 -0.07283055 -0.13808726 0.031731945 -0.15443175 -0.060533434
-0.10750198 0.0776211 -0.25141683 0.14209667 0.6236858 0.09972877 -0.06770637 0.3131193
-0.15661028 -0.4959068 -0.50129545 0.26260683 -0.1339022 -0.08185283 -0.06620324 0.012832581
-0.25828406 0.102985784 0.29337555 0.04079677 -0.19016103 -0.088266194 -0.31035724 -0.03867053
-0.18441959 0.3446817 -0.039160594 -0.0004752842 -0.19662748 0.00043775307 -0.006063754 -0.12944588
0.21547154 -0.36730728 0.014539224 0.3647023 0.10966607 -0.20594314 0.20940678 -0.38186365
-0.090254575 0.0017828856 0.03762967 -0.3861112 0.19790162 0.019135224 0.31764454 0.3281372
-0.16125451 0.029205002 0.15144667 -0.17055343 0.377618 0.07589816 -0.27695057 0.091934696
-0.12041249 -0.0010842895 0.5155917 0.23283894 0.07352574 -0.32168916 -0.18699121 -0.24197753
0.17683569 -0.03482918 0.6380116 0.34565178 -0.18815206 -0.042718787 -0.0058297073 -0.4451664
-0.26673776 0.08544192 0.21839698 -0.155076 -0.054004308 0.12481661 0.15870813 -0.45996097
-0.25205678 -0.0069303242 0.39695582 -0.54822814 0.19837646 -0.24053097 -0.23013218 0.118116386
0.09135934 0.38650185 0.03815499 0.11593486 -0.13915657 -0.03285914 -0.41019952 -0.06780272
0.06270279 -0.049463596 -0.29652128 0.17130494 0.17222425 0.083790906 0.13413003 -0.09850522
0.31404042 -0.0586727 -0.40453663 0.28548363 -0.025457274 0.20630302 0.045511983 -0.42595333
0.084963076 0.13010354 -0.13718551 -0.25385004 -0.15718594 0.3250926 -0.07202397 0.16690408
00000000: 2092 753c 6b65 18bc d568 92bd 9d23 d03e
00000010: b05f 89bd 0eb3 393e 2df6 383e 76d0 6ebe
00000020: ecb9 19be 02df 053e acfb 10bd 4012 4bbe
00000030: d5ae 39bd d017 993b a5e5 803e ae5c dfbd
00000040: 9df3 f73e a0a0 973e 0547 403e 17b8 e8bd
00000050: 1807 7e3d 456f 163e ba19 73be 99b1 0c3e
00000060: d604 c9be 28d1 ce3e 2f21 2cbd eea1 dd3d
00000070: ffc4 a2bd 3ceb 80be 8503 9abd 15c8 0cbe
00000080: 129e 213d f5d0 06be 14f5 12be 266e 9239
00000090: 6471 20bb d861 fcbd d41a 9d3e 6d92 88bb
000000a0: 08f4 113e a3eb 7e3d b5ce 923e 1bc8 42be
000000b0: eb82 b4be 60ef 843d 2d4d 53be e171 28be
000000c0: 5ca5 04bd 6889 953e d8cd ae3e adc5 813d
000000d0: d88f 6dbe e37d d3bd 1622 983e b3de 1bbe
000000e0: e292 0b3d 8f8a 9cbe 5b58 f8be 15bc 993e
000000f0: a099 2b3e 7cc0 633c 8657 1c3e 593e 423e
00000100: 0b32 c23e 54e1 36be 7354 6b3d 179c 553d
00000110: fb7a 75bd 1f48 133e fe1b 2fbd b78f 5b3d
00000120: 469e 833d bdca a3bc 1a0f c83d 7d13 5dbc
00000130: a87f b13d 1ae8 8ebe ff99 bfbd 209b 883e
00000140: 9470 c83e 1fbc 8fbe 36a2 c3be cc6e 12bd
00000150: f520 40be d79c 12bc 831a 783d b2c0 b4be
00000160: 0196 f7bd ce5f aa3e ba14 94bd 83fa 8d3e
00000170: d7ae a3be 8e6f 23be 322e 1ebe a507 ae3d
00000180: 646e d83d edde d03d b310 6b3e 693e 8bbe
00000190: 4227 3d3e 14a8 34be 9efc 98be 8211 a1bd
000001a0: 05a3 5dbe ce07 e93d f541 ad3e c362 953e
000001b0: 55f3 bc3d fab1 eebc 302d 6f3e c08a 113e
000001c0: 4386 a9bb 5279 89be 039a 29bf ed23 09bd
000001d0: 9da1 0d3e f936 8c3e 71d3 1d3e 6655 55bc
000001e0: d128 0a3e 77e1 043e bb72 78be 822e 9c3e
000001f0: b475 163e 6466 ae3a 9662 8b3e c672 5abc
00000200: 9c62 f3be 464d 1dbe a76b 5c3e 2f28 95bd
00000210: bf66 0dbe 5bf9 013d 5b23 1ebe e8f1 77bd
00000220: 002a dcbd d0f7 9e3d b5b9 80be ca81 113e
00000230: dfa9 1f3f 993e cc3d a3a9 8abd 2c51 a03e
00000240: 725e 20be 7fe7 fdbe e654 00bf 6774 863e
00000250: a91d 09be 75a2 a7bd 9095 87bd bf3f 523c
00000260: cf3d 84be 36ea d23d 5235 963e 841a 273d
00000270: 93b9 42be e8c4 b4bd 25e7 9ebe fd64 1ebd
00000280: 7dd8 3cbe 1f7a b03e dc66 20bd 912f f9b9
00000290: b758 49be 3982 e539 75b2 c6bb 768d 04be
000002a0: 92a4 5c3e b30f bcbe ed35 6e3c 43ba ba3e
000002b0: 9b98 e03d c2e2 52be bb6e 563e a283 c3be
000002c0: 64d7 b8bd b7af e93a 9221 1a3d 5eb0 c5be
000002d0: b9a6 4a3e 79c1 9c3c 4ea2 a23e 9901 a83e
000002e0: e71f 25be 543f ef3c d614 1b3e 8fa5 2ebe
000002f0: 2657 c13e 7f70 9b3d 77cc 8dbe 4248 bc3d
00000300: d39a f6bd b81e 8eba d1fd 033f 556d 6e3e
00000310: aa94 963d 71b4 a4be a07a 3fbe f5c8 77be
00000320: 6a14 353e 0ba9 0ebd ba54 233f 45f9 b03e
00000330: efaa 40be e5f9 2ebd 2107 bfbb daec e3be
00000340: da91 88be 2cfc ae3d 75a3 5f3e 3ecc 1ebe
00000350: 9f33 5dbd da9f ff3d 6284 223e 0180 ebbe
00000360: 960d 81be c617 e3bb cb3d cb3e ae58 0cbf
00000370: 3323 4b3e c04d 76be c5a7 6bbe 01e7 f13d
00000380: 9b1a bb3d 92e3 c53e 6848 1c3d 426f ed3d
00000390: 0f7f 0ebe 4e97 06bd ac05 d2be 27dc 8abd
000003a0: 526a 803d 579a 4abd a3d1 97be 906a 2f3e
000003b0: 8e5b 303e 919a ab3d 6259 093e 1bbd c9bd
000003c0: e8c9 a03e c952 70bd 6d1f cfbe e92a 923e
000003d0: c68b d0bc 1941 533e c66a 3a3d 8e16 dabe
000003e0: 1f01 ae3d dd39 053e 5c7a 0cbe a2f8 81be
000003f0: 5af5 20be 8a72 a63e 4e81 93bd e7e8 2a3e

network_body._body_endoder.seq_layers.0.bias f4 [128]
0.0 0.0 0.0 0.0 0.0 0.0 0.0 0.0
0.0 0.0 0.0 0.0 0.0 0.0 0.0 0.0
0.0 0.0 0.0 0.0 0.0 0.0 0.0 0.0
0.0 0.0 0.0 0.0 0.0 0.0 0.0 0.0
0.0 0.0 0.0 0.0 0.0 0.0 0.0 0.0
0.0 0.0 0.0 0.0 0.0 0.0 0.0 0.0
0.0 0.0 0.0 0.0 0.0 0.0 0.0 0.0
0.0 0.0 0.0 0.0 0.0 0.0 0.0 0.0
0.0 0.0 0.0 0.0 0.0 0.0 0.0 0.0
0.0 0.0 0.0 0.0 0.0 0.0 0.0 0.0
0.0 0.0 0.0 0.0 0.0 0.0 0.0 0.0
0.0 0.0 0.0 0.0 0.0 0.0 0.0 0.0
0.0 0.0 0.0 0.0 0.0 0.0 0.0 0.0
0.0 0.0 0.0 0.0 0.0 0.0 0.0 0.0
0.0 0.0 0.0 0.0 0.0 0.0 0.0 0.0
0.0 0.0 0.0 0.0 0.0 0.0 0.0 0.0
00000000: 0000 0000 0000 0000 0000 0000 0000 0000
00000010: 0000 0000 0000 0000 0000 0000 0000 0000
00000020: 0000 0000 0000 0000 0000 0000 0000 0000
00000030: 0000 0000 0000 0000 0000 0000 0000 0000
00000040: 0000 0000 0000 0000 0000 0000 0000 0000
00000050: 0000 0000 0000 0000 0000 0000 0000 0000
00000060: 0000 0000 0000 0000 0000 0000 0000 0000
00000070: 0000 0000 0000 0000 0000 0000 0000 0000
00000080: 0000 0000 0000 0000 0000 0000 0000 0000
00000090: 0000 0000 0000 0000 0000 0000 0000 0000
000000a0: 0000 0000 0000 0000 0000 0000 0000 0000
000000b0: 0000 0000 0000 0000 0000 0000 0000 0000
000000c0: 0000 0000 0000 0000 0000 0000 0000 0000
000000d0: 0000 0000 0000 0000 0000 0000 0000 0000
000000e0: 0000 0000 0000 0000 0000 0000 0000 0000
000000f0: 0000 0000 0000 0000 0000 0000 0000 0000
00000100: 0000 0000 0000 0000 0000 0000 0000 0000
00000110: 0000 0000 0000 0000 0000 0000 0000 0000
00000120: 0000 0000 0000 0000 0000 0000 0000 0000
00000130: 0000 0000 0000 0000 0000 0000 0000 0000
00000140: 0000 0000 0000 0000 0000 0000 0000 0000
00000150: 0000 0000 0000 0000 0000 0000 0000 0000
00000160: 0000 0000 0000 0000 0000 0000 0000 0000
00000170: 0000 0000 0000 0000 0000 0000 0000 0000
00000180: 0000 0000 0000 0000 0000 0000 0000 0000
00000190: 0000 0000 0000 0000 0000 0000 0000 0000
000001a0: 0000 0000 0000 0000 0000 0000 0000 0000
000001b0: 0000 0000 0000 0000 0000 0000 0000 0000
000001c0: 0000 0000 0000 0000 0000 0000 0000 0000
000001d0: 0000 0000 0000 0000 0000 0000 0000 0000
000001e0: 0000 0000 0000 0000 0000 0000 0000 0000
000001f0: 0000 0000 0000 0000 0000 0000 0000 0000

network_body._body_endoder.seq_layers.2.weight f4 [128, 128]
-0.0038068423 -0.11788307 -0.057446454 -0.2501996 -0.14409082 0.012553501 0.077291615 -0.10096157
0.05801147 0.05781 -0.02318648 -0.16955662 0.18638732 -0.051715046 -0.01265726 0.022687422
-0.07840391 0.049722 0.08463605 0.05842755 -0.10465126 0.06862566 0.05763287 0.00036260288
0.080513924 -0.062622845 0.092294686 0.016904157 -0.005721802 -0.06953264 -0.10360488 -0.07074699
-0.07928699 0.032612868 -0.015581335 -0.016597614 -0.10709453 0.014761501 -0.042922385 -0.018095713
-0.095339976 -0.1073069 -0.0432959 -0.018306948 0.12720086 -0.05905942 -0.066576526 -0.033108834
0.17604862 -0.04633899 0.07674817 -0.092421666 0.13306403 0.07307635 0.2024111 0.042328924
0.026824301 -0.13437612 0.092712246 -0.15633588 0.07704572 0.07742691 -0.042000484 0.027516957
-0.03513101 0.045463488 -0.074363194 -0.05812113 0.055464357 0.010398144 0.1112804 -0.05567291
-0.017617341 -0.0052515045 -0.028896209 -0.05501407 -0.008340333 0.10962299 -0.11886212 0.16042633
-0.038049497 0.037039597 -0.060972348 0.064479634 0.052951094 0.003042865 -0.08520854 0.06336533
0.082506835 -0.087901026 -0.10640662 -0.043600325 0.04441734 -0.051304635 -0.13546486 -0.08773083
0.054857884 -0.14383323 0.13408853 -0.023394812 -0.15709013 -0.011251495 -0.0645247 0.04040635
0.014064002 0.013526354 -0.07744458 0.04616216 0.11391479 0.16429025 0.04030419 -0.047639444
0.08903899 -0.071601555 -0.083887614 -0.030287432 -0.18084843 0.09671757 0.018469647 -0.036156777
0.10095557 0.03875654 -0.047522835 -0.012755291 0.015293737 -0.052284945 -0.07915217 0.10877034
0.10741893 -0.18947417 0.08962053 0.057877433 -0.06947723 0.01631767 -0.058797993 0.14220664
0.06204357 0.0078027416 0.055278108 -0.037716433 -0.057479773 0.011231967 0.032476854 -0.06012711
-0.004235782 -0.040969077 0.034000985 -0.14271975 0.0038390066 0.019649819 -0.032641724 -0.047140565
0.043829523 -0.026041795 -0.014071491 -0.019765588 -0.13791674 -0.20039041 0.0010139926 0.061007857
-0.01052416 0.15968657 0.1368509 0.072389886 0.12988265 -0.1348848 0.1500375 0.0166174
0.1448155 -0.12212442 0.10344901 -0.039605986 -0.017779177 -0.005992468 0.04288829 0.11359899
-0.075850226 0.08863786 -0.037101805 0.042580333 0.1451135 -0.044856902 -0.06604704 -0.039457843
-0.031098276 -0.009260176 -0.08582338 -0.05685118 -0.020132188 -0.10882776 0.10499917 0.062349528
-0.054984458 -0.005749917 -0.07984836 -0.04976105 0.013605058 -0.003054309 0.03794785 0.021452881
-0.042195722 -0.17432612 0.097893566 -0.05646707 0.11978785 0.021837655 -0.043695845 -0.04408487
0.019823844 -0.070554145 0.00099251 0.03958558 0.054805905 0.002127959 0.03374066 -0.05575835
0.18345638 -0.04609661 -0.10723765 -0.12311934 -0.013357551 -0.04733974 -0.022359803 0.0069419197
-0.085433096 0.059135683 0.13568443 -0.01182097 0.13589874 0.047403786 0.06378221 -0.026630167
-0.0617388 0.04548312 -0.036087196 0.005453429 -0.103381574 -0.10973396 -0.13579407 -0.014811807
0.104705624 -0.014915437 0.23664097 0.14431795 -0.052528422 0.055248987 0.048449144 -0.21329257
0.102687895 0.015837813 -0.11527157 0.07114444 -0.014345876 0.016563673 0.11671367 -0.069957644
00000000: 377c 79bb ae6c f1bd f94c 6bbd 291a 80be
00000010: 8b8c 13be 33ad 4d3c 114b 9e3d f1c4 cebd
00000020: 6f9d 6d3d 2eca 6c3d 93f1 bdbc 40a0 2dbe
00000030: 51dc 3e3e 28d3 53bd 6560 4fbc f9da b93c
00000040: 3b92 a0bd 4ca9 4b3d aa55 ad3d ba51 6f3d
00000050: 6653 d6bd 9c8b 8c3d 7210 6c3d bc1b be39
00000060: 7ce4 a43d 6840 80bd ff04 bd3d 967a 8a3c
00000070: f47d bbbb 2167 8ebd cc2e d4bd cce3 90bd
00000080: 3861 a2bd 1295 053d db48 7fbc b8f7 87bc
00000090: 6054 dbbd 39da 713c 62cf 2fbd 763d 94bc
000000a0: 9b41 c3bd b8c3 dbbd 0b57 31bd 74f8 95bc
000000b0: f140 023e 4ae8 71bd 4659 88bd 219d 07bd
000000c0: 1746 343e f4cd 3dbd 252e 9d3d 9247 bdbd
000000d0: f041 083e 0ea9 953d db44 4f3e 1861 2d3d
000000e0: a3be db3c e599 09be ebdf bd3d 8316 20be
000000f0: 25ca 9d3d 0092 9e3d b308 2cbd 3e6b e13c
00000100: 89e5 0fbd ec37 3a3d bb4b 98bd 6c10 6ebd
00000110: 982e 633d fa5c 2a3c fae6 e33d 4709 64bd
00000120: 3e52 90bc d014 acbb beb7 ecbc 6f56 61bd
00000130: e4a5 08bc 0582 e03d fc6d f3bd cd46 243e
00000140: cad9 1bbd d5b6 173d 24be 79bd e60d 843d
00000150: 3fe3 583d ce6a 473b d181 aebd afc5 813d
00000160: 58f9 a83d 7405 b4bd b7eb d9bd 4196 32bd
00000170: f5ee 353d cf24 52bd 4db7 0abe 39ac b3bd
00000180: a9b2 603d 0549 13be 814e 093e 7aa6 bfbc
00000190: 3cdc 20be 3158 38bc 8725 84bd 2181 253d
000001a0: b36c 663c a49d 5d3c 449b 9ebd 8814 3d3d
000001b0: 284c e93d b43b 283e 0216 253d 9421 43bd
000001c0: 135a b63d d6a3 92bd 45cd abbd 591d f8bc
000001d0: 5530 39be dd13 c63d a84d 973c 2119 14bd
000001e0: cbc1 ce3d 2dbf 1e3d 4ea7 42bd 91fb 50bc
000001f0: 9592 7a3c bd28 56bd 881a a2bd fcc2 de3d
00000200: 75fe db3d 8405 42be f88a b73d e310 6d3d
00000210: 144a 8ebd a2ac 853c 2ad6 70bd 9e9e 113e
00000220: 6621 7e3d 24ae ff3b 4c6b 623d 8c7c 1abd
00000230: e96f 6bbd 4906 383c 7306 053d d847 76bd
00000240: 51cc 8abb 31cf 27bd 9e44 0b3d 2025 12be
00000250: d897 7b3b a8f8 a03c 54b3 05bd 7716 41bd
00000260: 9686 333d 9a55 d5bc 1c8c 66bc 71eb a1bc
00000270: 0c3a 0dbe 2533 4dbe f2e7 843a 60e3 793d
00000280: 876d 2cbc e084 233e a422 0c3e 2641 943d
00000290: f5ff 043e 3e1f 0abe 6ea3 193e 3721 883c
000002a0: 844a 143e 5e1c fabd 13dd d33d e339 22bd
000002b0: a3a5 91bc 775c c4bb a2ab 2f3d 96a6 e83d
000002c0: 5d57 9bbd c487 b53d 10f8 17bd b768 2e3d
000002d0: a298 143e dfbb 37bd ac43 87bd 8c9e 21bd
000002e0: d0c1 febc feb7 17bc 2bc4 afbd c8dc 68bd
000002f0: 42ec a4bc 17e1 debd ce09 d73d 3862 7f3d
00000300: 6237 61bd cd69 bcbb 8987 a3bd 3ed2 4bbd
00000310: c0e7 5e3c cd2a 48bb 346f 1b3d f4bd af3c
00000320: 6cd5 2cbd 8c82 32be 6c7c c83d 044a 67bd
00000330: 5553 f53d e2e4 b23c 6afa 32bd 5692 34bd
00000340: 9d65 a23c b17e 90bd 1c17 823a 7d24 223d
00000350: 287c 603d 3a75 0b3b a533 0a3d de62 64bd
00000360: fddb 3b3e cdcf 3cbd 6a9f dbbd fe25 fcbd
00000370: a1d9 5abc 51e7 41bd e82b b7bc 0b79 e33b
00000380: 8cf7 aebd 4238 723d dcf0 0a3e beac 41bc
00000390: 0a29 0b3e 792a 423d 3fa0 823d 8227 dabc
000003a0: d3e1 7cbd 824c 3a3d 2bd0 13bd aeb2 b23b
000003b0: b8b9 d3bd 33bc e0bd 9a0d 0bbe 39ad 72bc
000003c0: e76f d63d e15f 74bc 0352 723e 16c8 133e
000003d0: 0b28 57bd c34c 623d 9c72 463d 5e69 5abe
000003e0: 084e d23d 4dbe 813c 8013 ecbd 2db4 913d
000003f0: f70a 6bbc 8ab0 873c 9407 ef3d f445 8fbd

action_model._continuous_distribution.log_sigma f4 [1, 2]
0.0 0.0
00000000: 0000 0000 0000 0000

action_model._continuous_distribution.mu.weight f4 [2, 128]
-0.0075824237 -0.010557703 -0.028344065 0.011835817 0.026345996 -0.0042260913 0.0072712116 0.007591296
0.0024561218 -0.011891189 -0.010553757 -0.015564422 0.010399588 -0.01270239 -0.01071167 -0.0027048297
-0.020741543 -0.011382873 0.02555283 -0.0048413426 -0.027524877 -0.0043583843 -0.009309998 -0.010845647
0.011202407 0.005172288 0.0042262534 0.012484806 0.022723326 0.029923497 -0.01801378 0.009400259
-0.045507185 0.06341156 0.009229049 -0.011417651 -0.01858169 -0.016189044 -0.008993934 7.467241e-05
-0.021359814 -0.012835349 -0.022051677 -0.014175369 -0.00922796 -0.007305982 0.023232209 0.010607627
0.025815768 1.0842433e-05 0.010316775 0.0056834333 0.022514617 -0.045652922 -0.018210506 -0.017955018
-0.0032562916 0.00144445 0.008423504 0.0018344587 -0.02125181 0.0015217675 0.009034286 -0.023790473
-0.0049061747 0.038108118 0.031436723 0.03298999 -0.0011950497 -0.03737663 0.020583494 0.025126407
0.014288874 -0.006771168 0.00027773526 0.01188323 0.008330955 0.00047979117 -0.015486193 0.00458253
-0.0040252306 -0.001779037 4.7891135e-05 0.0009731956 0.036389112 -0.0056589562 0.010364446 0.012783426
0.0031336881 -0.0128682 -0.011269535 -0.0063049616 0.0164223 0.00829386 -0.0409193 0.009360555
-0.015437896 0.033757254 0.014386887 0.008073069 -0.026409859 -0.005673438 -0.019256156 -0.01374187
0.010268957 0.0036481672 -0.016762212 -0.011210716 -0.008253731 0.010209446 0.012136799 0.019106505
0.0042870264 0.019714145 0.020337455 0.016821448 -0.003659344 0.0070532896 0.0016248914 -0.010597324
-0.018859254 -0.0051944964 0.004233082 0.009438158 0.02785704 -0.019083383 0.031660043 -0.025014607
0.025950868 -0.023747742 -0.00681744 0.03643821 -0.0021999034 -0.01686738 0.016335694 0.005837926
0.004377874 0.008 -0.00957732 0.004410239 0.0010964342 -0.0101188505 -0.0018226814 -0.0076542287
0.008039552 0.019380452 0.0006698346 0.013418003 -0.010157577 -0.0014952886 0.004366761 -0.033936936
0.003040443 0.0037719042 0.029998524 0.0081365 -0.0017337548 -0.012059789 -0.004780452 -0.0018208422
-0.0030457734 0.037423477 -0.017498737 -0.015206302 -0.025175659 0.0041359547 -0.050066747 0.010980845
-0.017257398 0.0068154163 -0.0090596285 0.020950695 -0.0049854876 0.03240187 0.004390352 0.011205607
-0.0038047319 -0.01904234 0.02115554 -0.0030979214 0.007276613 -0.020805618 -0.0032876623 0.010151607
-0.027921453 0.010971823 0.0057274266 0.0047215493 -0.013470325 0.0016709184 -0.00096485467 -0.013900593
0.00633097 -0.004600728 0.024001712 0.028968755 -0.0033976266 -0.013636555 0.030909194 -0.002776357
-0.00082626595 -0.02243419 -0.027985454 0.0029510853 -0.031692185 0.010827458 -0.00065291155 0.030259952
-0.017915899 -0.0072719976 -0.026705584 -0.0060056928 0.009255233 -0.015577746 -0.026208997 0.0136812
0.029832495 -0.013270171 -0.0060665994 0.0070437538 -0.02088344 0.0052445154 0.015336777 -0.01048222
0.00643148 0.011338352 -0.004007594 -0.023771232 -0.03831973 0.0077864006 0.0038674686 0.016411042
0.0014948605 0.0005600266 0.0011241254 -0.02177356 -0.01106617 0.00015568998 0.028978715 0.009404518
-0.002657396 0.0029236309 -0.007083668 -0.0349494 -0.0017014652 0.012515376 0.019868974 -0.0069609173
0.045850947 0.013812291 -0.016170716 -0.008476952 0.011017999 -0.055919718 -0.003484913 0.01110238
00000000: fb75 f8bb 37fa 2cbc d031 e8bc 04eb 413c
00000010: 8fd3 d73c 067b 8abb 5843 ee3b 68c0 f83b
00000020: e3f6 203b 43d3 42bc aae9 2cbc eb01 7fbc
00000030: 0963 2a3c af1d 50bc 0080 2fbc 8343 31bb
00000040: 2bea a9bc 3b7f 3abc 2b54 d13c 20a4 9ebb
00000050: da7b e1bc c7d0 8ebb f688 18bc f1b1 31bc
00000060: 4d8a 373c 4c7c a93b 627c 8a3b 128d 4c3c
00000070: 4526 ba3c 1f22 f53c a291 93bc 8b03 1a3c
00000080: be65 3abd ecdd 813d 7035 173c 1911 3bbc
00000090: a138 98bc e39e 84bc 4b5b 13bc 7299 9c38
000000a0: c7fa aebc 5b4b 52bc b8a5 b4bc cf3f 68bc
000000b0: df30 17bc 0567 efbb 7951 be3c 9dcb 2d3c
000000c0: 977b d33c e5e7 3537 b107 293c 183c ba3b
000000d0: 9370 b83c 8ffe 3abd 332e 95bc 6716 93bc
000000e0: 8267 55bb b353 bd3a bd02 0a3c 3872 f03a
000000f0: 4718 aebc 0b76 c73a 8b04 143c 3de4 c2bc
00000100: fac3 a0bb 4217 1c3d cbc3 003d 8320 073d
00000110: 37a3 9cba 3d18 19bd b79e a83c e5d5 cd3c
00000120: e21b 6a3c ade0 ddbb ff9c 9139 e1b1 423c
00000130: 8f7e 083c 7b8c fb39 cdb9 7dbc 0c29 963b
00000140: 15e6 83bb 932e e9ba b7de 4838 0d1e 7f3a
00000150: c00c 153d c46e b9bb a3cf 293c 9371 513c
00000160: 905e 4d3b 25d5 52bc dba3 38bc da99 cebb
00000170: 0f88 863c f8e2 073c ff9a 27bd 035d 193c
00000180: 3bef 7cbc 0c45 0a3d fab6 6b3c e844 043c
00000190: 7d59 d8bc 3fe8 b9bb 16bf 9dbc 9525 61bc
000001a0: 213f 283c 1716 6f3b e850 89bc 27ad 37bc
000001b0: a83a 07bc 8545 273c 6dd9 463c 3f85 9c3c
000001c0: 2f7a 8c3b 8f7f a13c bc9a a63c 22cd 893c
000001d0: 9bd1 6fbb 481f e73b 4ffa d43a 66a0 2dbc
000001e0: b97e 9abc 9836 aabb aab5 8a3b 81a2 1a3c
000001f0: 7234 e43c c154 9cbc f6ad 013d 6feb ccbc
00000200: ea96 d43c a08a c2bc d564 dfbb 3c40 153d
00000210: 412c 10bb 762d 8abc 6fd2 853c 134c bf3b
00000220: 4574 8f3b 6f12 033c 31ea 1cbc c483 903b
00000230: 3ab6 8f3a 89c9 25bc 0ae7 eeba 53d0 fabb
00000240: 53b8 033c c1c3 9e3c d797 2f3a 2fd7 5b3c
00000250: f76b 26bc 8ffd c3ba 0c17 8f3b 7501 0bbd
00000260: 2b42 473b 0d32 773b 77bf f53c f44e 053c
00000270: 283f e3ba 6c96 45bc 57a5 9cbb 53a9 eeba
00000280: 999b 47bb 5c49 193d 8359 8fbc da23 79bc
00000290: 2f3d cebc e786 873b ca12 4dbd 01e9 333c
000002a0: 635f 8dbc db53 df3b d66e 14bc cba0 ab3c
000002b0: 4d5d a3bb d3b7 043d f1dc 8f3b b997 373c
000002c0: cf58 79bb aefe 9bbc 624e ad3c 7f06 4bbb
000002d0: a770 ee3b 8b70 aabc d275 57bb ed52 263c
000002e0: 88bb e4bc 29c3 333c 23ad bb3b 3ab7 9a3b
000002f0: a3b2 5cbc b802 db3a 4dee 7cba 50bf 63bc
00000300: 0774 cf3b b4c1 96bb 3d9f c43c e24f ed3c
00000310: b7aa 5ebb db6b 5fbc 4735 fd3c 8bf3 35bb
00000320: c599 58ba e8c7 b7bc c041 e5bc ff66 413b
00000330: aacf 01bd a765 313c 2728 2bba b8e3 f73c
00000340: 5dc4 92bc f049 eebb abc5 dabc 67cb c4bb
00000350: 43a3 173c cd39 7fbc 40b4 d6bc 1d27 603c
00000360: 4763 f43c 226b 59bc 53ca c6bb 4acf e63b
00000370: bf13 abbc 2fda ab3b 1b47 7b3c 9ebd 2bbc
00000380: 2abf d23b 7fc4 393c 2352 83bb e3bb c2bc
00000390: 26f5 1cbd 1025 ff3b 5b75 7d3b 7370 863c
000003a0: 32ef c33a c0ce 123a 6457 933a 775e b2bc
000003b0: e24e 35bc b640 2339 c564 ed3c 6815 1a3c
000003c0: b527 2ebb 639a 3f3b 1d1e e8bb 1a27 0fbd
000003d0: b303 dfba 4b0d 4d3c 42c4 a23c 6818 e4bb
000003e0: 34ce 3b3d f34c 623c 7378 84bc eae2 0abc
000003f0: d684 343c 130c 65bd 2363 64bb c2e6 353c

action_model._continuous_distribution.mu.bias f4 [2]
0.0 0.0
00000000: 0000 0000 0000 0000

action_model._discrete_distribution.branches.0.weight f4 [4, 128]
0.004956468 -0.005525479 0.0009029181 0.0004177262 0.0035064523 -0.0011194424 -0.011369376 0.010523563
-0.00278101 -0.004286985 0.0070272195 -0.00049379625 -0.0022935085 -0.012558624 -0.0010143584 0.006849998
-0.012619085 -0.012278267 -0.011379409 0.0018885117 -0.0031644148 0.016357357 0.0016247455 0.0051776515
-0.011130209 0.0026633227 0.002703908 -0.008604313 0.01567429 0.0031678209 -0.023100069 -0.014741468
0.009823766 -0.008954289 -0.0019557253 0.004375856 0.0029846048 0.015656969 0.0064049 0.009859169
-0.006555197 0.0006885274 0.0083154915 0.0073044077 0.0025472897 0.011217919 -0.012904341 0.0003093718
0.0048993477 0.009796677 -0.00010857546 0.00288168 0.0051429006 0.016338333 0.007701389 0.00073113875
0.00056069525 0.012117825 0.004051425 -0.006934142 -0.011989405 0.004794238 0.013004263 0.0075793387
0.020482888 -0.0029145589 -0.00014981492 -0.0048753065 0.006110206 -0.0023022261 -0.0031501947 0.002447827
0.013822782 0.0071409144 0.004338149 0.0065774224 0.009429739 -0.0004774363 0.0049556373 0.002124075
-0.00065832905 0.0009885377 -0.003054173 0.0017071005 0.010619583 -0.004849045 -0.0072664306 0.0028749963
-0.009186314 0.00030482523 -0.008490088 -0.009880128 -0.005435405 0.0056398544 -0.0029857827 -0.010977338
0.014281872 -0.0060690776 0.01346037 -0.00072620437 -0.015908765 0.010949493 0.0022980175 -0.0012939767
0.013084143 0.0038310715 0.0034459364 -0.00042482317 -0.0009009849 0.01866417 -0.006115194 -0.013931537
0.007554676 -0.009077007 0.006736549 -0.009676325 -0.0060596988 -0.0035271333 0.013382546 -0.013061553
-0.0048124637 -0.0029971318 0.003658815 -0.011367021 0.0065619284 0.009668409 0.0017433681 0.0075359256
-0.012914672 -0.006924869 -0.008879721 -0.0044898815 0.011708192 0.0072129727 0.0023303097 -0.006312755
0.008721127 -0.0011484772 0.0036778718 -0.010162472 -0.002731084 -0.012277379 -0.013077472 0.0026261886
-0.0017316081 0.0008760937 -0.01241958 -0.00068847724 0.014891292 0.0015997486 -0.008425975 0.0017714251
-0.013567139 0.0050368765 6.1624756e-05 0.006748002 0.0030079593 0.0119701065 -0.0018468132 0.008963288
-0.016714633 -0.012712431 -0.02574255 -0.0035822482 -0.016088283 -0.015096843 -0.00924952 0.00450197
-0.004410731 0.02266988 0.009036793 0.001158531 -0.00075617916 0.014083087 0.0016980469 0.00227355
-0.015257545 -0.007072208 0.010981393 0.0061926995 -0.0136699295 0.004778417 -0.0027303079 -0.0014902204
0.006420889 -0.0036203077 0.0025741195 0.0135898115 -0.007903415 0.01434097 -0.009271181 -0.008821952
0.0032553808 -0.0023468495 0.008409836 -0.0011440126 -0.017743202 0.004582306 0.0016400144 -0.012248236
0.0049133785 0.00091812684 -0.002235325 0.007998679 -0.00908938 -0.003640014 0.012938197 -0.016416047
-0.0012629962 0.007379137 -0.0033271206 -0.0064085773 0.009430303 -0.0052227024 0.0024888036 -0.0017414301
0.0039956514 -0.009473985 -0.011962296 -0.0037401558 -0.0011605076 0.0030253965 0.004321692 0.0026263322
0.0019177193 0.0053413115 0.016837751 0.007916502 0.0012756283 0.008997077 -0.009505776 0.017021675
0.005777641 -0.0026325104 0.015271768 -0.0062991017 -0.00035599127 0.00042544102 -0.010779327 0.008982882
0.0016271435 0.013105938 -0.0148811 0.0018654853 0.008333174 -0.00046740516 0.006741469 0.0037893958
-0.008427132 0.003474959 -0.011083828 0.0029736438 0.009557462 -0.010320686 -0.0035959415 -0.0064517865
00000000: de69 a23b 140f b5bb cfb1 6c3a 4302 db39
00000010: 82cc 653b 41ba 92ba 9f46 3abc 066b 2c3c
00000020: 9b41 36bb d679 8cbb 9744 e63b 1b72 01ba
00000030: b04e 16bb b0c2 4dbc 38f4 84ba f375 e03b
00000040: 47c0 4ebc c92a 49bc b370 3abc f087 f73a
00000050: 1262 4fbb ddff 853c 6af5 d43a 4aa9 a93b
00000060: 7b5b 36bc 248b 2e3b 0c34 313b 1bf9 0cbc
00000070: 5e67 803c 379b 4f3b 5b3c bdbc 3386 71bc
00000080: dcf3 203c 03b5 12bc a02b 00bb 5763 8f3b
00000090: 5c99 433b 0b43 803c 32e0 d13b 5a88 213c
000000a0: facc d6bb 4b7e 343a b33d 083c d059 ef3b
000000b0: 6ef0 263b 5dcb 373c bb6c 53bc 2e33 a239
000000c0: b58a a03b 3e82 203c 02b3 e3b8 91da 3c3b
000000d0: c785 a83b f8d7 853c ef5b fc3b e4a9 3f3a
000000e0: 9ffb 123a d889 463c d1c1 843b cd37 e3bb
000000f0: 366f 44bc fc18 9d3b d50f 553c 1a5c f83b
00000100: bbcb a73c 2f02 3fbb a317 1db9 09c1 9fbb
00000110: 1f38 c83b f2e0 16bb 7f73 4ebb b96b 203b
00000120: f378 623c 55fe e93b 0827 8e3b 6b87 d73b
00000130: 317f 1a3c 6a50 fab9 e662 a23b 1134 0b3b
00000140: b793 2cba d291 813a 8528 48bb cac0 df3a
00000150: c2fd 2d3c bde4 9ebb 3d1b eebb 6f6a 3c3b
00000160: 3282 16bc f3d0 9f39 031a 0bbc 43e0 21bc
00000170: 7b1b b2bb 87ce b83b 1fad 43bb 4bda 33bc
00000180: 83fe 693c 1ddf c6bb e288 5c3c c05e 3eba
00000190: 1953 82bc 8165 333c 569a 163b a79a a9ba
000001a0: e05e 563c b712 7b3b 38d5 613b cdba deb9
000001b0: 1330 6cba 9ae5 983c f761 c8bb 1a41 64bc
000001c0: 378d f73b bab7 14bc 45be dc3b 7389 1ebc
000001d0: 7090 c6bb 7a27 67bb 7742 5b3c 2000 56bc
000001e0: dfb1 9dbb 876b 44bb bbc8 6f3b be3c 3abc
000001f0: 7205 d73b 3f68 1e3c ba81 e43a edef f63b
00000200: 0f98 53bc 03ea e2bb 407c 11bc db1f 93bb
00000210: b7d3 3f3c cd5a ec3b 1cb8 183b 3adb cebb
00000220: 0fe3 0e3c 8088 96ba 7308 713b 7f80 26bc
00000230: fcfb 32bb 0f27 49bc e542 56bc 221c 2c3b
00000240: 20f7 e2ba a7a9 653a 7e7b 4bbc ed7a 34ba
00000250: 9bfa 733c a8ae d13a 1a0d 0abc 2a2f e83a
00000260: b548 5ebc 620c a53b 8a3c 8138 581e dd3b
00000270: 2f21 453b 441e 443c c510 f2ba c1da 123c
00000280: 20ed 88bc cd47 50bc 0ae2 d2bc 27c4 6abb
00000290: 93cb 83bc c058 77bc 4c8b 17bc 4385 933b
000002a0: e587 90bb 2fb6 b93c 0f0f 143c dad9 973a
000002b0: 533a 46ba c0bc 663c 0091 de3a d7ff 143b
000002c0: c8fa 79bc fbbd e7bb 4deb 333c 21ec ca3b
000002d0: d7f7 5fbc 4494 9c3b f7ee 32bb 8053 c3ba
000002e0: 5266 d23b af42 6dbb 8fb2 283b cda7 5e3c
000002f0: 537d 01bc 63f6 6a3c 27e6 17bc f389 10bc
00000300: 3a58 553b 9acd 19bb 69c9 093c b1f2 95ba
00000310: 315a 91bc 2b27 963b c0f5 d63a d3ac 48bc
00000320: 6800 a13b 73ae 703a 887e 12bb e40c 033c
00000330: 9feb 14bc 4d8d 6ebb bbfa 533c f27a 86bc
00000340: 1f8b a5ba b0cc f13b d20b 5abb 0bff d1bb
00000350: 8f81 1a3c 3423 abbb 321b 233b b340 e4ba
00000360: f4ed 823b c638 1bbc 82fd 43bc 671d 75bb
00000370: 2c1c 98ba bb45 463b fb9c 8d3b 8b1e 2c3b
00000380: fb5b fb3a 2b06 af3b 53ef 893c 37b4 013c
00000390: fc32 a73a 7a68 133c 1dbe 1bbc 0a71 8b3c
000003a0: 5e52 bd3b 3286 2cbb 7036 7a3c b268 cebb
000003b0: 57a4 bab9 ba0d df39 c69b 30bc f02c 133c
000003c0: e045 d53a 4aba 563c dbcf 73bc 4d83 f43a
000003d0: dd87 083c 0f0e f5b9 8ae7 dc3b 8357 783b
000003e0: f411 0abc 23bc 633b f298 35bc 77e1 423b
000003f0: e796 1c3c 1818 29bc e3a9 6bbb 8269 d3bb

action_model._discrete_distribution.branches.0.bias f4 [4]
0.0 0.0 0.0 0.0
00000000: 0000 0000 0000 0000 0000 0000 0000 0000

onnx::Div_70 f4 [18]
0.01170652 0.01170652 0.71207815 0.7012813 1.1706293 0.016554955 0.016554955 0.016554955
0.05096788 0.011707417 0.01170652 0.01170652 0.016554955 1.1706293 0.016554955 0.016554955
0.016554955 0.37659672
00000000: b4cc 3f3c b4cc 3f3c c14a 363f 2c87 333f
00000010: 2ed7 953f 429e 873c 429e 873c 429e 873c
00000020: b2c3 503d 77d0 3f3c b4cc 3f3c b4cc 3f3c
00000030: 429e 873c 2ed7 953f 429e 873c 429e 873c
00000040: 429e 873c 49d1 c03e
