results/offense_run_2/OffensiveRL/OffensiveRL-114618.pt (torch, 483085 bytes, 41 tensors)

network_body.observation_encoder.processors.0.normalizer.running_mean f4 [16]
0.10825496 0.008296689 0.03351581 0.9399175 0.8414784 1.12349 2.4092216 0.11803296
0.008296689 0.01002654 0.9108131 0.19212359 0.66107327 0.003740279 0.0 -0.017778495
00000000: c7b4 dd3d d6ee 073c e047 093d 6f9e 703f
00000010: 216b 573f 85ce 8f3f b030 1a40 44bb f13d
00000020: d6ee 073c 5b46 243c 0c2b 693f 0cbc 443e
00000030: 193c 293f 781f 753b 0000 0000 35a4 91bc

network_body.observation_encoder.processors.0.normalizer.running_variance f4 [16]
166834.27 1.0348498 57901.906 3054.501 110039.89 108994.78 473656.22 135648.48
1.0348498 35410.8 4375.536 17791.262 60089.746 65362.984 1.0 49188.227
00000000: 91ec 2248 f575 843f e82d 6247 04e8 3e45
00000010: f2eb d647 64e1 d447 0747 e748 1f78 0448
00000020: f575 843f cd52 0a47 4abc 8845 86fe 8a46
00000030: bfb9 6a47 fc52 7f47 0000 803f 3a24 4047

network_body.processors.0.normalizer.running_mean f4 [16]
0.10825496 0.008296689 0.03351581 0.9399175 0.8414784 1.12349 2.4092216 0.11803296
0.008296689 0.01002654 0.9108131 0.19212359 0.66107327 0.003740279 0.0 -0.017778495
00000000: c7b4 dd3d d6ee 073c e047 093d 6f9e 703f
00000010: 216b 573f 85ce 8f3f b030 1a40 44bb f13d
00000020: d6ee 073c 5b46 243c 0c2b 693f 0cbc 443e
00000030: 193c 293f 781f 753b 0000 0000 35a4 91bc

network_body.processors.0.normalizer.running_variance f4 [16]
166834.27 1.0348498 57901.906 3054.501 110039.89 108994.78 473656.22 135648.48
1.0348498 35410.8 4375.536 17791.262 60089.746 65362.984 1.0 49188.227
00000000: 91ec 2248 f575 843f e82d 6247 04e8 3e45
00000010: f2eb d647 64e1 d447 0747 e748 1f78 0448
00000020: f575 843f cd52 0a47 4abc 8845 86fe 8a46
00000030: bfb9 6a47 fc52 7f47 0000 803f 3a24 4047

network_body._body_endoder.seq_layers.0.weight f4 [128, 16]
-0.2077372 -0.013735333 0.21850716 -0.20070963 -0.15275015 -0.15022345 -0.35363203 -0.36552876
0.26662493 -0.2667867 -0.10274379 0.17757311 -0.027470857 -0.16738622 0.21662818 -0.21063259
0.04190161 0.03363624 -0.16862322 -0.17487846 -0.07938644 -0.31360877 -0.0499522 -0.07211836
-0.14705832 0.02972651 -0.0086138975 -0.23888111 -0.4978225 0.02121472 0.16446508 -0.07071274
-0.028106382 0.019632947 -0.23733956 -0.14090137 -0.009671468 -0.06282819 0.17666167 0.74533427
-0.18355529 -0.06747334 -0.050953645 -0.1198778 0.31403634 -0.26960582 -0.0677605 0.21227755
0.05736234 -0.3134231 0.06803815 0.22811264 -0.035062145 0.32279047 -0.12442061 -0.03323838
-0.02770015 0.037453342 0.1206072 0.16832423 -0.2895657 0.31824243 0.120015256 0.14657101
0.026187725 0.041524153 -0.07654463 -0.020757975 -0.14972973 -0.35556442 0.13600077 0.15386274
-0.2651249 -0.42278984 -0.3151772 0.1944465 0.35864085 -0.2952707 0.04562903 -0.024091847
-0.15029378 -0.08537684 -0.07002003 -0.04108573 0.13261247 -0.4296 -0.25630096 0.13369764
-0.15972407 -0.14471392 0.18233477 -0.17543636 0.15237309 -0.6470131 0.034966115 -0.32226068
0.105447575 0.49419516 -0.21294186 -0.17522275 0.016524423 0.104948245 0.23756465 -0.4842823
-0.2253758 0.29964104 -0.33776283 -0.2210481 -0.29364648 -0.16070244 0.27738082 -0.12088258
-0.058382835 0.27907512 0.20085914 0.035601307 -0.3163194 -0.04058935 -0.20841481 0.2337397
-0.17434146 0.12954026 0.10647699 0.17816104 0.1232947 0.3879837 0.3848977 -0.009796101
0.048523534 0.0764591 -0.89362645 0.015600587 -0.2801257 0.45288578 0.032495037 -0.30292544
-0.32878995 -0.03394157 -0.033221126 0.007993547 0.05532447 -0.3046799 0.14905721 -0.17513491
-0.087229386 -0.07858978 -0.30953172 -0.14127107 -0.107317865 0.28990886 -0.1274136 -0.2631795
-0.24354142 0.12860006 -0.31856337 0.28205538 -0.11208819 0.15565386 -0.00469874 -0.1838767
0.05614964 0.05060489 0.40796673 0.06335908 0.02304483 -0.044426896 0.0934267 0.359178
-0.26923624 0.14091347 -0.1621359 -0.2241883 -0.047679357 -0.5682807 0.27513656 0.33448014
-0.1472542 -0.0051752217 0.11865221 0.10864407 -0.0380543 0.61566406 0.23453572 0.07852868
-0.35269597 0.27220622 -0.21243438 -0.09924691 0.45144394 0.45057458 -0.23247513 -0.088258296
-0.120872214 -0.13071223 0.384339 -0.428518 0.023203712 0.075185925 -0.31631306 0.17616013
0.04869839 0.014866705 0.1222354 0.63616174 0.025406172 -0.4010958 -0.027542645 0.01881136
0.06879439 -0.19576965 0.25625056 0.25845692 -0.54142946 0.18936451 -0.15069775 -0.1891285
-0.51947147 0.5328947 0.2576711 0.24378024 -0.62072176 -0.13366936 0.029058663 0.033502948
0.06453844 -0.10867946 0.9084562 -0.03457342 -0.070412 -0.17090951 -0.25615728 -0.26129955
-0.2317627 -0.08518888 -0.10011329 -0.1359605 -0.016174136 -0.13741362 0.13379177 0.07485312
0.034514938 -0.44268057 -0.15566878 0.049774863 0.30978486 -0.64838773 -0.0742502 0.35450426
-0.46091637 -0.01376108 0.021476831 -0.22675903 0.16583595 -0.28089702 0.1632854 -0.25313053
00000000: 10b9 54be 2a0a 61bc 57c0 5f3e d386 4dbe
00000010: 896a 1cbe 2dd4 19be 420f b5be 9626 bbbe
00000020: 1083 883e 4498 88be 566b d2bd bad5 353e
00000030: 900a e1bc 4b67 2bbe c7d3 5d3e 12b0 57be
00000040: 06a1 2b3d 27c6 093d 91ab 2cbe 5713 33be
00000050: 5c95 a2bd 5491 a0be ae9a 4cbd cab2 93bd
00000060: 7596 16be 0385 f33c 4e21 0dbc 409d 74be
00000070: 97e2 febe 7eca ad3c 8969 283e d7d1 90bd
00000080: 5b3f e6bc 46d5 a03c 2409 73be 7348 10be
00000090: 1475 1ebc 11ac 80bd cce6 343e 3ace 3e3f
000000a0: ebf5 3bbe 762f 8abd c5b4 50bd 7e82 f5bd
000000b0: 5fc9 a03e c609 8abe 04c6 8abd 495f 593e
000000c0: c6f4 6a3d fe78 a0be 9657 8b3d 5c96 693e
000000d0: 539d 0fbd cb44 a53e 3cd0 febd f824 08bd
000000e0: 6deb e2bc ad68 193d e800 f73d 305d 2c3e
000000f0: f541 94be acf0 a23e 8fca f53d b616 163e
00000100: a487 d63c 3b15 2a3d 6ec3 9cbd a10c aabc
00000110: c052 19be 8a0c b6be c943 0b3e 328e 1d3e
00000120: 73be 87be e977 d8be e85e a1be fc1c 473e
00000130: c69f b73e b92d 97be 81e5 3a3d 445c c5bc
00000140: 9de6 19be 0dda aebd a966 8fbd 8349 28bd
00000150: 90cb 073e 88f4 dbbe e139 83be 09e8 083e
00000160: b58e 23be e32f 14be f7b5 3a3e 97a5 33be
00000170: b107 1c3e a7a2 25bf a138 0f3d 5aff a4be
00000180: e6f4 d73d 2607 fd3e 6e0d 5abe 986d 33be
00000190: 3a5e 873c 1bef d63d 2644 733e daf3 f7be
000001a0: eac8 66be 8d6a 993e 40ef acbe 6f5a 62be
000001b0: d558 96be 2e8f 24be dc04 8e3e 4991 f7bd
000001c0: d722 6fbd efe2 8e3e 05ae 4d3e add2 113d
000001d0: 9ef4 a1be 0541 26bd b16a 55be 7659 6f3e
000001e0: 9186 32be 34a6 043e 9c10 da3d d96f 363e
000001f0: ef81 fc3d cda5 c63e 5011 c53e d37f 20bc
00000200: 9dc0 463d 9796 9c3d b4c4 64bf 9b99 7f3c
00000210: a36c 8fbe a5e0 e73e 8419 053d 0b19 9bbe
00000220: 2857 a8be 5106 0bbd e012 08bd 5ef7 023c
00000230: e99b 623d 01ff 9bbe 74a2 183e 9156 33be
00000240: 52a5 b2bd aef3 a0bd f17a 9ebe 5da9 10be
00000250: 78c9 dbbd ef6e 943e b678 02be 77bf 86be
00000260: ec62 79be bcaf 033e bd1a a3be 9069 903e
00000270: 7e8e e5bd ba63 1f3e e3f7 99bb 2c4a 3cbe
00000280: 2afd 653d 1347 4f3d 04e1 d03e 68c2 813d
00000290: 83c8 bc3c faf8 35bd 7f56 bf3d 2ee6 b73e
000002a0: 55d9 89be 9f4b 103e f406 26be 9e91 65be
000002b0: 6e4b 43bd d87a 11bf b3de 8c3e fb40 ab3e
000002c0: cec9 16be e894 a9bb eeff f23d c880 de3d
000002d0: d3de 1bbd 299c 1d3f 222a 703e a5d3 a03d
000002e0: 9194 b4be 9d5e 8b3e 6688 59be f741 cbbd
000002f0: a923 e73e b6b1 e63e f60d 6ebe c4c0 b4bd
00000300: da8b f7bd 6dd9 05be 15c8 c43e b666 dbbe
00000310: b615 be3c 14fb 993d c9f3 a1be 5263 343e
00000320: f777 473d 7b93 733c 8e56 fa3d 7fdb 223f
00000330: 9b20 d03c 6e5c cdbe 1da1 e1bc 481a 9a3c
00000340: 13e4 8c3d d777 48be 4633 833e 7754 843e
00000350: 1f9b 0abf c5e8 413e 8350 1abe e7aa 41be
00000360: 15fc 04bf c96b 083f 77ed 833e 87a1 793e
00000370: 9fe7 1ebf 9fe0 08be 6f0c ee3c 633a 093d
00000380: bb2c 843d 5693 debd 9690 683f dc9c 0dbd
00000390: 2b34 90bd e702 2fbe 0c27 83be 0ec9 85be
000003a0: 3453 6dbe 8277 aebd 3208 cdbd 3b39 0bbe
000003b0: 9f7f 84bc 28b6 0cbe b600 093e 984c 993d
000003c0: 895f 0d3d 07a7 e2be a367 1fbe bae0 4b3d
000003d0: 1f9c 9e3e bdfc 25bf 7d10 98bd 9581 b53e
000003e0: 3bfd ebbe 2776 61bc 2ef0 af3c 8533 68be
000003f0: e6d0 293e bcd1 8fbe 4a34 273e 539a 81be

network_body._body_endoder.seq_layers.0.bias f4 [128]
0.03533008 0.024504984 0.0110265035 0.04354515 0.000738227 0.027017402 0.025438616 0.041226443
0.010801692 0.014056517 -0.005159877 0.037528567 0.037475266 0.02559498 0.054685336 0.008314127
-0.03129674 0.04112798 0.052253496 0.023597864 0.022939712 0.0064297924 0.01676478 -0.02614354
0.023012355 0.03549918 0.03881602 0.04310611 -0.032515462 0.023400918 0.048972543 0.010648369
0.055914946 0.028189523 0.03552799 0.049357057 0.016595664 0.020405164 0.052097797 0.03921204
0.043022044 0.05345953 0.017809479 0.006751075 0.004466049 0.027637182 0.057287436 -0.0030595504
0.015022439 0.06087646 0.027554896 0.032521017 0.03925507 0.044339217 0.024850043 0.03371826
0.045581914 0.0368619 -0.030151913 0.0320499 0.025801767 0.04567333 0.01200189 -0.005637861
0.058824427 0.030687248 0.014594295 0.023096 -0.043064885 0.028966196 0.016972434 0.030431798
0.038541842 0.047349963 0.030544154 0.020002646 0.030437388 -0.0018650881 -0.012162548 -0.03253504
0.04470629 0.042751253 0.018604873 0.06373951 0.0068267374 0.03620668 0.010371157 0.051258825
0.025493199 0.02549751 0.018651554 0.03207138 0.024968017 0.018841589 -0.0062622866 0.024488972
0.041332588 0.020441419 0.0053226617 0.03873731 0.014038703 0.0031443061 0.022473503 0.028260008
0.015903376 0.046129577 0.06436106 0.024851386 -0.009474959 0.024053644 0.052130222 0.052475736
0.06902749 0.029463926 0.024653925 0.072708085 -0.007371809 0.045576565 -0.03408281 0.06388434
-0.024672696 0.00683713 0.0026826502 0.032210838 0.03314186 0.0015106285 0.01538781 0.041117635
00000000: 46b6 103d adbe c83c 82a8 343c 665c 323d
00000010: 9385 413a 9953 dd3c a564 d03c 0fdd 283d
00000020: 94f9 303c 4e4d 663c 2f14 a9bb 8eb7 193d
00000030: aa7f 193d 90ac d13c bbfd 5f3d fa37 083c
00000040: 0331 00bd d075 283d c307 563d 4f50 c13c
00000050: 10ec bb3c 02b1 d23b 4b56 893c fa2a d6bc
00000060: 6884 bc3c 9767 113d 8cfd 1e3d 0890 303d
00000070: ef2e 05bd 48b3 bf3c 6f97 483d 7f76 2e3c
00000080: 1207 653d b7ed e63c cc85 113d a02a 4a3d
00000090: a1f3 873c bb28 a73c 8064 553d ce9c 203d
000000a0: e237 303d 61f8 5a3d 2fe5 913c 1f38 dd3b
000000b0: ef57 923b 5f67 e23c 3ba6 6a3d bd82 48bb
000000c0: ad20 763c 9859 793d ceba e13c c234 053d
000000d0: edc9 203d 0a9d 353d 5192 cb3c 281c 0a3d
000000e0: 1ab4 3a3d 81fc 163d 2501 f7bc c246 033d
000000f0: 3a5e d33c f513 3b3d 93a3 443c cebd b8bb
00000100: e2f1 703d d363 fb3c e91c 6f3c d333 bd3c
00000110: ce64 30bd 844a ed3c c609 8b3c 1b4c f93c
00000120: 0dde 1d3d 09f2 413d bc37 fa3c 97dc a33c
00000130: d457 f93c f975 f4ba 6c45 47bc 7643 05bd
00000140: f11d 373d f01b 2f3d 3f69 983c dc89 823d
00000150: d3b2 df3b 754d 143d c9eb 293c c6f4 513d
00000160: 1dd7 d03c 27e0 d03c 25cb 983c 485d 033d
00000170: ba89 cc3c ad59 9a3c de33 cdbb 199d c83c
00000180: 5c4c 293d c374 a73c b969 ae3b 03ab 1e3d
00000190: 9702 663c b410 4e3b 5a1a b83c 8881 e73c
000001a0: cc47 823c 5ef2 3c3d bbcf 833d 2295 cb3c
000001b0: dc3c 1bbc 260c c53c 8086 553d ccf0 563d
000001c0: 495e 8d3d 555e f13c 07f7 c93c fae7 943d
000001d0: 378f f1bb 7eae 3a3d 6b9a 0bbd cbd5 823d
000001e0: 651e cabc 010a e03b 67cf 2f3b 83ef 033d
000001f0: c2bf 073d 4800 c63a 271d 7c3c f76a 283d

network_body._body_endoder.seq_layers.2.weight f4 [128, 128]
-0.06536145 0.010165694 0.14687942 0.12644719 0.057085607 0.0030746656 -0.056622755 0.10331841
-0.011008234 0.090115525 -0.123502575 0.08437103 0.06263283 0.006499417 0.026911767 0.030752372
0.09065598 0.027979264 0.046795625 -0.10414039 0.09649625 -0.03410932 -0.13463683 0.062403917
-0.11792201 -0.070469745 0.16378836 0.03131451 -0.054764822 -0.015815945 0.0015550941 0.088816635
-0.02829973 0.08780027 -0.009405358 -0.0021002425 -0.035316493 0.08214658 0.046719715 0.07472054
0.1778531 0.04127512 -0.17043547 -0.016620966 -0.1306401 0.026302274 0.07886199 0.026895706
0.11571018 0.07259562 -0.02415608 0.047554325 0.048533678 0.102619946 0.08235787 -0.020029865
0.07736181 0.11223178 -0.08005336 0.1227378 -0.042751487 0.0339336 0.09572952 0.06925064
0.034507856 0.15715435 -0.013306326 -0.011505526 0.03341878 0.10478628 0.09107993 0.27325273
-0.08041794 0.14795771 -0.06620219 -0.15339613 0.03876413 0.004278776 0.12876569 0.038550913
0.19060034 0.21613206 -0.13768676 0.11566433 0.044870026 0.26952058 0.03998021 -0.04250409
-0.014960305 0.07309891 0.08124902 0.038524233 -0.04251121 -0.003496572 -0.1260161 -0.12984726
-0.053841315 0.040455133 0.040131822 0.041237798 -0.012843059 -0.074047066 -0.09972176 -0.020935718
-0.04550926 0.052052796 0.10022541 0.092417635 -0.035328094 -8.9110115e-05 -0.0248165 -0.07196453
-0.012468629 -0.016139323 -0.10007433 0.027299343 -0.011090058 -0.07685672 0.07406261 0.04347897
0.076802514 -0.0068196105 0.066940896 0.12349382 -0.09197211 -0.047970597 -0.11520257 0.20126669
-0.13908808 -0.13329297 0.05103081 -0.06472409 0.041576255 0.13042443 0.02069193 -0.14773239
0.037773054 0.16823465 0.07332054 -0.18573403 0.067512915 0.04146003 0.14274526 0.13479578
0.07473558 0.0110702645 -0.03235748 0.0016122706 0.02424838 0.010790104 0.24336301 0.08885919
0.18345566 0.06958067 -0.056845233 -0.13641654 -0.07688088 0.023551747 0.022573426 -0.033554032
-0.009191096 -0.070587516 -0.07446041 0.07802201 -0.007934136 -0.09502616 -0.1998685 0.03283575
-0.045815602 -0.08613772 0.050687782 -0.108833164 0.1856308 -0.0960654 0.06290132 0.18205343
0.13893656 -0.05119541 0.10054193 -0.15019794 0.043257266 -0.060614225 -0.054962005 0.102421954
0.18793054 -0.0637285 0.102208555 -0.08426064 -0.08147851 -0.09909076 0.028081302 0.002046747
-0.077221975 0.10269935 0.09998845 0.11260868 0.007031832 0.16775191 0.08093802 -0.14686431
-0.12414354 0.04249329 0.100730136 0.04065385 0.11174347 0.058429576 -0.023489727 -0.114238665
-0.12501232 0.01848784 0.08077757 -0.016962746 -0.0981267 -0.068611495 -0.045410175 -0.052361976
-0.08577625 0.04315944 -0.042859223 0.13402194 -0.04044026 0.08050231 -0.14630938 0.09351225
0.13713834 0.010432658 0.121444084 0.058808576 -0.031703632 -0.040840715 0.08125844 0.057258338
0.035487156 -0.099351585 0.0039414237 -0.1605042 0.05657687 -0.007878826 -0.068878315 0.11515975
0.02543396 0.079341546 -0.020552551 -0.03714518 0.07766707 0.23463222 -0.005640609 -0.16297798
-0.12316032 0.099048816 -0.06822239 -0.05376909 0.032494895 0.25575933 -0.013019922 0.14409417
00000000: 39dc 85bd 038e 263c 8f67 163e 5f7b 013e
00000010: 99d2 693d 5480 493b 43ed 67bd 9a98 d33d
00000020: e15b 34bc 7d8e b83d ebee fcbd b8ca ac3d
00000030: a445 803d 10f9 d43b 1176 dc3c 66ec fb3c
00000040: d8a9 b93d c534 e53c c5ac 3f3d 8f47 d5bd
00000050: d39f c53d 37b6 0bbd 3dde 09be 409b 7f3d
00000060: 1881 f1bd 7152 90bd 23b8 273e a543 003d
00000070: 1451 60bd 7190 81bc 4dd4 cb3a 7fe5 b53d
00000080: d6d4 e7bc a1d0 b33d ee18 1abc 39a4 09bb
00000090: 07a8 10bd 773c a83d 2c5d 3f3d 1507 993d
000000a0: 1f1f 363e 1a10 293d a386 2ebe b128 88bc
000000b0: 85c6 05be de77 d73c 6582 a13d 6254 dc3c
000000c0: 75f9 ec3d 03ad 943d f9e2 c5bc 53c8 423d
000000d0: 40cb 463d 682a d23d 3eab a83d ac15 a4bc
000000e0: de6f 9e3d c7d9 e53d 04f3 a3bd f55d fb3d
000000f0: 2f1c 2fbd f5fd 0a3d d70d c43d 48d3 8d3d
00000100: 1c58 0d3d 12ed 203e c702 5abc ac81 3cbc
00000110: 21e2 083d 309a d63d 1d88 ba3d c8e7 8b3e
00000120: 29b2 a4bd 3a82 173e 0495 87bd e013 1dbe
00000130: 23c7 1e3d f934 8c3b 27db 033e 90e7 1d3d
00000140: bc2c 433e b951 5d3e c2fd 0cbe 6ce1 ec3d
00000150: a2c9 373d 9afe 893e 4ac2 233d c518 2ebd
00000160: 111c 75bc e2b4 953d e365 a63d 96cb 1d3d
00000170: 3c20 2ebd be26 65bb 5d0a 01be aef6 04be
00000180: b688 5cbd 48b4 253d 4461 243d f7e8 283d
00000190: b26b 52bc fda5 97bd ec3a ccbd 6281 abbc
000001a0: eb67 3abd 5035 553d fb42 cd3d 7545 bd3d
000001b0: 31b4 10bd a1e0 bab8 f94b cbbc 2462 93bd
000001c0: 3849 4cbc 9d36 84bc c5f3 ccbd dfa2 df3c
000001d0: 13b3 35bc 0e67 9dbd 23ae 973d 0117 323d
000001e0: a34a 9d3d 0a77 dfbb 4f18 893d 54ea fc3d
000001f0: e05b bcbd d17c 44bd 53ef ebbd db18 4e3e
00000200: 1b6d 0ebe f47d 08be af05 513d 108e 84bd
00000210: dd4b 2a3d fb8d 053e 1f82 a93c 2947 17be
00000220: ebb7 1a3d b445 2c3e 1429 963d 1031 3ebe
00000230: 3644 8a3d fed1 293d d02b 123e e807 0a3e
00000240: f80e 993d 0e60 353c 4789 04bd d352 d33a
00000250: 8aa4 c63c fac8 303c 2734 793e cffb b53d
00000260: cddb 3b3e 4f80 8e3d 8cd6 68bd c7b0 0bbe
00000270: b973 9dbd 98ef c03c e8eb b83c f46f 09bd
00000280: 4096 16bc 3090 90bd b37e 98bd 01ca 9f3d
00000290: 2efe 01bc 139d c2bd 54aa 4cbe c87e 063d
000002a0: 24a9 3bbd f968 b0bd fe9d 4f3d ece3 debd
000002b0: 0016 3e3e f0bd c4bd 68d2 803d 376c 3a3e
000002c0: 6345 0e3e 47b2 51bd ede8 cd3d 7dcd 19be
000002d0: 882e 313d 9f46 78bd d71f 61bd 9ac2 d13d
000002e0: dd70 403e 1684 82bd b852 d13d d890 acbd
000002f0: 34de a6bd 19f0 cabd c20a e63c b722 063b
00000300: 8e26 9ebd 0954 d23d bfc6 cc3d 619f e63d
00000310: 486b e63b 28c7 2b3e d5c2 a53d 9963 16be
00000320: f83e febd 720d 2e3d 9a4b ce3d a784 263d
00000330: c3d9 e43d da53 6f3d 876d c0bc f6f5 e9bd
00000340: 3b03 00be d073 973c b66e a53d 75f5 8abc
00000350: a7f6 c8bd 2f84 8cbd 0500 3abd 8379 56bd
00000360: 75ab afbd f4c7 303d 278d 2fbd 0c3d 093e
00000370: b0a4 25bd 65de a43d 20d2 15be 5a83 bf3d
00000380: fe6d 0c3e bded 2a3c adb7 f83d 43e1 703d
00000390: abdb 01bd 9848 27bd d36a a63d b887 6a3d
000003a0: fb5a 113d d878 cbbd 0f27 813b 375b 24be
000003b0: 26bd 673d 3116 01bc 1310 8dbd e0d8 eb3d
000003c0: e15a d03c d27d a23d d35d a8bc 8b25 18bd
000003d0: ea0f 9f3d 6e43 703e dcd4 b8bb b3e3 26be
000003e0: 7a3b fcbd 1bda ca3d 2eb8 8bbd fa3c 5cbd
000003f0: 5e19 053d e3f2 823e 8351 55bc 6c8d 133e

network_body._body_endoder.seq_layers.2.bias f4 [128]
0.024566473 0.0127955405 0.028778292 0.038809497 0.02726 0.015758973 -0.0066996953 -0.0039074956
0.0013222967 0.019791218 0.033660505 0.005888111 0.030254511 0.028385172 0.004651234 -0.0031546485
0.03783873 0.019391729 -0.0074572694 0.008504432 0.036612354 0.018222917 0.024483478 0.009506916
0.03146588 0.024098543 0.014687223 -0.020616988 0.021104014 0.04027032 0.007990307 0.010523171
0.04742894 -0.005372011 0.020337548 0.028520012 0.01925542 0.016261788 0.044545293 -0.0012990534
-0.015870916 0.024730982 0.015379922 0.01615058 0.034129128 0.04843909 -0.0059157633 0.014611396
0.021562018 0.018784761 0.044381145 0.014413763 0.01045787 0.038624212 -0.00031091165 0.0143645685
-0.00048337295 -0.007328344 0.029915439 0.028308839 0.047763485 0.02561969 0.021387592 0.032148477
0.009200288 0.0071715857 0.017797265 0.031550094 0.026870502 0.017481722 0.019197937 0.02511756
0.026087044 -0.0012436142 0.03569878 -0.0010512614 0.039117575 0.0036752198 0.008099736 0.03396624
0.0042442153 0.00880536 0.016911214 0.03471736 0.028624812 0.012402994 0.026947435 -0.009838773
0.03628991 0.010608719 0.050221547 0.030163107 0.05196326 0.015018148 0.03356129 0.010938434
0.045721162 -0.00056492595 0.022958906 0.02322217 0.056230646 0.02141208 0.040355053 0.060759537
0.016336882 0.053783115 0.048129063 0.01656845 0.019339886 0.02191808 0.017529326 0.03378503
0.006210224 0.014958923 -0.009248196 -0.027600452 0.011930735 -0.0049983216 -0.00042593962 -0.0040622377
0.021889228 0.03496662 0.029625615 0.04514166 0.027942998 0.05102957 0.024790041 0.024010811
00000000: a13f c93c 63a4 513c 74c0 eb3c b5f6 1e3d
00000010: 5d50 df3c f618 813c 1e89 dbbb 730a 80bb
00000020: ea50 ad3a 3121 a23c 99df 093d 0ef1 c03b
00000030: 4fd8 f73c 0588 e83c 6169 983b 38be 4ebb
00000040: c9fc 1a3d 67db 9e3c 1c5c f4bb 2c56 0b3c
00000050: d6f6 153d 3a48 953c 9391 c83c e5c2 1b3c
00000060: 5ee2 003d 4f6a c53c aea2 703c f5e4 a8bc
00000070: 53e2 ac3c 7ef2 243d c7e9 023c 6169 2c3c
00000080: d944 423d b207 b0bb ee9a a63c cda2 e93c
00000090: 8bbd 9d3c 7137 853c 2075 363d 0045 aaba
000000a0: b903 82bc a198 ca3c 12fc 7b3c 394e 843c
000000b0: fcca 0b3d 1168 463d 05d9 c1bb a364 6f3c
000000c0: d4a2 b03c 80e2 993c 01c9 353d b427 6c3c
000000d0: 7c57 2b3c 6c34 1e3d db01 a3b9 5e59 6b3c
000000e0: 386d fdb9 9b22 f0bb 3911 f53c f0e7 e73c
000000f0: a5a3 433d 62e0 d13c 0835 af3c 1fae 033d
00000100: cebc 163c 9fff ea3b 92cb 913c ac3a 013d
00000110: 871f dc3c d435 8f3c fe44 9d3c 57c3 cd3c
00000120: 7fb4 d53c c500 a3ba e238 123d 7bca 89ba
00000130: c039 203d f5db 703b c1b4 043c 2f20 0b3d
00000140: 0f13 8b3b 5b44 103c 6389 8a3c ca33 0e3d
00000150: 957e ea3c ed35 4b3c dec0 dc3c ce32 21bc
00000160: bba4 143d 31d0 2d3c 1cb5 4d3d 9f18 f73c
00000170: 6dd7 543d ae0e 763c 9077 093d 1e37 333c
00000180: 1d46 3b3d 8a17 14ba 5114 bc3c 6c3c be3c
00000190: 1b52 663d 6368 af3c 574b 253d fede 783d
000001a0: edd4 853c af4b 5c3d fb22 453d 8fba 873c
000001b0: ae6e 9e3c 8c8d b33c a999 8f3c 2c62 0a3d
000001c0: 227f cb3b 4516 753c bf85 17bc 581a e2bc
000001d0: 2179 433c f6c8 a3bb a650 dfb9 851c 85bb
000001e0: 0a51 b33c 2939 0f3d 6bb1 f23c 76e6 383d
000001f0: b7e8 e43c 6204 513d 7c14 cb3c 52b2 c43c

action_model._discrete_distribution.branches.0.weight f4 [7, 128]
0.022753567 -0.027042286 -0.01841956 0.0060997726 0.027038034 -0.006081636 -0.006711564 0.004219089
-0.0037186332 -0.011408634 0.010135683 -0.0026474833 0.006619936 0.0024812133 0.0038338096 -0.0118604265
0.0150582725 0.016790478 -0.0027008706 -0.016176526 0.048267826 0.020627625 0.012016366 0.008943596
0.0057823122 0.013803891 -0.014750561 -0.016828787 0.024020512 0.0051407786 -0.0057848026 -0.017933164
0.022678006 -0.006279166 0.011624955 0.0071437513 -0.004984811 0.00529854 -0.017002203 0.0036975674
-0.0008766596 -0.0094974125 -0.005343932 0.006027808 -0.017383683 0.0018813225 0.001467005 -0.003352542
0.0007387372 0.006414977 0.031771787 -0.022919856 0.012599664 0.015733782 0.0074942713 -0.01818653
-0.020618582 -0.019769948 0.020455463 -0.020665206 0.021787478 0.022322532 -0.00760064 0.004945045
-0.007681779 -0.008486658 0.009640202 0.014069885 -0.027628506 0.0039363396 0.0014921799 -0.0016153379
-0.015900442 -0.013709507 0.017555442 0.027026657 0.020885848 0.016733885 -0.011947379 -0.004687078
0.0074853664 -0.020198995 -0.007340949 0.009661131 -0.009539622 -0.013013457 0.018543925 -0.009714824
0.03840325 -0.016050737 0.022549134 0.009613887 0.00017578725 -0.02700971 -0.010457095 -0.0041086758
0.024773804 -0.0075366953 0.023121366 -0.008715408 0.014682464 0.025144432 0.013108325 0.014954593
0.0045299428 0.010114643 0.0121462345 -0.014247217 -0.020307375 0.0233767 0.010097854 0.0011476559
0.0066201203 -0.01265533 0.015322289 -0.0069042617 0.0035870788 -0.0073137414 0.0068249893 -0.011824885
-0.005541375 0.019179042 0.017532185 0.009401228 0.009492113 0.032200992 0.010699872 0.0011906305
0.0035619352 0.018247651 -0.006929825 0.011455846 -0.0043246914 0.016976234 -0.0062189247 0.0009821472
0.0037005018 0.015464753 0.028912557 0.001023329 0.025127023 0.031736996 -0.013506563 0.007804843
0.021621253 0.026108503 0.011612317 -0.010193327 -0.001809634 0.019986494 0.008057174 -0.00091335
0.025943112 -0.013378541 -0.011142786 0.0021315077 0.0011573983 -0.009557396 -0.00681962 -0.009510886
0.019238643 -0.00022193223 0.007743824 -0.0048630633 -0.009476033 -0.0038021498 0.033494778 0.0013230062
-0.00846565 -0.004371754 -0.02645596 -0.0130149 0.007041009 0.028092956 0.0060217 0.008120295
0.004017412 -0.0031439494 -0.006174557 -0.019210963 0.039476603 0.0056873285 0.016983053 0.0022835801
-0.029751739 0.0119978795 -0.005353667 -0.017306307 0.015356681 0.01703303 0.0034229709 0.006962765
0.002152291 -0.018172983 -0.028844444 -0.006100058 -0.00537157 -0.005386981 0.017498342 0.006053298
-0.017753694 0.0059845042 -0.016025286 0.0032743912 0.0033968803 0.0028098829 0.0014704688 0.016881194
-0.011709461 0.019033391 -0.013270276 -0.0034934725 -0.008276432 0.002865837 0.006952344 -0.0124991555
-0.002862108 0.0026913637 0.009038605 -0.0013936962 0.010879018 -0.014577097 -0.026149929 0.0071695
0.0020846874 -0.028408883 -0.010905941 0.0038992388 0.023732074 0.0013212702 0.031781927 0.023210237
0.028145876 0.0041464623 -0.015533492 -0.014024462 0.0067983214 0.0057127797 0.007691721 0.00743561
0.0043187626 -0.014951102 -0.025578262 0.0040316666 -0.0005264092 -0.000561052 -0.0081691025 -0.010577485
-0.022720562 -0.005926624 0.01352511 0.019286487 -0.008877142 0.0046480475 0.008961081 0.008683284
00000000: b065 ba3c c987 ddbc 9ee4 96bc 9ae0 c73b
00000010: de7e dd3c 7648 c7bb aeec dbbb 4940 8a3b
00000020: 50b4 73bb 47eb 3abc 2310 263c 6681 2dbb
00000030: 0cec d83b da9b 223b a740 7b3b 3c52 42bc
00000040: f9b6 763c 2f8c 893c 1701 31bb a284 84bc
00000050: 7cb4 453d 44fb a83c 4be0 443c 2988 123c
00000060: 8d79 bd3b b729 623c 56ac 71bc 86dc 89bc
00000070: aac6 c43c fa73 a83b 718e bdbb 92e8 92bc
00000080: 3ac7 b93c 76c1 cdbb 9876 3e3c 2116 ea3b
00000090: a057 a3bb 609f ad3b 3448 8bbc e352 723b
000000a0: a1cf 65ba 099b 1bbc 271c afbb eb84 c53b
000000b0: 3a68 8ebc b596 f63a 8548 c03a 52b6 5bbb
000000c0: d0a7 413a ba34 d23b 2223 023d 6cc2 bbbc
000000d0: d26e 4e3c 22e4 803c 8192 f53b ebfb 94bc
000000e0: 4de8 a8bc 96f4 a1bc 3792 a73c 144a a9bc
000000f0: a77b b23c bedd b63c ca0e f9bb 0b0a a23b
00000100: 6fb7 fbbb a00b 0bbc f0f1 1d3c 6085 663c
00000110: 2d55 e2bc 69fc 803b 4095 c33a bfb9 d3ba
00000120: a541 82bc d79d 60bc 6ed0 8f3c 0267 dd3c
00000130: cc18 ab3c 8015 893c f1be 43bc 0f96 99bb
00000140: ce47 f53b 5d78 a5bc 588c f0bb b849 1e3c
00000150: 134c 1cbc 6536 55bc 6ee9 973c ed2a 1fbc
00000160: ba4c 1d3d d67c 83bc f6b8 b83c 9183 1d3c
00000170: 8853 3839 7843 ddbc 3c54 2bbc 12a2 86bb
00000180: 6ff2 ca3c 62f6 f6bb 0569 bd3c 12cb 0ebc
00000190: b88e 703c b2fb cd3c 4dc4 563c 1c04 753c
000001a0: ea6f 943b e3b7 253c 0001 473c 296d 69bc
000001b0: a75b a6bc 7e80 bf3c 7871 253c f16c 963a
000001c0: 98ed d83b 4d58 4fbc 570a 7b3c 253d e2bb
000001d0: 3215 6b3b 1ca8 efbb 29a4 df3b 2abd 41bc
000001e0: 6c94 b5bb 5e1d 9d3c a89f 8f3c 9c07 1a3c
000001f0: cf84 1b3c 30e5 033d 844e 2f3c ee0e 9c3a
00000200: 5b6f 693b 197c 953c 9613 e3bb 4db1 3b3c
00000210: 24b6 8dbb be11 8b3c 1fc8 cbbb 64bb 803a
00000220: 1e84 723b e05f 7d3c 07da ec3c 3921 863a
00000230: 30d7 cd3c a7fe 013d a24a 5dbc c5bf ff3b
00000240: 0e1f b13c 80e1 d53c 9641 3e3c ea01 27bc
00000250: 3e31 edba b7ba a33c 3d02 043c e26d 6fba
00000260: a686 d43c ab31 5bbc 3b90 36bc c4b0 0b3b
00000270: d8b3 973a a096 1cbc 1e77 dfbb 8cd3 1bbc
00000280: 5c9a 9d3c 7bb6 68b9 e7bf fd3b 555a 9fbb
00000290: 5d41 1bbc 7d2d 79bb d231 093d b968 ad3a
000002a0: 82b3 0abc ee40 8fbb 2bba d8bc 723c 55bc
000002b0: 44b8 e63b 3323 e63c ae51 c53b fc0a 053c
000002c0: 7fa4 833b b80a 4ebb f053 cabb 4f60 9dbc
000002d0: 38b2 213d c55c ba3b 0b20 8b3c 1ea8 153b
000002e0: ebb9 f3bc c192 443c d06d afbb f5c5 8dbc
000002f0: 979a 7b3c da88 8b3c ec53 603b e827 e43b
00000300: 730d 0d3b 82df 94bc 2f4b ecbc ffe2 c7bb
00000310: ff03 b0bb 4685 b0bb af58 8f3c be5a c63b
00000320: 3270 91bc a919 c43b 7647 83bc 2b97 563b
00000330: 329e 5e3b 0326 383b bfbc c03a 6e4a 8a3c
00000340: 0ad9 3fbc eaeb 9b3c 926b 59bc bef2 64bb
00000350: df99 07bc c4d0 3b3b 7dd0 e33b 42c9 4cbc
00000360: 3492 3bbb 9761 303b a816 143c afac b6ba
00000370: e93d 323c c7d4 6ebc 6038 d6bc 20ee ea3b
00000380: 409f 083b bfb9 e8bc d5ae 32bc 5f8a 7f3b
00000390: c469 c23c 792e ad3a c42d 023d 6523 be3c
000003a0: 2e92 e63c 0cdf 873b 3080 7ebc dbc6 65bc
000003b0: 74c4 de3b 4532 bb3b d50a fc3b 6ba6 f33b
000003c0: 6884 8d3b 78f5 74bc 8189 d1bc 121c 843b
000003d0: b9fe 09ba 9013 13ba b3d7 05bc 304d 2dbc
000003e0: 7920 babc 2034 c2bb 6c98 5d3c b2fe 9d3c
000003f0: 6f71 11bc a64e 983b 7fd1 123c 5544 0e3c

action_model._discrete_distribution.branches.0.bias f4 [7]
0.0019107987 0.0011463487 0.023389284 0.010400965 -0.0067672413 -0.00685569 -0.025944818
00000000: c473 fa3a 1441 963a e29a bf3c cf68 2a3c
00000010: bcbf ddbb b2a5 e0bb 3a8a d4bc

exp_avg f4 [128, 16]
-2.9773846e-05 -2.7997967e-06 1.0781808e-05 -2.5808878e-05 4.645176e-05 4.149521e-05 4.900439e-05 -3.9847677e-05
-2.7997967e-06 3.277672e-06 -2.1127586e-05 -6.4799533e-06 2.9785442e-05 -3.325224e-05 0.0 1.7193754e-05
-0.0004499988 3.3349857e-05 8.2864935e-05 -0.00014555063 0.0003677271 0.00016848028 0.00049558503 -0.00044486977
3.3349857e-05 0.00016441908 -7.1927265e-05 0.00021359509 0.0002483684 6.123171e-05 0.0 0.0003442689
-3.3463526e-05 -4.0603504e-06 -0.00015578342 -9.123315e-06 -0.00020780104 7.541501e-05 -0.00033611807 -2.0269525e-05
-4.0603504e-06 -0.00031976955 1.6431359e-05 -5.5880304e-05 -0.00013090795 5.511409e-05 0.0 -7.106863e-05
-8.048255e-05 -1.0688098e-06 9.4678e-05 -8.3677856e-05 0.00016332256 -3.052552e-05 7.677708e-05 -0.0001321857
-1.0688098e-06 0.000112189155 -0.00011153921 7.2981755e-05 0.00015439096 -0.00017483607 0.0 -6.253531e-05
-1.1924622e-05 7.888235e-06 4.692752e-06 2.7478834e-06 -0.00010005214 -8.121879e-05 -0.00027574145 3.7169935e-05
7.888235e-06 -5.35644e-05 2.2458844e-05 -3.4559616e-05 -6.3088475e-05 0.00013792522 0.0 -6.51742e-05
-0.00019551319 -8.565066e-07 4.9951097e-05 -4.036961e-05 5.3991185e-05 2.1286045e-05 1.437338e-05 -0.00018961681
-8.565066e-07 3.0344312e-05 -4.5727225e-05 1.9838992e-05 6.974808e-05 5.061862e-05 0.0 5.4631888e-05
-0.00020411739 -1.1061113e-08 -3.3697906e-05 -5.7264297e-05 2.0651889e-05 6.544533e-05 -7.519852e-06 -0.00018213654
-1.1061113e-08 -4.2264375e-05 2.5982774e-05 -1.4213853e-05 -2.5590482e-05 7.624219e-05 0.0 0.00013433334
2.0885858e-05 -2.2731808e-06 5.5984478e-05 -6.916381e-05 0.00010061692 -4.0287137e-05 3.0190457e-05 -5.9178725e-05
-2.2731808e-06 3.7948783e-05 -9.2864175e-05 2.0859201e-05 2.8776021e-05 -0.00016248925 0.0 -7.7737015e-05
-0.00028124254 1.9215695e-05 5.4716573e-05 -0.00011807391 1.021435e-05 0.00015442805 4.0344577e-05 -0.00023791371
1.9215695e-05 -1.1612391e-05 -2.5241165e-05 4.342875e-05 -3.7306276e-05 0.00011859354 0.0 7.7551405e-05
1.7420913e-05 -4.161508e-07 2.3192226e-05 -8.572019e-06 9.220046e-05 -7.863374e-05 2.5745223e-05 -1.3054225e-05
-4.161508e-07 4.347871e-05 -4.202391e-05 2.3245142e-05 4.677096e-05 -6.0110022e-05 0.0 2.1282513e-05
-4.7865637e-05 1.1816361e-05 0.0001634303 -9.12435e-06 0.00013995067 -3.9529703e-05 6.939946e-05 -9.612255e-06
1.1816361e-05 0.00022045574 -3.3072502e-06 7.8448415e-05 6.269351e-05 0.00011783104 0.0 0.00012392017
0.00013297776 1.896163e-06 -1.1539273e-06 1.0441536e-06 -1.6591568e-05 -0.00018581309 -0.0001540889 -1.7389948e-05
1.896163e-06 -5.1151237e-05 -0.00010868383 1.4287567e-05 -2.1107031e-05 -0.0003925805 0.0 -0.00027791335
-1.05179915e-05 -2.0136205e-05 3.363473e-05 -3.3152792e-06 -0.00015661202 3.8450926e-05 -0.000131965 -1.331151e-05
-2.0136205e-05 -3.7175705e-05 7.978945e-06 -9.345198e-05 9.593789e-06 8.858992e-05 0.0 -9.230711e-05
-0.00016865444 6.114657e-06 3.489452e-05 -7.202876e-05 0.0002451332 0.00019526255 0.00027787237 -0.00017290482
6.114657e-06 6.525506e-05 -9.176858e-05 0.00016421458 0.000217697 -7.72717e-05 0.0 2.5548841e-05
-1.3115664e-06 -3.248499e-05 4.657836e-05 -4.2609427e-05 7.377095e-05 0.00014615204 0.000105050676 -7.5120333e-06
-3.248499e-05 -5.600788e-05 -5.6420162e-05 2.0480747e-05 0.000120514014 3.347908e-05 0.0 -0.00014568245
-0.00013445634 -1.9214918e-05 8.513454e-05 -2.8179653e-05 6.877236e-05 4.5409444e-05 8.089129e-05 -0.00014385828
-1.9214918e-05 9.659879e-05 -3.376389e-05 2.6618845e-05 8.704942e-05 -1.795276e-05 0.0 8.256278e-05
00000000: d9c2 f9b7 24e4 3bb6 83e3 3437 2580 d8b7
00000010: 33d5 4238 240b 2e38 108a 4d38 1e22 27b8
00000020: 24e4 3bb6 faf5 5b36 253b b1b7 606e d9b6
00000030: c0db f937 5278 0bb8 0000 0000 4e3b 9037
00000040: d1ed ebb9 23e1 0b38 c6c7 ad38 f39e 18b9
00000050: 7fcb c039 15aa 3039 26ea 013a 693d e9b9
00000060: 23e1 0b38 e967 2c39 a8d7 96b8 7ff8 5f39
00000070: 7137 8239 8669 8038 0000 0000 fd7e b439
00000080: 305b 0cb8 253e 88b6 cb59 23b9 5710 19b7
00000090: 2be5 59b9 2028 9e38 0139 b0b9 7908 aab7
000000a0: 253e 88b6 bea6 a7b9 13d6 8937 0561 6ab8
000000b0: 5644 09b9 4e2a 6738 0000 0000 ae0a 95b8
000000c0: bdc8 a8b8 0674 8fb5 dd8d c638 357c afb8
000000d0: 9141 2b39 8708 00b8 6203 a138 549b 0ab9
000000e0: 0674 8fb5 1847 eb38 28ea e9b8 c80d 9938
000000f0: 02e4 2139 3354 37b9 0000 0000 6425 83b8
00000100: dd0f 48b7 b657 0437 6f76 9d36 4768 3836
00000110: 15d3 d1b8 0154 aab8 6491 90b9 eae6 1b38
00000120: b657 0437 56aa 60b8 0066 bc37 1bf4 10b8
00000130: 5e4e 84b8 05a0 1039 0000 0000 22ae 88b8
00000140: ac02 4db9 afea 65b5 9582 5138 8a52 29b8
00000150: 9874 6238 6f8f b237 3225 7137 e0d3 46b9
00000160: afea 65b5 ea8b fe37 3ccb 3fb8 e96b a637
00000170: b745 9238 544f 5438 0000 0000 8b24 6538
00000180: 5808 56b9 4a07 3eb2 da56 0db8 122f 70b8
00000190: 983d ad37 b23f 8938 0953 fcb6 e8fb 3eb9
000001a0: 4a07 3eb2 0745 31b8 95f5 d937 0978 6eb7
000001b0: 24ab d6b7 37e4 9f38 0000 0000 d5db 0c39
000001c0: 0a34 af37 f38c 18b6 e0d0 6a38 0a0c 91b8
000001d0: 4c02 d338 fcf9 28b8 8341 fd37 ac36 78b8
000001e0: f38c 18b6 322b 1f38 13c0 c2b8 cbfa ae37
000001f0: 0964 f137 e061 2ab9 0000 0000 be06 a3b8
00000200: bc73 93b9 6431 a137 797f 6538 739e f7b8
00000210: 4d5e 2b37 f7ed 2139 a937 2938 7a78 79b9
00000220: 6431 a137 d7d2 42b7 fdbc d3b7 4427 3638
00000230: 4f79 1cb8 6cb5 f838 0000 0000 18a3 a238
00000240: 2023 9237 556b dfb4 ed8c c237 8bd0 0fb7
00000250: bf5b c138 2be8 a4b8 72f7 d737 7803 5bb7
00000260: 556b dfb4 e95c 3638 d442 30b8 90fe c237
00000270: f02b 4438 a51e 7cb8 0000 0000 d987 b237
00000280: 56c3 48b8 e23e 4637 7d5e 2b39 c914 19b7
00000290: b9bf 1239 b2cc 25b8 8d8a 9138 5244 21b7
000002a0: e23e 4637 232a 6739 20f2 5db6 ac84 a438
000002b0: 527a 8338 0f1c f738 0000 0000 91f0 0139
000002c0: f26f 0b39 aa7f fe35 a4e0 9ab5 d824 8c35
000002d0: 1f2e 8bb7 d2d6 42b9 ed92 21b9 a1e0 91b7
000002e0: aa7f fe35 398b 56b8 30ed e3b8 a2b4 6f37
000002f0: 010f b1b7 43d3 cdb9 0000 0000 e6b4 91b9
00000300: 6e76 30b7 2cea a8b7 0413 0d38 107c 5eb6
00000310: 3838 24b9 5e46 2138 1660 0ab9 8054 5fb7
00000320: 2cea a8b7 1ced 1bb8 4fdd 0537 a6fb c3b8
00000330: 03f5 2037 5ac9 b938 0000 0000 0195 c1b8
00000340: d5d8 30b9 812c cd36 b55b 1238 250e 97b8
00000350: 3985 8039 64bf 4c39 66af 9139 c94d 35b9
00000360: 812c cd36 8bd9 8838 e273 c0b8 0431 2c39
00000370: 9845 6439 ee0c a2b8 0000 0000 b851 d637
00000380: 1409 b0b5 7e40 08b8 225d 4338 86b7 32b8
00000390: 7ab5 9a38 6440 1939 a74e dc38 e00f fcb6
000003a0: 7e40 08b8 01ea 6ab8 b0a4 6cb8 12ce ab37
000003b0: 78bc fc38 e36b 0c38 0000 0000 56c2 18b9
000003c0: d9fc 0cb9 b92f a1b7 428a b238 5863 ecb7
000003d0: e139 9038 0576 3e38 2ea4 a938 aad8 16b9
000003e0: b92f a1b7 1595 ca38 b39d 0db8 894b df37
000003f0: 4d8e b638 4299 96b7 0000 0000 8e25 ad38

exp_avg_sq f4 [128, 16]
5.1011106e-09 1.3584078e-11 3.2279468e-09 5.802667e-09 4.185618e-09 3.6990198e-09 3.0596605e-09 6.438507e-09
1.3584078e-11 4.5863633e-09 4.310263e-09 2.1458424e-09 3.0226468e-09 3.1630996e-09 0.0 4.2269432e-09
1.1370114e-07 1.0917764e-09 9.81952e-08 1.4513834e-07 1.0167777e-07 1.1026052e-07 1.0299313e-07 1.5156512e-07
1.0917764e-09 1.419559e-07 6.6207946e-08 4.4470053e-08 7.8851926e-08 1.5162135e-07 0.0 1.1145418e-07
3.137292e-08 2.1746507e-10 3.503462e-08 3.869492e-08 2.637445e-08 3.8119694e-08 3.7844888e-08 3.964693e-08
2.1746507e-10 5.1032746e-08 1.5977e-08 1.0632497e-08 2.1074792e-08 4.2641346e-08 0.0 2.9478786e-08
5.5848473e-09 8.848188e-11 4.276379e-09 2.0649014e-09 4.888068e-09 4.5357953e-09 3.895199e-09 7.213737e-09
8.848188e-11 6.050329e-09 2.5643334e-09 2.3827254e-09 4.58873e-09 6.359944e-09 0.0 4.74866e-09
1.4279383e-08 1.8707758e-10 1.5149142e-08 1.4399651e-08 1.0125265e-08 1.6601936e-08 1.9385151e-08 1.6328638e-08
1.8707758e-10 1.7918499e-08 1.0606328e-08 7.6804705e-09 8.981101e-09 2.0011685e-08 0.0 1.3010575e-08
9.154031e-09 1.8533301e-10 8.076987e-09 9.396113e-09 6.6357457e-09 6.969985e-09 7.1701076e-09 9.620319e-09
1.8533301e-10 1.0919597e-08 4.61423e-09 3.2751526e-09 4.4879234e-09 1.0090032e-08 0.0 6.8440436e-09
2.1069667e-08 1.0083026e-11 1.4342304e-08 2.5875199e-08 1.6445137e-08 2.1482093e-08 1.6984563e-08 2.6451572e-08
1.0083026e-11 2.1302663e-08 1.544606e-08 9.409653e-09 1.276271e-08 2.355237e-08 0.0 1.5772077e-08
5.3939413e-09 1.8102495e-11 4.642989e-09 3.8320622e-09 4.625281e-09 4.6787423e-09 3.6441028e-09 5.6164113e-09
1.8102495e-11 6.3829324e-09 3.2060006e-09 2.820493e-09 3.8028722e-09 7.798075e-09 0.0 4.6148125e-09
1.8535474e-08 1.8666742e-10 1.5500147e-08 1.3758013e-08 1.3504014e-08 1.5856296e-08 1.538191e-08 2.1775291e-08
1.8666742e-10 2.0120492e-08 1.2226683e-08 6.4386816e-09 1.0790493e-08 1.8628302e-08 0.0 1.6257527e-08
4.0021386e-09 2.0888738e-10 3.0642122e-09 8.148064e-09 3.2802654e-09 3.6010088e-09 3.4848553e-09 4.282523e-09
2.0888738e-10 4.462546e-09 4.856226e-09 4.1163135e-09 2.3913558e-09 3.992771e-09 0.0 3.553513e-09
1.25864235e-08 2.6111402e-10 1.2679919e-08 1.6246545e-08 1.2306976e-08 1.752648e-08 1.2444584e-08 1.5635079e-08
2.6111402e-10 1.793141e-08 1.0741063e-08 8.551395e-09 8.786775e-09 2.2052049e-08 0.0 1.4168221e-08
4.2243453e-08 3.1320918e-10 5.0690797e-08 3.9439094e-08 4.20628e-08 6.097145e-08 5.0199176e-08 5.2180116e-08
3.1320918e-10 6.726998e-08 4.0002355e-08 2.126738e-08 3.6049176e-08 8.534445e-08 0.0 4.370866e-08
4.244015e-08 5.21622e-10 3.374668e-08 1.3922177e-07 3.414711e-08 4.5680896e-08 3.3964138e-08 5.6456653e-08
5.21622e-10 4.9379413e-08 2.4541777e-08 4.607806e-08 2.4356122e-08 5.515509e-08 0.0 4.2059607e-08
3.0346193e-08 4.253535e-10 2.2287162e-08 1.9373745e-08 2.9757423e-08 3.6626226e-08 2.8190081e-08 3.9511022e-08
4.253535e-10 3.6388684e-08 1.5300971e-08 2.043924e-08 2.516663e-08 3.6777287e-08 0.0 3.184373e-08
1.4710802e-08 6.1267913e-10 1.6664504e-08 1.9617419e-08 1.1818983e-08 1.4316738e-08 1.2919681e-08 1.773004e-08
6.1267913e-10 2.0558566e-08 1.2537743e-08 6.552059e-09 8.828222e-09 2.1220734e-08 0.0 1.6928807e-08
4.837084e-09 2.1531356e-10 4.9479922e-09 5.6610494e-09 4.8461755e-09 4.457297e-09 4.6467727e-09 5.5956666e-09
2.1531356e-10 4.7531117e-09 2.8280003e-09 1.8016685e-09 3.4309091e-09 5.6075655e-09 0.0 5.0848117e-09
00000000: d845 af31 40f9 6e2d a4d2 5d31 cc60 c731
00000010: 16d1 8f31 d831 7e31 1e42 5231 b539 dd31
00000020: 40f9 6e2d 1496 9d31 7919 9431 0f76 1331
00000030: f7b6 4f31 d65d 5931 0000 0000 963c 9131
00000040: dd2b f433 780d 9630 62df d233 53d7 1b34
00000050: f259 da33 5dc8 ec33 122d dd33 e7bd 2234
00000060: 780d 9630 8a6c 1834 342e 8e33 57ff 3e33
00000070: 4e55 a933 5ccd 2234 0000 0000 9558 ef33
00000080: e4be 0633 fa1a 6f2f f978 1633 8431 2633
00000090: 078e e232 0cb9 2333 e58a 2233 4348 2a33
000000a0: fa1a 6f2f 192f 5b33 cb3d 8932 37aa 3632
000000b0: f507 b532 a824 3733 0000 0000 8938 fd32
000000c0: d6e4 bf31 df92 c22e 6def 9231 21e6 0d31
000000d0: e7f3 a731 47d9 9b31 88d6 8531 b4dc f731
000000e0: df92 c22e 42e3 cf31 3b38 3031 59bd 2331
000000f0: e5aa 9d31 a986 da31 0000 0000 a829 a331
00000100: 6451 7532 a8b1 4d2f 5121 8232 5662 7732
00000110: 63f3 2d32 0b9c 8e32 6684 a632 0e43 8c32
00000120: a8b1 4d2f 32eb 9932 2037 3632 11f3 0332
00000130: 4d4b 1a32 29e6 ab32 0000 0000 1d85 5f32
00000140: db43 1d32 9bc6 4b2f f7c2 0a32 8b6c 2132
00000150: a300 e431 a37c ef31 ef5c f631 9c46 2532
00000160: 9bc6 4b2f e598 3b32 328b 9e31 1811 6131
00000170: 3134 9a31 6e58 2d32 0000 0000 d828 eb31
00000180: b0fc b432 ea61 312d 1f66 7632 2a44 de32
00000190: 3d43 8d32 9f87 b832 73e5 9132 9f37 e332
000001a0: ea61 312d 0dfd b632 3fae 8432 17a8 2132
000001b0: fe42 5b32 3650 ca32 0000 0000 2a7b 8732
000001c0: 9c55 b931 323b 9f2d 2a88 9f31 2dab 8331
000001d0: 67ec 9e31 a7c2 a031 bc6b 7a31 7afa c031
000001e0: 323b 9f2d de50 db31 8f50 5c31 a3d2 4131
000001f0: 6baa 8231 4cf8 0532 0000 0000 5290 9e31
00000200: f037 9f32 353e 4d2f 2f25 8532 625c 6c32
00000210: 48ff 6732 5d34 8832 2e21 8432 5f0c bb32
00000220: 353e 4d2f 6ed5 ac32 850d 5232 3e3b dd31
00000230: 1761 3932 1204 a032 0000 0000 aea6 8b32
00000240: 2f83 8931 92ac 652f 3192 5231 90fb 0b32
00000250: 0a6b 6131 9e75 7731 397a 6f31 7825 9331
00000260: 92ac 652f f854 9931 d1db a631 7a6f 8d31
00000270: 2d55 2431 c930 8931 0000 0000 1032 7431
00000280: ad3b 5832 888c 8f2f e0d6 5932 888e 8b32
00000290: a76e 5332 238d 9632 dccb 5532 e74d 8632
000002a0: 888c 8f2f 9607 9a32 b287 3832 6fe9 1232
000002b0: a5f4 1632 f86c bd32 0000 0000 7f68 7332
000002c0: 2b6f 3533 4630 ac2f 1fb7 5933 be63 2933
000002d0: 8aa8 3433 69ef 8233 949a 5733 a51c 6033
000002e0: 4630 ac2f 1076 9033 0ecf 2b33 77af b632
000002f0: 7dd4 1a33 9c46 b733 0000 0000 2eba 3b33
00000300: 7047 3633 e361 0f30 def0 1033 fd7c 1534
00000310: 25a9 1233 ad32 4433 f7df 1133 bf7a 7233
00000320: e361 0f30 3d15 5433 f0cf d232 5de7 4533
00000330: ae37 d132 aae3 6c33 0000 0000 07a5 3433
00000340: fe55 0233 2fd7 e92f fd71 bf32 516b a632
00000350: 449d ff32 f64e 1d33 a526 f232 d4b2 2933
00000360: 2fd7 e92f c849 1c33 316f 8332 5d92 af32
00000370: 012e d832 0ef5 1d33 0000 0000 8dc4 0833
00000380: cbba 7c32 7669 2830 a225 8f32 2983 a832
00000390: 700c 4b32 aef5 7532 5cf5 5d32 c54c 9832
000003a0: 7669 2830 c498 b032 9465 5732 8520 e131
000003b0: eeaa 1732 e348 b632 0000 0000 d76a 9132
000003c0: 7133 a631 61bd 6c2f 0003 aa31 1e83 c231
000003d0: 6983 a631 cd26 9931 72a9 9f31 0144 c031
000003e0: 61bd 6c2f d050 a331 b556 4231 939e f730
000003f0: 31c5 6b31 abac c031 0000 0000 7ab6 ae31

exp_avg f4 [128]
-4.4996395e-05 -0.00016283449 3.378553e-05 -0.00023835948 4.0151415e-05 -9.879118e-05 5.2213454e-05 -0.00019854274
-5.4496162e-05 -8.528216e-05 -1.8052178e-05 -0.00022541842 1.74636e-05 -0.00019810174 -0.000116637304 -7.609047e-05
6.340196e-05 -7.4550546e-05 -0.00029905594 1.8669736e-05 -2.5052823e-05 -5.545369e-05 -1.49657e-05 7.2303475e-05
-0.0001782 -0.000100501915 -0.00024398511 -2.838579e-05 -2.3096723e-06 -0.00018060447 -8.050182e-06 -8.787698e-05
-0.00040739847 -0.00014842824 -0.00026339613 -0.000225486 2.7230546e-05 -0.00018963001 -6.4590495e-05 -0.00010435168
-0.000197367 -8.665878e-05 -0.00010724264 6.5284253e-06 -1.8038221e-05 -4.970314e-05 -0.00011049421 0.00010441842
-2.3075885e-05 -0.00026559725 7.0905364e-05 -0.00016001321 -0.00010063258 -0.00020372398 2.2363807e-05 9.2206596e-05
-0.00011188509 -0.00021241048 0.00016244377 -2.5356452e-05 -7.016418e-05 -0.00024839301 -1.9441852e-05 -0.00015138424
-9.486529e-05 -9.632489e-05 -0.00010080458 -8.949727e-05 0.0001739359 -7.710602e-05 -0.000107885586 -6.9550726e-05
-0.00024103506 -0.00026111395 -2.7873835e-05 -9.7079155e-06 -5.9607304e-05 2.76399e-05 1.5295976e-05 -9.4536745e-06
-0.00015804924 -0.00019319703 -0.00023900968 -0.0002868551 -0.00018509396 -0.00041481332 7.465669e-05 -0.00021452834
9.504527e-06 -0.00033743496 4.4554363e-05 0.00012417666 -0.00028003048 0.00010539215 -1.4886988e-05 -0.0001359311
-0.00012587986 6.545475e-06 2.5907668e-05 -0.0002052336 -0.00022720237 9.084909e-05 2.7017612e-05 -0.000106371444
-0.00018835215 -0.00016155904 -8.362342e-05 -0.0002078755 3.6388898e-05 -4.059403e-05 -0.00015170487 -0.00012290811
-7.4558535e-05 -0.0003088529 -0.00010188899 -0.00022455263 0.00010418841 0.00011586748 -4.050827e-05 -3.9373215e-05
3.177951e-05 -9.397059e-05 -0.00010629127 6.818183e-05 -0.00017252643 -9.881667e-05 -2.0343843e-05 2.3231646e-06
00000000: 83ba 3cb8 8dbe 2ab9 f0b4 0d38 23f0 79b9
00000010: 4168 2838 1c2e cfb8 c5ff 5a38 e92f 50b9
00000020: cf92 64b8 83d9 b2b8 c26e 97b7 4c5e 6cb9
00000030: cc7e 9237 88b9 4fb9 2d9b f4b8 c392 9fb8
00000040: abf6 8438 0558 9cb8 9cca 9cb9 f49c 9c37
00000050: 8728 d2b7 f296 68b8 3115 7bb7 a2a1 9738
00000060: 33db 3ab9 8ec4 d2b8 41d6 7fb9 051e eeb7
00000070: deff 1ab6 a560 3db9 450f 07b7 984a b8b8
00000080: 1998 d5b9 67a3 1bb9 6e18 8ab9 7070 6cb9
00000090: 276d e437 6bd7 46b9 c274 87b8 62d7 dab8
000000a0: 4df4 4eb9 94bc b5b8 74e7 e0b8 bf0e db36
000000b0: c950 97b7 5778 50b8 21b9 e7b8 36fb da38
000000c0: 1693 c1b7 dc3f 8bb9 07b3 9438 38c9 27b9
000000d0: b40a d3b8 bd9e 55b9 e999 bb37 0a5f c138
000000e0: daa3 eab8 81ba 5eb9 ab55 2a39 91b4 d4b7
000000f0: 1b25 93b8 bf3a 82b9 0f17 a3b7 e6bc 1eb9
00000100: 6af2 c6b8 0802 cab8 0c67 d3b8 7bb0 bbb8
00000110: 9062 3639 fbb3 a1b8 a240 e2b8 c3db 91b8
00000120: 5bbe 7cb9 1fe6 88b9 9bd2 e9b7 2edf 22b7
00000130: db02 7ab8 3cdc e737 dc4f 8037 399b 1eb7
00000140: 05ba 25b9 ef94 4ab9 ac9e 7ab9 0a65 96b9
00000150: c815 42b9 4d7b d9b9 0191 9c38 03f3 60b9
00000160: a275 1f37 c1e9 b0b9 e2df 3a38 6b35 0239
00000170: 0ed1 92b9 fb05 dd38 20c3 79b7 ba88 0eb9
00000180: 9efe 03b9 34a1 db36 4b54 d937 fa33 57b9
00000190: 2c3d 6eb9 3c86 be38 e1a3 e237 bc13 dfb8
000001a0: 6580 45b9 2d68 29b9 fb5e afb8 28f9 59b9
000001b0: 48a0 1838 8243 2ab8 f712 1fb9 e5e0 00b9
000001c0: 4f5c 9cb8 89ed a1b9 3cad d5b8 e375 6bb9
000001d0: ba7f da38 e1fd f238 6ce7 29b8 ab24 25b8
000001e0: fd4a 0538 1412 c5b8 b1e8 deb8 d7fc 8e38
000001f0: 36e8 34b9 cc3b cfb8 12a8 aab7 aae7 1b36

exp_avg_sq f4 [128]
5.4226765e-09 1.15721996e-07 3.989748e-08 8.118377e-09 1.6197735e-08 9.258995e-09 2.1827782e-08 7.388384e-09
1.629187e-08 4.423037e-09 1.28659465e-08 6.085079e-08 4.9636487e-08 3.6929066e-08 1.9925826e-08 4.3344173e-09
7.910547e-09 2.5537053e-08 4.65956e-08 2.5346743e-08 4.640047e-09 5.4248943e-08 1.3058436e-08 2.252509e-08
1.573776e-08 3.259555e-08 2.341046e-08 7.061049e-08 1.4849059e-08 5.6053075e-08 2.8770181e-08 4.1223142e-08
5.106322e-08 1.650029e-08 1.4919697e-08 8.0608515e-08 5.9596267e-08 2.3333367e-08 2.8388936e-08 2.5116279e-08
6.2448734e-08 5.920957e-08 2.0697831e-08 2.31983e-08 3.4569204e-08 7.091306e-09 2.7383882e-08 8.471148e-09
2.7791272e-09 5.976183e-08 2.507979e-08 5.6653302e-08 1.4072581e-08 3.2304992e-08 2.404984e-08 1.2877805e-08
9.843363e-08 2.9308575e-07 6.7931936e-08 7.490478e-09 3.2381767e-08 3.4795388e-08 8.906032e-09 2.0904942e-08
1.765642e-08 1.5727569e-08 1.1080308e-08 1.06711555e-08 1.895526e-08 2.0521863e-08 8.5878815e-09 5.3381214e-08
5.4924147e-08 9.002799e-08 2.6285978e-08 9.6911364e-08 3.8519165e-08 4.475105e-08 4.3041933e-08 4.3010795e-09
5.7730595e-08 2.5578366e-08 4.681285e-08 2.819985e-08 1.0915626e-07 9.589789e-08 1.5048743e-08 1.6278136e-08
3.2690007e-08 5.7295996e-08 1.4909709e-07 1.266121e-08 1.56245e-07 3.488317e-08 4.6795305e-09 2.9749529e-08
3.3534832e-08 9.676507e-09 2.680248e-08 2.6452685e-08 1.0815734e-08 1.1755267e-08 6.410349e-09 7.372484e-08
1.045287e-07 2.130655e-08 3.2821006e-08 1.254469e-08 3.454843e-08 2.1457048e-08 6.527224e-08 6.05959e-08
6.084641e-08 1.6161297e-07 1.425723e-08 8.7585256e-08 5.5405124e-08 1.7537063e-08 6.5593664e-09 5.6288673e-08
4.6879793e-09 1.5000591e-08 3.0878653e-08 6.4669976e-08 3.0024598e-08 1.0628336e-08 1.9941396e-08 6.79076e-08
00000000: 5e52 ba31 d782 f833 be5b 2b33 0079 0b32
00000010: 3223 8b32 7e11 1f32 cd7f bb32 eadc fd31
00000020: 33f2 8b32 72f9 9731 0809 5d32 13ad 8233
00000030: e52f 5533 f09b 1e33 5b29 ab32 f0ed 9431
00000040: f4e6 0732 935c db32 6720 4833 14ba d932
00000050: 496e 9f31 58ff 6833 9c57 6032 327d c132
00000060: b32f 8732 30ff 0b33 2518 c932 87a2 9733
00000070: da1a 7f32 02bf 7033 4c22 f732 530d 3133
00000080: 9b50 5b33 85bc 8d32 c328 8032 001b ad33
00000090: caf6 7f33 9e6e c832 eedb f332 48bf d732
000000a0: 8e1b 8633 9c4d 7e33 03cb b132 9a45 c732
000000b0: 3e79 1433 caa7 f331 cb39 eb32 8188 1132
000000c0: ecfa 3e31 6a56 8033 0b6f d732 f752 7333
000000d0: dec3 7132 b7bf 0a33 2896 ce32 2f3d 5d32
000000e0: 7662 d333 6659 9d34 fae1 9133 78af 0032
000000f0: 2114 0b33 ef71 1533 2501 1932 7492 b332
00000100: e1aa 9732 4a19 8732 b65b 3e32 3d54 3732
00000110: 0fd3 a232 0e48 b032 e789 1332 4445 6533
00000120: bde5 6b33 6955 c133 7acb e132 961d d033
00000130: 4570 2533 4d34 4033 1bdd 3833 b2c8 9331
00000140: 76f3 7733 6cb7 db32 460f 4933 203c f232
00000150: 4a69 ea33 6cf0 cd33 8944 8132 00d4 8b32
00000160: 0b67 0c33 9d15 7633 7f17 2034 9784 5932
00000170: 4cc4 2734 73d2 1533 96c9 a031 e88b ff32
00000180: f007 1033 ba3d 2632 473b e632 123a e332
00000190: 1ad0 3932 36f4 4932 0742 dc31 a952 9e33
000001a0: 4379 e033 9905 b732 14f7 0c33 2184 5732
000001b0: 6762 1433 8c50 b832 cb2b 8c33 f320 8233
000001c0: abaa 8233 d687 2d34 f6ef 7432 8116 bc33
000001d0: 94f6 6d33 69a4 9632 cc60 e131 0dc2 7133
000001e0: e713 a131 a6da 8032 709f 0433 b2e0 8a33
000001f0: 65f4 0033 eb97 3632 984b ab32 99d4 9133
